results/fifth/Car/Car-8499998.onnx (onnx, 96598 bytes, 9 tensors)

53 f4 [52]
0.15620494 0.15620051 0.000685994 0.2018945 0.14290415 0.14291683 0.0009074825 0.20246038
0.16839503 0.16842243 0.000766963 0.20331429 0.13942638 0.13943723 0.0010846447 0.20176494
0.19524503 0.19526838 0.00048507124 0.20304503 0.14513455 0.14515351 0.0012366922 0.2038244
0.22451168 0.22453222 0.0006859939 0.20165938 0.15679903 0.15681005 0.0009701398 0.20893629
0.23139603 0.23141092 0.00090748485 0.19996794 0.19007687 0.19008914 0.00068599347 0.21584284
0.2312605 0.23127413 0.00059408473 0.19811538 0.24923612 0.24923812 0.0006859937 0.22026783
0.23893353 0.23894282 0.00048507124 0.1975031
00000000: 30f4 1f3e 07f3 1f3e 47d4 333a 6fbd 4e3e
00000010: 7755 123e ca58 123e 1fe4 6d3a c651 4f3e
00000020: bf6f 2c3e ee76 2c3e 040e 493a 9f31 503e
00000030: cac5 0e3e a2c8 0e3e a32a 8e3a 789b 4e3e
00000040: 50ee 473e 6ff4 473e 2951 fe39 09eb 4f3e
00000050: 279e 143e 1fa3 143e 8118 a23a 58b7 503e
00000060: 64e6 653e c6eb 653e 45d4 333a cc7f 4e3e
00000070: ed8f 203e d092 203e fb50 7e3a 65f3 553e
00000080: 15f3 6c3e fcf6 6c3e 47e4 6d3a 65c4 4c3e
00000090: 83a3 423e baa6 423e 3ed4 333a e805 5d3e
000000a0: 8dcf 6c3e 20d3 6c3e 5abc 1b3a c2de 4a3e
000000b0: c137 7f3e 4738 7f3e 42d4 333a e48d 613e
000000c0: feaa 743e 6dad 743e 2951 fe39 413e 4a3e

54 f4 [1, 2]
-2.0587993 -1.9585729
00000000: 5ec3 03c0 84b2 fabf

distribution.mu.bias f4 [2]
-0.018224614 0.20597623
00000000: c94b 95bc 6feb 523e

distribution.mu.weight f4 [2, 128]
-0.11388163 -0.030937098 -0.059069462 -0.019945906 -0.07145747 -0.041628998 0.097938344 0.038140573
0.101862244 -0.023142964 -0.077759095 0.028605726 -0.020425685 0.09604014 0.012629081 0.13490804
0.03904135 -0.020596158 0.026293496 0.00861962 0.032743953 0.053449027 0.054823607 0.10732848
0.03358331 0.12989129 -0.06556836 -0.07132879 0.042368215 0.08854201 0.03548994 -0.09348101
-0.069740966 0.08712268 0.08974239 -0.07742508 0.070593126 0.04739265 0.046181474 0.023890847
0.0012550628 0.27778888 0.055298965 0.08782345 0.103164814 0.0047922423 -0.047289867 0.011607694
-0.0077416208 0.053807545 -0.20596349 -0.011927059 -0.07370441 0.012345388 0.021252023 0.002877746
-0.16235946 -0.022141656 -0.08708181 0.0023570256 -0.07415942 -0.12258163 -0.15016538 0.009037266
-0.078887984 -0.07287231 -0.014187066 -0.0018097644 0.0020174324 0.017279927 0.07645635 0.057558056
0.116774455 0.05395535 0.0005308521 -0.14441146 0.2066695 0.036855716 0.067958266 0.0021492157
0.058379058 -0.026065674 0.06438295 -0.0063304757 -0.002356803 0.18194632 -0.0061037512 0.004018544
0.27211002 0.016523177 0.03936263 -0.010399215 -0.10954837 0.0025036568 0.06290979 0.071406186
-0.026250456 0.1766552 -0.0903199 0.0382076 -0.04554335 0.047094893 -0.033388454 -0.15561011
0.0031765664 0.090863444 -0.0456196 0.20207675 0.02554466 0.069264576 -0.006584217 0.084165215
-0.037603978 0.023579262 0.0026431086 -0.0044515384 -0.055956613 0.035446674 0.027229795 0.0968346
-0.00014662842 0.015866017 -0.010951934 0.06520294 -0.008970339 0.094787784 -0.024797982 -0.0697516
-0.008024265 0.053472955 -0.06949315 -0.10196954 -0.09890081 0.10122151 -0.014534564 -0.0073151565
0.11099298 -0.052926913 -0.024428844 0.05146606 0.09626762 -0.07296237 0.07063921 0.23908742
-0.009770415 -0.03354413 -0.0022128178 0.034330133 -0.0465097 -0.025832983 0.14559521 0.009373869
0.01784213 -0.04434837 -0.12545429 -0.20314972 0.031368814 -0.0980748 0.040578164 -0.040786177
-0.10368606 0.016352275 -0.09623419 0.05755986 0.056114748 0.07420844 -0.042472687 -0.021485806
-0.09760508 0.21717347 -0.023943396 0.199906 0.030406777 0.09657404 -0.074313454 0.029560369
-0.030556345 -0.02703853 0.04698161 -0.053344432 -0.10658605 0.03832642 0.0077939318 0.07013386
-0.16580717 0.0919675 -0.06254553 0.010272062 -0.020015344 -0.0286542 -0.018276125 -0.006982199
-0.06586988 -0.046264816 0.03033714 -0.040786568 -0.010767447 -0.066599675 0.084272325 0.046027917
-0.018385386 0.027579555 0.033155918 -0.052783765 0.22952072 -0.025544956 0.045266777 -0.05443151
0.082412 -0.10642489 0.1053282 0.025977286 -0.05379104 0.09369414 -0.07872886 0.039055083
0.19754438 0.13281372 -0.08438876 0.027629005 -0.12135217 0.010251436 -0.047464892 -0.007136482
0.111910425 0.21491718 0.005404612 0.012046105 -0.10604311 -0.02807463 0.027319092 -0.06006574
0.02011716 -0.06450732 -0.2182011 0.08113224 -0.04399855 -0.023244357 -0.019412268 -0.102262996
-0.07545999 -0.07314205 0.07243871 -0.07035432 -0.052717134 -0.030052017 -0.15873997 0.048025034
0.08755701 0.057329636 -0.012931836 -0.0455421 0.008249139 -0.013355299 0.05170713 -0.10959034
00000000: c63a e9bd cc6f fdbc d2f2 71bd 9965 a3bc
00000010: 4b58 92bd 2b83 2abd e693 c83d 4a39 1c3d
00000020: 279d d03d 5096 bdbc 2940 9fbd 8e56 ea3c
00000030: c453 a7bc b1b0 c43d 34ea 4e3c 5525 0a3e
00000040: d3e9 1f3d 46b9 a8bc 7565 d73c 4f39 0d3c
00000050: 861e 063d 5eed 5a3d b88e 603d 09cf db3d
00000060: a78e 093d 3902 053e b448 86bd d414 92bd
00000070: 4b8a 2d3d 8355 b53d e65d 113d f972 bfbd
00000080: 5ad4 8ebd 606d b23d dcca b73d 0a91 9ebd
00000090: 2193 903d cc1e 423d c928 3d3d bdb6 c33c
000000a0: eb80 a43a 583a 8e3e 2b81 623d c8dc b33d
000000b0: 1348 d33d 3e08 9d3b 05b3 41bd 332e 3e3c
000000c0: 6cad fdbb 4d65 5c3d 18e8 52be b669 43bc
000000d0: 56f2 96bd 4f44 4a3c b918 ae3c 9198 3c3b
000000e0: 8f41 26be 6b62 b5bc f357 b2bd 5478 1a3b
000000f0: e5e0 97bd 140c fbbd f4c4 19be 0a11 143c
00000100: 0690 a1bd 143e 95bd de70 68bc 9e35 edba
00000110: e636 043b a28e 8d3c 2695 9c3d ffc1 6b3d
00000120: 7227 ef3d 4900 5d3d e228 0b3a 99e0 13be
00000130: 2ba1 533e 05f6 163d b42d 8b3d dbd9 0c3b
00000140: e11e 6f3d ae87 d5bc 35db 833d e16f cfbb
00000150: 9874 1abb 2350 3a3e fa01 c8bb fead 833b
00000160: 0152 8b3e 9d5b 873c b63a 213d 7861 2abc
00000170: e55a e0bd 6414 243b d9d6 803d 683d 923d
00000180: 320b d7bc 1ae5 343e a4f9 b8bd 937f 1c3d
00000190: aa8b 3abd 93e6 403d 55c2 08bd 4258 1fbe
000001a0: f12d 503b 9d16 ba3d 9edb 3abd 35ed 4e3e
000001b0: 0943 d13c 96da 8d3d 6ac0 d7bb d05e ac3d
000001c0: a106 1abd 4c29 c13c 0138 2d3b 36de 91bb
000001d0: c332 65bd 8830 113d 0511 df3c 3851 c63d
000001e0: 44c0 19b9 73f9 813c be6f 33bc 1e89 853d
000001f0: 54f8 12bc 1920 c23d 2325 cbbc edd9 8ebd
00000200: 3578 03bc 7506 5b3d 6d52 8ebd 68d5 d0bd
00000210: 828c cabd 394d cf3d 6122 6ebc fbb3 efbb
00000220: 4a50 e33d e4c9 58bd 001f c8bc 13ce 523d
00000230: f527 c53d 4c6d 95bd 4aab 903d 55d3 743e
00000240: 1714 20bc 9265 09bd ec04 11bb c19d 0c3d
00000250: f580 3ebd b19f d3bc e916 153e db94 193c
00000260: a929 923c a3a6 35bd 1777 00be 7b06 50be
00000270: 967c 003d 71db c8bd 4a35 263d 680f 27bd
00000280: 5b59 d4bd 35f5 853c 6e16 c5bd e3c3 6b3d
00000290: 94d8 653d 98fa 973d d7f7 2dbd 0003 b0bc
000002a0: 2ce5 c7bd b962 5e3e f124 c4bc 29b4 4c3e
000002b0: a217 f93c 9cc8 c53d a731 98bd 9628 f23c
000002c0: 4d51 fabc e87f ddbc ca6f 403d b17f 5abd
000002d0: c949 dabd 2afc 1c3d 3d64 ff3b 57a2 8f3d
000002e0: 5bc9 29be 7559 bc3d df17 80bd 274c 283c
000002f0: 38f7 a3bc 36bc eabc d0b7 95bc eeca e4bb
00000300: cae6 86bd 2d80 3dbd 9885 f83c d10f 27bd
00000310: f269 30bc 6965 88bd f896 ac3d c587 3c3d
00000320: f39c 96bc 85ee e13c 80ce 073d ca33 58bd
00000330: 7b07 6b3e a843 d1bc a869 393d 93f3 5ebd
00000340: 9fc7 a83d 4bf5 d9bd 50b6 d73d 51ce d43c
00000350: fe53 5cbd b7e2 bf3d 993c a1bd 39f8 1f3d
00000360: 1349 4a3e 5200 083e 04d4 acbd 3956 e23c
00000370: 7d87 f8bd a4f5 273c 8c6a 42bd 26d9 e9bb
00000380: 4b31 e53d 4013 5c3e 2c19 b13b 075d 453c
00000390: 212d d9bd c4fc e5bc 4acc df3c 7e07 76bd
000003a0: becc a43c 6a1c 84bd 1c70 5fbe a928 a63d
000003b0: d337 34bd f36a bebc 7a06 9fbc 436f d1bd
000003c0: c48a 9abd 80cb 95bd bf5a 943d ed15 90bd
000003d0: eced 57bd a62f f6bc bb8c 22be e6b5 443d
000003e0: 1751 b33d 7bd2 6a3d 0de0 53bc 5a8a 3abd
000003f0: 6627 073c 2fd0 5abc dbca 533d e670 e0bd

network_body.linear_encoder.seq_layers.0.bias f4 [128]
-0.045538254 -0.06293947 -0.22278331 -0.015381188 -0.01280725 -0.062223393 -0.21832958 0.017679363
-0.08212939 -0.18528867 -0.12908883 0.11546438 0.001029332 0.24455576 0.029811347 0.014251261
-0.1312817 -0.20494142 -0.0020721897 -0.15983203 -0.18046172 -0.040800404 -0.052825555 -0.23538752
0.13635671 0.08889428 -0.19191094 -0.071231134 -0.02313279 0.057718012 -0.17418346 0.11988669
-0.06581464 -0.11372161 0.0168786 0.17455159 -0.11284157 -0.20490666 0.08125239 -0.11876243
-0.18181624 0.23567009 -0.1736916 -0.12971844 -0.1869101 0.19338273 -0.07556342 -0.085683234
-0.1235853 -0.16583925 0.24048068 0.06099109 0.05894842 -0.15131624 -0.0691345 -0.034987725
0.09250752 0.05835719 0.031532727 -0.15548179 0.064361244 0.15220962 -0.09529354 -0.13820371
-0.02410799 -0.21517026 -0.17918165 0.0098276455 0.05444046 0.1101533 -0.15819074 -0.20531607
-0.21816282 -0.21703145 -0.03177346 0.1349231 -0.20298818 0.008099189 0.20489232 0.20721592
-0.18942982 -0.017429385 0.039544586 -0.109503604 -0.2793532 -0.21312244 0.2024933 0.1651012
-0.12568271 -0.031001534 -0.16002667 0.047218494 0.01274695 0.11579606 0.013276899 0.021820676
0.13037328 -0.18828739 -0.12179284 0.007621307 -0.2084068 -0.13937183 -0.21769054 -0.19213755
-0.21953094 0.18609351 -0.0061858874 0.06909387 0.06225605 -0.21496259 -0.1569834 -0.15662496
0.17623346 -0.14999768 0.16408575 -0.12325007 0.17319988 -0.07134392 -0.1291308 -0.22513069
-0.26348582 0.08973478 0.08124035 0.15503539 0.21946487 0.07726491 -0.03110959 0.14722067
00000000: 5286 3abd 69e6 80bd 4f21 64be 6101 7cbc
00000010: 80d5 51bc f5dd 7ebd ca91 5fbe 50d4 903c
00000020: 7433 a8bd 50bc 3dbe dd2f 04be 9778 ec3d
00000030: a7ea 863a d36c 7a3e ed36 f43c 1f7e 693c
00000040: b66e 06be 2adc 51be 93cd 07bb 02ab 23be
00000050: f5ca 38be 531e 27bd 9c5f 58bd 6d09 71be
00000060: 18a1 0b3e 340e b63d 4d84 44be a1e1 91bd
00000070: fa80 bdbc b969 6c3d 265d 32be 2787 f53d
00000080: d3c9 86bd e0e6 e8bd fd44 8a3c a7bd 323e
00000090: 7b19 e7bd 0dd3 51be a767 a63d b839 f3bd
000000a0: 092e 3abe 8053 713e 36dc 31be e9d4 04be
000000b0: 5c65 3fbe 1f06 463e ffc0 9abd b17a afbd
000000c0: 4a1a fdbd c4d1 29be 9140 763e cbd1 793d
000000d0: e673 713d a5f2 1abe 6496 8dbd 4a4f 0fbd
000000e0: 9574 bd3d f307 6f3d 7628 013d 9e36 1fbe
000000f0: d4cf 833d d7dc 1b3e 4229 c3bd 4685 0dbe
00000100: 1f7e c5bc 9855 5cbe 657b 37be 2204 213c
00000110: f6fc 5e3d 0e98 e13d c1fc 21be 603e 52be
00000120: 1366 5fbe 7e3d 5ebe e324 02bd 4829 0a3e
00000130: 22dc 4fbe 76b2 043c 4bcf 513e 6930 543e
00000140: e4f9 41be 12c8 8ebc 81f9 213d 6d43 e0bd
00000150: 6207 8fbe c53c 5abe 675a 4f3e 4a10 293e
00000160: f8b2 00be eef6 fdbc 08de 23be 2e68 413d
00000170: 95d8 503c 7c26 ed3d 5a87 593c 46c1 b23c
00000180: 9380 053e 69ce 40be 866e f9bd 28bc f93b
00000190: 9868 55be 7db7 0ebe 45ea 5ebe b5bf 44be
000001a0: b8cc 60be 4c8f 3e3e fcb2 cabb 1681 8d3d
000001b0: 3300 7f3d 271f 5cbe 42c0 20be 4b62 20be
000001c0: 8b76 343e fe98 19be 1806 283e 886a fcbd
000001d0: 4f5b 313e c31c 92bd dd3a 04be a988 66be
000001e0: 9de7 86be dec6 b73d 5761 a63d 99c1 1e3e
000001f0: 66bb 603e 113d 9e3d 8ad9 febc 04c1 163e

network_body.linear_encoder.seq_layers.0.weight f4 [128, 52]
0.056952905 0.0015268571 -0.060565114 -0.12467244 0.14094397 -0.07094585 0.19024599 0.1314472
0.29298288 -0.24014533 0.16806509 0.1917121 0.046706945 0.06718678 0.016656239 -0.05833812
0.29146656 -0.0821547 0.020940328 0.17365772 0.16078426 -0.20624605 -0.2785061 0.047552213
-0.17982653 0.01530814 0.18454099 0.045336887 0.13305649 0.04868401 0.13502154 0.08430981
0.045332916 -0.024653615 -0.056863736 0.04751517 -0.19482718 0.17505619 -0.3341873 0.16085209
0.17318875 -0.0024945869 -0.09999922 -0.15691526 -0.13234308 0.019918527 -0.122098655 -0.2130999
0.12709278 -0.40362138 -0.12848932 -0.009240257 0.103637435 -0.16045833 0.32214943 0.2811602
-0.27008927 0.01959671 -0.0057722796 -0.035532564 -0.24054173 0.19166154 0.14217293 -0.31484485
0.11102588 -0.003277878 0.07760244 -0.08323365 -0.09225346 -0.066719525 -0.1213223 -0.029898722
-0.038417585 -0.17653781 0.18062763 -0.17005812 0.06343537 -0.09462774 -0.07611173 0.1459043
0.09279713 -0.016356034 0.051018517 -0.124299176 0.096368656 -0.05389587 -0.09404862 -0.113099344
0.37564167 -0.17173184 0.06376544 -0.2281137 0.004458559 -0.13054734 -0.04487693 0.022822948
-0.1337559 0.24809085 0.04357148 -0.46211332 -0.26877156 0.080191806 0.19475277 0.18221502
0.14518073 -0.24218132 0.24651325 -0.14203465 0.009394916 -0.20305632 0.20232901 -0.18248247
0.116884254 -0.01708869 0.09011257 -0.069008805 0.14267237 0.22014485 0.076797955 -0.008235517
-0.15790837 -0.0062643467 0.21376267 -0.30779785 -0.09980627 -0.010338241 0.23616742 -0.04628462
-0.019215934 0.05516922 0.17777033 -0.19792297 0.2075431 -0.06540587 0.21803086 0.18053885
0.17678198 -0.08582983 -0.12788431 -0.0014721624 -0.17773914 0.24521035 0.35491595 0.20179155
-0.15553902 -0.091580376 0.13320692 0.16896799 0.032571524 -0.15552174 -0.002706256 0.1379431
-0.042493097 -0.36364213 0.06687245 -0.34179315 -0.052550953 -0.042835105 0.16354702 0.264594
-0.061920688 -0.0055092713 -0.0006568287 0.30581257 -0.0710064 0.052553084 0.036111847 -0.044680193
-0.108368166 -0.0064850794 0.03676713 0.17861834 0.02561238 0.17614678 -0.13745764 -0.2644006
-0.36520544 0.057522256 -0.00060769246 -0.04656445 0.30999348 -0.14328356 -0.028693516 -0.24002904
-0.050307542 0.12980933 0.037489563 0.039065085 -0.10741265 -0.26814455 0.0544853 -0.29490653
0.1272968 0.07703736 0.0045218742 -0.09554761 0.41456404 -0.016507713 -0.1201637 -0.25818303
0.14607356 0.033710867 0.05575722 -0.021012494 -0.18019623 -0.01234995 -0.018042948 -0.1787113
0.026910068 -0.1355282 -0.2726799 0.2795827 0.0721716 0.1634353 0.13804543 -0.08671974
-0.18304475 0.1404527 -0.14294934 -0.0066003925 -0.1586717 0.14559868 0.25028515 -0.029759545
-0.012242657 0.025640287 -0.23161124 -0.07514865 0.046422876 0.10231119 0.03301211 0.06523101
0.1199909 0.092272215 0.052018538 -0.1516623 -0.051796984 0.16021386 0.032016657 0.034314703
0.18710567 -0.004592926 0.2519476 -0.612542 -0.033612955 0.05912158 0.14947931 -0.026861515
0.058673717 -0.01993162 0.20106055 -0.227584 -0.055136066 -0.20237912 0.26821718 -0.26453087
00000000: 7347 693d d320 c83a 2013 78bd 4454 ffbd
00000010: 9e53 103e 0f4c 91bd d8cf 423e 189a 063e
00000020: da01 963e a8e8 75be 4119 2c3e 2d50 443e
00000030: c84f 3f3d 3999 893d aa72 883c f4f3 6ebd
00000040: 1b3b 953e b940 a8bd 0d8b ab3c 54d3 313e
00000050: a1a4 243e 2a32 53be 5a98 8ebe 1cc6 423d
00000060: 7224 38be fece 7a3c 50f8 3c3e 2cb3 393d
00000070: f63f 083e e268 473d 1643 0a3e 9faa ac3d
00000080: 02af 393d 61f6 c9bc f3e9 68bd 449f 423d
00000090: c780 47be ee41 333e 991a abbe 69b6 243e
000000a0: 6458 313e 397c 23bb 64cc ccbd 65ae 20be
000000b0: f284 07be 2e2c a33c dc0e fabd dc36 5abe
000000c0: 9c24 023e 76a7 cebe b492 03be 7264 17bc
000000d0: dd3f d43d 304f 24be c5f0 a43e 3bf4 8f3e
000000e0: 2449 8abe 4889 a03c 6425 bdbb 988a 11bd
000000f0: 9250 76be ec42 443e c895 113e 5833 a1be
00000100: 8961 e33d abd1 56bb 07ee 9e3d 6776 aabd
00000110: 62ef bcbd 3fa4 88bd d377 f8bd 2aee f4bc
00000120: c25b 1dbd 54c6 34be 73f6 383e b723 2ebe
00000130: 67ea 813d 30cc c1bd 77e0 9bbd f067 153e
00000140: 6c0c be3d 17fd 85bc cbf8 503d 9190 febd
00000150: ee5c c53d eac1 5cbd 909c c0bd a1a0 e7bd
00000160: 1b54 c03e 79da 2fbe 7497 823d a396 69be
00000170: 1b19 923b 34ae 05be dfd0 37bd 31f7 ba3c
00000180: 4ff7 08be 870b 7e3e 0278 323d 1e9a ecbe
00000190: 6d9c 89be 9a3b a43d 456d 473e 9396 3a3e
000001a0: 42aa 143e 61fe 77be f86d 7c3e 8871 11be
000001b0: 22ed 193c ffed 4fbe 562f 4f3e afdc 3abe
000001c0: 0361 ef3d 95fd 8bbc f08c b83d 7d54 8dbd
000001d0: b518 123e a76d 613e 3f48 9d3d 43ee 06bc
000001e0: bbb2 21be 2645 cdbb 9ae4 5a3e ae97 9dbe
000001f0: 3b67 ccbd ba61 29bc dfd5 713e f194 3dbd
00000200: bc6a 9dbc 1ff9 613d 6d09 363e 52ac 4abe
00000210: 2e86 543e 83f3 85bd 7b43 5f3e 2ddf 383e
00000220: 5606 353e 8dc7 afbd 1bf4 02be 93f5 c0ba
00000230: 4001 36be 6c18 7b3e 8bb7 b53e 72a2 4e3e
00000240: 9f45 1fbe 7e8e bbbd 6567 083e f205 2d3e
00000250: b869 053d 1741 1fbe 715b 31bb f540 0d3e
00000260: 3e0d 2ebd 4d2f babe 6cf4 883d 83ff aebe
00000270: ab3f 57bd dd73 2fbd df78 273e dd78 873e
00000280: 8ca0 7dbd 1e87 b4bb 072f 2cba 7793 9c3e
00000290: ce6b 91bd e741 573d 04ea 133d 9402 37bd
000002a0: 21f0 ddbd ca80 d4bb 2199 163d bae7 363e
000002b0: 0ed1 d13c d25f 343e b2c1 0cbe 845f 87be
000002c0: 35fc babe 759c 6b3d 8d4d 1fba 5dba 3ebd
000002d0: 77b7 9e3e edb8 12be aa0e ebbc 2cca 75be
000002e0: 480f 4ebd bdec 043e a88e 193d b602 203d
000002f0: 2afb dbbd 3e4a 89be fa2b 5f3d fdfd 96be
00000300: 185a 023e c3c5 9d3d 3b2c 943b 77ae c3bd
00000310: bd41 d43e 2f3b 87bc 6318 f6bd 9130 84be
00000320: 4f94 153e 6814 0a3d af61 643d 6522 acbc
00000330: 5c85 38be 7257 4abc cece 93bc 1800 37be
00000340: 8172 dc3c e8c7 0abe b39c 8bbe 7725 8f3e
00000350: b4ce 933d 955b 273e c85b 0d3e 1e9a b1bd
00000360: 1570 3bbe d5d2 0f3e 5061 12be 1b48 d8bb
00000370: d67a 22be d217 153e 6025 803e 4aca f3bc
00000380: 6d95 48bc 940b d23c 7f2b 6dbe 89e7 99bd
00000390: ea25 3e3d 8788 d13d b537 073d d697 853d
000003a0: cabd f53d 37f9 bc3d 6411 553d 5d4d 1bbe
000003b0: 1329 54bd 1a0f 243e e623 033d 938d 0c3d
000003c0: a198 3f3e 4180 96bb 47ff 803e 8dcf 1cbf
000003d0: bdad 09bd 7829 723d 1b11 193e ae0c dcbc
000003e0: da53 703d a347 a3bc d1e2 4d3e c80b 69be
000003f0: 5bd6 61bd 793c 4fbe c353 893e 9770 87be

network_body.linear_encoder.seq_layers.2.bias f4 [128]
-0.026267836 0.17207047 -0.014063186 -0.1791745 0.16764879 0.17077577 -0.057518914 -0.17001767
0.13070923 0.056010757 -0.19401914 0.11343972 0.14583625 0.07198591 0.10399741 0.19345105
-0.026248757 -0.19686322 0.06371028 0.06573847 -0.05327588 -0.12425131 0.18102644 -0.033803336
-0.23331435 -0.21278563 0.121824704 -0.20900582 0.078113385 -0.15556157 0.04371338 0.064421676
0.13758479 0.08631389 -0.2616664 0.09450769 -0.01559373 0.13912036 -0.22154419 -0.012099159
-0.22190353 0.16789193 -0.059044853 0.1964484 0.13032097 0.1088377 -0.21415804 0.07655668
-0.13007371 -0.1895694 0.027072033 -0.11479648 -0.12486919 0.11699122 0.017178183 0.16389348
-0.13519602 0.15551656 0.11587274 -0.111395165 0.043930814 -0.16768861 -0.14706609 0.011120456
-0.14423946 -0.10317018 0.058494836 -0.15793565 -0.103285715 -0.2210927 0.0038934543 0.06950492
0.014457719 0.042568147 0.13342816 0.0961292 0.20595849 -0.16758797 0.07633601 -0.20967986
0.079243176 -0.18456282 0.07942708 -0.11867469 -0.19431219 0.10113005 -0.22100304 0.07838795
0.17486429 0.15295932 -0.21425834 -0.04680257 -0.22463365 0.01769039 -0.09586712 0.08501578
-0.15165128 0.23126565 -0.11099606 -0.05964178 0.054298073 -0.058928594 -0.08324935 0.069534175
0.108277164 -0.120426364 -0.13674249 0.13559254 -0.23870283 -0.008441175 -0.18091951 -0.17103009
-0.22579375 -0.14356203 0.09402964 -0.20276788 -0.13409133 0.030241678 -0.18935385 0.07761307
0.009548409 0.013699674 0.07141396 -0.14729583 0.06277079 -0.15868455 0.08858077 -0.21958311
00000000: a52f d7bc 3e33 303e 4769 66bc 8579 37be
00000010: 20ac 2b3e d8df 2e3e f498 6bbd 1d19 2ebe
00000020: a4d8 053e 896b 653d f4ac 46be 1553 e83d
00000030: 1956 153e 596d 933d 98fc d43d 0818 463e
00000040: a207 d7bc 8396 49be 897a 823d e4a1 863d
00000050: cf37 5abd 7977 febd ff5e 393e 5e75 0abd
00000060: f5e9 6ebe 7ae4 59be 3b7f f93d 9f05 56be
00000070: e9f9 9f3d 884b 1fbe cd0c 333d 83ef 833d
00000080: 07e3 0c3e 56c5 b03d 23f9 85be 3f8d c13d
00000090: d87c 7fbc 9175 0e3e 7bdc 62be 8d3b 46bc
000000a0: ae3a 63be ddeb 2b3e 04d9 71bd c529 493e
000000b0: dc72 053e 4de6 de3d 3f4c 5bbe c0c9 9c3d
000000c0: 0b32 05be 7b1e 42be 2bc6 dd3c 6b1a ebbd
000000d0: 6bbb ffbd 1899 ef3d 43b9 8c3c b1d3 273e
000000e0: d370 0abe bc3f 1f3e b04e ed3d 2623 e4bd
000000f0: ccf0 333d 90b6 2bbe 7e98 16be 9332 363c
00000100: 82b3 13be e34a d3bd 4898 6f3d e2b9 21be
00000110: 7687 d3bd 2066 62be 5329 7f3b 9858 8e3d
00000120: 12e0 6c3c f05b 2e3d 64a1 083e 63df c43d
00000130: c8e6 523e 2e9c 2bbe 0e56 9c3d 51b6 56be
00000140: 3f4a a23d 09fe 3cbe aaaa a23d b70b f3bd
00000150: c6f9 46be 461d cf3d 9f4e 62be dd89 a03d
00000160: a00f 333e 5ea1 1c3e 8a66 5bbe 0db4 3fbd
00000170: 5d06 66be 70eb 903c fb55 c4bd c11c ae3d
00000180: 794a 1bbe e7d0 6c3e e751 e3bd f04a 74bd
00000190: a867 5e3d 1c5f 71bd a37e aabd ef67 8e3d
000001a0: 6bc0 dd3d 19a2 f6bd 3906 0cbe c5d8 0a3e
000001b0: 846e 74be db4c 0abc f742 39be 8322 2fbe
000001c0: 7a36 67be ed01 13be 9d92 c03d 62a2 4fbe
000001d0: 3d4f 09be 65bd f73c fae5 41be 9af3 9e3d
000001e0: ee70 1c3c 9974 603c 7b41 923d b8d4 16be
000001f0: f98d 803d 347e 22be d669 b53d 65da 60be

network_body.linear_encoder.seq_layers.2.weight f4 [128, 128]
-0.047548022 0.09694638 -0.06500669 -0.13333745 -0.15158504 0.061516754 -0.20266688 -0.07905902
-0.0011704474 -0.22299623 -0.2148879 0.17845483 -0.1255029 0.17094198 0.14346585 -0.2561168
-0.10314172 0.05743651 -0.18466465 0.058194064 -0.13874932 0.08010207 0.060498334 0.016489664
-0.111932084 -0.060105387 0.015630314 0.100127116 -0.17268257 -0.16719428 0.12085899 0.14825597
-0.09918355 -0.14170444 0.013391788 0.0613256 0.009038614 0.010178033 -0.012758845 -0.022356367
0.033114467 0.28325516 -0.12463313 -0.008032522 -0.083772205 0.099417955 -0.13725455 -0.105756655
-0.061255462 0.04194963 0.066352084 0.035081826 0.258077 0.16797796 -0.09369564 -0.22939368
0.30819947 0.1352948 -0.17549922 -0.024981823 -0.20227315 0.20555104 0.21441378 0.051155806
-0.022895532 -0.0283955 -0.0688059 0.12897207 -0.058880467 -0.02112807 -0.16450912 -0.14548534
-0.12291933 -0.23848885 -0.09513512 -0.060944244 -0.105751306 -0.14276184 0.05259168 -0.011849397
-0.03315359 0.01573692 -0.03930378 0.06630783 0.039341655 -0.009248461 -0.24900155 -0.37954137
-0.2082444 -0.15770152 0.14086208 -0.14980666 -0.08054423 -0.09712602 0.24462771 -0.08703176
0.083210945 -0.14096956 0.2270245 -0.19192253 -0.0133908205 -0.03641132 0.05148383 -0.010438645
0.049763445 -0.0027645298 -0.24194133 -0.06669492 -0.16365176 0.085944474 0.10029002 -0.043036867
-0.058777288 0.13058187 -0.13626544 -0.028034544 -0.016731562 -0.12150921 0.024442475 0.15752333
0.080924034 -0.23790593 -0.10530925 0.035476923 -0.16763388 -0.14544593 -0.029056888 0.034995414
0.00062163593 0.010573729 0.112211525 0.002635021 -0.08721161 0.13793696 0.05781815 -0.0178851
-0.009483393 0.14510708 -0.041078642 -0.0041160076 -0.0528552 0.06608765 0.036340542 0.1590339
-0.014813804 -0.18356259 -0.20364515 -0.10564931 -0.0035557232 -0.050858364 0.09289288 -0.09189197
0.011697589 0.03729617 -0.11718732 0.0031728852 -0.049619276 0.122593515 -0.04401402 -0.1341215
-0.007952244 -0.10041529 0.04827486 0.14638597 -0.1493292 0.054253746 -0.04876852 -0.2500183
0.05181054 -0.096299425 -0.09355576 0.062735 0.022549752 0.13652793 -0.19971551 -0.19996883
0.052578796 -0.053861856 0.14611208 -0.14505786 0.09640624 -0.07537468 -0.06405422 -0.10387984
0.0016614863 0.23983128 -0.08226571 0.024918523 0.007484449 -0.01727629 0.2307795 0.021237936
0.16276792 -0.048305973 0.091999725 0.03230594 0.100623384 -0.053911056 -0.17118756 0.07399522
0.045854405 -0.043505248 -0.0038531083 -0.16903129 -0.069074646 0.15828148 0.0149866445 0.008205527
0.09274096 -0.09972638 0.108372405 0.05793651 -0.08346708 0.077553906 0.042653386 -0.10401185
-0.11602083 0.03740358 -0.02951002 0.05144689 -0.122782424 -0.02186209 -0.34086135 -0.16023083
0.0047006737 -0.007889578 0.003415194 -0.016591512 0.037942 0.110078864 -0.12143483 -0.023668263
0.056522604 0.12019286 -0.0641165 -0.054936916 0.073568195 0.04949318 -0.054375153 -0.14341602
-0.06067603 -0.008221545 0.08525256 -0.07369277 0.1351736 0.032558274 0.0248847 -0.045328125
-0.20998776 -0.066698864 -0.23995551 -0.19429569 -0.0471559 0.07486947 -0.07300043 0.05277118
00000000: b7c1 42bd d38b c63d 3a22 85bd 9d89 08be
00000010: 1c39 1bbe fef8 7b3d e887 4fbe b2e9 a1bd
00000020: b369 99ba 2059 64be 930b 5cbe ddbc 363e
00000030: d583 00be 6a0b 2f3e b6e8 123e be21 83be
00000040: f73b d3bd 8c42 6b3d bb18 3dbe e65c 6e3d
00000050: 4d14 0ebe 8e0c a43d 1acd 773d 5515 873c
00000060: a63c e5bd 1131 76bd 250b 803c 720f cd3d
00000070: b3d3 30be fa34 2bbe eb84 f73d 6ad0 173e
00000080: bf20 cbbd f81a 11be 3b69 5b3c 8d30 7b3d
00000090: b216 143c c4c1 263c 7a0a 51bc b324 b7bc
000000a0: 09a3 073d d206 913e a83f ffbd d79a 03bc
000000b0: c390 abbd a49b cb3d 758c 0cbe f296 d8bd
000000c0: 02e7 7abd 60d3 2b3d 9ae3 873d f6b1 0f3d
000000d0: ab22 843e 6a02 2c3e 80e3 bfbd 2de6 6abe
000000e0: 52cc 9d3e b88a 0a3e 11b6 33be aea6 ccbc
000000f0: b120 4fbe f97b 523e 498f 5b3e c088 513d
00000100: 698f bbbc ae9d e8bc 1cea 8cbd 4111 043e
00000110: a52c 71bd c614 adbc 1475 28be 1cfa 14be
00000120: 21bd fbbd 6c36 74be 34d6 c2bd aca0 79bd
00000130: 2494 d8bd 2930 12be 606a 573d f923 42bc
00000140: 0fcc 07bd b7ea 803c 00fd 20bd 66cc 873d
00000150: b724 213d db86 17bc 43fa 7ebe 3f53 c2be
00000160: 053e 55be 827c 21be 263e 103e eb66 19be
00000170: 60f4 a4bd 02ea c6bd b07f 7a3e b53d b2bd
00000180: 806a aa3d 535a 10be 1c79 683e 5787 44be
00000190: 2c65 5bbc 0924 15bd b5e0 523d da06 2bbc
000001a0: c1d4 4b3d 1d2d 35bb 78bf 77be 5997 88bd
000001b0: 5494 27be a803 b03d db64 cd3d 6d47 30bd
000001c0: 74c0 70bd 41b7 053e 2b89 0bbe b3a8 e5bc
000001d0: a110 89bc d2d9 f8bd 963b c83c cc4d 213e
000001e0: 80bb a53d 9d9d 73be 60ac d7bd 4050 113d
000001f0: 37a8 2bbe c7ef 14be b608 eebc 5a57 0f3d
00000200: 48f5 223a 6f3d 2d3c 28cf e53d 51b0 2c3b
00000210: 009c b2bd 593f 0d3e b9d2 6c3d c683 92bc
00000220: 3c60 1bbc f396 143e 1442 28bd 93df 86bb
00000230: b27e 58bd f658 873d d2d9 143d c8d9 223e
00000240: 99b5 72bc d5f7 3bbe 5b88 50be aa5e d8bd
00000250: 2307 69bb dc50 50bd 9f3e be3d db31 bcbd
00000260: 3fa7 3f3c dec3 183d e8ff efbd 2ef0 4f3b
00000270: 953d 4bbd 4f12 fb3d 0c48 34bd 2657 09be
00000280: 214a 02bc 88a6 cdbd dcbb 453d 34e6 153e
00000290: c1e9 18be 2d39 5e3d 80c1 47bd 6602 80be
000002a0: 4a37 543d a238 c5bd 2a9a bfbd 357b 803d
000002b0: 42ba b83c facd 0b3e 3982 4cbe a1c4 4cbe
000002c0: dd5c 573d 409e 5cbd 689e 153e 0c8a 14be
000002d0: a270 c53d 0a5e 9abd dc2e 83bd f4be d4bd
000002e0: 3bc6 d93a 5596 753e ed7a a8bd ee21 cc3c
000002f0: 1c40 f53b 0287 8dbc 7651 6c3e 2efb ad3c
00000300: a2ac 263e 7cdc 45bd 5a6a bc3d 3c53 043d
00000310: a213 ce3d d7d1 5cbd cb4b 2fbe ce8a 973d
00000320: d4d1 3b3d 8f32 32bd 6e84 7cbb 8a16 2dbe
00000330: 0277 8dbd 8a14 223e 8b8a 753c 7a70 063c
00000340: f9ee bd3d 583d ccbd 5af2 dd3d d54e 6d3d
00000350: caf0 aabd 95d4 9e3d 51b5 2e3d 2a04 d5bd
00000360: 549c edbd 7f34 193d ffbe f1bc f9b9 523d
00000370: 5a75 fbbd 2018 b3bc 6185 aebe 8d13 24be
00000380: 1c08 9a3b 4a43 01bc 73d1 5f3b ecea 87bc
00000390: 1269 1b3d 0771 e13d d3b2 f8bd f2e3 c1bc
000003a0: 3f84 673d ad27 f63d 834f 83bd 8805 61bd
000003b0: ecaa 963d 5cb9 4a3d 7bb8 5ebd a6db 12be
000003c0: 6e87 78bd a9b3 06bc e598 ae3d 3cec 96bd
000003d0: f36a 0a3e d35b 053d 00db cb3c fca9 39bd
000003e0: 0807 57be 6a99 88bd e6b6 75be 73f5 46be
000003f0: 8c26 41bd 2a55 993d 4081 95bd 9826 583d

network_body.vector_processors.0.normalizer.running_mean f4 [52]
0.025054762 0.9753279 3.5293462e-07 0.2938685 0.02087132 0.9790187 7.058605e-07 0.29574353
0.02921067 0.97138584 4.7062525e-07 0.29366142 0.019847594 0.9797936 1.0588682e-06 0.2970431
0.0396955 0.96077967 1.1765782e-07 0.29210785 0.021534463 0.9782998 1.4117439e-06 0.30012262
0.053209234 0.9469257 3.5293107e-07 0.28986892 0.025250316 0.97498435 8.235564e-07 0.30515802
0.056755386 0.9432861 7.058415e-07 0.28809303 0.03752992 0.9627213 3.529321e-07 0.31076175
0.05668882 0.94332576 2.3531828e-07 0.28579935 0.066557124 0.93336695 3.5293792e-07 0.3119027
0.06078352 0.9391748 1.1765782e-07 0.2837986
00000000: a53f cd3c 17af 793f f77a bd34 ef75 963e
00000010: 55fa aa3c f8a0 7a3f 5d7a 3d35 b26b 973e
00000020: 374b ef3c beac 783f 3eaa fc34 ca5a 963e
00000030: 6c97 a23c c1d3 7a3f 6f1e 8e35 0916 983e
00000040: c097 223d a8f5 753f 12ab fc33 298f 953e
00000050: 0b69 b03c db71 7a3f 277b bd35 aca9 993e
00000060: edf1 593d b969 723f 7a7a bd34 b369 943e
00000070: c0d9 ce3c 9398 793f 5d12 5d35 ac3d 9c3e
00000080: 5678 683d 337b 713f 0f79 3d35 ee80 933e
00000090: f9b8 193d e774 763f 9e7a bd34 2a1c 9f3e
000000a0: 8932 683d cc7d 713f ccab 7c34 4b54 923e
000000b0: 1a4f 883d 23f1 6e3f 6b7b bd34 b6b1 9f3e
000000c0: 24f8 783d c26d 703f 12ab fc33 0d4e 913e
