results/fifth/Car/Car-1499944.pt (torch, 582455 bytes, 40 tensors)

network_body.vector_processors.0.normalizer.running_mean f4 [52]
000000 51 7b 67 3b 3a 19 7f 3f ba f6 32 35 ec 5d 9a 3e
       0.0035321305 0.9964787 6.66692e-07 0.30149782
000010 36 93 71 3b 29 0e 7f 3f cf f6 32 35 d9 90 9b 3e
       0.0036861426 0.9963098 6.666932e-07 0.30383947
000020 d8 ed 60 3b a9 1e 7f 3f c7 f6 b2 35 ef 60 99 3e
       0.0034321453 0.9965616 1.3333855e-06 0.29956767
000030 29 8a 6a 3b c3 15 7f 3f 06 39 06 36 52 f6 9c 3e
       0.0035787916 0.9964258 2.0000748e-06 0.30656677
000040 1c 6c 52 3b ff 2b 7f 3f 00 00 00 00 e5 29 98 3e
       0.0032107895 0.9967651 0.0 0.29719463
000050 94 1a 6a 3b 98 16 7f 3f d8 f6 32 35 f2 23 9e 3e
       0.0035721408 0.9964385 6.666937e-07 0.308868
000060 9b 89 46 3b ff 36 7f 3f c7 f6 32 35 8e 22 97 3e
       0.0030294422 0.9969329 6.6669276e-07 0.2951855
000070 c3 53 7d 3b 79 01 7f 3f d1 f6 32 35 df 13 9f 3e
       0.0038654662 0.9961162 6.666933e-07 0.31069848
000080 ce b7 50 3b 8f 2d 7f 3f 00 00 00 00 e8 79 96 3e
       0.0031847837 0.9967889 0.0 0.29389882
000090 b8 42 92 3b 4d da 7e 3f c7 f6 32 35 0c 97 9f 3e
       0.00446352 0.9955185 6.6669276e-07 0.31169927
0000a0 d0 b5 83 3b d5 f5 7e 3f d1 f6 32 35 97 46 96 3e
       0.0040194765 0.9959386 6.666933e-07 0.2935073
0000b0 76 3a b8 3b 3e 8e 7e 3f c3 f6 32 35 b6 47 9f 3e
       0.0056222035 0.99435794 6.6669253e-07 0.311094
0000c0 43 b4 ae 3b b8 a0 7e 3f 00 00 00 00 0e 21 97 3e
       0.0053315475 0.9946399 0.0 0.29517406

network_body.vector_processors.0.normalizer.running_variance f4 [52]
000000 03 04 a5 45 17 6b a5 45 ed ff ff 3f ec ec 83 47
       5280.5015 5293.386 1.9999977 67545.84
000010 99 2c ac 45 45 74 ac 45 e9 fe ff 3f c8 fd 85 47
       5509.5747 5518.5337 1.9999667 68603.56
000020 32 5e a0 45 f5 5b a1 45 9c ff 3f 40 60 ca 81 47
       5131.7744 5163.4946 2.9999762 66452.75
000030 33 2f a7 45 62 9e a7 45 eb fd 7f 40 78 ce 88 47
       5349.9 5363.798 3.999873 70044.94
000040 d4 0c 96 45 79 d3 96 45 00 00 80 3f 04 72 7b 47
       4801.6035 4826.434 1.0 64370.016
000050 8e e0 a6 45 c6 2f a7 45 80 ff ff 3f 68 9e 8b 47
       5340.0693 5349.9717 1.9999847 71484.81
000060 1d 98 8d 45 6c 57 8e 45 de ff ff 3f 15 91 73 47
       4531.014 4554.9277 1.999996 62353.082
000070 75 82 b4 45 09 ca b4 45 c0 fe ff 3f fc 89 8e 47
       5776.307 5785.2544 1.9999619 72979.97
000080 ea d5 94 45 f0 9b 95 45 00 00 80 3f b6 4f 6e 47
       4762.7393 4787.492 1.0 61007.71
000090 72 51 d0 45 cb b0 d0 45 b0 ff ff 3f ba 3e 90 47
       6666.1807 6678.099 1.9999905 73853.45
0000a0 b6 ab bb 45 6e a3 bc 45 c1 fe ff 3f 7b d8 6d 47
       6005.464 6036.4287 1.999962 60888.48
0000b0 c9 09 03 46 f2 34 03 46 c9 ff ff 3f 2e 0d 8f 47
       8386.446 8397.236 1.9999934 73242.36
0000c0 0b 9b f8 45 48 78 f9 45 00 00 80 3f f5 01 75 47
       7955.3804 7983.035 1.0 62721.957

network_body.linear_encoder.seq_layers.0.weight f4 [128, 52]
000000 ea 4b a9 3d 72 f7 dd bc 2d 17 9a bd cb 3e 19 be
       0.082664326 -0.02709553 -0.07523952 -0.1496536
000010 bb ab 51 3e 0d 7e 0c be 29 d0 27 3e e4 b8 e6 3d
       0.20475666 -0.1371996 0.16388 0.11265734
000020 83 f5 8b 3e 1e 43 63 be 2d d1 1b 3e 2d f1 5b 3e
       0.27335748 -0.22193572 0.15216513 0.2147872
000030 11 06 35 3d 57 c6 89 3d 54 e4 2b bc 23 17 b7 bd
       0.04419524 0.067272834 -0.010491449 -0.0893996
000040 3d e8 a1 3e a2 b8 da bd 0c 2d 5b 3c 2e bb 49 3e
       0.31622496 -0.10679747 0.013377439 0.1970031
000050 6d ad 27 3e e4 b6 58 be f9 08 9c be dd 0f 34 3c
       0.1637475 -0.21163517 -0.30475596 0.01099011
000060 bd 49 20 be 8d 21 00 bc fd 9d 29 3e b7 0d 54 3d
       -0.15653129 -0.007820499 0.16564174 0.051770892
000070 ac 3f 00 3e 46 f3 50 3d 61 f0 03 3e f9 46 7b 3d
       0.12524289 0.051013254 0.12884666 0.06134698
000080 c8 ff 8d 3c 0f 76 b1 3b c0 42 47 bd 90 4a b4 3d
       0.01733388 0.005415685 -0.048647642 0.08803284
000090 f8 ff f6 bd 35 b1 c5 3d a6 aa b3 be 07 39 bb 3d
       -0.12060541 0.0965294 -0.35091132 0.091417365
0000a0 df f1 23 3e 1a 0d 4b 3c 5d 8d f5 bd a6 f7 fa bd
       0.16010235 0.01239326 -0.119898535 -0.122542664
0000b0 40 f5 24 be 71 c6 34 3d 95 e9 17 be 69 e5 78 be
       -0.1610918 0.04413456 -0.14835198 -0.24306263
0000c0 e1 a7 b9 3d 96 ac b8 be eb 50 0b be 83 bc 0b bb
       0.090652235 -0.36069173 -0.13605087 -0.0021322079
0000d0 62 73 8d 3d 62 5c fb bd 92 7b ad 3e 17 cf a5 3e
       0.06906773 -0.1227348 0.3388334 0.3238456
0000e0 e4 70 8d be 58 f0 e3 3c e8 63 55 3c 06 9c 27 bb
       -0.2762519 0.027824566 0.013024308 -0.0025575175
0000f0 d5 a1 67 be d7 f7 37 3e 5f 45 2b 3e e2 93 72 be
       -0.22620328 0.17965637 0.16725682 -0.23689225
000100 05 17 90 ba 46 48 e2 3d 22 03 ef 3d 36 cd 23 bd
       -0.0010993188 0.11048941 0.116705194 -0.039990626
000110 b7 d4 9d bd 66 f3 a5 bd 51 08 09 be 91 71 8e 3d
       -0.07706588 -0.08103065 -0.13382079 0.06955255
000120 da 04 8c bd 2f f1 13 be b9 1a 5c 3e 01 f0 eb bd
       -0.06836863 -0.14447473 0.21494569 -0.115203865
000130 5f d7 6a ba e8 4c e5 bc dd 6c 46 bd ac b2 4d 3e
       -0.00089584844 -0.027990773 -0.048443664 0.20087689
000140 25 f2 36 3d e3 a5 09 3d 78 0b 9f 3d 24 2e 98 bd
       0.04466452 0.033605468 0.07765859 -0.074306756
000150 fd b5 01 3c 72 12 0b 3d 59 25 cd bd ac 7a f7 bd
       0.007916925 0.033953138 -0.10016889 -0.12083945
000160 58 93 9a 3e a9 4e c2 bd 64 ae b3 3d d5 d3 c9 bd
       0.3019054 -0.094876595 0.08773497 -0.09854857
000170 87 ff 33 bb 04 d7 05 be 33 b1 7b bc cb 9d 71 3d
       -0.0027465539 -0.13070303 -0.015362072 0.058988374
000180 42 c6 ce bd 3c 66 5f 3e fb 11 95 3d 01 af 9f be
       -0.100964084 0.21816343 0.0727882 -0.31188205
000190 66 9c 76 be 96 d6 31 3d f4 a0 3a 3e 52 52 50 3e
       -0.24083099 0.043417536 0.18225461 0.20343903
0001a0 13 a5 38 3e 3c cc 8e be be 22 34 3e 69 66 d6 bd
       0.18031721 -0.27890193 0.17591378 -0.10468752
0001b0 2e 59 7f 3d 49 d9 83 be 93 62 03 3e 51 04 f7 bd
       0.062340908 -0.25751713 0.12830572 -0.1206137
0001c0 f1 e9 14 3e 0d 3e 44 bd 2f 96 58 3c a3 ef 73 bd
       0.14542367 -0.04791074 0.0132194 -0.059554707
0001d0 2d 73 1e 3e 79 ae 53 3e 09 6b 42 bc 50 56 98 3c
       0.15473624 0.20672025 -0.0118663395 0.018595845
0001e0 b8 da 09 be 92 9e f8 bc 72 4e 50 3e bd 0a 8c be
       -0.13462341 -0.03034905 0.20342425 -0.27351943
0001f0 26 7e a5 bd 00 07 00 bd eb dc 1b 3e a4 88 52 bc
       -0.080807015 -0.031256676 0.15220992 -0.0128499605
000200 8c 4d 27 bd 26 4c 9b 3d 2d ab c5 3d ee 54 2d be
       -0.04084544 0.075828835 0.0965179 -0.1692693
000210 a7 70 3e 3e 96 06 45 bd 78 65 0e 3e 67 dc 1c 3e
       0.18597661 -0.048101984 0.13905895 0.15318452
000220 66 7d 9b 3d a5 bb 6c 3c 8b 25 08 be 62 77 f5 3c
       0.07592277 0.014449035 -0.13295572 0.029964153
000230 9b 51 ab bd b4 c1 16 3e 11 4f 8e 3e 66 93 0c 3e
       -0.083651744 0.1472233 0.27794698 0.13728103
000240 77 b1 70 be 99 18 09 bc 76 37 56 3d 5c 7c 46 3e
       -0.23505197 -0.008367681 0.052298985 0.19383377
000250 77 21 28 3b 6b 1f 04 be d5 bf a7 bd f4 88 c0 3d
       0.0025654712 -0.1290261 -0.08190886 0.09401122
000260 60 76 05 be d4 8b 89 be 9d 8d 67 3d 38 1e ac be
       -0.13033438 -0.26864493 0.056531537 -0.33616805
000270 6c aa 8b 3c 45 ee ea bd e2 da 14 3e f3 cc 43 3e
       0.017049037 -0.114712276 0.14536622 0.1912115
000280 31 30 8e 3c ee 2c af bd 82 8d 68 bc 21 1e 26 3e
       0.017356964 -0.085534915 -0.014193894 0.16222431
000290 89 09 58 bd 8e 04 f4 3c 59 69 c4 3b 10 e8 c8 bd
       -0.05274347 0.029787328 0.0059940037 -0.098098874
0002a0 cf bd a0 bd 62 ba 1e bd 9b f0 1b 3b 90 51 a6 3d
       -0.07848703 -0.038751967 0.0023794535 0.081210256
0002b0 08 7e 80 3c 2a 40 3c 3e 88 00 06 be ef 85 3b be
       0.015685096 0.18383852 -0.1308614 -0.1831281
0002c0 00 c3 97 be 94 95 34 bc 6d 8c e8 bc 13 e4 e8 bc
       -0.2964096 -0.01102199 -0.028387273 -0.028429067
0002d0 4e 19 9f 3e 04 3b 15 be ca ae 4e bd 5f 62 cd bd
       0.31073993 -0.14573294 -0.05045966 -0.100285284
0002e0 af 16 a9 bd a4 f1 27 3e a5 7c df 3c b2 88 b1 3d
       -0.0825628 0.16400772 0.027281115 0.08668651
0002f0 67 0d 2b be 7d 96 55 be 0f 90 45 3d 43 52 6f be
       -0.16704331 -0.20858188 0.048233088 -0.23371224
000300 10 9d 1d 3e 01 74 4f 3d 45 86 fe bb ac 37 85 bd
       0.15391946 0.05064774 -0.007767471 -0.06504759
000310 21 21 8d 3e 7d 76 eb 3d 44 90 11 be 4f 58 31 be
       0.27564338 0.11497209 -0.14215189 -0.17318843
000320 7b d3 21 3e 69 7c b1 3c 63 a8 04 3d 32 0c 13 3d
       0.1580333 0.021665769 0.03238715 0.035900302
000330 30 fc bf bd ab 33 d7 bd 18 8a 3b bc 5f 69 d2 bd
       -0.09374273 -0.10507902 -0.011446498 -0.10274004
000340 dd e9 65 3d c7 74 28 be 2d 50 7b be 27 7c a6 3e
       0.056131233 -0.16450797 -0.24542303 0.32516596
000350 ea 23 e4 3d fe 8f 00 3e 56 89 2b 3e 8d 78 2a bd
       0.111396626 0.12554929 0.16751608 -0.041618872
000360 46 ba d0 bd 4c c2 82 3d 74 1d fa bd a5 c1 a7 3b
       -0.10191779 0.063847154 -0.12212649 0.00511952
000370 45 98 ef bd 52 b6 ca 3d 04 7d 8a 3e 47 f7 7d 3c
       -0.11698965 0.09898056 0.27048504 0.01550085
000380 e9 74 36 3d ea 87 13 bd b7 b0 55 be d3 f2 ad bc
       0.044545088 -0.03601829 -0.20868193 -0.021233952
000390 f7 a7 a7 3d 27 26 80 3d ed 04 3c 3d 29 dd 08 3e
       0.081863336 0.06257277 0.045903135 0.13365616
0003a0 e9 ae 16 3e ed 83 6e 3d 5a 01 a9 3d 7a 1e 44 bd
       0.1471516 0.058231283 0.08252211 -0.047880627
0003b0 33 42 46 bd 67 20 20 3e 11 b8 88 3d 04 9b b8 3d
       -0.048402976 0.1563736 0.06675733 0.09013942
0003c0 96 e5 e5 3d 7a f6 80 3d 18 0f 86 3e aa eb ff be
       0.11225431 0.06297012 0.2618339 -0.49984485
0003d0 67 e6 84 3c 31 22 00 3c 05 2c 3e 3e 9b 34 ce 3c
       0.016223146 0.007820652 0.1857148 0.025171569
0003e0 cf 6d 3c 3d 82 3a 90 bc 20 4e 69 3e 79 02 e8 bd
       0.04600316 -0.017606024 0.22783709 -0.113285966
0003f0 6f d0 36 3c ce e5 89 be 1c 31 99 3e 0a 1e 58 be
       0.011158093 -0.2693314 0.2992028 -0.21105209

network_body.linear_encoder.seq_layers.0.bias f4 [128]
000000 1b c5 94 bc eb 49 c0 bd d1 8f 01 be fc fc 4c bc
       -0.018160393 -0.09389099 -0.12652518 -0.012511488
000010 ab be 08 bd b0 20 77 3d 9c 7e 1b be b6 2e 50 3b
       -0.03338496 0.060333908 -0.15185016 0.0031766123
000020 26 6a 40 bd 1b 32 ed bd de a8 71 bd cd c1 c8 3d
       -0.04697623 -0.115818225 -0.058998935 0.098025896
000030 68 35 7b 3d 6a b5 49 3e 4e 01 8b 3d 27 3c 88 3d
       0.06133023 0.1969811 0.06787358 0.06652098
000040 08 8f ce bd 36 94 3a be 0d c5 87 bb f9 c7 90 bd
       -0.10085875 -0.182206 -0.0041433633 -0.07069392
000050 e5 55 ce bd cc c6 2b bc 3a 4f ca bd d9 2b 42 be
       -0.10074977 -0.010484409 -0.098783925 -0.18962039
000060 ac 71 1d 3e 6c 2a 10 3e 7e 46 2a be 8b 7d 96 bd
       0.15375394 0.14078683 -0.16628453 -0.07348164
000070 7f cb c7 3c f0 a3 b9 3d 1b 4f 1c be 2e 6a 0d 3e
       0.024389027 0.09064472 -0.15264551 0.13810036
000080 53 65 78 bd 0e 78 a7 bd 4c 4a bb 3d 4c bf 35 3e
       -0.060643505 -0.081771955 0.091450304 0.17748755
000090 ba 8d 89 bd 8b e0 18 be e9 eb 1d 3e 68 7f a3 bd
       -0.06716485 -0.14929406 0.15422024 -0.07983285
0000a0 74 1d 03 be 4d 32 45 3e bf de df bd 01 a6 25 bd
       -0.12804204 0.1925747 -0.10931157 -0.040441517
0000b0 9a 51 24 be cb bf 3c 3e 75 58 aa bd d1 37 49 bd
       -0.16046754 0.18432538 -0.08317653 -0.049125496
0000c0 b1 f1 82 bd 15 91 16 be f7 82 51 3e c1 f6 8e 3c
       -0.06393755 -0.14703782 0.20460115 0.017451646
0000d0 17 d2 18 3e 01 04 0d be 4a 04 f2 ba 90 55 89 bb
       0.14923893 -0.13771059 -0.0018464413 -0.004191108
0000e0 ec 79 b8 3d a2 63 26 3e 7e a9 a1 3d 67 e5 02 be
       0.0900763 0.16248944 0.07893656 -0.12782823
0000f0 1f c9 f2 3d b2 d3 0e 3e db 98 18 be f5 84 d7 bd
       0.11854767 0.13947943 -0.1490206 -0.105234064
000100 6a bc e9 3d 39 a7 13 be 5a ea 22 be f7 ea 06 3d
       0.1141289 -0.14419259 -0.1590971 0.032938924
000110 d3 cc 0e 3e 3f d9 1d 3e e8 3b 7c bd 4b 00 f4 bd
       0.13945322 0.15414904 -0.06158057 -0.119141184
000120 7d b0 14 be 6d 6b 2b be 04 74 dc 3c 6c 9d d3 3d
       -0.1452045 -0.16740198 0.02691079 0.1033276
000130 9c 45 f5 bd e0 19 0a 3e 45 ef 4d 3e 6c 38 4c 3e
       -0.119761676 0.13486433 0.20110805 0.19943398
000140 cc 03 19 be 9c d0 bb 3b 82 c3 8a 3d d3 57 08 be
       -0.14942855 0.0057316553 0.067755714 -0.13314752
000150 a3 e1 2b be 2e 57 cd bd 46 a4 0f 3e 61 e9 07 3e
       -0.16785292 -0.10026394 0.14027509 0.1327262
000160 bc ad a9 bd a8 e0 3e 3d 81 e5 6e bd 00 0f b9 3d
       -0.0828509 0.046600968 -0.05832434 0.09036064
000170 97 f5 8f 3d 21 20 ee 3d 71 88 f0 bb cc 94 d9 3d
       0.070292644 0.11627222 -0.007340484 0.10624084
000180 f5 f1 b5 3d b2 1a e2 bd f3 20 0c be db b8 f3 3c
       0.0888404 -0.11040248 -0.13684444 0.029751232
000190 1c 34 17 be 6b 6d 1a be 4f 73 03 be f5 05 27 be
       -0.14765972 -0.15080802 -0.12836955 -0.16310866
0001a0 ab 81 22 be 5e f7 49 3e d3 8e ca 3c 77 87 0a 3d
       -0.15869777 0.1972327 0.024726307 0.033820596
0001b0 eb e8 b5 3d a4 b0 00 be ff 49 19 be 8d c4 0f be
       0.08882316 -0.12567383 -0.14969634 -0.14039822
0001c0 90 55 bf 3d d5 54 e6 bd 21 62 23 3e 24 55 f0 bd
       0.093424916 -0.11246649 0.15955402 -0.11734989
0001d0 1e 53 42 3e ed 63 2a bd be cb 2b be 42 bb 61 be
       0.18977019 -0.041599203 -0.1677694 -0.2204409
0001e0 bf 65 2c be 4c 7c cb 3d 71 ed d2 3d ff ed dd 3d
       -0.16835688 0.09935817 0.102991946 0.1083641
0001f0 f1 71 38 3e 7e 19 07 3e f4 04 0a bd 4b 91 0d 3e
       0.18012215 0.13193318 -0.03369613 0.13824956

network_body.linear_encoder.seq_layers.2.weight f4 [128, 128]
000000 44 52 fe bc 74 52 0d 3e cb a6 e8 3b 9e 92 f2 bd
       -0.031045087 0.13800985 0.0070999614 -0.11844371
000010 48 4c c8 bd da e6 df 3d 55 f9 c8 bd 75 b4 b4 bd
       -0.097801745 0.10932703 -0.09813181 -0.08823482
000020 00 3e 64 bd 1f 77 f4 bd ff 76 2c bd b5 ec 9f 3d
       -0.05572319 -0.11936783 -0.04210567 0.0780882
000030 14 47 15 bd 68 d3 01 3e c4 03 cd 3d 44 a1 64 be
       -0.03644474 0.12678301 0.10010484 -0.22327143
000040 d0 46 5e bd de ce d0 3d 35 06 1c be e0 39 61 3d
       -0.05426675 0.10195707 -0.15236743 0.054986835
000050 7c 14 a7 bc fc 3e da b9 ee 9e 5f 3c c1 5c 5e 3d
       -0.02039551 -0.00041627127 0.013648732 0.054287676
000060 84 1c d7 bc c5 b0 84 3d c3 48 41 3d 6f e1 db 3d
       -0.026258714 0.064790286 0.04718853 0.107363574
000070 14 48 c4 bd bd 09 ef bd 08 36 08 3e 38 63 65 3d
       -0.0958406 -0.11671779 0.13301861 0.056002825
000080 ba d2 da bd c0 ce 2c be 0e 7a b5 3d ca 22 41 3d
       -0.10684724 -0.16875744 0.08861171 0.047152318
000090 92 61 a9 bb c6 99 95 3d f7 b6 96 bb d3 fe e0 3a
       -0.005169102 0.073047206 -0.004599448 0.0017165787
0000a0 8e b1 aa 3d 49 d5 4f 3e fc d7 28 bd 5a 9a 3c 3d
       0.08334647 0.20296206 -0.041221604 0.04604564
0000b0 63 36 42 bb 1f e1 93 3d 47 bc 91 bc 0f ae b2 bd
       -0.0029634468 0.07220673 -0.017789973 -0.08724605
0000c0 73 94 01 3d 19 b9 9b 3d 53 6a b7 bb 20 01 b8 3c
       0.031635713 0.07603664 -0.0055973916 0.022461474
0000d0 d8 a4 6e 3e 1e 0d b6 3c ab 33 b7 bd 4a 18 c4 bd
       0.2330507 0.022223052 -0.08945402 -0.09574945
0000e0 fc 98 93 3e a0 86 00 3e 3c 0c 51 be b1 ea a2 3b
       0.28827655 0.12551355 -0.20414823 0.004971825
0000f0 47 8b c1 bd b0 7d 80 3d 4d cb 38 3d 18 ec 52 3d
       -0.09450393 0.06273973 0.045115758 0.051494688
000100 60 25 d8 bc 63 ec 7e 3d 41 34 fb bc 28 d4 04 3e
       -0.02638501 0.062237155 -0.030664565 0.12971556
000110 53 3d 25 3d bc e1 8e bd 18 73 0a be 9b ab 14 bd
       0.040341686 -0.06976649 -0.13520467 -0.03629647
000120 95 6a 8b bd f2 08 82 bd 44 e7 be bd 33 f0 a0 bc
       -0.06807438 -0.063493624 -0.09321454 -0.019645786
000130 ea c7 0a be 24 61 ab 39 c4 67 7a 3d 92 ad f5 bc
       -0.13552824 0.00032688037 0.061134115 -0.029989991
000140 05 b3 03 bd c6 52 70 bc 6e 44 d0 bc 0b f3 13 3b
       -0.03215315 -0.014668172 -0.025423255 0.0022575285
000150 5e 86 19 bc 0f c3 c6 bb b1 d3 47 be 99 4d 97 be
       -0.009370415 -0.0060657333 -0.19514348 -0.2955139
000160 4d f3 46 be 9a ce 9e bd be 92 f8 3d 90 82 d5 bd
       -0.1942875 -0.0775425 0.12137364 -0.104252934
000170 7d 43 f0 bc 6e 8a 07 be b5 58 3f 3e e8 ec a5 bd
       -0.029329056 -0.132364 0.18686183 -0.08101827
000180 55 b9 e6 3d 4f 88 89 bd eb 19 62 3e 99 82 92 bd
       0.11265818 -0.06715452 0.220802 -0.07153816
000190 07 d6 a0 3d e2 5a 1e bd 0b 1a e8 3d 67 d7 b9 3b
       0.078533225 -0.03866089 0.11333092 0.00567143
0001a0 c2 b7 f5 3d 8d 59 c6 bb d1 d9 5f be 9e 45 98 bd
       0.1199794 -0.0060531558 -0.21860434 -0.074351534
0001b0 27 c6 ab bd 31 62 dd 3d 6f 2a 3a 3d 3d c9 d4 bc
       -0.08387404 0.10809744 0.045450624 -0.025974864
0001c0 99 0f 40 bd d0 74 ff 3d 12 60 d4 bd 5e e7 d5 bb
       -0.046889875 0.12473452 -0.103698865 -0.0065278253
0001d0 df 61 7e 3d 73 96 51 bc 23 ba 56 3d 95 47 15 3e
       0.062105056 -0.012792218 0.052423608 0.14578088
0001e0 25 3c d0 3d 18 34 d2 bd e7 0f 92 bd 4b ec 8f 3d
       0.10167722 -0.10263842 -0.071319394 0.07027491
0001f0 75 31 d5 bd 00 34 d6 bd 3d 14 86 bc 6b a4 cb bc
       -0.10409824 -0.10459137 -0.016367072 -0.024858674
000200 d4 9b 1d bd b5 db 07 bc 09 21 4d 3d 58 d1 2b 3a
       -0.038478687 -0.008292128 0.050080333 0.0006554327
000210 fc 71 b2 bd 7d 74 8d 3d 21 70 7f 3d 2b ec 8a 3d
       -0.08713147 0.06906984 0.062362794 0.06783327
000220 4d 5c 89 3d cc f0 dd 3d cb 51 b7 bd 3c 21 39 bb
       0.06707058 0.10836944 -0.08951148 -0.002824857
000230 30 3f b1 bd 2a 37 17 3d 00 68 9a 3d 92 e3 a2 3d
       -0.0865463 0.036917843 0.07539368 0.07953562
000240 55 e5 ed bc 0a 99 1f be ba fa 57 be c7 b1 a3 bd
       -0.029040018 -0.15585724 -0.21091738 -0.07992893
000250 e4 81 43 bd 55 26 ec bc 23 c1 02 3d b9 1f f3 bc
       -0.047731295 -0.028826872 0.03192247 -0.029678212
000260 a9 76 c3 bd 24 a5 80 3d f9 c3 63 bd 2f 53 5f 3d
       -0.09544117 0.06281498 -0.055606816 0.05452269
000270 64 6d cc bb dd e5 23 3d 11 2d c3 bc 0f d9 0e be
       -0.0062386263 0.040014137 -0.0238252 -0.13949989
000280 97 38 de bd 6d c5 7e bd 48 8e bd 3b a4 b0 14 3e
       -0.108506374 -0.0622 0.0057847835 0.14520508
000290 02 2a 13 be c2 d8 90 3d 26 43 29 bd cc 22 2b be
       -0.14371493 0.07072593 -0.041323803 -0.16712493
0002a0 7d cd 8e 3c ed 24 d9 bd 20 a7 ea bd 45 a2 8f bc
       0.017431969 -0.10602746 -0.11457658 -0.01753343
0002b0 11 b3 de bc 49 57 fd 3d 41 d4 20 be 6c 78 f7 bd
       -0.027184995 0.12370164 -0.15705968 -0.120835155
0002c0 7c fe aa 3d 66 c9 2c bd d8 ad 02 3e 02 70 0f bd
       0.0834932 -0.042184256 0.12761629 -0.03501893
0002d0 38 23 bb 3d 0d e4 0c 3b aa ca 06 be e6 6f aa bd
       0.09137577 0.0021498234 -0.13163248 -0.08322124
0002e0 00 32 4b 3d 48 62 64 3e 5c a8 08 be 02 19 70 3d
       0.04960823 0.22303116 -0.13345474 0.0586176
0002f0 7a 4c d3 bd 79 38 e8 3d 3d 18 f2 3d 94 a8 eb 3c
       -0.10317321 0.11338896 0.11821029 0.028766908
000300 91 89 f4 3d 63 12 b6 bd d9 8c b5 3d 94 bc e7 bc
       0.11940301 -0.08890226 0.08864755 -0.028288163
000310 8a 6e fe 3d 04 e9 b4 bd e1 21 1c be f9 f3 4a 3d
       0.124234274 -0.08833507 -0.15247299 0.049549077
000320 7e 8d 5a bc 01 a8 bd bc fe 62 a0 bc d2 e2 0d be
       -0.013339398 -0.0231514 -0.019578453 -0.13856056
000330 12 6a f0 bd 73 e4 e8 3d 12 6b 36 3d 3d 2e 91 3c
       -0.11738981 0.11371698 0.044535704 0.017722243
000340 05 a6 47 3d 0d ee 2e be 05 eb a2 3d c9 fd 19 3e
       0.048742313 -0.17082997 0.07954983 0.15038218
000350 5e b9 3a be 67 37 86 3d ea b9 04 bd 40 fd 95 bd
       -0.18234774 0.06553536 -0.032403864 -0.07323694
000360 95 5d f3 bd 9f 9c 8e bd d2 58 e9 3c 6c 64 9c 3d
       -0.11883084 -0.06963467 0.028484736 0.076363415
000370 c8 12 53 be c1 29 f8 bc 4e 3b 60 be c1 67 26 be
       -0.20612633 -0.030293347 -0.21897623 -0.16250516
000380 92 22 89 3d 27 39 45 bd 3a b6 96 bb 7c 36 52 bd
       0.06696047 -0.048150208 -0.00459936 -0.05132149
000390 fb 32 58 bd 21 4c ee 3d 9e 90 b4 bd fc 6b da 3c
       -0.052782994 0.11635614 -0.08816646 0.02666282
0003a0 71 68 77 bd 1a 6f 14 3e 45 6b 08 bd 70 08 0b be
       -0.060402337 0.14495507 -0.033305425 -0.13577437
0003b0 9d 92 f5 3b 71 bb 14 3c fd e0 e2 bc e5 f9 bd bd
       0.0074942843 0.009077893 -0.027695173 -0.09276179
0003c0 1a 21 34 bd 48 c0 09 3d ce c9 1c 3d d9 ed d1 bd
       -0.04397688 0.03363064 0.038278393 -0.10250444
0003d0 10 40 f7 3d cb 81 80 3a 54 63 b7 3c cd 7a a5 3c
       0.12072766 0.0009804306 0.02238623 0.020200158
0003e0 59 46 36 be e7 c8 0a be 55 eb 2a be 7c 69 2a be
       -0.17800273 -0.135532 -0.16691335 -0.16641802
0003f0 f4 20 5a 3d 7f 75 26 3d b8 8d 2b bd b2 29 82 3d
       0.053254083 0.040639397 -0.0418832 0.06355609

network_body.linear_encoder.seq_layers.2.bias f4 [128]
000000 ee 30 ce bc 71 56 26 3e 1d 1a e2 bc db e3 15 be
       -0.025169816 0.16243912 -0.027600342 -0.14637701
000010 c8 ce 14 3e 56 17 15 3e bf 01 f5 bb cc e4 f5 bd
       0.14532006 0.14559683 -0.007477015 -0.1200653
000020 77 65 2d 3e 16 58 23 3d ec f4 06 be 16 ab 00 3e
       0.16933237 0.039878927 -0.13179368 0.12565264
000030 ce 7d 27 3e 9e 15 d9 3d d8 76 05 3e 81 d3 30 3e
       0.16356584 0.10599826 0.13033617 0.17268182
000040 64 c7 0e 3d 31 e7 12 be 94 07 db 3d a1 f3 e7 3d
       0.034858122 -0.14346005 0.10694805 0.113257654
000050 3c 01 e1 3c b9 a3 7e bd e3 eb 54 3e 64 2d 0c 3c
       0.027466409 -0.062167857 0.20793109 0.008555744
000060 cf 5f 35 be 7e 39 30 be 9d 8d dc 3d 7b 76 58 be
       -0.1771233 -0.17209432 0.10769198 -0.21138947
000070 f1 4d 06 3e c6 9e d5 bd d4 f9 c6 3c cf 79 2d 3d
       0.1311567 -0.10430674 0.02428905 0.042352494
000080 94 5f 16 3e 47 78 fb 3d e6 3c 39 be 54 db c0 3d
       0.14684898 0.122788005 -0.18089637 0.094168335
000090 95 e1 0a 3d 10 99 1d 3e 93 3c 2a be 19 4e ee 3c
       0.033906538 0.1539042 -0.1662467 0.029089974
0000a0 e5 90 28 be c5 59 1b 3e c8 08 3a bd 88 b6 38 3e
       -0.16461523 0.15170963 -0.04541853 0.1803838
0000b0 42 bf 0e 3e 69 99 f5 3d d4 ad 1e be 40 16 af 3d
       0.13940147 0.11992151 -0.15495998 0.08549166
0000c0 bc 4e d3 bd e7 a5 23 be ca d9 3b bd 8c 3e 60 bd
       -0.10317752 -0.15981255 -0.045861997 -0.05474715
0000d0 80 cf c8 bd 7f d6 df 3d 56 58 91 3d f7 51 41 3e
       -0.098052025 0.10929584 0.07096927 0.18878923
0000e0 d9 fa 2d be e5 8b 1c 3e 89 d8 da 3d 9e 6f a7 bd
       -0.16990222 0.1528774 0.10685832 -0.08175586
0000f0 87 f0 f5 3c 6b c1 1f be 09 0c 04 be aa 15 da 3d
       0.030021919 -0.15601127 -0.12895216 0.10648663
000100 a5 ea af bd 29 55 8f bd e0 27 ae 3d 20 37 0b be
       -0.08589677 -0.06998665 0.08503699 -0.13595247
000110 6c a3 86 bd 89 52 1f be 6d 66 cc 3c ec f5 da 3d
       -0.06574139 -0.15558828 0.024951184 0.10691437
000120 d8 20 1b 3d f5 2e 8b 3d 79 4c 2b 3e aa ce 96 3d
       0.03787312 0.06796066 0.16728391 0.07363637
000130 02 a6 16 3e 06 44 ee bd d5 7e d6 3d d0 78 1f be
       0.14711764 -0.11634068 0.1047341 -0.1557343
000140 32 bc d5 3d f5 4f 23 be 57 1b dd 3d 78 eb a5 bd
       0.10436286 -0.1594847 0.1079623 -0.08101553
000150 3c 9e dd bd 05 31 7b 3d 7c e8 25 be 98 11 ee 3d
       -0.108211964 0.061326046 -0.16201967 0.116244495
000160 6e c3 39 3e 89 5d 47 3e e9 d4 34 be 3c 97 24 bd
       0.18140957 0.19469275 -0.17659344 -0.04018329
000170 b9 41 16 be 9d a0 cd 3d be 9c 82 bd 6c 93 08 3e
       -0.14673509 0.100404 -0.063775524 0.13337487
000180 cf de 1a be 3e dd 48 3e bf 98 06 be 9d 9c 4e bc
       -0.15124057 0.19615647 -0.13144206 -0.012610582
000190 04 f4 81 3d e5 8f 5b bc 19 5d 3f bd 92 fc 4f 3c
       0.063453704 -0.013401006 -0.046719644 0.012694495
0001a0 ba 01 23 3e 9f 59 e1 bc 04 82 1a be 3a 70 cf 3d
       0.15918627 -0.027508555 -0.1508866 0.101288274
0001b0 b5 37 10 be 8c 00 d0 3c 44 6d 23 be 8a 8b 0c be
       -0.1408375 0.025390886 -0.1595965 -0.13725105
0001c0 65 62 25 be 28 fd a0 bd a7 32 f8 3d 41 99 18 be
       -0.16150816 -0.07860786 0.12119036 -0.14902212
0001d0 b8 f2 e4 bd 86 5e 88 3d 71 87 29 be 6e 76 c8 3d
       -0.111791074 0.06658654 -0.16555573 0.09788214
0001e0 da d1 a4 3c b6 ca 5a 3c 46 0d 0d 3e 35 ab e1 bd
       0.020119596 0.013353994 0.13774595 -0.11018983
0001f0 76 00 a4 3d 8b 16 ff bd 92 27 e6 3d 69 ad 27 be
       0.080079004 -0.124554716 0.11238016 -0.16374744

distribution.log_sigma f4 [1, 2]
000000 2b 13 31 bf 45 4e 26 bf
       -0.69169873 -0.6496318

distribution.mu.weight f4 [2, 128]
000000 a5 2d 30 bd 4a b5 e6 bc c7 34 ab bd b6 14 aa bc
       -0.04301228 -0.028162617 -0.08359676 -0.020761829
000010 10 a4 02 bd f8 21 6b bd 12 e3 cd 3d 9b b1 93 3c
       -0.031894743 -0.057405442 0.10053076 0.018029025
000020 b2 43 97 3d f3 fd f7 3a 07 56 3f bd 2b 54 ce 3a
       0.07385959 0.0018920287 -0.0467129 0.0015741637
000030 85 0a e8 bc 2e dc 81 3c aa ab 31 bb 65 5a 8e 3d
       -0.028325329 0.01585206 -0.0027110376 0.06950835
000040 83 ae 86 3c 27 9e a2 bc f8 a3 ae 3b 51 d5 b3 3c
       0.016440636 -0.019850804 0.005329605 0.021952303
000050 c4 af a1 3d 1c de a6 3d 4b 9d ef 3c 9b a0 ec 3d
       0.07894853 0.08147833 0.029249808 0.115540706
000060 3d fc 3e 3c a1 6c ba 3c 48 43 a3 3b 72 45 98 3c
       0.011656818 0.022756876 0.004982386 0.018587802
000070 6e 53 32 3d 9c 74 b1 3d e0 d5 80 bc 8a 20 a6 bd
       0.043536596 0.086648196 -0.015726984 -0.08111675
000080 6a 6e 0d bc a0 9a 08 3c c6 d6 81 3d 01 b0 4b bd
       -0.008632282 0.008337647 0.06339793 -0.049728397
000090 a0 b8 3b 3d 97 2b 9d 3c c6 c5 7d 3c 3a 7e 1e 3d
       0.04583037 0.019185824 0.015489047 0.038694598
0000a0 3f 90 6c bb 7e bf d4 3d d9 22 3d 3d b1 d8 1a 3d
       -0.003609672 0.10388087 0.04617581 0.03780431
0000b0 b1 fc 1e 3d da 31 bc 3c 57 32 e1 bc ff 1d e2 39
       0.038815204 0.02297299 -0.027489824 0.00043128428
0000c0 1d 79 20 bc ef 47 a5 3c 86 3f b7 bd 5e 6b bc b7
       -0.009794501 0.020175902 -0.08947663 -2.2461343e-05
0000d0 e7 e1 94 bd 85 dc 8f 3b 61 2e 84 3c 5c a9 7a bc
       -0.0726965 0.0043903016 0.016135396 -0.0152991675
0000e0 01 a2 4f bd 2e 4c 1c bd 58 d4 69 bc 4b 9b 44 bd
       -0.05069161 -0.038158588 -0.014271818 -0.04799966
0000f0 4a f8 9c bd 6b 7c 98 bd c6 1d b6 bd bd 38 87 3d
       -0.07664545 -0.07445606 -0.088923976 0.06602619
000100 f0 a4 3f bd 7a 7a 91 bd a0 95 7a bd 07 2e 37 3c
       -0.046788156 -0.07103439 -0.06117785 0.011180407
000110 2e ce 19 bc 00 64 5a 3c 74 96 70 3d 1a dc 76 3d
       -0.009387536 0.013329506 0.058737233 0.0602685
000120 6c ec 10 3e 23 74 ac 3b 4e e2 21 bc c1 90 27 bd
       0.14152688 0.005262868 -0.009880615 -0.040909532
000130 cc 41 d9 3d fc 1c cb 3c 94 77 40 3d b9 11 0b 3d
       0.10608253 0.024794094 0.04698904 0.03395245
000140 5a 26 91 bb 03 88 98 3c 62 52 69 3c ca 08 4b bc
       -0.0044296207 0.018619543 0.014240833 -0.012392232
000150 a9 74 a9 3d bd 3e 7d 3d 2f 1e 7b bc 20 7a 68 3c
       0.08274204 0.06182741 -0.015327021 0.014189273
000160 42 d2 97 3d e0 9c 1f 3d dd 45 11 3d 32 b1 58 3c
       0.0741315 0.038967967 0.035467017 0.01322584
000170 cb 3a 4c bd c2 05 27 3d ac 16 91 3d cf de 48 3d
       -0.049860757 0.040776975 0.070844024 0.04904061
000180 42 b9 5f 3b 1c 36 bd 3d 6b 49 13 bd 9a 89 73 3d
       0.0034137522 0.09238836 -0.03595869 0.0594574
000190 b3 57 be bc 1f a6 90 3d 66 e5 d1 bb f4 e2 07 be
       -0.023235178 0.07062935 -0.0064055203 -0.1327017
0001a0 ac 14 09 3c d2 e5 f0 3d 29 5b 3d bc d5 14 22 3e
       0.008366745 0.11762585 -0.011557379 0.1582826
0001b0 92 c7 03 bd bf 91 93 3d 30 00 94 b9 86 50 ac 3d
       -0.032172747 0.07205533 -0.000282289 0.08413796
0001c0 04 16 67 3c 28 ad 27 3d 5c 20 ee bb 77 e8 e4 3c
       0.01410437 0.04093662 -0.007267041 0.02794288
0001d0 96 1f f3 3b d4 5a f3 3c 6c 04 8f 3d 8c 9c fb 3c
       0.007419537 0.029706396 0.06983265 0.030714296
0001e0 96 a4 64 bd cd 32 f8 bc de 76 64 3c fc 82 8f 3d
       -0.055821024 -0.030297661 0.013944356 0.07007405
0001f0 54 2d e6 bc 97 3f 30 3d 6d f8 00 bd a2 f5 40 bd
       -0.028097786 0.043029394 -0.031486917 -0.047109254
000200 c5 eb d5 3c c4 30 76 3d cb c2 fa bc b7 f9 b6 bd
       0.0261134 0.0601051 -0.030610463 -0.08934348
000210 f9 5a c6 3c d0 1b a0 3d 19 28 a8 bc 58 0c 24 bd
       0.024213301 0.07817805 -0.020526933 -0.040050834
000220 60 eb 7b 3d eb 57 06 bb 23 20 f1 bd 74 83 77 3d
       0.061503768 -0.002049918 -0.11773708 0.060428098
000230 9d ad dc 3d 95 d9 5e 3c 6e 86 89 3d 7b 7c 21 3e
       0.107753016 0.01360168 0.067150936 0.15770142
000240 29 3d 4a bc 77 89 b9 bd 5f 46 08 bb e7 50 5c 3d
       -0.012343683 -0.090594225 -0.0020793898 0.053788092
000250 79 60 8b bc 15 88 f1 bc f5 6d dc 3d 27 69 53 3b
       -0.017013775 -0.029483834 0.1076316 0.003225872
000260 24 11 1b bd ce 9d 7a bd eb d2 a2 bb c3 4f c3 bd
       -0.037858143 -0.06118565 -0.004968991 -0.09536698
000270 6c b8 2f 3d 9f bd 44 bd b6 64 0b 3c ab 36 72 3c
       0.042900488 -0.0480324 0.008507898 0.014783542
000280 fb d0 9b 3a 7d 31 ed 3c d0 e8 9f bd b2 6d 21 3d
       0.0011887843 0.028954262 -0.07808077 0.039411254
000290 01 e3 9c 3c 7a ac 86 3d ce e2 71 bd a4 59 dc 3b
       0.019151213 0.06575866 -0.05905419 0.006724553
0002a0 6c 8a ba bd 42 1f 66 3d 0b a9 88 3c 22 b1 0c 3e
       -0.09108433 0.056182154 0.016682168 0.13739446
0002b0 db 09 ff 3c 5b 61 29 3d 31 f2 8d bd 9a df 04 3c
       0.03113263 0.04135261 -0.0693096 0.008109951
0002c0 bf 22 72 bb 93 d3 71 bd 91 73 e8 bc 88 9f 7d 3a
       -0.003694698 -0.059039664 -0.028375419 0.0009674956
0002d0 77 57 9c bd 63 68 9c 3b 41 c3 0b 3c a0 a4 c1 3d
       -0.0763387 0.004773186 0.008530439 0.09455228
0002e0 e6 77 e6 bd a8 1b d5 3d a6 76 2a 3c c0 43 bd bb
       -0.112533376 0.10405666 0.010404265 -0.0057758987
0002f0 c4 07 9a 3c a0 63 bf bc db 4f 05 bd 5a d3 30 3b
       0.018802531 -0.023362935 -0.03254686 0.0026981444
000300 9e dd 17 bd f4 62 de bc b3 ac 02 3d f8 78 0c bd
       -0.037076585 -0.027146794 0.03190298 -0.034295052
000310 57 50 52 bb 54 34 cd bc ea ee 0f 3d ef ad 36 3d
       -0.0032091343 -0.025049366 0.035139956 0.04459947
000320 84 c2 16 3c 9d 8e 10 3c 5d 18 97 3d 8f c6 32 3d
       0.00920165 0.008823064 0.07377694 0.04364639
000330 f1 63 fc 3d 2d 63 15 bd 58 80 76 3d cd ba 9d bd
       0.1232375 -0.036471535 0.060180992 -0.07701645
000340 ed d5 ec 3c 1b ea 8a bc 71 2f dc 3c 8c e7 22 bc
       0.028910602 -0.016957333 0.02687809 -0.0099429
000350 de 11 49 bd d8 a8 09 3d a1 c3 7f bd 28 bb e5 3c
       -0.049089305 0.033608288 -0.062442426 0.028043345
000360 20 37 cb 3d 9e ab fa 3d e1 6c 80 bd a1 79 a5 bc
       0.09922624 0.12239765 -0.06270767 -0.020199599
000370 9e aa 6b bd c7 4c 10 3d 11 a9 06 bd 2e 4d be 3c
       -0.05753576 0.03522947 -0.032876078 0.023230162
000380 c8 da 66 bb fd 34 fb 3d d0 19 9b bc b5 64 78 3c
       -0.0035225619 0.12265966 -0.018933207 0.015160729
000390 c6 aa f7 3c bb 39 bf bc a2 8b 2b bb ef 87 ca bc
       0.030232798 -0.023342958 -0.0026175757 -0.024723021
0003a0 a0 03 89 3d 82 01 20 bd 15 75 21 be b1 23 ac 3d
       0.066901445 -0.039063938 -0.1576732 0.08405245
0003b0 3b 54 81 bd bd 34 74 3c 0e 49 12 bd 0f 3a a3 bd
       -0.06314894 0.014905152 -0.0357142 -0.07970058
0003c0 7a b9 30 bd c7 27 0d bd 3f 5b ad 3c a4 c1 eb bc
       -0.043145634 -0.034461763 0.021161674 -0.028778858
0003d0 53 e1 d2 bb 4b 89 05 3b 95 92 b8 bd 85 69 d2 3c
       -0.006435552 0.0020376022 -0.09012333 0.025685081
0003e0 8a c4 c9 3c 1c 0e 8f 3c 1d 9a 81 3d a2 80 3d bd
       0.02462985 0.017462783 0.06328223 -0.046265252
0003f0 87 d5 15 3d 54 3e 6d bd fc 86 30 3d c9 f0 9d bd
       0.03658059 -0.05792077 0.04309748 -0.07711942

distribution.mu.bias f4 [2]
000000 82 29 32 3b dc fb 37 3e
       0.0027185385 0.1796717

critic.network_body.vector_processors.0.normalizer.running_mean f4 [52]
000000 51 7b 67 3b 3a 19 7f 3f ba f6 32 35 ec 5d 9a 3e
       0.0035321305 0.9964787 6.66692e-07 0.30149782
000010 36 93 71 3b 29 0e 7f 3f cf f6 32 35 d9 90 9b 3e
       0.0036861426 0.9963098 6.666932e-07 0.30383947
000020 d8 ed 60 3b a9 1e 7f 3f c7 f6 b2 35 ef 60 99 3e
       0.0034321453 0.9965616 1.3333855e-06 0.29956767
000030 29 8a 6a 3b c3 15 7f 3f 06 39 06 36 52 f6 9c 3e
       0.0035787916 0.9964258 2.0000748e-06 0.30656677
000040 1c 6c 52 3b ff 2b 7f 3f 00 00 00 00 e5 29 98 3e
       0.0032107895 0.9967651 0.0 0.29719463
000050 94 1a 6a 3b 98 16 7f 3f d8 f6 32 35 f2 23 9e 3e
       0.0035721408 0.9964385 6.666937e-07 0.308868
000060 9b 89 46 3b ff 36 7f 3f c7 f6 32 35 8e 22 97 3e
       0.0030294422 0.9969329 6.6669276e-07 0.2951855
000070 c3 53 7d 3b 79 01 7f 3f d1 f6 32 35 df 13 9f 3e
       0.0038654662 0.9961162 6.666933e-07 0.31069848
000080 ce b7 50 3b 8f 2d 7f 3f 00 00 00 00 e8 79 96 3e
       0.0031847837 0.9967889 0.0 0.29389882
000090 b8 42 92 3b 4d da 7e 3f c7 f6 32 35 0c 97 9f 3e
       0.00446352 0.9955185 6.6669276e-07 0.31169927
0000a0 d0 b5 83 3b d5 f5 7e 3f d1 f6 32 35 97 46 96 3e
       0.0040194765 0.9959386 6.666933e-07 0.2935073
0000b0 76 3a b8 3b 3e 8e 7e 3f c3 f6 32 35 b6 47 9f 3e
       0.0056222035 0.99435794 6.6669253e-07 0.311094
0000c0 43 b4 ae 3b b8 a0 7e 3f 00 00 00 00 0e 21 97 3e
       0.0053315475 0.9946399 0.0 0.29517406

critic.network_body.vector_processors.0.normalizer.running_variance f4 [52]
000000 03 04 a5 45 17 6b a5 45 ed ff ff 3f ec ec 83 47
       5280.5015 5293.386 1.9999977 67545.84
000010 99 2c ac 45 45 74 ac 45 e9 fe ff 3f c8 fd 85 47
       5509.5747 5518.5337 1.9999667 68603.56
000020 32 5e a0 45 f5 5b a1 45 9c ff 3f 40 60 ca 81 47
       5131.7744 5163.4946 2.9999762 66452.75
000030 33 2f a7 45 62 9e a7 45 eb fd 7f 40 78 ce 88 47
       5349.9 5363.798 3.999873 70044.94
000040 d4 0c 96 45 79 d3 96 45 00 00 80 3f 04 72 7b 47
       4801.6035 4826.434 1.0 64370.016
000050 8e e0 a6 45 c6 2f a7 45 80 ff ff 3f 68 9e 8b 47
       5340.0693 5349.9717 1.9999847 71484.81
000060 1d 98 8d 45 6c 57 8e 45 de ff ff 3f 15 91 73 47
       4531.014 4554.9277 1.999996 62353.082
000070 75 82 b4 45 09 ca b4 45 c0 fe ff 3f fc 89 8e 47
       5776.307 5785.2544 1.9999619 72979.97
000080 ea d5 94 45 f0 9b 95 45 00 00 80 3f b6 4f 6e 47
       4762.7393 4787.492 1.0 61007.71
000090 72 51 d0 45 cb b0 d0 45 b0 ff ff 3f ba 3e 90 47
       6666.1807 6678.099 1.9999905 73853.45
0000a0 b6 ab bb 45 6e a3 bc 45 c1 fe ff 3f 7b d8 6d 47
       6005.464 6036.4287 1.999962 60888.48
0000b0 c9 09 03 46 f2 34 03 46 c9 ff ff 3f 2e 0d 8f 47
       8386.446 8397.236 1.9999934 73242.36
0000c0 0b 9b f8 45 48 78 f9 45 00 00 80 3f f5 01 75 47
       7955.3804 7983.035 1.0 62721.957

critic.network_body.linear_encoder.seq_layers.0.weight f4 [128, 52]
000000 89 cd 40 3e 68 d1 4d be d5 68 0c bd 94 7b 8b be
       0.18828405 -0.20099413 -0.034279663 -0.2724272
000010 e4 d9 37 bc 03 af 0c bd 8b 56 17 be 1c 90 ca 3d
       -0.011221383 -0.03434659 -0.14779107 0.09890768
000020 bf 09 94 bc 84 5e 45 be f0 3a 40 bc 2d 2b 40 bc
       -0.018071054 -0.19274336 -0.011732802 -0.011729044
000030 d2 49 31 bd fa 1a d0 bd 0e f2 4e 3e 63 72 22 be
       -0.04328329 -0.10161395 0.20209524 -0.15863948
000040 71 6e 72 3d 5b aa 1f 3d e1 20 15 3e 5d 5f dd 3c
       0.059187356 0.038980823 0.14563324 0.027023012
000050 de 56 cf 3e ad 6d f2 bc 47 b4 ad bd db 6a 11 3e
       0.40495962 -0.029593313 -0.08481651 0.14200918
000060 21 d8 f6 3b 8d 4e 11 be 37 24 2e be cf 3a 61 bd
       0.007533089 -0.14190121 -0.17006002 -0.054987725
000070 a0 70 0c 3e a4 bf e2 bd 0c 99 d0 bd 6c b5 63 3c
       0.13714838 -0.11071709 -0.101854414 0.013898235
000080 08 6f cf 3c cb 30 10 be 4d 7c d3 3d a3 28 4c be
       0.025321499 -0.14081113 0.10326443 -0.19937377
000090 47 1a 81 3d 3e 5f 0c 3c 0c 1c 88 bd b4 3f 9e 3d
       0.0630384 0.008567629 -0.066459745 0.07726994
0000a0 61 81 a1 bc 9e f3 7e bd 56 65 18 be 02 0d ea 3d
       -0.019715013 -0.06224405 -0.14882407 0.11428262
0000b0 1e 18 1e 3d 26 6b f2 bd dc cb 88 3c 39 77 cc 3c
       0.03859722 -0.11836843 0.01669877 0.024959194
0000c0 da 3f cc 3e 10 2d 4c be a6 82 89 bd 64 25 06 be
       0.39892465 -0.19939065 -0.06714372 -0.13100201
0000d0 cc 89 4f 3e 78 b1 b1 3e 03 00 70 be cc ef 14 3e
       0.20267409 0.3470571 -0.23437504 0.145446
0000e0 60 b7 f5 3b a0 72 86 be ed 39 dd bd 56 82 7c bd
       0.0074986666 -0.26259327 -0.10802064 -0.061647736
0000f0 91 33 d9 bd d6 d5 2e 3d c7 81 19 be 69 e8 86 3d
       -0.10605539 0.0426844 -0.14990912 0.065872975
000100 63 1c 06 bd 83 98 4b be 5b d3 a9 bd 03 5e 74 3d
       -0.032741915 -0.19882397 -0.08292266 0.05965997
000110 14 57 2c 3d 86 b5 2a bd ab fb 2a be f0 9f dd bb
       0.04207523 -0.04167702 -0.16697566 -0.006763451
000120 2d 4d 11 3e ed cb 67 3d 8d 77 8c 3c 28 a5 fe bd
       0.14189596 0.056590963 0.01714685 -0.12433845
000130 de 80 7c bb 76 6b 0b 3e 12 08 00 3e fd 5a d8 3d
       -0.003852896 0.13615212 0.12503079 0.1056423
000140 64 5a 1b 3e e3 16 71 3d 65 b0 0d 3e 51 36 a3 3b
       0.151712 0.058859717 0.1383682 0.0049808403
000150 51 c9 ea 3c 1f e6 05 3e d1 fa 9a 3e df e1 cc 3d
       0.028660448 0.13076065 0.30269483 0.10004019
000160 9c f4 2b 3d 39 ca d6 3c ae c5 7a bd a0 98 dd 3a
       0.041981325 0.026219474 -0.06122368 0.0016906448
000170 96 64 93 3c 98 3c 1a bd d2 32 24 be b7 2c 56 be
       0.017992299 -0.037655443 -0.16035011 -0.20915495
000180 e3 c3 23 bd 64 53 1f be 43 ea a5 3c c6 cf 06 be
       -0.039981734 -0.15559155 0.020253306 -0.13165197
000190 a2 80 36 3e b2 0f c3 3d 07 68 d0 3d 15 00 88 3e
       0.17822507 0.09524478 0.10176092 0.26562563
0001a0 c4 a9 5b 3d 1b 73 3a bd bd 9e f7 3d c4 0e 5d 3c
       0.053628698 -0.04551993 0.12090824 0.01349229
0001b0 60 af 4a be 40 6b 49 be 20 a0 84 bc 36 56 87 3e
       -0.19793463 -0.19669819 -0.016189635 0.2643296
0001c0 e8 c7 94 bd 94 e1 2d 3d 9c e4 56 be 96 4c ac bb
       -0.072646916 0.042451456 -0.20985645 -0.005258153
0001d0 3b a5 22 3e 10 b4 2a bd c4 c8 0c 3e b6 34 2e 3e
       0.15883343 -0.041675627 0.13748461 0.17012295
0001e0 41 cc 32 3e 32 57 7d bd c0 c0 89 3b 51 61 6e be
       0.17460729 -0.061850734 0.004203886 -0.23279311
0001f0 8f a4 8f 3d 70 ba bd 38 0f 34 81 3e 81 13 13 be
       0.07013809 9.046949e-05 0.2523503 -0.14362909
000200 d9 b7 32 3d 8a d4 26 bd e7 f2 10 3d c8 27 8e bd
       0.043632362 -0.040730037 0.0353879 -0.069411814
000210 d6 54 71 3e 6e 60 47 3d 1a fa 10 3d 34 0a 34 3d
       0.23567519 0.048675947 0.035394765 0.043955043
000220 01 2c 84 3d 69 51 e3 bc 41 e8 ac 3e 75 dd 46 3e
       0.064537056 -0.02774878 0.33770946 0.19420417
000230 d1 69 48 3e a4 d4 ff bd bc 40 a4 3d 42 40 d6 bd
       0.19571616 -0.1249173 0.080201596 -0.10461475
000240 f4 7c bf 3d 3c bf 16 bd 42 8f 97 3e 64 a8 a1 3d
       0.09350005 -0.03680347 0.29601485 0.07893446
000250 5e 62 e8 3c 1d 15 39 bd 89 c2 8c 3d 5e a9 87 3b
       0.028367218 -0.04518615 0.06873042 0.004140063
000260 e9 5d a6 bd 15 e2 00 bd fa c4 06 be 27 51 6d 3e
       -0.08123381 -0.03146561 -0.13161078 0.23175488
000270 8f 09 2a bd b6 58 3b 3e 1b a7 74 3d 30 9d 13 be
       -0.041513022 0.1829556 0.059729677 -0.14415431
000280 34 db fa bc 51 a3 ae 3d 77 bb 80 3e 1b 25 7d be
       -0.030622102 0.08527244 0.25143024 -0.24721186
000290 1e d7 9b 3c 9b b0 4d bd cb bc 7b 3d f8 4f cf bd
       0.019023474 -0.050217252 0.061459344 -0.10122675
0002a0 d5 1d 19 be 0a fe 7c 3c a7 56 b3 bd 02 7d ca bd
       -0.14952786 0.015441427 -0.08756762 -0.098871246
0002b0 f2 77 84 3c c7 ef d0 bd e7 21 33 be dc 56 13 3e
       0.016170476 -0.10201984 -0.17493401 0.14388603
0002c0 cd 2a b1 bd b4 bf d0 3c d7 72 5a 3e 03 5b 33 bd
       -0.08650742 0.025482036 0.2133287 -0.043787967
0002d0 1c ff 2f 3b 59 e3 9b 3c 01 56 b7 3c 28 e1 37 be
       0.0026854938 0.019029306 0.022379877 -0.17956984
0002e0 4b ef e7 bd e7 ea 69 bd 52 ba b6 bd b3 01 ae bb
       -0.113249384 -0.057108786 -0.089222565 -0.005310261
0002f0 0d 5e 45 bc c5 99 33 be d6 f4 6b 3e 43 f3 a1 3e
       -0.012046349 -0.17539127 0.23042616 0.31630906
000300 5a ac 36 bb 49 42 87 be eb 66 34 3e 5c 68 76 3e
       -0.0027873726 -0.2641776 0.17617385 0.24063247
000310 66 a1 cf 3b 13 19 38 3e b8 c2 37 3e d3 dc 6c bd
       0.006336379 0.17978315 0.17945373 -0.057827782
000320 a4 12 3c be 4c 78 d7 bd ef 2a c1 3d 81 8c 88 bd
       -0.18366486 -0.10520992 0.09432017 -0.06667424
000330 02 36 60 3c 86 43 9d 3c 60 c6 53 3d e8 16 03 3e
       0.0136847515 0.019197237 0.051702857 0.12801707
000340 97 92 05 be 7f ad d1 bb 5d 72 86 be bc f1 be bd
       -0.13044201 -0.006398856 -0.26259127 -0.09323451
000350 94 6f 2b be 01 91 0e 3e 52 31 a0 3e 2e 00 16 3d
       -0.16741782 0.13922502 0.31287628 0.036621265
000360 aa da 47 be 9c c4 04 3e 92 93 12 3e d5 45 01 be
       -0.19517007 0.12965626 0.14314106 -0.12624295
000370 2e 80 4b bd 24 50 d8 bc ee 2a 86 3d 54 bf a8 bd
       -0.04968279 -0.026405402 0.06551157 -0.08239618
000380 cb 72 8c be 21 a7 0a be b5 1b c3 3d 58 b3 ff bd
       -0.2743133 -0.13540317 0.09526769 -0.12485379
000390 47 4f a9 3d e7 cb 23 be c1 1a 70 bd 87 f2 2b 3e
       0.08267074 -0.15995751 -0.058619265 0.16791736
0003a0 28 e3 11 3d 72 52 e0 bd cf fa a3 3e 4e 45 7a bd
       0.035617024 -0.10953225 0.3202729 -0.06110125
0003b0 c4 18 14 3d d2 de c8 bd 48 71 0b be e6 95 24 3d
       0.03615643 -0.098081246 -0.13617432 0.040182017
0003c0 2b 24 57 3d 33 e3 c1 3d 87 a1 fb 3d d8 f6 5c 3e
       0.052524727 0.09467163 0.12286668 0.21578538
0003d0 d1 c1 41 bc f2 5f 38 bb fe 3d 17 3e 43 f4 3f 3b
       -0.011825995 -0.002813336 0.14769742 0.0029289878
0003e0 27 f0 15 3c 23 30 6c 3e df a7 a8 bc 61 86 9e 3d
       0.009151495 0.23065238 -0.02058786 0.077404745
0003f0 90 2e a2 bb fe 41 7c 3e 8e 08 5d be 44 00 3d bd
       -0.0049493983 0.24634549 -0.21585295 -0.04614283

critic.network_body.linear_encoder.seq_layers.0.bias f4 [128]
000000 42 59 ba bc 80 62 e6 bb e4 71 25 3d 91 05 73 bd
       -0.02274764 -0.007030785 0.040391818 -0.05933148
000010 e3 16 d0 bd a2 dd b1 bd e3 39 b3 bd c8 c4 9a bd
       -0.10160615 -0.08684851 -0.087512754 -0.07557064
000020 26 b5 24 bd 07 64 55 bd f9 c0 39 bd 2d e4 af bd
       -0.04021182 -0.052097347 -0.04535005 -0.08588443
000030 98 e8 83 bc 6c 92 15 be 73 fe a2 bd a4 1d 2f bd
       -0.01610212 -0.14606637 -0.079586886 -0.042752877
000040 4f a6 78 bb 5d 33 5b 3b f3 54 4b bd 1b a0 39 3c
       -0.0037940925 0.0033447363 -0.04964156 0.011329676
000050 7b 82 81 bd 8e cf e4 bb 84 d3 f5 bc 1b 16 d3 bd
       -0.06323715 -0.0069827503 -0.030008085 -0.10306951
000060 34 c2 82 bd ac ad d9 bc 1a aa d6 bd 80 98 44 bd
       -0.063846976 -0.026572071 -0.10481663 -0.047996998
000070 28 06 49 bd fa d8 b3 bd f5 2b 09 bd 4a e9 a8 bd
       -0.049078137 -0.08781619 -0.033489186 -0.08247621
000080 55 3d ae bc 54 98 91 bd fc d0 bc bc 35 23 13 be
       -0.02126948 -0.071091324 -0.02304887 -0.14368899
000090 94 40 be bd 4b 52 7f 3b c6 5a e1 bd 98 ec 6a bd
       -0.09289661 0.0038958963 -0.11003642 -0.05735454
0000a0 65 90 a5 bc 38 b5 29 bd 95 a1 c4 bc 18 41 37 bd
       -0.020210454 -0.04143259 -0.02400283 -0.044739813
0000b0 07 2d b8 bd bc d6 cb bd 3d 74 b3 3c 86 ad 13 bd
       -0.08992963 -0.09953067 0.021906013 -0.036054157
0000c0 9c ef 6b bc 4a 2f df bd 98 29 25 be 4d b7 d8 bd
       -0.014400389 -0.108976915 -0.16129148 -0.10581837
0000d0 43 65 3e 3c e7 be a1 bd 71 df e1 bb 8f ca 57 bc
       0.011620822 -0.0789774 -0.0068930914 -0.013170852
0000e0 00 de 74 bd d7 de 0e bd 6a 8f c4 bd 54 9a f3 bd
       -0.05978203 -0.034880485 -0.095976666 -0.1189467
0000f0 f4 44 43 bd c2 3a 62 bd 73 9a a7 bd a6 71 8c bd
       -0.04767318 -0.055231817 -0.08183756 -0.06857614
000100 fb f6 b3 bd c5 d9 14 bd d1 83 62 bd 95 03 cf bd
       -0.08787342 -0.036340494 -0.05530149 -0.10108105
000110 f2 a7 41 bd 3f 89 16 bd ca d0 c5 3b 99 4c 3b bd
       -0.047279306 -0.03675198 0.0060368525 -0.045727346
000120 cc 35 28 bd 2e 56 b0 bd 8d 50 b9 bd f4 a1 a3 3c
       -0.04106693 -0.086101875 -0.09048567 0.019974686
000130 ff 00 4f bd d6 67 31 3d a5 88 3b bd ab 13 09 bc
       -0.05053806 0.043311916 -0.04578461 -0.008366506
000140 90 a7 91 bd 3e b4 85 bc a9 ee 5a bd df e7 22 bd
       -0.07112038 -0.016321298 -0.05345026 -0.03977191
000150 2d 0e 81 3c 39 04 9b bd d6 3e d0 bd 99 1e 25 bc
       0.01575383 -0.07569165 -0.10168235 -0.010078096
000160 db cc 81 bc b3 f0 da 3c c0 7d 1b bd 13 8c 69 bd
       -0.015844753 0.026726102 -0.03796172 -0.05701835
000170 b8 dc d0 bd 07 a3 80 bc 73 cb 17 bd 85 58 4b bd
       -0.10198349 -0.015702737 -0.03705926 -0.049644966
000180 93 04 01 bd e5 49 f2 bc 45 0f d1 bd 7f 13 97 bd
       -0.031498503 -0.029576251 -0.102079906 -0.073767655
000190 55 d4 bc bd 76 25 ec bd f8 1f eb bd 5c 72 ce bc
       -0.092201866 -0.115305826 -0.11480707 -0.025201015
0001a0 76 62 2e bd d9 2b 17 bd 92 fc 9d bb fd e0 80 bd
       -0.04257437 -0.03690705 -0.0048213685 -0.06292913
0001b0 8e 85 a5 bd 5a 2b 4a bd cb 1d b3 bd 7a 5e 44 3d
       -0.08082114 -0.04935775 -0.08745917 0.047941662
0001c0 28 8b ab bc 45 3a b7 bd 7a 3c 09 bd 97 e7 7f 3b
       -0.020940378 -0.08946661 -0.03350494 0.003904795
0001d0 2a af 8a bd 0e fd d7 bd 9c 35 67 bd e6 cf d4 bb
       -0.06771691 -0.10546313 -0.05644761 -0.00649451
0001e0 0b 6b 08 be 0d 00 37 be e8 49 45 bd 24 80 a8 3c
       -0.13322084 -0.17871113 -0.048166186 0.020568915
0001f0 98 10 60 3c 14 2a bb 3c 94 53 ff bd 3a 77 bd bc
       0.013675831 0.022847213 -0.12467113 -0.02312814
