results/fifth/Car/Car-1999989.pt (torch, 582455 bytes, 40 tensors)

network_body.vector_processors.0.normalizer.running_mean f4 [52]
00000000: 9494 763b f705 7f3f 1638 0635 3621 983e
00000010: 1530 833b 58f4 7e3f 2338 0635 8f04 993e
00000020: e868 673b cf15 7f3f 1f38 8635 c17e 973e
00000030: 6ddc 803b 6cf9 7e3f f053 c935 063e 9a3e
00000040: dd62 553b b72a 7f3f 0000 0000 8ea0 963e
00000050: 8e98 863b 4ced 7e3f 2b38 0635 1756 9b3e
00000060: 4281 4a3b 0b38 7f3f 1f38 0635 b4bd 953e
00000070: be5b 933b 44d2 7e3f 2538 0635 1c33 9c3e
00000080: 5d7b 5b3b 0725 7f3f 0000 0000 9812 953e
00000090: b019 aa3b b1af 7e3f 1f38 0635 bfc9 9c3e
000000a0: 6bda 8e3b 7cdb 7e3f 2538 0635 16b8 943e
000000b0: f544 d83b e74b 7e3f 1d38 0635 65b8 9c3e
000000c0: b04c c33b ea74 7e3f 0000 0000 81c0 953e
0.003762518 0.99618477 5.0000506e-07 0.29712838 0.0040035346 0.9959159 5.000058e-07 0.2988629
0.0035310332 0.9964265 1.0000111e-06 0.29588893 0.003932527 0.9959934 1.5000096e-06 0.30125445
0.0032560148 0.9967455 0.0 0.29419369 0.0041075414 0.99580836 5.0000625e-07 0.3033912
0.0030899798 0.9969489 5.0000557e-07 0.29246294 0.0044970205 0.9953959 5.000059e-07 0.30507743
0.0033490278 0.99665874 0.0 0.29115748 0.0051910505 0.99486834 5.0000557e-07 0.3062267
0.0043595335 0.99553657 5.000059e-07 0.29046696 0.006600017 0.9933457 5.0000546e-07 0.30609432
0.0059600696 0.99397147 0.0 0.2924843

network_body.vector_processors.0.normalizer.running_variance f4 [52]
00000000: 1f59 ea45 30bf ea45 edff ff3f 236e ac47
00000010: e444 f945 be8a f945 e9fe ff3f 12e3 ae47
00000020: 29f0 db45 3606 dd45 9cff 3f40 4737 aa47
00000030: 61e1 f445 af4e f545 ebfd 7f40 56c1 b247
00000040: f7d6 ca45 e39c cb45 0000 803f b898 a547
00000050: 51ba ff45 9403 0046 80ff ff3f 33ad b647
00000060: de89 c045 0e49 c145 deff ff3f 8921 a047
00000070: 15e8 0b46 a30a 0c46 c0fe ff3f d26a ba47
00000080: d89c d045 5f62 d145 0000 803f 129c 9b47
00000090: 4566 2146 3897 2146 b0ff ff3f 3ee6 bc47
000000a0: 16a6 0746 8a24 0846 c1fe ff3f d298 9947
000000b0: c9e6 4c46 7811 4d46 c9ff ff3f 7de6 bb47
000000c0: 362c 3946 2fa5 3946 0000 803f c22d 9e47
7499.14 7511.8984 1.9999977 88284.27 7976.6113 7985.343 1.9999667 89542.14
7038.02 7072.7764 2.9999762 87150.555 7836.1724 7849.8354 3.999873 91522.67
6490.8706 6515.611 1.0 84785.44 8183.2896 8192.895 1.9999847 93530.4
6161.2334 6185.132 1.999996 81987.07 8954.0205 8962.659 1.9999619 95445.64
6675.6055 6700.2964 1.0 79672.14 10329.567 10341.805 1.9999905 96716.484
8681.521 8713.135 1.999962 78641.64 13113.696 13124.367 1.9999934 96204.98
11851.053 11881.296 1.0 80987.516

network_body.linear_encoder.seq_layers.0.weight f4 [128, 52]
00000000: 19d2 f63d cc0d 85bd f885 7abd 3654 2fbe
00000010: ba97 5d3e 5a6d 18be 093a 363e a16f b73d
00000020: 2f6a 8f3e fe2d 6cbe 0140 2a3e 7eed 3c3e
00000030: 809e 693d f8e5 5e3d 048b 6c3b 8730 abbd
00000040: 5cfe a53e 7745 ebbd 0c2d 5b3c b0e3 383e
00000050: 19d1 453e 6fde 76be c4d3 94be 6d74 133c
00000060: e40b 12be bdd2 b1bc dc07 383e 3873 213d
00000070: 74ee 073e 022b 323d 6e5a 123e 6215 893d
00000080: cc55 363c 3942 343c c042 47bd 4e80 a33d
00000090: d67a 09be e8b5 e13d 6f75 acbe 59c0 f53d
000000a0: 3fff 163e b4ae b33c 73b9 d8bd b3ab 12be
000000b0: a138 1bbe 18ae 0d3d b97f 09be 54c8 67be
000000c0: 5b50 893d eb0a b0be eb50 0bbe 4aba 92bc
000000d0: fcad 9a3d 1d4b 04be fb8f a93e d67d a53e
000000e0: 7203 afbe 3004 bf3d 5be7 af3b 830b 2ebc
000000f0: 7750 7cbe f5c3 4b3e d76c 233e b1f8 6bbe
00000100: 42ba 633c e598 c33d 2c51 df3d f3e0 65bd
00000110: da98 00be 1f07 05bd 5108 09be 811c 3b3d
00000120: 3b18 95bd 8b68 0fbe d943 543e 7c3f 05be
00000130: 3c17 07bd 7f61 893b 1cc9 65bd dbde 413e
00000140: 82cf 973d 85dd 873b 595d 8f3d 6c91 aabd
00000150: 1c94 923c 8778 c53c 5925 cdbd 6631 05be
00000160: b7f6 ad3e 00ea 07be 4500 a43d 1104 eebd
00000170: 4fed 9b3c 8a93 15be 9c90 bcbc 14df 3e3d
00000180: 9907 c5bd 5282 5a3e e863 853d 3e4c abbe
00000190: cc69 64be d1fc 083d f4a0 3a3e 3d72 5b3e
000001a0: f095 553e 6c47 9dbe e885 4d3e d3eb eabd
000001b0: e170 783d abfd 82be bac5 1c3e 7307 19be
000001c0: a8a7 2a3e e4b5 8dbd 06d9 1b3d ae51 7cbd
000001d0: 8fe0 193e f33c 583e c99a 543c 8926 ce3c
000001e0: abf8 0dbe 942b d5bc 724e 503e e249 89be
000001f0: 0fac 5dbd a369 6dbd 1440 353e 1f62 f5bc
00000200: dbb6 5cbd 29bf b53d b271 f83d da5a 2dbe
00000210: 4272 553e c28a 90bd a3c8 273e 2305 0b3e
00000220: 5241 c83d 395b 0abc 8b25 08be ccfe cd3c
00000230: 355e fbbd 1ecb 3e3e fb00 9b3e 3934 013e
00000240: ef31 58be 3037 15bd 60e2 9d3d f2a1 343e
00000250: 95d2 b73c 8c7c 18be 6ef2 69bd 7797 af3d
00000260: 367f f4bd ccab 92be 9d8d 673d 02fa b8be
00000270: 1c25 323c 6441 debd fdd6 2c3e f17a 553e
00000280: 74cb 8c3c 87e6 aebd ca33 173c d5d6 4f3e
00000290: 4760 73bd cd58 133d 7d8a f13c 8bab 7fbd
000002a0: 24c7 a7bd 12d4 10bd b122 d43c 7885 d23d
000002b0: 04ad 253d 773d 233e 8800 06be 0b4f 2bbe
000002c0: 8a59 9fbe 1bd1 743b 05ae a2bb 8ac8 97bc
000002d0: 2d45 9f3e d768 15be 157d ddbc 7f08 a2bd
000002e0: 0cce 97bd 7f42 1f3e adae 4f3d 7c77 ab3d
000002f0: e834 1fbe 9813 61be 0f90 453d fbd9 5cbe
00000300: 413a 2e3e d820 0d3d 0a3f 803c 4313 92bd
00000310: 6384 8c3e 836c f33d 4d28 f3bd 1a20 1ebe
00000320: e7ec 123e 9e3e 143d ab98 643d 486e 6e3c
00000330: f307 d4bd ca91 bbbd 188a 3bbc eb07 80bd
00000340: 3567 433d 47d4 1fbe 239c 63be c4cc a73e
00000350: 289d fc3d 6196 e83d 803d 433e 1768 02bd
00000360: 10ee 03be 7c1d b13d bca3 cabd 7ae3 cd3c
00000370: e816 09be 6036 ed3d 045d 963e 4abe b33c
00000380: 3e42 b63c 1ed3 46bc b7b0 55be aa44 9bbb
00000390: c992 6f3d fdf5 af3d 536a 8d3d df99 113e
000003a0: 896f 183e bd0a 693d 4269 d83d c2bc a9bc
000003b0: 0d46 88bd bea6 323e f71f b83d 78ed c53d
000003c0: f93f 183e ffbf f03c 180f 863e 9bfb f9be
000003d0: 8338 923b 5abc a03c 2de0 553e e007 a03c
000003e0: 0ca3 443d b047 9abc 2381 803e ec58 c8bd
000003f0: 1c81 7fbc b16b 78be e10a a53e 3ada 6fbe
0.12051792 -0.06496772 -0.06116292 -0.17121968 0.2163991 -0.14885464 0.17795576 0.089568384
0.280107 -0.2306442 0.16625978 0.18449971 0.057035923 0.054418534 0.0036093602 -0.08358865
0.32420623 -0.11487859 0.013377439 0.18055606 0.19318046 -0.24108289 -0.29067814 0.008999926
-0.14262348 -0.021706933 0.17971748 0.03941652 0.13274556 0.043498047 0.14292309 0.066935316
0.011128854 0.011002117 -0.048647642 0.079834566 -0.13425764 0.11021024 -0.33683345 0.11999578
0.14745806 0.02193389 -0.10582247 -0.1432331 -0.15158321 0.034589857 -0.13427629 -0.22635013
0.0670478 -0.3438333 -0.13605087 -0.017911095 0.07552716 -0.12919278 0.3311766 0.32322568
-0.34182316 0.093269706 0.005368156 -0.010622862 -0.2464007 0.1989897 0.15959488 -0.23044087
0.013899388 0.09550647 0.10904154 -0.05612273 -0.12558308 -0.032477494 -0.13382079 0.04568148
-0.07280012 -0.14004724 0.20729007 -0.13012499 -0.032981142 0.0041925306 -0.056099996 0.18932669
0.07412626 0.00414628 0.070002265 -0.08328518 0.01789289 0.024105323 -0.10016889 -0.13007125
0.3397729 -0.13272858 0.08007864 -0.11621869 0.019034056 -0.14607063 -0.023018174 0.046599463
-0.0962059 0.21338776 0.06513196 -0.33456606 -0.22305983 0.03344423 0.18225461 0.21430297
0.20857978 -0.30718553 0.20070612 -0.11470761 0.060654525 -0.25584158 0.15309802 -0.14944248
0.16665518 -0.069194585 0.038048767 -0.061601333 0.15027069 0.21117 0.012976357 0.02516486
-0.1386439 -0.026021756 0.20342425 -0.2681418 -0.054119166 -0.05796207 0.17700225 -0.029954014
-0.053885322 0.088743515 0.12131061 -0.16929188 0.20844367 -0.07057716 0.1638513 0.13576178
0.09778084 -0.008444601 -0.13295572 0.02514591 -0.12273828 0.1863217 0.30274186 0.12617578
-0.21112798 -0.036429584 0.07709193 0.17639902 0.02243928 -0.14891261 -0.057115965 0.085738115
-0.11938326 -0.28646696 0.056531537 -0.3612824 0.010873105 -0.10852316 0.16878887 0.2084768
0.017186858 -0.08540063 0.009228656 0.20296796 -0.05941799 0.03597336 0.029484982 -0.062419455
-0.0819228 -0.035358496 0.025895448 0.102793634 0.040448204 0.15941416 -0.1308614 -0.16729371
-0.31123 0.0037356082 -0.0049645924 -0.018528242 0.31107464 -0.14590774 -0.027037183 -0.07911777
-0.07412347 0.1555271 0.050703693 0.08372399 -0.15547526 -0.2198013 0.048233088 -0.21567528
0.1701441 0.03445515 0.01565506 -0.0713258 0.27444753 0.11885931 -0.11872921 -0.15441933
0.14348184 0.03619253 0.055809658 0.01455266 -0.10353079 -0.091586664 -0.011446498 -0.0625151
0.047705848 -0.15608321 -0.2222753 0.3277341 0.12334663 0.113568075 0.19066429 -0.03183755
-0.12883782 0.08648202 -0.09894511 0.025132883 -0.13387644 0.11582637 0.2936784 0.021941323
0.022248384 -0.012135295 -0.20868193 -0.00473841 0.058489595 0.085918404 0.06905045 0.14218853
0.14886297 0.056895006 0.10566951 -0.02071989 -0.06653986 0.1744642 0.08990472 0.09664434
0.14868154 0.029388426 0.2618339 -0.48824772 0.004462303 0.019621063 0.20886298 0.019535005
0.048007056 -0.018833011 0.25098523 -0.097825855 -0.015594747 -0.24259831 0.32234862 -0.2342309

network_body.linear_encoder.seq_layers.0.bias f4 [128]
00000000: bcc1 04bd 0960 b0bd e15a 1bbe f52e 15bd
00000010: a311 69bd 7555 973d 488c 25be 4052 02bc
00000020: e118 b4bc 4042 0ebe 18ba c1bd 0c94 cf3d
00000030: 42ec 493d 10e9 663e e990 b13d 4916 913d
00000040: ef10 c7bd 0d0d 4abe 0f7a 8fbc 8401 bfbd
00000050: 0765 00be de54 c9bc 502d d2bd 11ac 5bbe
00000060: 7d04 263e cde0 0f3e e4e5 34be a0ca d6bd
00000070: 5a82 0b3b 3eb0 c23d 5eee 26be cfc6 1c3e
00000080: a61b 84bd bc1e d1bd 9795 dd3d b40e 493e
00000090: d9f9 98bd 5bb3 14be d548 2f3e e749 d1bd
000000a0: ef07 14be 4e55 663e a549 0dbe 4dce 8ebc
000000b0: ca9d 30be 0fab 533e 91f4 d3bd f54b 71bd
000000c0: 3152 afbd 1c52 1ebe c377 5b3e 74af d1b8
000000d0: 68c2 243e 1b2d 21be a671 38bc 8eaf e2bc
000000e0: 6424 b53d 5cb5 273e 3526 863d d1bf 0bbe
000000f0: 7dc5 f93d 061f 0a3e 840e 18be 4f38 f0bd
00000100: feb2 ef3d 6229 25be 970b 2bbe 48e4 4a3d
00000110: 5a87 143e 2a0c 223e 7e94 9dbd 542a 0bbe
00000120: 0825 28be 30a5 39be 1804 073d d32d de3d
00000130: e32f 0ebe 41bc 043e 1fd6 563e 5a83 593e
00000140: b7ee 17be 2c0c 88bb 2e05 a73d 73b8 0cbe
00000150: d9ea 51be 01ab e3bd 40d9 1a3e 40e6 083e
00000160: 25c8 d1bd 4d5d 063d f3b2 9fbd e4dc e83d
00000170: f943 6e3d f2af fc3d 97fe 9dbc 694b cc3d
00000180: 1066 e83d 4256 0cbe 1a27 0abe 75c1 3e3d
00000190: f3da 28be a213 0ebe 226d 1fbe dbad 2ebe
000001a0: c202 36be 5fe4 5c3e 52c4 f43c 25b9 693c
000001b0: 5cb6 ec3d bccd 16be 54de 27be 6e39 15be
000001c0: 0f05 e63d 86bd 04be 554a 333e 5093 0abe
000001d0: 4b4b 5e3e 36aa 38bb 3b6a 21be 0696 6bbe
000001e0: 7fd4 4dbe d679 b33d eefe c03d 9c08 f33d
000001f0: 48bb 323e a901 063e 6920 29bd fab0 1b3e
-0.032411322 -0.08612067 -0.15171386 -0.036421735 -0.056901585 0.073893465 -0.16166794 -0.00795418
-0.02198452 -0.1389246 -0.09459323 0.101356596 0.04929758 0.22549844 0.086702175 0.07084329
-0.09720027 -0.19731541 -0.017514257 -0.09326461 -0.12538539 -0.0245766 -0.10262549 -0.21452357
0.1621265 0.14050598 -0.17665821 -0.104878664 0.0021287412 0.09506272 -0.16301867 0.15310214
-0.06450586 -0.1021094 0.108195476 0.19634515 -0.0746953 -0.14521544 0.17117627 -0.10219174
-0.14456151 0.22493479 -0.13797624 -0.017432356 -0.17247692 0.20670722 -0.10349382 -0.05891033
-0.08560599 -0.1546101 0.21432404 -9.998577e-05 0.16089785 -0.15739863 -0.011257565 -0.027671602
0.088448316 0.16377777 0.06550256 -0.13647391 0.12195871 0.13488397 -0.14849287 -0.1172949
0.11704062 -0.16129068 -0.1670364 0.049534112 0.14504758 0.15824953 -0.07694338 -0.13590366
-0.16420376 -0.1812942 0.03296289 0.10848584 -0.13885455 0.12962438 0.20980118 0.21241513
-0.14837156 -0.0041518416 0.08155285 -0.13742237 -0.20499744 -0.11116601 0.15121937 0.13369083
-0.10243253 0.032803822 -0.07797804 0.113702565 0.058170293 0.123382464 -0.019286437 0.09975321
0.11347592 -0.1370478 -0.13491479 0.046571214 -0.16489772 -0.13874677 -0.15568975 -0.17058508
-0.1777449 0.21571492 0.02987877 0.014265333 0.1155822 -0.14726919 -0.16393405 -0.14572689
0.112314336 -0.12962922 0.17508824 -0.13532758 0.2170841 -0.0028177625 -0.1576318 -0.23006448
-0.20100592 0.08763473 0.09423624 0.118668765 0.17454255 0.13086571 -0.041290674 0.1520423

network_body.linear_encoder.seq_layers.2.weight f4 [128, 128]
00000000: c6bb 0dbb 1919 013e c090 8d3c e68c ffbd
00000010: e55c eabd 8848 e53d 7ad7 e1bd 0869 b1bd
00000020: 5d34 a9bd dd0c 00be 5d78 69bc 478b a43d
00000030: d829 5ebd d7aa 0d3e 79c9 d03d e1ce 64be
00000040: f176 25bd 6f57 b93d 5fa7 1cbe f6f0 653d
00000050: c61d a3bc 45ce 9abc 8abf dd3c 63a4 653c
00000060: e12b 89bc b481 8b3d 812f 5a3c 3646 a83d
00000070: fa6d cebd c296 ddbd f1b6 fc3d 6194 c33d
00000080: 454f cbbd 860d 32be d1df b03d 3412 043d
00000090: 6bd2 17bd 7046 873d d31e 78bc 0995 0bbd
000000a0: d2b7 7b3d ca63 5e3e 6a84 72bd 1c2e 563d
000000b0: 5232 98bb 30f7 b63d b25c 09bd a3df f1bd
000000c0: 7956 183c c7e4 7d3d d865 043a 87ea eebc
000000d0: 2a08 753e 5952 2d3c 362b babd a067 05be
000000e0: 28ba 853e 5fb8 fb3d 6c11 41be aeb9 82bc
000000f0: d1ca 98bd b95d 3f3d afb2 8c3d cd7d 633d
00000100: 2ac4 7cbc 2c51 493d f5f9 4bbd 770d 1b3e
00000110: a854 e13c 78a1 95bd c602 26be 6a7b 3ebd
00000120: 8e08 88bd 5155 c2bd 0b86 cbbd 5538 09bd
00000130: 0b23 fdbd e777 e3ba 2fdc 873d 317f d6bc
00000140: d8b2 21bd 2fd9 78bb 256b b0bc e6bf c9bc
00000150: b542 223b cc7d d1bc 1f0a 5abe 2e93 aabe
00000160: 002e 44be ca51 9dbd 1497 b83d 513e 06be
00000170: 1149 e6bc 780c f0bd b90e 2c3e bb20 9dbd
00000180: df85 b23d 8c67 a6bd 3b6a 5d3e 8698 97bd
00000190: bc01 4e3d ddf5 48bd bfc5 bc3d db0a b7bc
000001a0: 6554 033e ffba 53bb 1cb9 6fbe a911 74bd
000001b0: ece2 adbd 756f f53d 3da4 ed3c a72a 49bd
000001c0: f60c 3cbd 5e37 dc3d bea7 c5bd cc16 12bd
000001d0: 523a 6e3d dada 2dbc 54a3 443d 58b5 db3d
000001e0: 5c76 9a3d 9472 0dbe d4e4 7dbd 7303 843d
000001f0: c8dd 12be a08a b9bd 7df1 20bd cd25 24bd
00000200: f1b1 2cbd 2545 cebb 4181 323d bc89 34bc
00000210: 54f5 bebd bea9 d93d fe1c 033d 5be6 013d
00000220: efad 323d 5b7e db3d cdf7 bbbd 7223 9a3b
00000230: bfdb 85bd 28c6 563d 6b2b 2c3d 082d cc3d
00000240: d7b7 0ebd acdd 2bbe b351 60be ffab 97bd
00000250: 9ac2 8ebd 8de4 5abd 44ea 793d a693 68bd
00000260: bf98 8dbd b5c3 853d f521 b6bd 1620 b03c
00000270: da9e cdbc a268 e73c 9d4e 23bd eaba 0cbe
00000280: ef2d 87bd e6ea a2bd 389d 283d a427 223e
00000290: 6f05 3ebe 17fb 6e3d d27d 80bc c83e 50be
000002a0: f941 b03c 30ef bcbd 03dd 00be 4e84 033d
000002b0: 5ad1 fabc 4f2d 1c3e bb36 3bbe 680c 17be
000002c0: 8c51 6e3d 6f03 86bd 8510 0d3e 9468 c4bd
000002d0: 340f ad3d e937 adbc c77d d9bd af3c d4bd
000002e0: 7bad 153d 0940 523e a8cd 25be dca2 043d
000002f0: cd81 98bd 1d00 c23d c505 223e d72e b43b
00000300: dfec 093e ddca cdbd e51a 503d cb9c 633b
00000310: 7a93 063e 2545 8ebd 3d39 3abe b307 673b
00000320: fb07 50bc 9d90 5fbd a93e 7b3b 91f2 f1bd
00000330: 7de1 fcbd 8316 d23d ab27 393d a3ed e43c
00000340: b8ff 143c bc42 04be 2d92 c23d b8ea e43d
00000350: c82c 16be 2755 323d 73c2 393c 498f 9bbd
00000360: aca1 eebd bd31 75bd 3061 27bb 05f7 9c3d
00000370: 00d5 73be b364 93bb 40f1 92be ab33 16be
00000380: 2ed5 3a3d 4887 39bd 259d 8cbb 849a 02bd
00000390: 10b2 96bd cb46 c63d fc7c e0bd d9ac 1dbc
000003a0: 71b3 79bd 67c3 173e 6844 1bbd 39b4 0ebe
000003b0: 352b 0a3d 07f8 5dbb e3c7 63bd f958 fdbd
000003c0: 5d14 c6bc 4a74 873b 74d3 183d adb5 ccbd
000003d0: 9b86 0b3e d30e 043d 36f3 dd3c bec1 c4bc
000003e0: 388f 3fbe a6a6 ebbd fd05 57be 8837 43be
000003f0: 723f 3e3d f3a2 f03c d478 8fbd 64b9 8d3d
-0.0021626814 0.1260723 0.017280936 -0.12478046 -0.114434995 0.11195475 -0.11027427 -0.08662611
-0.08261941 -0.12504907 -0.014249888 0.080343775 -0.054239124 0.13834701 0.10194678 -0.22344543
-0.040396634 0.0904988 -0.15298222 0.056138 -0.019911658 -0.018897185 0.027068872 0.014016244
-0.016744556 0.06811848 0.01331699 0.08216517 -0.1007957 -0.108197704 0.12339581 0.095497854
-0.09927229 -0.17387971 0.086364396 0.032243922 -0.037065905 0.06605232 -0.015144068 -0.034077678
0.0614546 0.21717754 -0.05920831 0.052290067 -0.0046446705 0.08933866 -0.033535667 -0.118102334
0.00929796 0.061985757 0.00050505763 -0.029164566 0.23928896 0.010578715 -0.09090273 -0.13027811
0.26118588 0.12291025 -0.18854302 -0.01595768 -0.07460559 0.04672024 0.06870019 0.055539895
-0.0154276285 0.049149677 -0.049798924 0.15141855 0.027506188 -0.07306188 -0.16211995 -0.046504416
-0.06642257 -0.09488929 -0.09937676 -0.033500988 -0.123601995 -0.0017354459 0.066337936 -0.026183696
-0.0394772 -0.0037971248 -0.021535465 -0.024627637 0.0024758999 -0.02557268 -0.21292923 -0.33315414
-0.19158173 -0.07681616 0.09013191 -0.1310971 -0.028111013 -0.11721128 0.16802491 -0.076722585
0.0871694 -0.08125219 0.21622555 -0.074021384 0.050294623 -0.0490626 0.092174046 -0.022344043
0.12825163 -0.0032307503 -0.23410457 -0.059587155 -0.084905475 0.11984149 0.029008979 -0.049112942
-0.045910798 0.10752748 -0.09651135 -0.035666272 0.058161087 -0.01061126 0.048007324 0.10727948
0.075421065 -0.1381324 -0.061985806 0.064459704 -0.14342415 -0.09059644 -0.0392928 -0.040075112
-0.042161886 -0.0062948638 0.043580297 -0.011019167 -0.093241364 0.10628079 0.03201007 0.031713825
0.043622907 0.1071746 -0.091781236 0.0047039324 -0.06536054 0.05243507 0.042033594 0.099695265
-0.034843292 -0.1678378 -0.21906166 -0.074058525 -0.06970711 -0.05344062 0.06101443 -0.056781434
-0.069139 0.06531469 -0.088931955 0.021499675 -0.02510016 0.028248135 -0.039869893 -0.13743177
-0.06600558 -0.079549596 0.04116556 0.15835434 -0.1855676 0.058344927 -0.015684996 -0.20336449
0.021515833 -0.09225309 -0.1258431 0.032108597 -0.030617405 0.15251659 -0.18282597 -0.14750826
0.058183238 -0.06543624 0.13775833 -0.09590259 0.084501654 -0.021144824 -0.10619693 -0.10363137
0.036542397 0.2053224 -0.16191733 0.032381877 -0.074466325 0.09472678 0.15822513 0.005498748
0.13469265 -0.10048459 0.0508069 0.0034730907 0.13142195 -0.06946782 -0.18185897 0.0035252392
-0.012697215 -0.054581273 0.003833691 -0.11813844 -0.12347696 0.102582 0.045203846 0.027945345
0.009094171 -0.12916082 0.09500537 0.111775815 -0.1466552 0.04353824 0.011337864 -0.07595689
-0.1165193 -0.059861887 -0.0025540106 0.07664303 -0.23811722 -0.0044980883 -0.28699684 -0.14668147
0.04561346 -0.04529503 -0.004291194 -0.03188564 -0.073581815 0.096814714 -0.10961339 -0.00962373
-0.060962144 0.14820634 -0.037907034 -0.13935937 0.03373261 -0.003386976 -0.05561055 -0.12370486
-0.024179632 0.004133736 0.037311032 -0.099955894 0.13625567 0.0322407 0.027093511 -0.024018165
-0.18706977 -0.11506395 -0.20998378 -0.19064152 0.046447225 0.029374575 -0.07005468 0.06920126

network_body.linear_encoder.seq_layers.2.bias f4 [128]
00000000: 785c 8abc 5f66 3c3e b639 d5bc 775e 19be
00000010: 3c92 1a3e a660 293e 8186 97bc 4530 fabd
00000020: 85a8 373e 477b 013d 5815 1bbe 7204 103e
00000030: a771 3f3e 1c35 8d3d 5247 193e b0ee 393e
00000040: 0be3 b53c c314 23be a893 d63d 80c9 f43d
00000050: c375 ec3a ddf2 a9bd 90e8 6b3e 4133 053c
00000060: c674 48be a933 3cbe 4c15 da3d 5fba 77be
00000070: 53e7 073e 8c27 08be 5113 2c3d a604 053d
00000080: 5af0 043e 8ca1 f93d 889c 46be f69b cf3d
00000090: 3687 fd3c 28c5 293e 5ad8 3abe a4e6 363c
000000a0: c39f 34be 7cfa 233e 91ad 86bd 188b 463e
000000b0: 95dd 053e 52ba 0b3e a3fb 28be c87e 983d
000000c0: 60d9 dabd b64f 38be ae7f c2bc 6169 8bbd
000000d0: 2b62 dcbd e2bb 013e 6ca5 363d d07c 543e
000000e0: 589a 45be 1f65 3b3e 685c e33d 22f0 bbbd
000000f0: 50df 2a3d 95bf 18be b8c7 f9bd 24cb ba3d
00000100: 3a07 b9bd a842 8ebd 6257 bd3d bb9f 1ebe
00000110: 79dd 8ebd 0cd0 20be d771 f73c 7939 dd3d
00000120: 6263 6c3c 0dfa 8b3d 5a43 3a3e 1788 a93d
00000130: 4757 163e 1ece 09be 8869 d93d 0476 28be
00000140: 05f7 df3d 741e 3abe 47dc ee3d 0e7d c4bd
00000150: 97c7 fabd 875d 8a3d 9498 31be 15bb fa3d
00000160: b22e 3b3e f9e1 573e f829 46be ec69 31bd
00000170: cdda 1ebe 217d d23d 5a8c 8ebd 36e0 f73d
00000180: b8ff 14be 9dc5 4e3e aec2 09be 1dc3 64bc
00000190: b07e 833d 8ed4 02bd 2ab2 74bd dfcb 573c
000001a0: b4b3 2f3e 7fc0 32bd f428 35be 7044 d93d
000001b0: e478 1fbe a815 203c 01b8 32be a1b9 19be
000001c0: 1c5d 38be 3ef6 b8bd 2266 003e da92 2bbe
000001d0: aaf7 f0bd ccbe 423d 3975 39be 1f7f c63d
000001e0: 5ff8 cd3c 7f76 fb3c eb6a 163e 4e20 0fbe
000001f0: 613e c93d 736f 0fbe 525d 003e 3f33 32be
-0.016889796 0.18398426 -0.026028495 -0.14977442 0.15094846 0.16540775 -0.018496754 -0.12216238
0.17935379 0.031611707 -0.1514486 0.14064196 0.18695699 0.068948954 0.14968613 0.18157458
0.02220299 -0.15925889 0.10477382 0.119524956 0.0018040467 -0.082982756 0.23037934 0.008129896
-0.19575796 -0.18379082 0.10648593 -0.24192189 0.13271837 -0.13296336 0.04201061 0.032475136
0.12982312 0.12189016 -0.1939565 0.10137169 0.030948263 0.16579115 -0.18246594 0.011163387
-0.1763907 0.16013521 -0.06576074 0.19388998 0.13072808 0.13645294 -0.16502242 0.074460566
-0.10685992 -0.17999157 -0.023742523 -0.06807209 -0.107609116 0.12669328 0.044591352 0.20750737
-0.19297159 0.18300293 0.111016095 -0.09176661 0.041716874 -0.14916833 -0.121962965 0.09120777
-0.090345815 -0.069463074 0.092451826 -0.1549062 -0.06975836 -0.15704364 0.03020565 0.10801978
0.014427992 0.06834803 0.18189755 0.0827791 0.14681731 -0.13457534 0.106158316 -0.1645127
0.10935787 -0.1817568 0.11663108 -0.09594165 -0.122451 0.0675612 -0.1734336 0.12242714
0.18279532 0.21082295 -0.19351947 -0.043313906 -0.15513153 0.10277773 -0.06960364 0.12103312
-0.14550674 0.20192571 -0.1345317 -0.013962534 0.06420648 -0.03194099 -0.059740223 0.013171165
0.17158395 -0.04364061 -0.17691404 0.106087565 -0.1557346 0.009770788 -0.17453004 -0.15012218
-0.18004268 -0.09031342 0.1253896 -0.16755238 -0.11765988 0.04754524 -0.18111123 0.09692215
0.025142847 0.030696152 0.14689223 -0.13977167 0.09826351 -0.14007358 0.12535599 -0.17402361

distribution.log_sigma f4 [1, 2]
00000000: 0d5c 4bbf dd8c 4cbf
-0.79437333 -0.7990244

distribution.mu.weight f4 [2, 128]
00000000: e492 40bd 3345 44bd 5ae4 abbd 7093 67ba
00000010: 9c6f bebc 060c 9ebd 8053 003e c989 6a3d
00000020: cb8a 7d3d 0853 a2ba aaac 04bd 588e 5cbb
00000030: 1769 07bd 7278 c33c 4c23 073c cb1c 503d
00000040: 9e0d 403d 0f45 b6bc 45ef ab3b dd74 023d
00000050: 7739 d43d 4e80 d83d 7c35 a9ba 4722 123e
00000060: 38f0 3a3c 5b85 2e3d 1fd9 8b3b cc5e 353c
00000070: cd39 453d 873c a03d f7d7 41bc 9353 8bbd
00000080: e4aa bcbc 0f37 283c c025 833d 6243 75bd
00000090: 5c48 843d a418 933c bc36 b23b db48 8f3d
000000a0: 0799 2dbb 10ba b63d c7ba 9a3d d4c1 c03c
000000b0: e570 8b3d e2f4 eb3c 4411 12bd 66bc 373b
000000c0: a702 7fbb 8430 4c3c 93c8 e6bd 2db0 f13c
000000d0: bd21 94bd fca4 04bc cf51 d33c 8f3b 33bc
000000e0: 65e7 5cbd b4b9 3bbd 71f2 71bc b4fe 29bd
000000f0: 651e 8cbd e22e 87bd 3820 c9bd 92c1 c33d
00000100: 2f95 8abd 5e1f 94bd 1ae0 34bd b4c1 083b
00000110: ef40 54bb 3240 c73c 4177 713d e906 903d
00000120: 1fd6 323e 81d5 323b 4919 aebc b313 54bd
00000130: 3ad8 e23d 28c1 583c 82fc 8b3d d473 ce3c
00000140: 9bfe 98bc c986 243c 6b6b 183c 5cb1 783a
00000150: 2ff8 a03d e57c c73d dd6e 25bc aeb1 8ab8
00000160: 82fd 663d ecf3 aa39 7234 153d a818 b63b
00000170: 715a 3bbd b4e3 593d 5a7d d73d 7bdb 883d
00000180: b845 f8bc e390 a73d 7b90 ddbc 9938 a93d
00000190: c0f1 c8bc cfdc d33d b4e9 87bb 0772 04be
000001a0: ccf6 983b 8228 263e 593a 8fbc 7aa3 463e
000001b0: 35b0 ecbc 4e4b d73d a23e 7d3c a54f f23d
000001c0: 434f 813b 5320 983d b466 e4bc 7db0 3f3c
000001d0: 4005 8d3c e049 4a3d c880 923d 5684 593d
000001e0: 3e4f 22bd 57ec e5ba 6188 0b3c 953a 8d3d
000001f0: dae1 1ebd 9908 053d 2b7c a4bc b1b7 2fbd
00000200: fbac 283c cc9b 8f3d e41b 1cbd 453b efbd
00000210: 1d34 aa3c 15d0 ad3d c992 79bc 1956 57bd
00000220: 6edb ad3d 3b78 9ebb dd50 f8bd 3f5a 583d
00000230: ee8d d13d 5ce5 2dbc 0a79 703d ec07 2c3e
00000240: a1b0 86bb 782b c6bd 0487 7f3c 927c 383d
00000250: a008 48bc 4090 e8bc 9a2e 143e 7490 043c
00000260: e4af 40bd d1f9 81bd 436b 003c f83e f4bd
00000270: 2641 3d3d acee 85bd 6caf 6e3c 50fd d4bb
00000280: 6859 873b f936 9d3c 6e7f d5bd dd73 e33c
00000290: c166 e93c a45c 963d 4a86 8dbd 4540 df3a
000002a0: b859 e3bd e081 bc3d 3bb3 903c 5611 1a3e
000002b0: 5288 0d3d f319 893d adda b9bd 2a62 483c
000002c0: 603c b2bb ded4 82bd 5064 39bb 297f acbc
000002d0: 6133 adbd ac6e 193d 7e4c 62bb 7c39 c63d
000002e0: e94a e1bd 3a05 c93d 7f73 7b3a 9c84 04bc
000002f0: 91dc 983c cb45 55bd 5fd5 49bd 8b44 8fba
00000300: e8bc 56bd 37c5 00bd 4736 e33c 07d7 3bbd
00000310: 9b2c 3dbc bc16 19bd 0cff 743d 4352 3c3d
00000320: 8a23 e83b b607 823c b62a 923d 497b 4d3c
00000330: ef0f 0d3e 3cdc 42bd eb6f 793d 7d51 b1bd
00000340: 9ed1 4e3c 548e eebc 4c81 133d af48 9cbc
00000350: 1f21 5cbd c97c 753d a64a 96bd 977d eb3c
00000360: a5c0 d83d 1c0d 0f3e cc50 9dbd 4c3d 293b
00000370: 6587 a0bd ac89 163d e934 17bd bb68 ba3c
00000380: eedf b33c 04b8 113e 0e01 8cbc 0715 a63c
00000390: 8825 8eba 6e92 b1bc 9590 10bc 6cc7 0fbd
000003a0: cf15 3b3d c721 6dbd 0b69 39be 8f72 c33d
000003b0: cdf7 81bd 3030 323c 2cf4 34bd 8e3a aabd
000003c0: 143e 6dbd 4531 6abd 2f74 fd3c 22a5 7bbd
000003d0: a169 17bc 367e febb f183 d4bd 3503 083d
000003e0: 0929 dd3c acc3 343b 0176 573d 1bc2 8abd
000003f0: b1cc a33c 21c2 97bd 404c 173d f06d c0bd
-0.047015086 -0.047917556 -0.08393164 -0.00088339206 -0.023246579 -0.07717137 0.12531853 0.05726031
0.06189994 -0.0012384364 -0.032391228 -0.003365418 -0.033059206 0.023861144 0.0082481615 0.05080871
0.046887986 -0.022249727 0.005247029 0.03184973 0.10362523 0.10571347 -0.0012909616 0.14270888
0.011409812 0.042607646 0.004267826 0.011069965 0.048150826 0.07824045 -0.011831275 -0.0680305
-0.023030706 0.010267033 0.064036846 -0.059878714 0.06459114 0.017956086 0.0054386538 0.06996318
-0.0026488916 0.08922207 0.07555156 0.023529924 0.06808642 0.028803293 -0.035660997 0.0028035878
-0.0038911493 0.012462739 -0.11268725 0.029502952 -0.072329976 -0.008095976 0.025795845 -0.010939493
-0.053931613 -0.045831397 -0.014767275 -0.04150267 -0.06841735 -0.06600739 -0.09820598 0.09558405
-0.06766736 -0.07232545 -0.044159032 0.002086741 -0.0032387336 0.024322603 0.05895162 0.07032568
0.17464493 0.0027287903 -0.021252291 -0.0517766 0.11076398 0.013229646 0.068352714 0.025201716
-0.018676093 0.010041901 0.009302954 0.0009486878 0.07859837 0.097406186 -0.010097233 -6.613448e-05
0.056394108 0.00032606663 0.03642697 0.0055571385 -0.04574055 0.05319567 0.10521956 0.066824876
-0.030306682 0.08181932 -0.027046433 0.08262748 -0.024529338 0.1034485 -0.0041477326 -0.12934123
0.0046680924 0.1622639 -0.017483877 0.19398299 -0.028892616 0.1051241 0.015456827 0.11831597
0.0039462163 0.0742804 -0.027881004 0.011699793 0.017214417 0.04938686 0.07153469 0.05310472
-0.039626352 -0.0017541748 0.008516402 0.06895939 -0.038789608 0.032478902 -0.02007874 -0.04289979
0.010295148 0.07012138 -0.038112536 -0.11681227 0.020776803 0.08486954 -0.01523275 -0.052572343
0.084891185 -0.00483611 -0.121247984 0.05282044 0.10232149 -0.010613766 0.05870918 0.16799897
-0.0041104113 -0.0967626 0.015596155 0.045040675 -0.012209088 -0.028389096 0.14470902 0.008091081
-0.047042742 -0.06346477 0.007838073 -0.11926073 0.04620471 -0.06539664 0.014568191 -0.0064999238
0.004130531 0.019191252 -0.10424696 0.027765209 0.02849138 0.073418885 -0.06910379 0.0017032704
-0.11101097 0.09204459 0.017663589 0.15045676 0.034553833 0.066944025 -0.09074912 0.012230435
-0.005439326 -0.063882574 -0.002828855 -0.021056728 -0.084570654 0.03745906 -0.0034530456 0.09678933
-0.11000616 0.0981545 0.00095921004 -0.008088257 0.018659862 -0.052068513 -0.049275752 -0.0010930462
-0.05242625 -0.03143808 0.027735842 -0.045859363 -0.011546279 -0.037375197 0.059813544 0.04597689
0.0070843147 0.015872817 0.07137053 0.0125416005 0.1377561 -0.047573313 0.06089775 -0.08658121
0.012623219 -0.029120602 0.03601198 -0.019077627 -0.053742524 0.059933458 -0.07338457 0.02874641
0.10583619 0.13969845 -0.076814264 0.002582389 -0.078383245 0.036752388 -0.036915693 0.022755018
0.021957364 0.14230353 -0.017090347 0.020273698 -0.0010844925 -0.021676268 -0.008823534 -0.035102293
0.045675095 -0.05789354 -0.18106477 0.09543335 -0.063460924 0.010875747 -0.044178173 -0.0831195
-0.05792053 -0.057175893 0.03093919 -0.06143678 -0.0092414925 -0.0077665104 -0.10376728 0.033206183
0.026997106 0.002758245 0.05260277 -0.06775304 0.019995065 -0.07410074 0.036937952 -0.09395969

distribution.mu.bias f4 [2]
00000000: 63c8 4cba 53b3 493e
-0.00078118424 0.19697313

critic.network_body.vector_processors.0.normalizer.running_mean f4 [52]
00000000: 9494 763b f705 7f3f 1638 0635 3621 983e
00000010: 1530 833b 58f4 7e3f 2338 0635 8f04 993e
00000020: e868 673b cf15 7f3f 1f38 8635 c17e 973e
00000030: 6ddc 803b 6cf9 7e3f f053 c935 063e 9a3e
00000040: dd62 553b b72a 7f3f 0000 0000 8ea0 963e
00000050: 8e98 863b 4ced 7e3f 2b38 0635 1756 9b3e
00000060: 4281 4a3b 0b38 7f3f 1f38 0635 b4bd 953e
00000070: be5b 933b 44d2 7e3f 2538 0635 1c33 9c3e
00000080: 5d7b 5b3b 0725 7f3f 0000 0000 9812 953e
00000090: b019 aa3b b1af 7e3f 1f38 0635 bfc9 9c3e
000000a0: 6bda 8e3b 7cdb 7e3f 2538 0635 16b8 943e
000000b0: f544 d83b e74b 7e3f 1d38 0635 65b8 9c3e
000000c0: b04c c33b ea74 7e3f 0000 0000 81c0 953e
0.003762518 0.99618477 5.0000506e-07 0.29712838 0.0040035346 0.9959159 5.000058e-07 0.2988629
0.0035310332 0.9964265 1.0000111e-06 0.29588893 0.003932527 0.9959934 1.5000096e-06 0.30125445
0.0032560148 0.9967455 0.0 0.29419369 0.0041075414 0.99580836 5.0000625e-07 0.3033912
0.0030899798 0.9969489 5.0000557e-07 0.29246294 0.0044970205 0.9953959 5.000059e-07 0.30507743
0.0033490278 0.99665874 0.0 0.29115748 0.0051910505 0.99486834 5.0000557e-07 0.3062267
0.0043595335 0.99553657 5.000059e-07 0.29046696 0.006600017 0.9933457 5.0000546e-07 0.30609432
0.0059600696 0.99397147 0.0 0.2924843

critic.network_body.vector_processors.0.normalizer.running_variance f4 [52]
00000000: 1f59 ea45 30bf ea45 edff ff3f 236e ac47
00000010: e444 f945 be8a f945 e9fe ff3f 12e3 ae47
00000020: 29f0 db45 3606 dd45 9cff 3f40 4737 aa47
00000030: 61e1 f445 af4e f545 ebfd 7f40 56c1 b247
00000040: f7d6 ca45 e39c cb45 0000 803f b898 a547
00000050: 51ba ff45 9403 0046 80ff ff3f 33ad b647
00000060: de89 c045 0e49 c145 deff ff3f 8921 a047
00000070: 15e8 0b46 a30a 0c46 c0fe ff3f d26a ba47
00000080: d89c d045 5f62 d145 0000 803f 129c 9b47
00000090: 4566 2146 3897 2146 b0ff ff3f 3ee6 bc47
000000a0: 16a6 0746 8a24 0846 c1fe ff3f d298 9947
000000b0: c9e6 4c46 7811 4d46 c9ff ff3f 7de6 bb47
000000c0: 362c 3946 2fa5 3946 0000 803f c22d 9e47
7499.14 7511.8984 1.9999977 88284.27 7976.6113 7985.343 1.9999667 89542.14
7038.02 7072.7764 2.9999762 87150.555 7836.1724 7849.8354 3.999873 91522.67
6490.8706 6515.611 1.0 84785.44 8183.2896 8192.895 1.9999847 93530.4
6161.2334 6185.132 1.999996 81987.07 8954.0205 8962.659 1.9999619 95445.64
6675.6055 6700.2964 1.0 79672.14 10329.567 10341.805 1.9999905 96716.484
8681.521 8713.135 1.999962 78641.64 13113.696 13124.367 1.9999934 96204.98
11851.053 11881.296 1.0 80987.516

critic.network_body.linear_encoder.seq_layers.0.weight f4 [128, 52]
00000000: ad07 423e c8e6 4ebe 54a2 b9bd 4cfc 96be
00000010: 08c0 51bd d18b c13b 5e0d 51be cf7b bf3d
00000020: cd6b 63bd 4958 38be f619 8dbd 9852 0cbd
00000030: 0c98 03bd 137d e6bd 991a 143e 87b9 27be
00000040: 622b 493c a114 b03d e120 153e 4199 0e3c
00000050: 53e3 ce3e 76f0 e8bc 0891 10be fb47 1a3e
00000060: 27cc 85ba 3e8b 08be 08db 67be 76e8 8fbd
00000070: ffee 193e 2f4a fdbd 6903 22be 8ccc 5c3c
00000080: e5ef d13c 968f 10be 4d7c d33d d448 6bbe
00000090: 979c 5f3d 4fe4 8a3c f889 fbbd aad5 913d
000000a0: 45c5 81bd 9f2a fbbb 2a1c 52be f3a5 a53d
000000b0: 9915 d63c 56ba d8bd bf75 22bd 7f71 4b3c
000000c0: 35c0 d33e 967e 56be a682 89bd c492 40be
000000d0: d9f6 3d3e 1177 ba3e bf71 90be 88e4 003e
000000e0: d14c ccbb cbc7 7ebe 9880 1fbe 472a b8bd
000000f0: 33d9 07be 6db0 673d 61e5 4cbe 357b 8d3d
00000100: 9f4f 28bb 3c73 6abe 0347 09be 79b0 383d
00000110: db0b 503c 63a2 48bc abfb 2abe d9a6 d5ba
00000120: 2da7 1e3e 048f 323d 08a5 fabc 5d94 0bbe
00000130: add2 17bd 7962 2d3e 1f49 9e3d c8a5 d53d
00000140: 8a35 243e f3ea 4d3d cf99 b93d b2a6 dabb
00000150: b089 a6bc 7424 383e d1fa 9a3e c91a c83d
00000160: fcc2 853d 0c66 3b3b ea29 dfbd 27c2 563c
00000170: c425 313c a559 cbbc 6716 55be 25e8 4ebe
00000180: 6525 05bd 52f4 26be 5a32 e1bc 8c83 cabd
00000190: 5507 143e 2305 0b3e 0768 d03d 9953 8f3e
000001a0: 60f3 af3d 8316 9fbd f094 5d3d 0915 c13c
000001b0: 709e 4abe d457 49be 2cfc a9bd 6864 8f3e
000001c0: 7380 52bd d7f0 433b a439 8fbe 8e14 46bc
000001d0: fd9c 3f3e 7808 8fbd 1dff 873d a519 363e
000001e0: 9ffe 283e d2f6 55bd c0c0 893b 70d3 83be
000001f0: f772 973d 4137 6bbb dafd 3d3e 0712 0fbe
00000200: c1a3 813d 721e 77bd 70b5 00bd 32d2 9ebd
00000210: aec9 543e 0614 9d3d 4fae 00bd 5c1f 153d
00000220: 370d cc3d bc63 80bd 41e8 ac3e f6bf 433e
00000230: 1aa2 463e 5969 fcbd ed63 5b3c 50e7 cdbd
00000240: 4201 de3d 5ca7 4fbd 36b4 6a3e 1e3d e63d
00000250: ed4a 48ba a2ab 82bc 2a93 fb3a 1c7e f93c
00000260: ba67 bdbd 7033 a5bc fac4 06be 9d6b 973e
00000270: 7282 0abd bd67 333e 6cfd 883d 62fa 30be
00000280: 8ab5 5bbd 0c74 dd3d f665 843e 389e 8ebe
00000290: 197c 883d 8dd9 c9bd 5971 8c3d 3988 f9bd
000002a0: 26f7 0ebe 56e4 b03b 1bdd a4bd 774e c6bd
000002b0: 53ab db3c 1dcb e6bd e721 33be a7e9 263e
000002c0: fc00 c4bd 34cc 0d3d e3c7 613e d1dd 023c
000002d0: a76f ce3c ef49 63bb 33fe f13c 7c7d 38be
000002e0: 5459 e7bd 4e39 6bbd 7210 a8bd 501a c23b
000002f0: 96ff 94bc 1a4f 2dbe d6f4 6b3e 054b 993e
00000300: 185f d13b 48f3 8bbe febb 3b3e c573 843e
00000310: 19f5 423b bb06 3a3e c917 3f3e dd4b 8cbd
00000320: e79d 39be 4566 dcbd e7d4 cf3d dcfe 07bd
00000330: 42bb d73b deff d53c 60c6 533d af70 0f3e
00000340: e78b e9bd bd5c bdbc 6bfe 74be efe4 5ebd
00000350: 8946 07be 94f9 d33d 9924 ac3e a498 573d
00000360: 502b 34be 64db dd3d f719 2d3e 369e c4bd
00000370: a2d1 d6bd 9e33 eb3c 4374 bd3d c0af c8bd
00000380: acb8 8bbe a2fa 0bbe b51b c33d 4882 e5bd
00000390: 1c5f 563d 4fcb 04be 0382 10bd 01ea 013e
000003a0: 8723 593d 65e9 01be 12ee af3e 1178 14bd
000003b0: e032 4f3c bbd5 98bd da15 e7bd a555 fc3c
000003c0: e85c a73d 0d3f 863d 87a1 fb3d b2d5 793e
000003d0: a212 c2bc 4bb4 143c 7924 2f3e 0c15 023c
000003e0: 074f 15bc 18c7 813e 9752 343b a08f dd3d
000003f0: eb0c 03bd 0ceb 8b3e 1722 45be 002f 3ebd
0.1894824 -0.20205224 -0.09064165 -0.29489362 -0.051208526 0.00590656 -0.20415255 0.093497865
-0.05552273 -0.18002428 -0.06889717 -0.034258455 -0.032127425 -0.11254325 0.14463271 -0.16379367
0.01227841 0.08597685 0.14563324 0.008703531 0.4040781 -0.028434973 -0.14117825 0.15066521
-0.0010207937 -0.13334367 -0.22642148 -0.0702676 0.15032576 -0.12367665 -0.15821613 0.013476502
0.025627086 -0.14117274 0.10326443 -0.22977 0.054592695 0.01695457 -0.12282175 0.07120831
-0.06336454 -0.007664993 -0.20518556 0.08088293 0.026133345 -0.10582416 -0.039663073 0.012417196
0.4135758 -0.20946726 -0.06714372 -0.18805987 0.18551196 0.36418965 -0.2821178 0.12587178
-0.006234743 -0.24880902 -0.15576398 -0.08992439 -0.13266449 0.056564737 -0.20009376 0.069082655
-0.0025682223 -0.22895521 -0.13405995 0.045090172 0.012698139 -0.012245747 -0.16697566 -0.0016300335
0.1549346 0.04359342 -0.030596271 -0.13630815 -0.03706615 0.16932096 0.077287905 0.10432011
0.16036049 0.050272893 0.0906254 -0.0066727037 -0.020329326 0.17982656 0.30269483 0.09770734
0.06531331 0.002859476 -0.10896666 0.013107813 0.010812227 -0.02482302 -0.20809327 -0.20205744
-0.032506365 -0.16304138 -0.02748983 -0.09888372 0.14455922 0.13576178 0.10176092 0.27993467
0.08591342 -0.07767966 0.054097116 0.0235696 -0.19787002 -0.1966241 -0.08300051 0.2800629
-0.05139203 0.002989819 -0.27973664 -0.012089862 0.1871223 -0.06984037 0.06640456 0.1778322
0.1650338 -0.05223734 0.004203886 -0.25747252 0.07394975 -0.0035891088 0.18553868 -0.1397172
0.06330062 -0.06033177 -0.031423032 -0.07754935 0.2078006 0.07669835 -0.031416234 0.03640686
0.09963458 -0.06269023 0.33770946 0.19116196 0.19397774 -0.12324781 0.013390523 -0.10053885
0.10840084 -0.050696716 0.22920308 0.11242126 -0.00076405593 -0.015950982 0.0019193639 0.030455641
-0.092483 -0.020166129 -0.13161078 0.2957429 -0.03381581 0.17520042 0.066889614 -0.17283013
-0.053639926 0.1081315 0.2585904 -0.27855086 0.06664295 -0.09855948 0.06857557 -0.121841855
-0.13961467 0.0053983135 -0.08049985 -0.09682935 0.026815092 -0.112692095 -0.17493401 0.16300069
-0.095705 0.03461857 0.22048907 0.007987455 0.025199724 -0.003468152 0.029540157 -0.18016618
-0.11296335 -0.057427697 -0.08206262 0.005923547 -0.01818828 -0.16924706 0.23042616 0.29940048
0.00638951 -0.27334046 0.18333432 0.25869575 0.002974814 0.1816663 0.18661417 -0.06850407
-0.18126641 -0.10761694 0.1014803 -0.033202037 0.006583602 0.026122984 0.051702857 0.14007829
-0.114036374 -0.02311551 -0.23925178 -0.054417547 -0.13210501 0.103503376 0.33621672 0.052635804
-0.17594647 0.10832861 0.16904436 -0.09600489 -0.10489203 0.028711136 0.09250691 -0.09799147
-0.2728933 -0.13669828 0.09526769 -0.1120649 0.052336797 -0.12968181 -0.03528024 0.12686922
0.053012397 -0.12686689 0.3436132 -0.036247317 0.012646407 -0.07462641 -0.11283465 0.030802557
0.08172017 0.06554995 0.12286668 0.24397925 -0.023690525 0.009076188 0.17103757 0.007939588
-0.00911308 0.2534721 0.0027515048 0.1081841 -0.03199474 0.27327764 -0.19251285 -0.04643154

critic.network_body.linear_encoder.seq_layers.0.bias f4 [128]
00000000: b7d4 143d 0250 453d a0be ee3d 5655 87bd
00000010: 989c 08be e0cc d9bd 0bcf 21be 7d60 05be
00000020: 24d2 70bd 5a06 cfbd f165 633c 20a4 05be
00000030: d29a 183d e44a 32be 6406 dfbd 09db 97bd
00000040: 40b5 5e3d 5e8d 873d 507c 1a3c 40e8 433e
00000050: 34d8 cfbc 72e1 dd3c f018 c63c 5eb7 3dbe
00000060: e9fa c8bd 45ec abbc 27db c9bd e32d c6bc
00000070: 6981 a5bc 42ca 0cbc 8bbe 3abc 351e 9bbd
00000080: d528 083c 38c6 88bc 23a8 32bd 3b63 3cbe
00000090: c10b d5bd bc96 3c3d 2952 1cbe 7997 9ebc
000000a0: 02e6 133d 39d9 063b ec7c 783c 5da4 ed3b
000000b0: 51a8 d4bd 42cc f3bd 4b28 9c3d 4755 1bbd
000000c0: e81b 123d 5e33 c0bd 4113 80be 3534 38be
000000d0: 82ea 833d fb8c 6ebd baac 1d3d 3262 dabc
000000e0: 26a2 3fbd e2bc b6ba aafa 91bd b026 30be
000000f0: b34c ec3c 0f50 aabd 2e8b bbbd f8fc e4bd
00000100: 07e4 8ebd 0802 a03c b7e7 e53d 838e eebd
00000110: b064 11bd faa9 c43c 9b2d 833d fc74 69bd
00000120: 13ed 5dbd e9c9 acbd 562c 70bd ee27 f63c
00000130: abd8 42bd 5aab e93d 8a90 52bd 49e3 713d
00000140: f51f 19be 5af6 3f3d c033 b6bc 2b8e acbc
00000150: 6a0f 8c3d 5928 06be 6dfd 2bbe daf8 1f3c
00000160: fbc4 59bb cce6 ca3d 3502 e7bd 4c29 1bbd
00000170: 5e11 a4bd a513 40bc 1a1d 0fbc 67a2 d2bd
00000180: bbdc b13c 9211 b13c 1ec8 6dbd 6b86 07be
00000190: 7b45 46bd 3aaf d6bd 4389 40be eb81 033c
000001a0: 6e75 ecbd cca2 a3bd bbae f83c ac09 c2bd
000001b0: 253f 20be c2c2 4abc 6fa4 92bd bc7b 0d3e
000001c0: 7bd5 f43c 0e55 f5bd 9f89 a93c 2fd9 8f3d
000001d0: a3a3 05bd 7640 8fbd f724 bebd 750f 563d
000001e0: de7f 57be 6b19 44be 16c7 f63b b86b 9a3d
000001f0: 5096 8a3d 8c63 8a3d 73f7 3fbe e5c3 d83c
0.036335673 0.048172005 0.116574526 -0.066080734 -0.13340986 -0.1063478 -0.15801637 -0.13025089
-0.058794156 -0.10108633 0.013879285 -0.1305089 0.037257023 -0.17411381 -0.10889891 -0.074148245
0.054372072 0.066187605 0.0094290525 0.19131565 -0.025371648 0.02708504 0.024181813 -0.1852698
-0.09813482 -0.020986686 -0.09856253 -0.024191802 -0.02020331 -0.008593144 -0.011397968 -0.07574121
0.008310516 -0.01669608 -0.04361738 -0.18397228 -0.104026325 0.04604219 -0.15265717 -0.019359337
0.036108024 0.0020576252 0.015166502 0.0072522596 -0.10383666 -0.119041935 0.07624873 -0.037923124
0.035671145 -0.093847975 -0.2501469 -0.17988665 0.06441213 -0.05823992 0.038494803 -0.026658151
-0.046785496 -0.001394179 -0.071278885 -0.17202258 0.028845167 -0.08316051 -0.09157406 -0.111810625
-0.069770865 0.019532219 0.11225837 -0.11648276 -0.035496414 0.024006832 0.06405183 -0.05699633
-0.05418117 -0.08436949 -0.058636032 0.030048337 -0.047569912 0.11409636 -0.051407374 0.059054647
-0.14953597 0.0468658 -0.022241473 -0.021063885 0.068388775 -0.13101329 -0.16795893 0.009763921
-0.0033228982 0.09907302 -0.11279718 -0.03788118 -0.08011125 -0.011723434 -0.008734966 -0.10284882
0.021711698 0.021614823 -0.058052175 -0.1323487 -0.048406105 -0.104826406 -0.18802361 0.00802658
-0.115458354 -0.079900354 0.030356755 -0.09474501 -0.15649088 -0.012375535 -0.071602695 0.13816732
0.029886952 -0.119791135 0.020695506 0.07023846 -0.03262676 -0.06994717 -0.09284394 0.052260835
-0.21044871 -0.19150321 0.007531057 0.07540077 0.06766951 0.06757268 -0.18746738 0.026460597

critic.network_body.linear_encoder.seq_layers.2.weight f4 [128, 128]
00000000: 8978 853b 39e3 403c bf46 0fbe de07 893d
00000010: 5965 79be fd8b 123d d4fd 3e3d 69db c0bb
00000020: 42b3 e0bd 63a4 bb3d 5b21 0cbe 0410 15be
00000030: 3e2a c13c d861 8bbc afad a03d 07a6 023e
00000040: c6ba bfbd 8636 b9bc 7da8 bb3c ea86 adbc
00000050: 5beb e43b 4035 9cbc 6c8b 21bd 59c8 f23d
00000060: c6f3 d9bc aaa7 0fbe f11a a53d 0071 493d
00000070: 1680 963d bce8 0c3d 4905 b33d e701 98bd
00000080: 0ef9 33be f2c8 3dbd dbee b0bd 0971 0a3e
00000090: 86e9 4e3c d240 66bd 6598 08be 2938 2bbe
000000a0: a41c d7bd c79b 1bbe 32a1 dfbd 9e25 513d
000000b0: aab8 963c 0f2e 913d e59d 91bd 2f1a d33d
000000c0: 6d47 ddbd b69d 1ebd b92a 3a3d ce36 823d
000000d0: 33d3 633d 8367 2bbe bb6f a9bd 643a edbc
000000e0: 24ad 493c 22e7 58bd 4f71 07bc d7c1 343d
000000f0: 6e6c b33d 2010 4e3e f0da 28bc b382 8dbc
00000100: 2f3e 9abc 15ae ca3d 8a4e 683d 0c33 20bd
00000110: adf6 173d 9dc2 443d dcd5 503e b05b 413e
00000120: 2a01 42bd c582 cf3c 3f5c 8cbd 3a62 043d
00000130: 9764 51be 73b7 38bd eebd 20be bbcf 883d
00000140: 60af 1a3d fa20 343d a9c6 0dbd 7767 413d
00000150: 93d9 213d 3c95 1d3e f083 e0bd ab5c e93c
00000160: 3dbe 5a3c d11d c1bd c107 81bd 32e0 49bd
00000170: eb93 65bd 44d2 ecbc d982 a1bd 2438 f5bc
00000180: f3a3 753d f455 413d 3fa2 133d 8124 87bd
00000190: 485d c3bd 94d4 9ebd 096e 3a3d ace3 11be
000001a0: 8bbe 883d f3ec 20be 23cf 4cba 4fb1 58bd
000001b0: 4070 853d 3b66 5ebd fae5 3cbe 4bfc d4bd
000001c0: c4ed ab3d 6321 473e 9f66 7d3d cbe6 7abd
000001d0: 7923 f53c a4ca 793d f230 dabc 32c8 a4bc
000001e0: dfe7 65bd b890 c33c fa59 233e ed99 08be
000001f0: 4cf2 eabc d2cc 24bd 09a7 02bd 038e 5ebe
00000200: a342 2c3d 733a 033e 9029 87bd af14 00be
00000210: c021 a2bc 9471 87bd 50fd 7a3c af0e 40bb
00000220: 4f60 c0bd dd41 81bd 3086 6f3c a43f b53d
00000230: 040b 303e 1b4d 17be 8e44 7e3d c485 bbbd
00000240: 843f c93d 72fe dc3d 0926 37bd d197 a33d
00000250: 554c 2abe b2c9 1a3e 8db4 b93d 1b4f ccbc
00000260: 7b08 a2bc ca3d 0abd 8c6d e03b 43c6 8f3d
00000270: 4ea5 c53d 7a7a 183e a5ef 3ebd 1403 fbbc
00000280: e068 623d 44b4 aabd d667 4d3e a6fa 04bd
00000290: feb6 9f3d 22eb e53d ca78 c43c 5623 cbbd
000002a0: 8a4e 7c3c 33ec 0ebd d671 0c3e b733 0d3d
000002b0: dea2 143e 8098 38be 2292 52bd 67e9 95bb
000002c0: 9107 2b3d 0dbe e73d 5bd8 bb3d e7fd d33d
000002d0: 276c 683c 2a80 10bc 3a2d b83d 5a59 b3bc
000002e0: b2a2 8fbd 3557 55bc 8fa3 12bd 0626 0c3e
000002f0: 8e4d 4abe 8797 60be 525d 213d c77f 3b3d
00000300: 4ac3 953d 15ee 7e3c 1a0f 023e 49e0 513d
00000310: a51a 3cbe 4baf 39bd 2816 643d fdbf 5b3c
00000320: cb83 a2bd dd8c 90bd 9204 223d a667 bbbc
00000330: 28ce b1bc 9197 e9bd c17e eebd e11f db3c
00000340: 7e3c 4c3c 395c 54bd 67bf e439 9599 aa3c
00000350: 9d9e 753d 7a5f 89bc f653 ac3d a08d 86bc
00000360: 7b12 34bd 6ac2 37bd 437c 53be 1931 d13d
00000370: 9f39 b1bc b711 b7bc fc68 8d3b 94c5 10be
00000380: ecba f43c b6f5 653c d30d 5dbc 6afd 55bd
00000390: ecc5 e7bd 97fc 513e 14ab 2d3d 0988 e9bd
000003a0: 797a 3b3d 79d4 66be 4317 9c3d eef6 0d3d
000003b0: 2708 ad3d 352f 123d 5c5f ac3d 2e93 4fbd
000003c0: cb0c d63d a150 28be 74db d13d 5422 9bbd
000003d0: e0e0 203e 1fb8 ef3d 47b5 a5bd 6afa 5d3d
000003e0: 068e 09bd 2b07 6a3d 95a7 8abd 474b ee3d
000003f0: 0462 39bb c0fa 013e 09b7 fdbd 685a ab3d
0.004073207 0.011772924 -0.13991831 0.06690954 -0.24355067 0.035778034 0.046628788 -0.0058855307
-0.10971691 0.09162214 -0.13684599 -0.1455689 0.023579713 -0.017014429 0.078456275 0.12758647
-0.09361796 -0.022609007 0.02290749 -0.021182496 0.0069860644 -0.01906836 -0.039439604 0.118546195
-0.026605498 -0.14028803 0.08061779 0.04918003 0.07348649 0.03440164 0.087412424 -0.07422238
-0.17575476 -0.046334215 -0.08639308 0.13519682 0.0126289185 -0.05621416 -0.13339384 -0.16720642
-0.1050351 -0.15196143 -0.109194174 0.051061265 0.018398602 0.07088863 -0.07110194 0.103077285
-0.10804639 -0.038724624 0.0454509 0.063581094 0.055621337 -0.16738705 -0.08273264 -0.028958507
0.012309346 -0.0529548 -0.008266761 0.044130173 0.08760916 0.20123339 -0.010306105 -0.017274236
-0.01882848 0.09896485 0.056715526 -0.039111182 0.037100483 0.04803716 0.20394081 0.18882632
-0.04736439 0.02533091 -0.06853532 0.03232024 -0.20448528 -0.045096826 -0.15697452 0.066802464
0.037764907 0.04397676 -0.034613285 0.047217812 0.039514136 0.1538896 -0.10962665 0.02848657
0.01335102 -0.09429515 -0.06300307 -0.049286075 -0.05604927 -0.028908856 -0.07886285 -0.029933996
0.059970807 0.047201112 0.0360434 -0.065987594 -0.09539276 -0.0775539 0.045515094 -0.14247006
0.06676968 -0.15715389 -0.0007812848 -0.05290347 0.065155506 -0.054296713 -0.18447104 -0.103996836
0.083949596 0.1944633 0.061865445 -0.061255258 0.029924141 0.06098427 -0.026634667 -0.020114992
-0.056129333 0.023872718 0.15952292 -0.13339968 -0.02867999 -0.040234394 -0.03189758 -0.2173386
0.042055737 0.12815265 -0.06599724 -0.1250789 -0.019791484 -0.0661346 0.0153191835 -0.0029305627
-0.093933694 -0.063113905 0.014619395 0.08850029 0.17191702 -0.14775507 0.062077098 -0.09156373
0.09826568 0.10790719 -0.044714008 0.07987941 -0.16630681 0.15116003 0.090676405 -0.024940064
-0.019779434 -0.033750333 0.0068489965 0.07020237 0.0965067 0.14890471 -0.04661526 -0.030641116
0.055275798 -0.08335164 0.20059142 -0.0324656 0.07798575 0.11226489 0.023983378 -0.09918849
0.015399585 -0.034893226 0.137153 0.034473147 0.14515254 -0.18026924 -0.051408894 -0.004574943
0.041755263 0.11315546 0.09172126 0.103511624 0.014185942 -0.008819619 0.08993001 -0.021893192
-0.070134535 -0.01302128 -0.035800513 0.1368638 -0.19756147 -0.21932803 0.039395638 0.045776155
0.07312639 0.015559693 0.12701073 0.051239286 -0.18369539 -0.045333188 0.055685192 0.013412473
-0.07935294 -0.070581175 0.03955514 -0.022876572 -0.021704748 -0.11405862 -0.1164527 0.0267486
0.012465594 -0.051845763 0.00043630155 0.020825187 0.05996572 -0.01676916 0.08414452 -0.016424954
-0.043962937 -0.044863142 -0.20652871 0.10214443 -0.021633921 -0.022347314 0.0043154936 -0.1413787
0.029874288 0.014035633 -0.0134920655 -0.052243628 -0.113170475 0.20506512 0.04239948 -0.114029
0.045771096 -0.2254199 0.07621624 0.03465932 0.084488206 0.03568955 0.08416626 -0.05067747
0.10451659 -0.16437007 0.102469355 -0.07574907 0.15710783 0.1170504 -0.080912165 0.05419389
-0.03358271 0.057135742 -0.06770245 0.11635452 -0.0028287182 0.1269331 -0.12388427 0.08366853

critic.network_body.linear_encoder.seq_layers.2.bias f4 [128]
00000000: c679 4c3d 0bcc f23c ab32 92bc dd7c 84bd
00000010: 679f ba3c c096 0fbd 6fa9 9e3b 53c0 b2bd
00000020: 09a9 f53b e912 3abd 8381 99bd fe5d b7bd
00000030: 6644 eabc ff9c 98bd 3948 8bbd 6fc0 233c
00000040: 5f04 2a3d 5c26 51bd b336 86bd 8494 89bd
00000050: 053e c2bc ee91 1bbd 3647 aebd ac13 873c
00000060: 6705 e0bd 7273 84bd 97e1 8abd 3289 30bd
00000070: 4bbf cbbd b1fd adbd 1834 8fbd 4f2f a2bd
00000080: 3838 0f3b b9b6 8dbd 4baf 8ebc d47f 50bc
00000090: 3032 5e3c faf5 5f3c e29c 98bd 92b1 3ebd
000000a0: c9ee 14bb 4512 9cbd eb7a f23b 3787 4b3b
000000b0: 6edf 5f3c 933b 99bd d546 10bd bc6f 87bd
000000c0: c58c 9bbd 5769 07be 6ce6 9cbd faa3 abbd
000000d0: bdfd 813c 098a a93c 1b30 a9bd 5fc5 36bd
000000e0: ba05 99bd 9fd9 93bd b893 88bd e53c 8cbd
000000f0: 6339 743c 6f72 c53c 3958 8bbd 8201 90bd
00000100: 6d53 59bc c40b 12bc 3c36 82bd 44a5 cfbd
00000110: fbde 99bd 3566 3abc 7e7d ffbc 43ca 9abd
00000120: 01ed 303d c359 373d b7d7 69bd 02f8 88bd
00000130: ae52 92bd 9c85 9ebd 3d11 5bbd 0a6a f13c
00000140: 2801 d0bc db9a f23c 92cc 71bd c883 87bd
00000150: 7c0f 8dbd de70 51bc 115b 2ebd 5600 9f3c
00000160: 3ec4 99bd 71d8 7abd 385c ac3c 2ceb c93c
00000170: be48 92bd 7649 5ebd 532c 8dbd b520 99bd
00000180: 5d1d b03b 83a4 93bd 0f23 023d da60 fbbc
00000190: 5e49 463c 8ac4 6dbd bc0e a6bc 8ab8 2a3c
000001a0: 25ff 8bbd efbc 153d f48f 833c 89c6 2bbd
000001b0: 9430 cb3b 2dad 9d3c 9b75 6a3c 65fe 71bd
000001c0: 97cc 95bd 4db9 ca3a 075a 07bd c05a 94bd
000001d0: cebe a63c 3d77 18bd a882 79bd fff3 8fbd
000001e0: 8956 a7bd 87ae a1bd 9530 b53c 3d84 a93c
000001f0: 0711 c13c 7ff8 8a3c 08e2 8ebd f9bf 9abd
0.04992082 0.02963831 -0.017846426 -0.06469128 0.022781087 -0.035055876 0.0048419754 -0.08728089
0.007496957 -0.04542819 -0.074954055 -0.089534745 -0.028597068 -0.0745182 -0.06800885 0.00999461
0.041508075 -0.051061973 -0.06553402 -0.0671778 -0.023711214 -0.037980966 -0.08509676 0.016488872
-0.109385304 -0.06467332 -0.06781309 -0.04309959 -0.099485956 -0.084956534 -0.06992358 -0.0791918
0.0021853577 -0.06919617 -0.01741757 -0.012725789 0.01356177 0.013669485 -0.07451798 -0.046556063
-0.0022725335 -0.07620672 0.007399907 0.0031055936 0.01366411 -0.07482066 -0.0352238 -0.066131085
-0.07595209 -0.13223778 -0.07661137 -0.083808854 0.015868062 0.020695703 -0.082611285 -0.04462182
-0.074717954 -0.07219242 -0.066688 -0.06847552 0.01490626 0.024102418 -0.068039365 -0.070315376
-0.013264519 -0.008913938 -0.06358001 -0.10138944 -0.07513233 -0.011376907 -0.031187769 -0.075581096
0.043194775 0.044763338 -0.057090487 -0.06687929 -0.07144676 -0.07740328 -0.053483237 0.029469509
-0.025391176 0.029614856 -0.059032984 -0.06616932 -0.06887719 -0.012783257 -0.042567316 0.01940934
-0.07508133 -0.06124157 0.021040067 0.024648272 -0.07142781 -0.054269277 -0.0689322 -0.074769415
0.005374594 -0.072091125 0.031771716 -0.03068583 0.012102453 -0.058048762 -0.020270698 0.010419974
-0.06835774 0.036557134 0.016059853 -0.041937385 0.0062008593 0.019247616 0.014310266 -0.0590805
-0.07314413 0.0015466601 -0.03304484 -0.07243872 0.020354655 -0.03722309 -0.06091562 -0.070289604
-0.08170802 -0.078946166 0.022117892 0.020692939 0.02356769 0.016964195 -0.06976706 -0.07556147
