results/fifth/Car/Car-8999989.onnx (onnx, 96598 bytes, 9 tensors)

53 f4 [52]
00000000: 1f6d 1f3e 276c 1f3e 3ec3 2e3a 5302 4f3e
00000010: 41bb 113e d5be 113e b426 773a 2f71 4f3e
00000020: 5083 2e3e 2489 2e3e e363 433a 047c 503e
00000030: 4968 0e3e 096b 0e3e 3f29 8a3a 2160 4e3e
00000040: 8f29 4d3e 4930 4d3e e026 f739 142d 503e
00000050: 48b2 143e 98b5 143e 5f87 9d3a ac83 503e
00000060: 8a93 6b3e ff98 6b3e 3cc3 2e3a 2bd2 4e3e
00000070: ccca 203e 73cd 203e b326 773a e0e8 553e
00000080: 3d76 713e eb79 713e 7630 673a 78f5 4c3e
00000090: dc2f 443e a232 443e 35c3 2e3a 9217 5d3e
000000a0: 5fa8 703e a8ab 703e 1859 173a 34f6 4a3e
000000b0: ea05 813e e905 813e 39c3 2e3a 2bb9 613e
000000c0: 1cc5 773e 22c7 773e e026 f739 0e5a 4a3e
0.1556897 0.155686 0.00066666666 0.2021573 0.14231588 0.14232953 0.00094280695 0.2025802
0.17042279 0.17044502 0.0007453544 0.20359808 0.13906969 0.13908018 0.0010540857 0.20153858
0.20035385 0.2003795 0.00047140475 0.20329696 0.14521134 0.14522398 0.0012018493 0.20362729
0.230055 0.23007582 0.00066666654 0.2019736 0.15702361 0.15703373 0.0009428069 0.20889616
0.2358026 0.23581664 0.0008819172 0.20015514 0.19158882 0.1915994 0.00066666614 0.21591023
0.23501728 0.23502982 0.0005773469 0.19820482 0.25199825 0.25199822 0.00066666637 0.22043292
0.24196285 0.24197057 0.00047140475 0.19760916

54 f4 [1, 2]
00000000: 44d1 05c0 fc59 ffbf
-2.0908976 -1.9949336

distribution.mu.bias f4 [2]
00000000: d075 8fbc 5c6f 543e
-0.017512232 0.20745605

distribution.mu.weight f4 [2, 128]
00000000: 05ce e3bd 5feb 07bd e01f 6bbd e219 91bc
00000010: e233 96bd 77a1 28bd 3f0b c73d a33b 283d
00000020: 6903 d03d 80b0 bebc 671d a7bd 2124 f93c
00000030: 5047 acbc cc03 c43d 020b 483c 56f8 0e3e
00000040: ca85 133d 17fc c7bc a608 f63c 0eaf fc3b
00000050: 05fa 063d 840a 5c3d 53ad 613d 944f d93d
00000060: ee0a ea3c 36e8 ff3d 64d9 90bd 59a4 9bbd
00000070: 27a7 2a3d f214 b53d 9bf6 253d 8f3f c0bd
00000080: f97b 91bd 5112 b03d d898 b63d 363d 9fbd
00000090: 7200 903d de91 573d 8464 383d 3ec5 c83c
000000a0: 9cc7 143b d32a 8f3e bae9 663d 5b9a ba3d
000000b0: 3001 db3d d42c 9c3b a761 47bd 4198 8e3c
000000c0: f691 26bb 908d 4c3d f9f6 50be 70c0 74bc
000000d0: d0ab 94bd ff21 873c 6e2d d63c 88d2 223b
000000e0: 0761 2fbe b2ae b5bc 4a4b afbd 0dac 623b
000000f0: 7ac5 9abd e023 f3bd b561 15be bec4 183c
00000100: 51b3 9cbd 1494 90bd b637 4dbc bf66 babb
00000110: 378a 0bba 2428 7a3c d89d 983d c04b 673d
00000120: 5935 f03d dd27 6b3d fe1f 113b 99b2 10be
00000130: 6701 573e f5b5 0d3d da13 8b3d 3cfc e3b9
00000140: 705d 7d3d 482d e9bc f110 853d 8b8a cdbb
00000150: 2fc5 5abb 5c0a 3b3e c933 cbbb a09f 9b3b
00000160: 5894 8b3e 55aa 8c3c 6e50 1e3d d8e0 5abc
00000170: c26e e0bd 7970 02b9 e768 813d c67c 993d
00000180: 6a3d d5bc cf87 3a3e 43b8 b4bd d284 1c3d
00000190: 1dc9 3ebd 2021 2e3d d663 05bd 98c1 1fbe
000001a0: b5c8 b23a 8aa7 b53d 5456 39bd fe1a 4f3e
000001b0: 408b c93c 46a9 913d 463e e9bb a096 a53d
000001c0: 902a 19bd 6e6d b43c a8a6 723a b4f3 33bb
000001d0: fd9c 66bd 639a 173d d7c8 cc3c 72c9 c63d
000001e0: d887 47b6 6e85 883c d5f4 40bc 92aa 833d
000001f0: 8291 c8bb 1dc5 bb3d 72fa d3bc 2196 94bd
00000200: 4f33 34bc f396 533d ce68 8bbd cc75 d4bd
00000210: d752 c7bd 131b cf3d 10ab 5bbc 839a 32bc
00000220: eb14 e53d ed24 5cbd 94ae bbbc 5a48 633d
00000230: 0298 c73d 4f38 9abd 035a 953d 7238 753e
00000240: 198b 57bc e828 15bd 0766 b3bb da07 063d
00000250: cdcf 4fbd 629f d5bc 9ba4 143e 43b5 3f3c
00000260: 17f3 863c 329a 35bd 5f2e ffbd 44c0 52be
00000270: ca33 0a3d eee4 d0bd 31c2 203d af2e 1abd
00000280: da40 cbbd 74ee a73c 8d21 c8bd 335d 673d
00000290: 9e71 6b3d 305d a33d 4ab1 31bd d188 b6bc
000002a0: 05b8 d0bd 31ac 5e3e 88bc e4bc 8f85 4c3e
000002b0: f1d2 f83c 3e97 be3d 1e24 9abd 46e2 da3c
000002c0: 8155 10bd b4b8 ecbc 5195 3c3d 59c6 5bbd
000002d0: 6e37 e2bd a3cd 0c3d 44b5 f63a ba3f 953d
000002e0: 30a8 28be fe44 bf3d 071e 87bd 8c7b 343c
000002f0: 8db1 7dbc 905c 10bd d43e bbbc 5b50 1abc
00000300: 34e2 8fbd b25e 55bd 7d6a 033d 646d 31bd
00000310: 798c e5bb b7bd 8bbd 628b ad3d c047 3c3d
00000320: 1efe acbc 3faa eb3c ceca 173d 9304 5bbd
00000330: 1ee2 6a3e 6392 c7bc 7b8c 473d ae58 6fbd
00000340: 29ae a23d 9186 debd 6571 d43d d9ea ec3c
00000350: 4c90 5fbd c467 c13d 2b89 a7bd c819 103d
00000360: 8ece 4d3e 4763 073e 3f87 babd 25b5 f73c
00000370: b977 ffbd 3034 0f3c 202e 3dbd 9f0f 0ebc
00000380: 5e0a e43d a4e4 5c3e 174f be3a 694b 333c
00000390: 84f2 d4bd 1f0d fabc a453 ca3c 0de2 67bd
000003a0: 3412 a93c d897 87bd f36a 5ebe 79e0 a33d
000003b0: 6c45 3fbd 016e a7bc 265b b4bc 6dc1 cfbd
000003c0: 0796 98bd cec3 8fbd 9348 9b3d b238 8fbd
000003d0: b09c 66bd df8d f8bc 1997 25be c0e2 503d
000003e0: ece8 bb3d d0cb 623d 3d73 6bbc 2b4f 3bbd
000003f0: 6472 293c 94d1 6cbc 5982 543d 11c4 e9bd
-0.111232795 -0.03318345 -0.057403445 -0.017712537 -0.073341146 -0.04116961 0.09718942 0.0410725
0.101569004 -0.023277521 -0.08159905 0.030412735 -0.021030098 0.09571037 0.012209656 0.1396192
0.036016263 -0.024412198 0.03003342 0.007711298 0.03295328 0.053720966 0.055096935 0.106108814
0.028569665 0.124954626 -0.07072714 -0.07599706 0.041663315 0.088418856 0.040518384 -0.09387123
-0.07103724 0.085972436 0.089158714 -0.07775347 0.07031335 0.052629344 0.045017734 0.024508115
0.0022701984 0.2796236 0.056375243 0.09111472 0.10693586 0.004766086 -0.048677113 0.017406585
-0.002541659 0.049939692 -0.20406713 -0.014938459 -0.07259333 0.016495703 0.02614471 0.0024844725
-0.17126857 -0.022178028 -0.08559282 0.0034587414 -0.07557197 -0.11872077 -0.14588054 0.009324251
-0.076513894 -0.07059494 -0.01252549 -0.005688518 -0.0005323025 0.015268359 0.07451981 0.056468725
0.11728925 0.057411063 0.0022144313 -0.1413063 0.20996629 0.034597356 0.06790896 -0.00043484743
0.061856687 -0.028463975 0.06497372 -0.006272619 -0.003338169 0.1826567 -0.0062012416 0.0047492534
0.27261615 0.017171064 0.038650922 -0.013359271 -0.109586254 -0.00012439665 0.06318837 0.07494502
-0.026030261 0.1821587 -0.08824208 0.038212605 -0.046578515 0.04251206 -0.032565914 -0.15601194
0.0013640138 0.08869846 -0.045248345 0.2022514 0.024602532 0.071123645 -0.0071180193 0.0808537
-0.037394106 0.022024836 0.0009256401 -0.002745849 -0.05630206 0.03701247 0.024998112 0.097063914
-2.9732382e-06 0.016665187 -0.0117771225 0.06429018 -0.0061208615 0.09168456 -0.025876258 -0.07255197
-0.010998561 0.05165763 -0.06807099 -0.103740305 -0.09732597 0.10112586 -0.013407484 -0.010901096
0.111856304 -0.053746153 -0.022910394 0.05548892 0.0974579 -0.07530271 0.07292559 0.23947313
-0.013155722 -0.036415964 -0.005474809 0.03272233 -0.050735284 -0.026076976 0.14515917 0.011700931
0.016473336 -0.044336505 -0.124600165 -0.20581156 0.033740796 -0.10199915 0.039247695 -0.037642177
-0.09924479 0.020499445 -0.09772024 0.056485366 0.0574814 0.079767585 -0.043381967 -0.022282036
-0.10191349 0.21745373 -0.02792193 0.19972824 0.030374022 0.09306191 -0.0752642 0.026719224
-0.035237793 -0.028896667 0.046040837 -0.053655956 -0.110457286 0.034375798 0.0018822332 0.072875455
-0.16470408 0.09339331 -0.06597524 0.011015784 -0.015484226 -0.035244524 -0.022857107 -0.009418572
-0.07025567 -0.05209226 0.032083977 -0.043317214 -0.007005271 -0.068232946 0.08473851 0.045966864
-0.021117266 0.028767703 0.037058644 -0.05347116 0.2293782 -0.024361795 0.048717957 -0.05843418
0.07943375 -0.1086551 0.10373191 0.028920578 -0.05458097 0.0944362 -0.081804596 0.035180837
0.20098326 0.13221465 -0.091078274 0.030237744 -0.12474007 0.00874047 -0.046186566 -0.008670717
0.1113479 0.21571594 0.001451942 0.010943272 -0.10397819 -0.030523835 0.024698086 -0.056612063
0.020638563 -0.06620759 -0.21720485 0.08001799 -0.046697065 -0.020438196 -0.02201612 -0.10144315
-0.074504904 -0.07019769 0.07582202 -0.06993236 -0.056301773 -0.030341087 -0.1617092 0.050997496
0.09175286 0.055370152 -0.014370737 -0.045729797 0.010342214 -0.014454264 0.05188212 -0.1141435

network_body.linear_encoder.seq_layers.0.bias f4 [128]
00000000: b043 46bd d06b 8cbd 6a25 61be 1334 2bbc
00000010: 41ec 78bc 9039 7cbd 2e65 5cbe bc45 933c
00000020: a598 a8bd 44fc 3bbe 0a1f febd 9d7e e23d
00000030: 4c60 7a3b 3dab 783e 4a0d f73c 268a 5f3c
00000040: ee00 04be a420 54be 856c afba 8eeb 1fbe
00000050: aad5 38be e153 28bd 7daa 6fbd c2f2 71be
00000060: beed 0c3e 277c b63d fec8 44be 1754 90bd
00000070: 08d7 8bbc 15f9 6b3d 4db8 35be 23fb f33d
00000080: 5004 80bd 832f e7bd 1e80 8a3c cd03 303e
00000090: 8ed0 e8bd 4f8c 51be 8c5a aa3d 5c5b f5bd
000000a0: 134b 39be 2020 6f3e 0365 31be 646c 01be
000000b0: 9d6c 41be 5b37 453e 8e45 96bd 9ebd b2bd
000000c0: 415c f9bd b9a3 2cbe 6052 753e 3ee0 713d
000000d0: b6a1 733d 34ae 1bbe c119 86bd b2b5 05bd
000000e0: e771 c03d b455 763d 30c5 003d 0be7 20be
000000f0: ba9d 833d 191b 1d3e 45ab cdbd 2887 0fbe
00000100: a9f7 c3bc 4925 5abe b673 36be f40e 983b
00000110: 7967 5d3d 063f e13d 4ae9 22be 3246 4fbe
00000120: 938e 5dbe 99c0 5abe 0e9f fdbc 609e 0c3e
00000130: 2c75 4ebe a767 5e3c 2c4c 533e 9aa6 533e
00000140: 6b99 3cbe 073d adbc c5b0 1f3d e6da e1bd
00000150: 912c 90be 6677 57be d60e 4f3e 57aa 2b3e
00000160: c9c1 f5bd 412f 02bd 0697 21be 1087 3b3d
00000170: 1e68 633c e30a ed3d acbd 2f3c 3908 bf3c
00000180: 9f99 073e 2a4c 40be 8ab1 00be 521c 413c
00000190: 6de1 53be 5b86 10be b62c 5abe bdf6 46be
000001a0: fc72 5fbe 4045 3c3e 1a72 b7bb 9a26 8f3d
000001b0: 8d01 743d 1bf8 5cbe c026 24be e42e 22be
000001c0: 536e 323e 7d5b 19be e5f0 263e e190 fabd
000001d0: 7280 303e 6515 8abd 2756 07be dc7f 66be
000001e0: fdf2 86be 99da bc3d 229a af3d 030c 1c3e
000001f0: 15cb 603e 9723 a13d 1e65 0cbd 7b8d 153e
-0.048404396 -0.06856501 -0.21986929 -0.010449427 -0.015193046 -0.061578333 -0.21522972 0.017977588
-0.0823224 -0.1835795 -0.12408264 0.11059306 0.003820437 0.24284072 0.030157704 0.013643777
-0.1289098 -0.20715576 -0.0013383782 -0.156172 -0.18050256 -0.04109562 -0.0585122 -0.23627761
0.13762566 0.08910399 -0.19217297 -0.07047289 -0.017070308 0.05761059 -0.17746086 0.11913135
-0.062508225 -0.11288359 0.016906794 0.1718895 -0.11367904 -0.2046368 0.08318052 -0.11980316
-0.18095045 0.23352098 -0.17323689 -0.12639004 -0.18889089 0.19259398 -0.07337485 -0.08727573
-0.12175799 -0.1685933 0.23957205 0.059051745 0.05948039 -0.15203172 -0.06547881 -0.03264398
0.09396725 0.060140327 0.031438053 -0.15713136 0.06426568 0.15342368 -0.10042433 -0.14016402
-0.023921805 -0.21303286 -0.17817578 0.0046404544 0.054053757 0.10998349 -0.15909305 -0.20241621
-0.21636419 -0.21362533 -0.030959632 0.1373229 -0.20161885 0.013574517 0.20634526 0.20669022
-0.184179 -0.021147264 0.03898694 -0.1102808 -0.28159 -0.2104164 0.20220503 0.16764198
-0.11999852 -0.031783346 -0.15780267 0.045783103 0.013879804 0.11574342 0.010726374 0.02331935
0.13242196 -0.18779054 -0.12567726 0.011786537 -0.20691462 -0.14113753 -0.21306118 -0.1943006
-0.21821207 0.18385792 -0.0055983188 0.069897845 0.05957179 -0.2157902 -0.16030407 -0.158382
0.17424898 -0.14976306 0.16302831 -0.12234665 0.17236498 -0.06742362 -0.13216458 -0.22509712
-0.2635726 0.09221382 0.085743204 0.15238957 0.2195247 0.07868116 -0.03427612 0.14604752

network_body.linear_encoder.seq_layers.0.weight f4 [128, 52]
00000000: c1f6 6f3d 128a c8b8 a660 6cbd c82a fdbd
00000010: 7e34 0e3e 0dd1 8bbd de15 433e 514a 053e
00000020: b5ee 933e 27c0 71be 0706 2f3e 1a61 453e
00000030: 1c6c 4c3d 0104 833d f2da 9f3c 9f7a 83bd
00000040: cde7 943e 88f0 a6bd b2e7 c23c fb16 333e
00000050: 9409 2a3e ef97 58be d821 8dbe 82a5 363d
00000060: 7f2c 3abe 3faa 8d3c e4e4 3f3e baa0 423d
00000070: 97f1 0b3e 56a8 383d d02f 0d3e 885e a53d
00000080: 1871 4f3d 257a f5bc 8b36 5dbd c067 4a3d
00000090: 0266 46be 162a 323e 6ba4 a9be 2adf 243e
000000a0: 1f89 333e b1db 97bb c7f3 c6bd 4e95 1dbe
000000b0: f3ee 05be da3e 973c b835 f4bd c37d 57be
000000c0: 4177 013e ed50 cebe 0ba7 00be 26e4 c1bb
000000d0: 0858 db3d 1fd3 27be dfcf a73e d6dd 913e
000000e0: 624b 88be 2761 803c 408c 1ab8 3737 01bd
000000f0: 7ed1 71be 4acc 3f3e 1b54 173e 88c3 9fbe
00000100: 4a38 e73d 94e0 aabb ae6b aa3d 1eb8 a2bd
00000110: 370e b7bd 9478 8ebd 7bfc ecbd fada e8bc
00000120: fabb 1dbd 0ab9 34be 31b5 3e3e a7d3 2bbe
00000130: 53e7 923d edc9 d2bd 5d63 90bd 1176 163e
00000140: d14d c13d 67cf 92bc abf3 673d 9f74 fbbd
00000150: be79 ce3d e9fb 6ebd 1b1f b5bd 4cd3 e2bd
00000160: afd5 c23e 02db 34be 8a14 8e3d 56db 68be
00000170: e5d4 223c e84a 0bbe f2d7 20bd 942f c33c
00000180: 9243 03be 4e58 783e a971 493d d4fb ebbe
00000190: bd23 87be c557 9a3d de2a 4d3e 5c21 3b3e
000001a0: 98bc 173e 3314 7bbe 7274 793e 6e1e 12be
000001b0: ee42 243c 754e 50be 8cdb 4b3e 4baf 3bbe
000001c0: b8f7 e53d 66c0 4cbc 2e9a b23d b029 8bbd
000001d0: 3a8a 0d3e 63fb 653e 0155 973d 9f3b 2ebc
000001e0: 5124 25be 5a71 3ebb f6eb 573e cf9a 9dbe
000001f0: 2e50 cdbd 61d9 21bc 51dc 6e3e 3649 43bd
00000200: 57c8 b7bc 0527 6f3d e70f 333e 2651 4cbe
00000210: 248b 513e 5700 80bd 034a 5c3e 1006 363e
00000220: baa7 303e a00a a7bd a4ed 05be 1985 3ebb
00000230: 10ad 38be 61c2 7d3e c83a b43e e309 503e
00000240: 772a 1fbe 84c4 bbbd 286e 053e 7ebb 2c3e
00000250: 0339 e13c 8b15 1abe a6d6 b7bb 3824 103e
00000260: f509 35bd af4f b9be 6b03 833d 00f9 aebe
00000270: 2966 60bd b060 26bd 0871 223e 6d5e 863e
00000280: 3882 74bd be36 07bc f3de 0bbb 4f28 9b3e
00000290: cc22 8fbd bf8f 523d ec91 ff3c c505 4ebd
000002a0: 3e09 dfbd 2787 c1bb 1b76 023d 0ca0 343e
000002b0: b86a d33c 5723 343e a1c7 11be 82b0 89be
000002c0: 20da bdbe b04b 813d 7a05 b5bb d0c9 45bd
000002d0: 90f0 9f3e 302d 15be 1ea7 09bd d63f 80be
000002e0: eb56 41bd 9ab6 013e 386c 053d db6b 213d
000002f0: e284 d9bd fae7 89be da09 4b3d 6659 9bbe
00000300: 8981 ea3d f3f3 b73d 9939 cdb9 e7ff c1bd
00000310: ebd1 d43e 703c 90bc db13 00be 117e 88be
00000320: f708 163e b30b 083d be41 503d 868c a4bc
00000330: 53ee 3ebe 428e c7bb 6a00 bcbc 2c25 3fbe
00000340: d2f3 e03c 7355 0bbe 2165 8abe 53cd 903e
00000350: 9966 903d 2d0d 293e c973 0e3e c5b0 adbd
00000360: 6b33 35be c788 093e 0df2 0fbe 46c6 bbbb
00000370: ed87 20be 8e21 133e e35c 813e 1807 e3bc
00000380: 91de 4fbc 0fdb d53c ccbc 6abe 7d34 92bd
00000390: de12 403d f788 d03d bbf5 103d 8e81 8c3d
000003a0: 662c fc3d 128b b63d 0ace 5e3d 1ce8 1abe
000003b0: e633 41bd 5d4e 1f3e 39e1 0c3d 8eb8 173d
000003c0: 9c22 443e 12e3 13bc d636 823e 148b 1dbf
000003d0: 5bba 0bbd 8242 743d 4080 1b3e 82f9 d2bc
000003e0: d35e 883d cb19 e4bc bc51 503e 6015 6dbe
000003f0: f451 4dbd 5914 54be 538b 8a3e fad2 86be
0.058584932 -9.562461e-05 -0.05770936 -0.123616755 0.13887212 -0.06826983 0.1905131 0.1301663
0.28893057 -0.23608457 0.17092143 0.19275323 0.04990779 0.06397248 0.019513581 -0.064198725
0.290831 -0.081513464 0.023792122 0.17489235 0.16605216 -0.21151708 -0.27564883 0.044591434
-0.18181036 0.017293094 0.18739659 0.047516562 0.13666378 0.045082413 0.1378777 0.08074671
0.050644964 -0.02996547 -0.054007094 0.04941535 -0.1937485 0.17398867 -0.33133253 0.16100755
0.17532776 -0.0046343436 -0.097144656 -0.15388986 -0.13079433 0.018462587 -0.119243085 -0.21044068
0.12643148 -0.40296116 -0.12563722 -0.00591709 0.1071015 -0.1638913 0.3277578 0.2848956
-0.26620013 0.015671326 -3.684708e-05 -0.031546798 -0.23615071 0.18730274 0.14778177 -0.31203866
0.11290033 -0.00521476 0.083213195 -0.07945274 -0.08938258 -0.06956592 -0.11571594 -0.028424729
-0.038509347 -0.17648712 0.18623807 -0.16779958 0.07173028 -0.102924205 -0.07050202 0.14693476
0.094386704 -0.017921163 0.056628864 -0.12278103 0.10081814 -0.05834571 -0.088438235 -0.11075458
0.38053653 -0.1766167 0.06937511 -0.2273992 0.009938453 -0.13602793 -0.03926844 0.023826398
-0.12818745 0.24252436 0.04918066 -0.46090567 -0.26394454 0.07536272 0.20035884 0.18274444
0.14818037 -0.24519424 0.24360827 -0.1426942 0.010025723 -0.20342429 0.19907969 -0.18328588
0.11228889 -0.012497043 0.08720814 -0.06795061 0.1382226 0.22459178 0.0738926 -0.010634332
-0.16127135 -0.0029059262 0.21086106 -0.30782172 -0.10025059 -0.009878487 0.23326232 -0.04767724
-0.022434397 0.05838682 0.17486535 -0.1995283 0.20463234 -0.06250065 0.21512608 0.1777575
0.17251483 -0.081563234 -0.13078934 -0.0029071032 -0.18034768 0.24781181 0.35201097 0.20316271
-0.15543543 -0.09168342 0.13030303 0.16868398 0.027493006 -0.1504728 -0.005610305 0.14076316
-0.04419895 -0.36193606 0.06397136 -0.34174347 -0.054784928 -0.040619552 0.1586343 0.26243916
-0.0596945 -0.008252798 -0.0021342605 0.3030419 -0.06989059 0.05140662 0.03119751 -0.05029847
-0.10890435 -0.005906004 0.031850915 0.17639178 0.025807723 0.17591606 -0.14236309 -0.26892477
-0.3708048 0.06313264 -0.0055243345 -0.048288167 0.31238222 -0.14568019 -0.03360664 -0.25048703
-0.047202032 0.12667313 0.03257391 0.0394095 -0.106210485 -0.26934797 0.049569942 -0.30341643
0.11450488 0.089820765 -0.0003914356 -0.094726376 0.41566405 -0.017606944 -0.12507574 -0.2665868
0.14651857 0.033214282 0.050843947 -0.020086538 -0.18645601 -0.0060899565 -0.022949416 -0.18666524
0.027460013 -0.13606815 -0.2703028 0.2828165 0.07050819 0.16508932 0.13911356 -0.08480982
-0.17695396 0.13431083 -0.14057179 -0.005730423 -0.15676852 0.14368269 0.2526618 -0.027713344
-0.012687341 0.026105432 -0.22923583 -0.071389176 0.046892993 0.10182374 0.035390597 0.06860648
0.12313156 0.08913244 0.054395713 -0.15127605 -0.047168635 0.15557237 0.034394477 0.03704124
0.19153827 -0.009026306 0.25432462 -0.6154034 -0.03411327 0.05963374 0.15185642 -0.02575374
0.06658711 -0.02784433 0.20343679 -0.23152685 -0.050126985 -0.20710887 0.2705942 -0.26332837

network_body.linear_encoder.seq_layers.2.bias f4 [128]
00000000: d12c e6bc b85c 303e 731c 97bc a280 37be
00000010: 773f 273e fc93 2d3e 12a5 67bd 6395 27be
00000020: 5048 073e 0a24 613d b15e 46be 0ef8 ec3d
00000030: e7e2 163e 9d40 903d 83bd d73d dd2a 463e
00000040: e843 d8bc f2b1 4bbe 81d2 873d 7fc5 893d
00000050: e1c4 5fbd b28a fcbd a0bb 383e 00ca 07bd
00000060: 3277 70be d864 5bbe d4d7 ed3d ee84 55be
00000070: b415 a13d 78b7 21be 2727 3b3d 0b38 803d
00000080: 3703 093e 21dc b73d 2d10 86be 7ac5 c03d
00000090: 4e81 67bc d8d0 103e 61f5 61be 78dd 46bc
000000a0: feef 64be 6794 2e3e ee1b 72bd 9522 493e
000000b0: 2d18 083e 9969 e13d 49de 59be 063b 9e3d
000000c0: 56ca 05be 90f6 41be 8cef bd3c f247 f1bd
000000d0: b04a 00be 4367 ee3d 6252 9d3c f3b5 293e
000000e0: 6429 0cbe 9fe0 213e 1ff4 e83d d1d6 e2bd
000000f0: f3f2 2f3d 55b2 2dbe 8387 19be 4ca4 3d3c
00000100: 7034 14be 8634 d4bd 2a77 713d c6d5 22be
00000110: 4f12 d8bd 99de 61be d33f 763b bea3 913d
00000120: 85cf 8f3c dee5 3c3d 3399 0a3e ddcc c03d
00000130: 8084 523e 73ae 29be f5ba 9e3d 6041 54be
00000140: a9eb a23d 6f4f 3fbe cff6 a43d 52be efbd
00000150: d72a 44be 9457 d13d 8299 5fbe 6af3 9e3d
00000160: fbd6 373e 68d3 1d3e 3a30 58be d6d3 39bd
00000170: 113c 65be 3cd8 9a3c c92c c3bd de83 b43d
00000180: e3bc 1abe e182 6d3e 838f e6bd 08af 6cbd
00000190: 3990 4d3d 1779 72bd fbd3 acbd 2164 8b3d
000001a0: 5570 de3d c85f eebd 8e08 13be 9fa0 0a3e
000001b0: 0c22 72be 824d f8bb f854 39be fab0 2fbe
000001c0: 60f3 65be ec2e 12be 3fec c43d 2fe2 4cbe
000001d0: 282d 0abe b172 fd3c bc2f 41be c148 a23d
000001e0: 38b1 443c d005 613c e8dc 8f3d d31a 19be
000001f0: 2d03 803d c17f 24be 2c08 b83d 59c4 5fbe
-0.028097542 0.1722287 -0.018446183 -0.17920163 0.16332804 0.16950983 -0.056553908 -0.1636558
0.13211179 0.05496601 -0.1937206 0.1157075 0.14734994 0.07043574 0.10534193 0.19352289
-0.026399568 -0.198921 0.06631947 0.067271225 -0.054631118 -0.123311415 0.18040323 -0.033151627
-0.2348297 -0.21425188 0.116134316 -0.2085149 0.07865468 -0.15792644 0.045691635 0.06260689
0.13380133 0.08977533 -0.26184216 0.09412666 -0.01412995 0.14142168 -0.22066261 -0.012137763
-0.22357175 0.17048799 -0.059108667 0.19642098 0.13290472 0.11006469 -0.21276201 0.077261016
-0.13065466 -0.18941712 0.023185514 -0.117813006 -0.12528491 0.11640789 0.019204322 0.16573314
-0.13687664 0.15808342 0.113746874 -0.11076129 0.042956304 -0.1696256 -0.149931 0.011574816
-0.14473128 -0.103615806 0.058951534 -0.1590186 -0.10550367 -0.2205757 0.0037574663 0.071113095
0.017555008 0.046117656 0.13535003 0.094140746 0.20558357 -0.16570453 0.07750503 -0.20728064
0.07955105 -0.18682645 0.080548875 -0.117062226 -0.19156967 0.10221782 -0.21835902 0.07761271
0.17953102 0.15412676 -0.21112147 -0.045368038 -0.22386195 0.018901937 -0.095300265 0.08814214
-0.15111117 0.23194458 -0.112578414 -0.05778411 0.05018637 -0.05919751 -0.084388696 0.068062074
0.108612694 -0.116393626 -0.14358732 0.13537835 -0.236458 -0.007577599 -0.1809882 -0.17157355
-0.22456121 -0.14275712 0.09615373 -0.20008157 -0.13493788 0.030938478 -0.18865865 0.07924033
0.012005143 0.013734296 0.070245564 -0.14951639 0.06250606 -0.16064359 0.08985934 -0.21852244

network_body.linear_encoder.seq_layers.2.weight f4 [128, 128]
00000000: e12d 37bd cf40 c03d 3439 73bd 7aa0 08be
00000010: 547b 1abe e353 813d 5be7 55be 0a8c 96bd
00000020: c3dd 34bb e9f2 61be 1965 62be f1c8 353e
00000030: 199b 00be 47ec 2d3e ffe9 163e 6351 7fbe
00000040: 5e05 ccbd 1c09 603d f2e7 3cbe 9ee4 763d
00000050: 6fcb 0cbe fad7 a13d 8f44 773d 369e a53c
00000060: 57ef dabd 1f30 83bd 8d18 373c 92f2 d23d
00000070: ab6e 30be fcdc 26be d48a f23d 33b5 1c3e
00000080: 64c7 c3bd 90b8 10be c2f2 893c 8901 733d
00000090: 7a3a 483c 8bca 053c 368d 79bc 38f5 a6bc
000000a0: 900e 063d 5529 923e aeca febd 4f0c c1bb
000000b0: 1187 b5bd a69a c63d 8d99 0bbe 93e5 d5bd
000000c0: 006b 74bd 4df4 1d3d 7b63 8c3d 1d78 073d
000000d0: bf4e 843e 57c4 2a3e 913f b6bd 071d 6abe
000000e0: 8fcd 9f3e 6674 0b3e 759a 30be ad9a e7bc
000000f0: 3e53 4dbe 83b8 4e3e 5ae7 5c3e 4501 453d
00000100: a7c6 90bc 8783 fcbc 8971 95bd cc59 023e
00000110: b1dd 6ebd 547d a9bc 7683 2dbe d2d5 14be
00000120: 7b54 f7bd fd34 7abe 5b17 bbbd 4bcf 74bd
00000130: ee3f dabd fda1 11be 8206 553d 37c1 4abc
00000140: 82d4 01bd c433 843c 4594 10bd d2a2 843d
00000150: 6063 2a3d e3da e3bb fd82 7dbe b3a1 c0be
00000160: 75a1 54be 70d6 20be 7fc3 133e f43c 1cbe
00000170: 5c54 9ebd b571 bdbd 2bcd 743e ea41 afbd
00000180: 9006 ab3d 97c1 0ebe bfc2 663e bdee 45be
00000190: 4339 a1bc 41ea 1cbd a8d4 603d cf56 66bc
000001a0: 1c95 523d 4974 92bb 657e 76be a115 8abd
000001b0: 1bb0 25be 760d ba3d d308 c93d e62f 3dbd
000001c0: 31ef 71bd db28 013e 8435 0bbe 0633 dabc
000001d0: 4101 a1bc 0aba fabd 1760 ba3c ac3b 1d3e
000001e0: a3d2 ab3d 5fac 70be 0d23 d6bd f077 0f3d
000001f0: 1b9b 2abe ddf3 12be 0b63 fbbc 59df 153d
00000200: 698b e93a a06e 653b 8a84 e13d 80fc 873b
00000210: f8b7 b3bd 68e3 0f3e 1ad9 563d b37d 81bc
00000220: 4e7b efbb 5119 123e 9ec1 30bd 62f2 0bbb
00000230: 4982 5fbd 80ad 8b3d 9932 113d 2f2f 243e
00000240: cc5b 92bc f3c2 41be fbdf 4fbe 5383 d0bd
00000250: 4f30 90bb 7cc0 40bd f48e bb3d 8d72 b5bd
00000260: 744d 723c f5f9 103d b9c1 fbbd 46d9 db3b
00000270: ec1e 49bd 9418 053e 5650 4fbd a961 06be
00000280: a59d 20bb c3d4 d1bd 5d2b 4c3d f649 153e
00000290: d653 16be 4786 563d 950c 3cbd 55d8 77be
000002a0: 05b4 4f3d b858 c3bd e125 c3bd a4d5 863d
000002b0: 8ecf ab3c c395 0d3e 3986 4dbe 6294 46be
000002c0: e5fd 683d 6549 6dbd 431f 173e afd2 12be
000002d0: b86f c63d 832d acbd baaf 73bd 5ab5 d8bd
000002e0: 4fb8 b63b fa80 753e af7c a3bd ced4 a33c
000002f0: 751a ec3b 521e 81bc aa62 683e 2b0a 6b3c
00000300: 2517 273e 7bac 4dbd 864a a93d eee3 073d
00000310: d80d ca3d daae 5dbd 029e 31be ef1d 8d3d
00000320: 48fc 303d e0c5 47bd 17e6 aabb e00c 2abe
00000330: d2c9 9abd 3e79 223e affa 7a3c adf2 223c
00000340: 5f81 b83d 9ebe bfbd f38c e63d 2f6a 6f3d
00000350: e78c a5bd edd6 983d 7a89 493d e2c9 d6bd
00000360: ba8e e9bd 8ec8 0d3d 94e2 d1bc 4db3 4a3d
00000370: 09be f5bd 79a1 b8bc d960 b1be f97a 23be
00000380: 942f cf3b beaa 27bc 08cc b9ba 19d4 7fbc
00000390: 1735 133d 9e4e de3d 24bf f7bd 2a8e 03bd
000003a0: 91ad 5e3d 04dc f63d e654 64bd 23ac 58bd
000003b0: 6269 9c3d abc2 483d 6e01 81bd 3619 18be
000003c0: 687b 68bd 5711 5dbc 452b b43d 0cd7 91bd
000003d0: a121 0c3e 3a1e 063d af3f a73c 0d6f 68bd
000003e0: a5dd 55be 902c 82bd 6632 7abe b441 43be
000003f0: 99fc 40bd d60c a03d 85b2 9abd 478e 573d
-0.044721488 0.09387361 -0.059380725 -0.13342467 -0.15086108 0.06314828 -0.20889036 -0.07350929
-0.0027598 -0.22065319 -0.22108878 0.17752434 -0.12559165 0.16984664 0.147377 -0.2493339
-0.09961961 0.054696187 -0.18447855 0.06027662 -0.13749479 0.079025224 0.060368117 0.020217042
-0.10690182 -0.06405663 0.011175287 0.10300173 -0.17229716 -0.16295236 0.118428856 0.15303497
-0.09559515 -0.14132905 0.016839389 0.059327636 0.012220973 0.008165966 -0.015231421 -0.020380601
0.03272873 0.2854716 -0.12441002 -0.00589136 -0.088636525 0.096974656 -0.13632794 -0.104441784
-0.059672356 0.03856306 0.06854912 0.033073533 0.25841329 0.1667646 -0.08898843 -0.22862636
0.31211516 0.13618621 -0.1724642 -0.028271997 -0.20051286 0.20187573 0.21572629 0.048096914
-0.01767285 -0.030824436 -0.07297046 0.12729567 -0.05831689 -0.020689644 -0.1694468 -0.14534691
-0.1207666 -0.24434276 -0.09135314 -0.059768002 -0.10656725 -0.1422195 0.05200816 -0.012375168
-0.031696804 0.016137965 -0.03529765 0.06476368 0.041598678 -0.0069535836 -0.24757 -0.37623367
-0.20764716 -0.15706801 0.14430045 -0.15257627 -0.07730934 -0.092502035 0.2390639 -0.08557494
0.08350861 -0.13941036 0.22535227 -0.19329353 -0.019680625 -0.03830934 0.054890305 -0.014058783
0.051411733 -0.0044694287 -0.24071653 -0.06742407 -0.1618046 0.09084599 0.09816136 -0.046188258
-0.059066 0.12613241 -0.13594633 -0.026635658 -0.019653918 -0.122425154 0.022750897 0.15354794
0.08389785 -0.23503254 -0.10455904 0.03502649 -0.1666073 -0.14350839 -0.030686876 0.036589954
0.0017818037 0.0035008565 0.11011608 0.0041499734 -0.08775324 0.14051592 0.052453138 -0.015807008
-0.0073084002 0.1426747 -0.043153398 -0.0021354188 -0.05456761 0.06820202 0.035448644 0.16033624
-0.017866038 -0.18922023 -0.20300286 -0.10181298 -0.00440029 -0.047058567 0.091581255 -0.088597395
0.014788974 0.035394628 -0.12292809 0.0067092506 -0.049101755 0.12997657 -0.050613724 -0.13123192
-0.0024508026 -0.10245659 0.049846042 0.14578995 -0.14680418 0.05237415 -0.045910437 -0.24203618
0.05070879 -0.09538406 -0.09528709 0.065837175 0.020972993 0.13826661 -0.20070733 -0.19392541
0.056882758 -0.057931323 0.14758019 -0.14338182 0.096892774 -0.08407118 -0.059493758 -0.10581465
0.0055761705 0.23974982 -0.07982766 0.019998934 0.0072053024 -0.015761528 0.22693887 0.014345686
0.16317423 -0.05021332 0.08266167 0.033176355 0.09865922 -0.05412183 -0.17345431 0.06890475
0.043209344 -0.048772693 -0.005215417 -0.16606474 -0.075580254 0.15866563 0.015318557 0.009945554
0.090090506 -0.09362529 0.11257353 0.058450874 -0.080835156 0.07462869 0.049203373 -0.10487725
-0.11404176 0.034615092 -0.025620736 0.0494874 -0.11999137 -0.022537934 -0.346442 -0.15964879
0.0063228104 -0.010233579 -0.0014175186 -0.015614533 0.035939302 0.10854839 -0.12097004 -0.032118
0.054364745 0.120536834 -0.055745028 -0.052898537 0.07637288 0.049013775 -0.06299101 -0.14853367
-0.056758314 -0.013492904 0.087973155 -0.07121095 0.13684703 0.03274367 0.020416109 -0.05674653
-0.20885332 -0.06356156 -0.24433288 -0.19068033 -0.047115896 0.07814948 -0.07553581 0.05262592

network_body.vector_processors.0.normalizer.running_mean f4 [52]
00000000: 97e6 cb3c 63b4 793f 1bf6 b234 eaae 963e
00000010: ad8d a93c 0ca2 7a3f 91c7 5035 93a9 973e
00000020: 2e42 f53c dd7f 783f 33a1 ee34 2980 963e
00000030: 94c0 a13c 0bd1 7a3f d038 8635 1040 983e
00000040: 2a9e 2b3d a269 753f f8a1 ee33 c69c 953e
00000050: 2a99 b03c ab6a 7a3f 49f6 b235 fedc 993e
00000060: 068c 653d 41ae 713f a4f5 b234 146c 943e
00000070: d07c cf3c e090 793f 95c8 5035 a383 9c3e
00000080: 5505 723d 3bdf 703f 53f4 3235 b26f 933e
00000090: b747 1c3d ca53 763f c6f5 b234 076d 9f3e
000000a0: 4c4f 703d e5f7 703f a7a2 6e34 c126 923e
000000b0: c597 8b3d 7d83 6e3f 8cf6 b234 c9fd 9f3e
000000c0: adc9 7f3d fbfb 6f3f f8a1 ee33 f40c 913e
0.024890227 0.97540873 3.333415e-07 0.29430324 0.02069744 0.97903514 7.7776446e-07 0.29621562
0.029938783 0.97070104 4.4448242e-07 0.29394653 0.019745149 0.97975224 1.0000313e-06 0.29736376
0.041898884 0.9586431 1.11122006e-07 0.2922117 0.02155741 0.9781901 1.3333712e-06 0.30051416
0.05604174 0.94406515 3.333381e-07 0.28988707 0.02532807 0.97486687 7.7777923e-07 0.3056918
0.059087116 0.9409062 6.6665706e-07 0.28796154 0.03815433 0.962216 3.3333907e-07 0.3113787
0.058669373 0.9412826 2.222465e-07 0.28545192 0.06816057 0.93169385 3.333447e-07 0.3124831
0.062448192 0.93743867 1.11122006e-07 0.28330195
