results/fifth/Car/Car-3499949.onnx (onnx, 96598 bytes, 9 tensors)

53 f4 [52]
0.12519799 0.1252148 0.0009258262 0.20269185 0.12076292 0.12077055 0.0010690478 0.20426653
0.12557958 0.12562804 0.00092582306 0.20224439 0.11484676 0.11485891 0.0011952217 0.20755646
0.12275644 0.122792065 0.0005345263 0.2007437 0.11574375 0.11575582 0.0007559315 0.21094611
0.120070614 0.12011119 0.0007559336 0.19884446 0.12024041 0.120252274 0.0007559272 0.21409811
0.117738746 0.11777926 0.0005345263 0.1973185 0.12899746 0.12901488 0.00075593253 0.21694967
0.12871592 0.12875879 0.0007559272 0.1964494 0.15281774 0.15282567 0.0007559331 0.21705739
0.14667396 0.1467054 0.0005345263 0.19813849
00000000: e733 003e 4f38 003e 25b3 723a 748e 4f3e
00000010: 8d52 f73d 8d56 f73d 4b1f 8c3a 3f2b 513e
00000020: ef97 003e a3a4 003e efb2 723a 2719 4f3e
00000030: c734 eb3d 263b eb3d fca8 9c3a ae89 543e
00000040: ba67 fb3d 687a fb3d 741f 0c3a c28f 4d3e
00000050: 0f0b ed3d 6311 ed3d b429 463a 4202 583e
00000060: 95e7 f53d dbfc f53d d829 463a e29d 4b3e
00000070: 9b40 f63d d346 f63d 6a29 463a 893c 5b3e
00000080: 0321 f13d 4136 f13d 741f 0c3a dc0d 4a3e
00000090: e917 043e 7a1c 043e c629 463a 0e28 5e3e
000000a0: 1bce 033e 58d9 033e 6a29 463a 082a 493e
000000b0: 417c 1c3e 557e 1c3e d029 463a 4b44 5e3e
000000c0: b331 163e f139 163e 741f 0c3a d1e4 4a3e

54 f4 [1, 2]
-1.3058238 -1.2509416
00000000: 3c25 a7bf db1e a0bf

distribution.mu.bias f4 [2]
-0.015515401 0.20096146
00000000: 4f34 7ebc d7c8 4d3e

distribution.mu.weight f4 [2, 128]
-0.06974996 -0.03915594 -0.08883217 -0.00015291004 -0.07441536 -0.04908289 0.11559456 0.04083518
0.07734866 -0.009254893 -0.031749643 0.010653053 -0.030657781 0.04747051 -0.0012673143 0.11222887
0.035136595 0.022173995 -0.019277453 0.017066788 0.07899778 0.080709465 0.006051101 0.12896585
0.021165209 0.07918751 -0.043039907 -0.021538198 0.039446067 0.07649327 0.03568476 -0.086356364
-0.04226643 0.028193709 0.08170474 -0.08005187 0.04120787 0.04417786 0.01929645 0.047492355
-0.014406408 0.14616807 0.0781706 0.07072105 0.09202079 -0.00832545 -0.053615555 0.01540401
0.0066336016 0.054703984 -0.16610207 0.037989 -0.09069874 -0.01881929 0.004230594 -0.011100175
-0.07210949 -0.041030508 -0.08154799 -0.0030120406 -0.0763807 -0.11308056 -0.11926614 0.081313744
-0.09261213 -0.07980913 -0.035507895 -0.0032911112 0.008409707 0.024885213 0.055653892 0.06482186
0.16425948 0.050004557 -0.0014840516 -0.12140706 0.18172455 0.035167515 0.07013442 0.008852235
0.03474791 -0.019983523 0.006727321 -0.011839458 0.052716415 0.13765594 0.0016926475 0.0054810587
0.1399004 -0.010475303 0.044036757 0.009005346 -0.07030019 0.035002884 0.09434608 0.039545786
-0.0304346 0.15483083 -0.05002092 0.072245196 -0.02572098 0.0951577 -0.035427205 -0.14655685
-0.0026116294 0.13838817 -0.02702659 0.2042612 0.009178075 0.10180848 -0.004869318 0.10640882
-0.02993741 0.03778268 -0.038235523 0.0022780106 -0.027475117 0.045430895 0.031325158 0.063945234
-0.01964628 0.06860691 0.005919225 0.064080745 -0.038735576 0.06581693 -0.021623164 -0.059147824
-0.018126784 0.077641465 -0.05688238 -0.103131376 -0.035416607 0.08698481 -0.028916657 -0.05142964
0.10900809 -0.013969773 -0.09614203 0.060221307 0.10729963 -0.04715008 0.07462361 0.2269985
-0.024426637 -0.075272165 0.0106663685 0.055390455 -0.033239305 -0.037797634 0.1598642 -0.0024196545
-0.011177427 -0.05021358 -0.026652554 -0.13676812 0.029522624 -0.07490064 0.02717801 -0.0015852087
-0.043742467 0.047963828 -0.11554656 0.024156367 0.024592029 0.07804493 -0.0534743 -0.013159588
-0.121849455 0.18514541 -0.0059216768 0.17347069 0.020325786 0.09938437 -0.059711188 0.0054354463
0.0046016495 -0.028729502 0.0071376823 -0.033004098 -0.07422441 0.0072207046 -0.0037783592 0.09207932
-0.14524534 0.106306784 -0.04399052 0.007989079 0.011882741 -0.020290453 -0.018357728 -0.023323644
-0.043058645 -0.0089747915 0.03235908 -0.03165113 0.001175456 -0.063671425 0.08977228 0.039718736
-0.0138230985 2.1787313e-05 0.08040173 -0.052020136 0.20767888 -0.035089206 0.040562022 -0.026064903
0.034961715 -0.045455534 0.081702024 0.02201789 -0.06391936 0.114434436 -0.06349614 0.028175704
0.18909018 0.14669286 -0.049060438 0.0014770902 -0.08517846 0.03129325 -0.052401446 0.0018171647
0.07105827 0.20025483 -0.010666618 0.0036751735 -0.03554517 -0.040643796 -0.004344918 -0.036884815
0.037570346 -0.09176133 -0.2199053 0.09231445 -0.035617854 -0.005951023 -0.015984053 -0.101974346
-0.040489115 -0.07227891 0.06854782 -0.06454089 -0.028228097 -0.022440411 -0.1456283 0.035596203
0.081174724 0.028676523 0.0182691 -0.06494233 0.012203996 -0.01976082 0.047198296 -0.091287
00000000: 11d9 8ebd fb61 20bd a4ed b5bd 7a56 20b9
00000010: 1567 98bd 240b 49bd d7bc ec3d ca42 273d
00000020: f968 9e3d d6a1 17bc ea0b 02bd 258a 2e3c
00000030: 0726 fbbc 7070 423d 031c a6ba 40d8 e53d
00000040: 64eb 0f3d 3da6 b53c c0eb 9dbc a6cf 8b3c
00000050: 97c9 a13d 014b a53d 5048 c63b a00f 043e
00000060: a962 ad3c 102d a23d 9d4a 30bd e070 b0bc
00000070: 3392 213d 81a8 9c3d 2f2a 123d 9bdb b0bd
00000080: 901f 2dbd 7ef6 e63c d154 a73d 3cf2 a3bd
00000090: 95c9 283d d8f3 343d 9713 9e3c 5887 423d
000000a0: db08 6cbc 15ad 153e e817 a03d 33d6 903d
000000b0: 6575 bc3d 7867 08bc fc9b 5bbd 1a61 7c3c
000000c0: af5e d93b 4911 603d a916 2abe 5b9a 1b3d
000000d0: 43c0 b9bd e92a 9abc cba0 8a3b 82dd 35bc
000000e0: 24ae 93bd 9b0f 28bd a202 a7bd a865 45bb
000000f0: 7c6d 9cbd c896 e7bd ce41 f4bd d287 a63d
00000100: 6eab bdbd f872 a3bd ba70 11bd afaf 57bb
00000110: dec8 093c 13dc cb3c 56f5 633d 53c1 843d
00000120: a333 283e 94d1 4c3d 8284 c2ba 44a4 f8bd
00000130: 0016 3a3e d00b 103d a3a2 8f3d f708 113c
00000140: d353 0e3d 7cb4 a3bc dc70 dc3b 49fa 41bc
00000150: 2bed 573d aef5 0c3e d3db dd3a 749a b33b
00000160: 0d42 0f3e 9ba0 2bbc e35f 343d 298b 133c
00000170: 8cf9 8fbd 2f5f 0f3d 8538 c13d c3fa 213d
00000180: fb51 f9bc f98b 1e3e bce2 4cbd 4af5 933d
00000190: ceb4 d2bc 0ae2 c23d 1e1c 11bd 0013 16be
000001a0: df27 2bbb a1b5 0d3e de66 ddbc d929 513e
000001b0: a35f 163c f780 d03d cd8e 9fbb deec d93d
000001c0: 4d3f f5bc 03c2 1a3d da9c 1cbd ad4a 153b
000001d0: 7f13 e1bc bf15 3a3d cf4e 003d b8f5 823d
000001e0: 3cf1 a0bc c881 8c3d 0ff6 c13b c43c 833d
000001f0: 32a9 1ebd 07cb 863d 1023 b1bc fd44 72bd
00000200: 9f7e 94bc 7d02 9f3d 80fd 68bd 8b36 d3bd
00000210: 0111 11bd 1825 b23d a0e2 ecbc e3a7 52bd
00000220: a23f df3d 7ae1 64bc 1de6 c4bd 9eaa 763d
00000230: e9bf db3d 7120 41bd 43d4 983d 4b72 683e
00000240: 5f1a c8bc 4b28 9abd fec1 2e3c 1ae1 623d
00000250: f025 08bd b1d1 1abd 71b3 233e 1193 1ebb
00000260: 8721 37bc c1ac 4dbd 7556 dabc f10c 0cbe
00000270: 6ed9 f13c 8265 99bd 6ba4 de3c c7c6 cfba
00000280: 4d2b 33bd b875 443d ada3 ecbd 93e3 c53c
00000290: 3975 c93c 05d6 9f3d de07 5bbd 509b 57bc
000002a0: 358c f9bd c296 3d3e a00a c2bb 4da2 313e
000002b0: 4382 a63c 088a cb3d b893 74bd d41b b23b
000002c0: 6fc9 963b 225a ebbc 38e3 e93b 4e2f 07bd
000002d0: f802 98bd a99b ec3b 599e 77bb 1594 bc3d
000002e0: 32bb 14be 5fb7 d93d 672f 34bd a0e4 023c
000002f0: d4af 423c 2a38 a6bc f262 96bc 3a11 bfbc
00000300: 435e 30bd 010b 13bc f48a 043d 9ea4 01bd
00000310: c211 9a3a 2a66 82bd 87da b73d 1db0 223d
00000320: 477a 62bc e6c3 b637 aaa9 a43d 1113 55bd
00000330: c6a9 543e b3b9 0fbd 5d24 263d 1086 d5bc
00000340: 0434 0f3d 952f 3abd 6453 a73d dd5e b43c
00000350: 27e8 82bd 9a5c ea3d 440a 82bd bcd0 e63c
00000360: dba0 413e a736 163e 99f3 48bd ec9a c13a
00000370: 0b72 aebd 5a2d 003d e6a2 56bd ee2d ee3a
00000380: 0087 913d 9a0f 4d3e 0ac3 2ebc 2edb 703b
00000390: d097 11bd 1c7a 26bd d05f 8ebb 8814 17bd
000003a0: 5de3 193d 5ded bbbd db2e 61be 5c0f bd3d
000003b0: 07e4 11bd cd00 c3bb fdf0 82bc edd7 d0bd
000003c0: ead7 25bd f706 94bd cd62 8c3d 042e 84bd
000003d0: 9c3e e7bc f4d4 b7bc 961f 15be 53cd 113d
000003e0: ef3e a63d 07eb ea3c 14a9 953c 7c00 85bd
000003f0: 45f3 473c 71e1 a1bc 0053 413d aef4 babd

network_body.linear_encoder.seq_layers.0.bias f4 [128]
-0.0384633 -0.05242512 -0.19510823 -0.050664652 -0.02890949 0.043435205 -0.1864468 -0.008859281
-0.032627754 -0.18182576 -0.11697917 0.12711972 0.04306567 0.24448231 0.075239524 0.046025835
-0.09741656 -0.19038218 0.0104674315 -0.10767448 -0.1607156 -0.02456217 -0.08781633 -0.24277315
0.15265802 0.11048694 -0.16773762 -0.08713438 -0.016331883 0.058071665 -0.15271275 0.12606734
-0.022296611 -0.10577472 0.07238562 0.20437606 -0.092822425 -0.15622595 0.14084359 -0.107302636
-0.15661773 0.25468448 -0.1691327 -0.043281157 -0.1604343 0.20906737 -0.10665562 -0.0829015
-0.13691305 -0.14786667 0.22218654 0.04216562 0.12329021 -0.14825971 -0.005682525 -0.062428165
0.09353305 0.12765506 0.050688066 -0.13414752 0.103073105 0.15691188 -0.103535846 -0.11310498
0.07048024 -0.19682658 -0.16118851 0.05166658 0.11643222 0.13871069 -0.111117445 -0.17052536
-0.19162682 -0.202202 0.021450927 0.11940331 -0.17197284 0.09389913 0.21296479 0.21215944
-0.15936808 -0.0036891703 0.070044614 -0.0987249 -0.22559911 -0.15200864 0.17055583 0.13964622
-0.14405262 0.0004245769 -0.13057695 0.119218186 0.023095027 0.13645281 0.019168833 0.07986384
0.12780876 -0.18718606 -0.121373154 0.06372912 -0.18105839 -0.10641922 -0.19697136 -0.16593538
-0.21471849 0.20256416 0.0045769825 0.055925008 0.10779213 -0.19081163 -0.15754801 -0.1294764
0.15548792 -0.12698892 0.17136692 -0.086649105 0.22612175 -0.032069664 -0.12640494 -0.22183816
-0.22758624 0.071884155 0.08268181 0.12747334 0.18006597 0.11049136 -0.022667462 0.14716122
00000000: b18b 1dbd b9bb 56bd 74ca 47be bd85 4fbd
00000010: 98d3 ecbc 1de9 313d e9eb 3ebe 8526 11bc
00000020: aea4 05bd 8830 3abe c692 efbd ac2b 023e
00000030: a165 303d 9259 7a3e 2e17 9a3d 9685 3c3d
00000040: 5582 c7bd 8cf3 42be 977f 2b3c 7084 dcbd
00000050: a192 24be 9b36 c9bc 0cd9 b3bd 8699 78be
00000060: 6252 1c3e fa46 e23d 69c3 2bbe 8373 b2bd
00000070: 71ca 85bc 8edc 6d3d bb60 1cbe cc17 013e
00000080: 62a7 b6bc 6ba0 d8bd e93e 943d f547 513e
00000090: af19 bebd b2f9 1fbe 4d39 103e 7cc1 dbbd
000000a0: 6660 20be 0166 823e 1f31 2dbe 9547 31bd
000000b0: e448 24be c215 563e 436e dabd 43c8 a9bd
000000c0: ef32 0cbe 5c6a 17be de84 633e dbb5 2c3d
000000d0: 947f fc3d 65d1 17be 7a34 babb adb4 7fbd
000000e0: 418e bf3d 02b8 023e 4a9e 4f3d f85d 09be
000000f0: fe17 d33d 82ad 203e 9a0a d4bd 95a3 e7bd
00000100: f257 903d e88c 49be 9a0e 25be 56a0 533d
00000110: 0474 ee3d 2d0a 0e3e 8b91 e3bd 339e 2ebe
00000120: d239 44be 0b0e 4fbe dbb9 af3c b989 f43d
00000130: a619 30be 304e c03d 7113 5a3e 5340 593e
00000140: 6331 23be 02c6 71bb 8d73 8f3d 4830 cabd
00000150: 7403 67be 27a8 1bbe 30a6 2e3e 6bff 0e3e
00000160: 8882 13be bf99 de39 f7b5 05be aa28 f43d
00000170: c831 bd3c 49ba 0b3e f507 9d3c a78f a33d
00000180: 4de0 023e b4ad 3fbe 7d92 f8bd 6a84 823d
00000190: 5f67 39be 52f2 d9bd dcb2 49be f7ea 29be
000001a0: 2adf 5bbe fb6c 4f3e 83fa 953b 9f11 653d
000001b0: 1fc2 dc3d 2064 43be 4454 21be 7695 04be
000001c0: 3a38 1f3e 6209 02be cf7a 2f3e 1675 b1bd
000001d0: 768c 673e 7b5b 03bd 4c70 01be 8b29 63be
000001e0: 5e0c 69be 0038 933d 1555 a93d 5f88 023e
000001f0: 3763 383e 4b49 e23d 1db1 b9bc 6eb1 163e

network_body.linear_encoder.seq_layers.0.weight f4 [128, 52]
0.08916979 -0.032740276 -0.060307503 -0.15861477 0.20908375 -0.14170219 0.19357929 0.12527204
0.28209803 -0.23177746 0.17217413 0.17004319 0.098118074 0.012781525 0.009883908 -0.07804407
0.30031502 -0.091036335 0.013377439 0.14238136 0.18165359 -0.22943094 -0.28477708 0.013275393
-0.16219011 -0.0028389532 0.18561962 0.014805826 0.14436793 0.031441327 0.14882521 0.051807515
0.068457425 -0.04799343 -0.048647642 0.038506914 -0.225033 0.20105395 -0.3309323 0.12501223
0.15274376 0.017856171 -0.099920034 -0.17856419 -0.16658795 0.049609646 -0.12837425 -0.22600006
0.101913325 -0.3780946 -0.13605087 -0.021385308 0.11611596 -0.16999833 0.31009996 0.29602215
-0.26830518 0.021046296 -0.012780062 -0.029204344 -0.26170108 0.21493226 0.1261747 -0.28415927
0.11689909 -0.0059782644 0.07359389 -0.07682822 -0.071096435 -0.086534105 -0.13382079 -0.0027289602
-0.032527696 -0.1796757 0.17388931 -0.14505418 0.02648149 -0.054338742 -0.08950019 0.20732827
0.10727063 -0.027799454 0.03660188 -0.08590627 0.023169626 0.02015135 -0.10016889 -0.094657354
0.39344937 -0.1864831 0.046678156 -0.16336007 0.02425436 -0.15015644 -0.056418456 0.07076012
-0.13406983 0.2512357 0.031731658 -0.39151767 -0.23755318 0.04924499 0.18225461 0.21596463
0.18426016 -0.28184885 0.23302275 -0.13111065 0.060385015 -0.25576293 0.1845115 -0.15695713
0.14955293 -0.05167439 0.08096754 -0.07283227 0.20728566 0.1538892 0.056165267 0.016046695
-0.14620604 -0.01934082 0.20342425 -0.29752752 -0.044122573 -0.067878194 0.21988139 -0.046024572
0.0010860468 0.033375945 0.16418965 -0.186923 0.20531714 -0.06765796 0.20673047 0.10774597
0.1575122 -0.06866217 -0.13295572 0.008387967 -0.18085852 0.2445446 0.345622 0.12882885
-0.16591121 -0.08195863 0.11997205 0.16899867 0.033978343 -0.16045377 -0.014236176 0.11490859
-0.06743998 -0.3397123 0.056531537 -0.36573562 -0.0064457436 -0.08888538 0.17965458 0.20931165
0.00085564464 -0.06833256 0.0034689887 0.23577458 -0.036114566 0.018890519 0.04352059 -0.07492816
-0.08840218 -0.027600229 0.031428937 0.13557957 0.0032369534 0.1971003 -0.1308614 -0.22538775
-0.32028407 0.010976624 0.009024582 -0.041584775 0.27573872 -0.11059082 -0.013047973 -0.16783583
-0.043187417 0.12479694 0.06469292 0.043513548 -0.15109566 -0.22360307 0.048233088 -0.30283445
0.14584233 0.058685627 0.029644294 -0.10838106 0.28533298 0.110232554 -0.10474063 -0.21982202
0.15191336 0.02776009 0.06979894 -0.042574875 -0.18825126 -0.008394109 -0.011446498 -0.10389968
0.05918694 -0.16861194 -0.24993469 0.28564513 0.1520153 0.085775435 0.15453957 -0.069637254
-0.11469635 0.07518636 -0.12673485 -0.020962678 -0.114197046 0.0986101 0.26958856 -0.0075500365
-0.017283963 0.02849873 -0.20868193 -0.09967695 0.099835716 0.045269147 0.041288838 0.086163476
0.13495319 0.07474031 0.07790803 -0.101206 -0.041019138 0.14980726 0.062143326 0.04693555
0.14895186 0.033728182 0.2618339 -0.5656165 -0.021660492 0.045698754 0.18110226 -0.048575666
0.059055723 -0.022501335 0.22322375 -0.1757964 -0.046950724 -0.21124098 0.29458785 -0.30316666
00000000: a79e b63d ab1a 06bd 0005 77bd e96b 22be
00000010: 0d1a 563e 611a 11be a639 463e 5047 003e
00000020: 276f 903e 1257 6dbe 6a4e 303e cd1f 2e3e
00000030: 21f2 c83d 9a69 513c 1df0 213c 92d5 9fbd
00000040: e4c2 993e 4271 babd 0c2d 5b3c 6bcc 113e
00000050: 6603 3a3e f2ef 6abe 4dce 91be 0981 593c
00000060: 2a15 26be bb0d 3abb 1213 3e3e 2394 723c
00000070: 30d5 133e 9fc8 003d a365 183e 1e34 543d
00000080: 6833 8c3d c294 44bd c042 47bd 6db9 1d3d
00000090: 0d6f 66be 16e1 4d3e f56f a9be 3503 003e
000000a0: dc68 1c3e 1b47 923c e0a2 ccbd 88d9 36be
000000b0: 0896 2abe 7c33 4b3d 8a74 03be 8f6c 67be
000000c0: efb7 d03d 9e95 c1be eb50 0bbe 3e30 afbc
000000d0: 34ce ed3d 0b14 2ebe 6cc5 9e3e 3790 973e
000000e0: 4c5f 89be 4869 ac3c 7763 51bc f33d efbc
000000f0: affd 85be 3417 5c3e f133 013e 537d 91be
00000100: ca68 ef3d 51e5 c3bb 65b8 963d 1d58 9dbd
00000110: 029b 91bd cb38 b1bd 5108 09be 5bd8 32bb
00000120: c33b 05bd e8fc 37be 0a10 323e 1589 14be
00000130: b6ef d83c 4d92 5ebd e04b b7bd dd4d 543e
00000140: b4b0 db3d aebb e3bc daeb 153d a0ef afbd
00000150: 3ace bd3c 7214 a53c 5925 cdbd b7db c1bd
00000160: 3272 c93e 6df5 3ebe 9831 3f3d dd47 27be
00000170: 14b1 c63c 9cc2 19be 0a17 67bd afea 903d
00000180: 9a49 09be f7a1 803e 0ef9 013d 0175 c8be
00000190: 2441 73be 1db5 493d f4a0 3a3e d525 5d3e
000001a0: b2ae 3c3e 7e4e 90be 849d 6e3e df41 06be
000001b0: 4756 773d 5cf3 82be 95f0 3c3e 5fb9 20be
000001c0: 6724 193e 86a8 53bd 4fd2 a53d 1629 95bd
000001d0: b142 543e 2195 1d3e 8d0d 663d 5c74 833c
000001e0: 09b7 15be a470 9ebc 724e 503e 8755 98be
000001f0: dfb9 34bd b903 8bbd 9628 613e 4384 3cbd
00000200: af59 8e3a 37b5 083d 5521 283e be68 3fbe
00000210: a83e 523e 4290 8abd 27b1 533e eba9 dc3d
00000220: e14a 213e c09e 8cbd 8b25 08be af6d 093c
00000230: fa32 39be e669 7a3e 5ef5 b03e b6eb 033e
00000240: a1e4 29be edd9 a7bd e8b3 f53d fd0d 2d3e
00000250: e02c 0b3d fe4d 24be da3e 69bc 3255 eb3d
00000260: f91d 8abd c5ee adbe 9d8d 673d b341 bbbe
00000270: d136 d3bb 8a09 b6bd 5ff7 373e cb55 563e
00000280: 574d 603a f1f1 8bbd f957 633b e46e 713e
00000290: deec 13bd 4ac0 9a3c a542 323d ef73 99bd
000002a0: 340c b5bd e019 e2bc a1bb 003d 5fd5 0a3e
000002b0: 1123 543b a9d4 493e 8800 06be 0ccc 66be
000002c0: 46fc a3be 4cd7 333c d7db 133c cc54 2abd
000002d0: a02d 8d3e 717d e2bd 2ac7 55bc 28dd 2bbe
000002e0: 4ae5 30bd 8a95 ff3d b97d 843d 433b 323d
000002f0: d2b8 1abe 34f8 64be 0f90 453d 1e0d 9bbe
00000300: b157 153e 5760 703d 97d8 f23c e4f6 ddbd
00000310: 2a17 923e 9bc1 e13d 4182 d6bd 0619 61be
00000320: 2d8f 1b3e 2169 e33c bff2 8e3d fe62 2ebd
00000330: f0c4 40be 7287 09bc 188a 3bbc 5bc9 d4bd
00000340: 016e 723d 9ca8 2cbe e1ee 7fbe 1440 923e
00000350: e6a9 1b3e 08ab af3d 9f3f 1e3e fa9d 8ebd
00000360: ece5 eabd 4efb 993d c8c6 01be ecb9 abbc
00000370: 24e0 e9bd 18f4 c93d 8307 8a3e 4c66 f7bb
00000380: 1997 8dbc 2b76 e93c b7b0 55be 6e23 ccbd
00000390: ab76 cc3d 246c 393d 7c1e 293d 7a76 b03d
000003a0: 2b31 0a3e 7311 993d 3f8e 9f3d 1745 cfbd
000003b0: af03 28bd 1367 193e 008a 7e3d 7e3f 403d
000003c0: d686 183e 9026 0a3d 180f 863e 3ecc 10bf
000003d0: 5871 b1bc 9e2e 3b3d df72 393e 47f7 46bd
000003e0: 6ae4 713d b854 b8bc c494 643e f903 34be
000003f0: 674f 40bd 8e4f 58be 38d4 963e a938 9bbe

network_body.linear_encoder.seq_layers.2.bias f4 [128]
-0.017442122 0.18147343 -0.010387347 -0.16133863 0.15988885 0.17693593 -0.04896864 -0.16746669
0.15334295 0.06047396 -0.18140098 0.11193304 0.16408592 0.020344032 0.13163722 0.18082577
-0.0011773984 -0.18477577 0.06705548 0.095583916 -0.041269466 -0.10087306 0.21119301 -0.014213665
-0.22533587 -0.21119158 0.106423974 -0.22550389 0.08743236 -0.18940473 0.029911997 0.045778584
0.120390005 0.09159989 -0.2164715 0.11480166 -0.008682792 0.13992494 -0.19877793 -0.009267831
-0.20074566 0.14524949 -0.080222756 0.18248743 0.13729608 0.13619733 -0.16980585 0.06495353
-0.113948725 -0.20061807 0.017129028 -0.099437326 -0.110132165 0.12333057 0.006367382 0.1968825
-0.121282734 0.17497894 0.121550314 -0.10742713 0.042178333 -0.15767993 -0.135181 0.05411391
-0.10155287 -0.079827435 0.085353695 -0.16946962 -0.101526365 -0.16456397 0.02348363 0.07655266
-0.00031954466 0.05445264 0.15735058 0.10477198 0.16418976 -0.16091332 0.08776278 -0.1902393
0.07914335 -0.19397801 0.095900245 -0.10876129 -0.15960974 0.08793735 -0.18950765 0.09379472
0.17826872 0.19039312 -0.23097113 -0.051862985 -0.16227213 0.06965767 -0.098648205 0.09482169
-0.14467916 0.20798518 -0.11799899 -0.03171382 0.053581186 -0.039068785 -0.066206515 0.041537344
0.13930807 -0.07141779 -0.11412247 0.11199695 -0.18866815 0.001690833 -0.17962763 -0.17071417
-0.19736512 -0.12710667 0.11891151 -0.1857552 -0.125106 0.029575802 -0.19636898 0.07456418
0.019315308 0.019840416 0.09541235 -0.15794511 0.09323103 -0.16483907 0.11423839 -0.17782852
00000000: c8e2 8ebc 2cd4 393e b12f 2abc f435 25be
00000010: e7b9 233e b12e 353e 5793 48bd 637c 2bbe
00000020: ef05 1d3e 8bb3 773d 2ec1 39be 263d e53d
00000030: 2406 283e 87a8 a63c e8cb 063e 642a 393e
00000040: ef52 9aba dc35 3dbe 6254 893d 80c1 c33d
00000050: 2c0a 29bd 8996 cebd fb42 583e 6fe0 68bc
00000060: 72be 66be 9b42 58be d0f4 d93d 7eea 66be
00000070: bd0f b33d 50f3 41be 010a f53c 5382 3b3d
00000080: 098f f63d b998 bb3d b4aa 5dbe 221d eb3d
00000090: 4542 0ebc 7c48 0f3e 718c 4bbe 1ad8 17bc
000000a0: 4590 4dbe 48bc 143e d44b a4bd fcdd 3a3e
000000b0: 5897 0c3e 5077 0b3e 96e1 2dbe 5b06 853d
000000c0: f35d e9bd d36e 4dbe 2d52 8c3c cca5 cbbd
000000d0: f98c e1bd bd94 fc3d 79a5 d03b 919b 493e
000000e0: 1563 f8bd ae2d 333e 5fef f83d c102 dcbd
000000f0: 30c3 2c3d d976 21be e36c 0abe 8ca6 5d3d
00000100: f3fa cfbd 917c a3bd ebcd ae3d 7289 2dbe
00000110: 0eed cfbd 7583 28be be60 c03c a4c7 9c3d
00000120: 8f88 a7b9 bb09 5f3d 8320 213e b192 d63d
00000130: 5c21 283e 76c6 24be f9bc b33d 17ce 42be
00000140: e915 a23d 2ca2 46be 5967 c43d 3dbe debd
00000150: bc70 23be 7f18 b43d 4b0e 42be 7217 c03d
00000160: 138c 363e 6af6 423e b283 6cbe 486e 54bd
00000170: aa2a 26be aea8 8e3d 1208 cabd e031 c23d
00000180: c626 14be 11fa 543e 74a9 f1bd 5ae6 01bd
00000190: f277 5b3d 9706 20bd 4897 87bd 1023 2a3d
000001a0: c6a6 0e3e 7e43 92bd 0bb9 e9bd a85e e53d
000001b0: 3932 41be f19e dd3a 4ef0 37be b2cf 2ebe
000001c0: 151a 4abe 4028 02be e187 f33d 9c36 3ebe
000001d0: ca1b 00be f448 f23c f314 49be 1bb5 983d
000001e0: 233b 9e3c 5e88 a23c 8d67 c33d 5dbc 21be
000001f0: e9ef be3d 93cb 28be d1f5 e93d ae18 36be

network_body.linear_encoder.seq_layers.2.weight f4 [128, 128]
-0.05355959 0.11273893 -0.015346647 -0.1333968 -0.15789111 0.06349737 -0.12080008 -0.0964728
-0.05625971 -0.18997663 -0.11291565 0.1644193 -0.100256674 0.15826638 0.0962328 -0.23472452
-0.1025732 0.05159296 -0.18280746 0.0067943037 -0.083145395 0.012971784 0.00832804 -0.010865929
-0.06050137 0.004993224 0.023262542 0.07937681 -0.13682152 -0.12297199 0.114534885 0.09114215
-0.11362243 -0.16239135 0.019896524 0.0618207 -0.042504482 0.019134615 -0.044644047 -0.03789162
0.033690438 0.21844015 -0.101490416 0.0013808614 -0.036636405 0.092250705 -0.084144294 -0.11804709
-0.0460092 0.049202047 0.042317692 0.03514883 0.22685948 0.08149131 -0.11700141 -0.149201
0.2945815 0.1460804 -0.14664006 0.0064147087 -0.12914243 0.083549775 0.124716274 0.04951254
-0.06337333 0.02599535 -0.057449404 0.13373056 -0.027027989 -0.04941357 -0.14084642 -0.07624575
-0.10203074 -0.15837643 -0.1354982 -0.04553887 -0.13865118 -0.05627486 0.077425875 -0.022364087
-0.028813837 -0.009362502 -0.064908594 0.033183295 -0.0060859215 -0.020850742 -0.21628048 -0.37464193
-0.22181836 -0.15183601 0.083049335 -0.16383198 -0.034336213 -0.12328475 0.24280758 -0.07615128
0.102930434 -0.112880275 0.20154051 -0.18465073 0.012675502 -0.04082121 0.053695057 -0.009019371
0.070105866 -0.016724858 -0.28885803 -0.054822948 -0.12124824 0.08532232 0.06474188 -0.04493219
-0.07795983 0.11096915 -0.11791836 -0.027725704 0.022380518 -0.09773132 0.005689562 0.13073076
0.0596583 -0.19156283 -0.08874318 0.041523118 -0.15404537 -0.09760426 -0.027531352 0.015178509
-0.039070215 -0.0127377575 0.08454957 -0.011740142 -0.094988026 0.1372364 0.013192542 0.04138737
0.017805612 0.14497845 -0.0903728 -0.021104256 -0.036048446 0.037479393 0.028409043 0.15183145
-0.003086818 -0.20022531 -0.21558543 -0.10626713 -0.042065192 -0.10448161 0.08406109 -0.057666812
-0.01070136 0.04950671 -0.12380479 0.025090879 -0.03621307 0.06299998 -0.06025555 -0.1319342
-0.032607432 -0.084665805 0.07096823 0.13468796 -0.19828023 0.05040746 -0.039217107 -0.22090358
0.031107359 -0.08981738 -0.10402033 0.047418248 -0.0055205645 0.13756809 -0.14974003 -0.1663256
0.09863002 -0.08019814 0.13382307 -0.13391632 0.092940316 -0.045108587 -0.07187298 -0.061272804
0.018959165 0.21861216 -0.12545958 0.0114902835 -0.0073080054 0.015686614 0.16380922 -0.018543642
0.16682415 -0.07344057 0.040905748 0.00022233461 0.12879376 -0.05445602 -0.20173842 0.030143138
0.02134786 -0.050092112 0.024487404 -0.1385706 -0.11826887 0.12887205 0.025145968 0.01712577
0.048744507 -0.13010666 0.09255764 0.032008428 -0.10815132 0.038986318 0.022464206 -0.05443641
-0.118861854 -0.014461713 0.008654849 0.09636133 -0.17923468 -0.0049593113 -0.36004323 -0.15190652
0.010935621 -0.0036290898 -0.016099192 -0.016963432 -0.023914637 0.08500721 -0.091720514 -0.031030213
-0.01237716 0.13688183 -0.0613933 -0.12285671 0.06470838 0.0073975045 -0.08453279 -0.16358343
-0.03839362 -0.042042613 0.07445414 -0.067804776 0.15347934 0.063073 0.037710518 -0.043574464
-0.18090805 -0.06465368 -0.2265425 -0.19677077 0.010722452 0.050578497 -0.0794638 0.058137257
00000000: 4d61 5bbd abe3 e63d 8170 7bbc 2c99 08be
00000010: 35ae 21be e90a 823d 0866 f7bd 8893 c5bd
00000020: 9570 66bd 3c89 42be 5240 e7bd 885d 283e
00000030: 5f53 cdbd 9510 223e b415 c53d a05b 70be
00000040: e611 d2bd 2453 533d e131 3bbe c0a2 de3b
00000050: 2248 aabd 9b87 543c 5572 083c 0207 32bc
00000060: 49d0 77bd 339e a33b 1691 be3c 4f90 a23d
00000070: f11a 0cbe bdd8 fbbd 4491 ea3d bca8 ba3d
00000080: e0b2 e8bd eb49 26be 09fe a23c b437 7d3d
00000090: 2e19 2ebd 32c0 9c3c addc 36bd 3e34 1bbd
000000a0: fcfe 093d c6ae 5f3e 35da cfbd 05fe b43a
000000b0: 0e10 16bd f0ed bc3d d853 acbd acc2 f1bd
000000c0: 2574 3cbd 1688 493d 5155 2d3d 38f8 0f3d
000000d0: da4d 683e eae4 a63d 6f9e efbd 26c8 18be
000000e0: 63d3 963e 1a96 153e d028 16be 7a32 d23b
000000f0: ea3d 04be 251c ab3d 3f6b ff3d a9cd 4a3d
00000100: e0c9 81bd 33f4 d43c 1150 6bbd aaf0 083e
00000110: cd69 ddbc e265 4abd 0b3a 10be bb26 9cbd
00000120: 7ef5 d0bd 6e2d 22be 0ac0 0abe f786 3abd
00000130: 93fa 0dbe 7880 66bd 7591 9e3d e434 b7bc
00000140: ff0a ecbc 2e65 19bc ccee 84bd 35eb 073d
00000150: 696c c7bb 2dcf aabc a178 5dbe 11d1 bfbe
00000160: 5a24 63be e67a 1bbe c515 aa3d 92c3 27be
00000170: 21a4 0cbd b77c fcbd 8da2 783e 34f5 9bbd
00000180: 31cd d23d c62d e7bd a360 4e3e 1515 3dbe
00000190: e9ac 4f3c 2434 27bd 59ef 5b3d fcc5 13bc
000001a0: aa93 8f3d 9202 89bc 33e5 93be 078e 60bd
000001b0: ff50 f8bd 78bd ae3d 6497 843d d10a 38bd
000001c0: 67a9 9fbd cb43 e33d 2e7f f1bd 0421 e3bc
000001d0: 5957 b73c 5c27 c8bd 816f ba3b 49de 053e
000001e0: 435c 743d 0c29 44be fcbe b5bd 2514 2a3d
000001f0: 12be 1dbe bee4 c7bd 6e89 e1bc 48af 783c
00000200: 1708 20bd 07b2 50bc 5328 ad3d b959 40bc
00000210: 1589 c2bd b387 0c3e 8825 583c ce85 293d
00000220: 13dd 913c 3b75 143e 6015 b9bd d5e2 acbc
00000230: 89a7 13bd fe83 193d 15ba e83c b479 1b3e
00000240: 364c 4abb dd07 4dbe 6dc2 5cbe 95a2 d9bd
00000250: 8d4c 2cbd 74fa d5bd 3928 ac3d 0934 6cbd
00000260: c254 2fbc 8cc7 4a3d 5e8d fdbd 638b cd3c
00000270: 2854 14bd 2206 813d 86ce 76bd c219 07be
00000280: 5f8f 05bd 4465 adbd cb57 913d a4eb 093e
00000290: f909 4bbe 0e78 4e3d 1ea2 20bd 8c34 62be
000002a0: dcd4 fe3c 2df2 b7bd 9c08 d5bd a339 423d
000002b0: dae5 b4bb a6de 0c3e 7355 19be 4251 2abe
000002c0: 89fe c93d ec3e a4bd ea08 093e 5c21 09be
000002d0: 7e57 be3d c8c3 38bd 2432 93bd 31f9 7abd
000002e0: 4050 9b3c dedb 5f3e 7a78 00be be41 3c3c
000002f0: fe77 efbb 3781 803c 9bbd 273e d6e8 97bc
00000300: f3d3 2a3e 0268 96bd c98c 273d 7e22 6939
00000310: 83e2 033e 470d 5fbd 8494 4ebe beee f63c
00000320: b5e1 ae3c 632d 4dbd cf99 c83c 74e5 0dbe
00000330: f336 f2bd 09f7 033e ebfe cd3c 584b 8c3c
00000340: 52a8 473d ae3a 05be dc8e bd3d 451b 033d
00000350: 707e ddbd 1eb0 1f3d db06 b83c b7f8 5ebd
00000360: d86d f3bd d2f0 6cbc 11cd 0d3c 1759 c53d
00000370: 4c89 37be b881 a2bb 9657 b8be 628d 1bbe
00000380: 522b 333c 06d6 6dbb 74e2 83bc e5f6 8abc
00000390: a1e8 c3bc 4318 ae3d f7d7 bbbd 1333 febc
000003a0: 92c9 4abc c02a 0c3e 8a77 7bbd 4c9c fbbd
000003b0: d485 843d c466 f23b 871f adbd 6a82 27be
000003c0: a142 1dbd e034 2cbd 6a7b 983d 3bdd 8abd
000003d0: b029 1d3e 6b2c 813d 5876 1a3d 237b 32bd
000003e0: f63f 39be 2669 84bd c2fa 67be 477e 49be
000003f0: 39ad 2f3c 662b 4f3d ebbd a2bd 5521 6e3d

network_body.vector_processors.0.normalizer.running_mean f4 [52]
0.01592853 0.9840068 5.7144575e-07 0.29163584 0.0148033425 0.985098 8.571631e-07 0.29319325
0.016027648 0.98394746 5.714487e-07 0.29122072 0.013369021 0.9865371 1.1428835e-06 0.29619363
0.015304192 0.9847193 0.0 0.29058123 0.013581262 0.9863981 2.8572478e-07 0.29928464
0.014631668 0.9854149 2.8572435e-07 0.29005376 0.014673417 0.98533386 2.8572452e-07 0.30204752
0.014060496 0.9859379 0.0 0.2898045 0.016926542 0.9831076 2.8572435e-07 0.30437285
0.016851638 0.9831297 2.8572452e-07 0.2891577 0.02392548 0.9760488 2.8572424e-07 0.30452862
0.021996325 0.9779487 0.0 0.28986797
00000000: 8c7c 823c dfe7 7b3f 7465 1935 4b51 953e
00000010: b889 723c 622f 7c3f cd17 6635 6d1d 963e
00000020: 6a4c 833c fbe3 7b3f a865 1935 e21a 953e
00000030: bd09 5b3c b28d 7c3f 2e65 9935 b1a6 973e
00000040: 6fbe 7a3c 9016 7c3f 0000 0000 10c7 943e
00000050: f183 5e3c 9684 7c3f b765 9934 d63b 993e
00000060: aab9 6f3c 2744 7c3f a865 9934 ed81 943e
00000070: c668 703c d73e 7c3f ae65 9934 f9a5 9a3e
00000080: ff5d 663c 6d66 7c3f 0000 0000 4161 943e
00000090: 88a9 8a3c f1ac 7b3f a865 9934 c2d6 9b3e
000000a0: 720c 8a3c 63ae 7b3f ae65 9934 7a0c 943e
000000b0: 5eff c33c 56de 793f a465 9934 2deb 9b3e
000000c0: a331 b43c d95a 7a3f 0000 0000 9369 943e
