results/fifth/Car/Car-9999977.onnx (onnx, 96598 bytes, 9 tensors)

53 f4 [52]
000000 9f 61 1e 3e 67 60 1e 3e 65 cb 25 3a 5c 6f 4f 3e
       0.15466927 0.15466462 0.00063245586 0.20257324
000010 ba 75 10 3e c9 79 10 3e e5 77 6a 3a 23 c0 4f 3e
       0.14107409 0.14108957 0.0008944257 0.20288138
000020 cb d8 32 3e bf df 32 3e 0f 5d 39 3a 9d e8 50 3e
       0.17465512 0.17468165 0.0007071057 0.20401235
000030 63 95 0d 3e a1 96 0d 3e 3b 12 83 3a 15 35 4e 3e
       0.13826518 0.13826992 0.000999994 0.20137437
000040 01 24 57 3e a7 2b 57 3e 0e 78 ea 39 aa 8c 50 3e
       0.21009828 0.21012746 0.00044721406 0.20366159
000050 be e9 14 3e 28 ea 14 3e ed 71 95 3a 87 57 50 3e
       0.1454229 0.14542449 0.001140175 0.20345889
000060 39 c1 74 3e 32 c6 74 3e 63 cb 25 3a 9f 4d 4f 3e
       0.23901834 0.2390373 0.00063245575 0.20244454
000070 bb 9d 21 3e a4 9f 21 3e e3 77 6a 3a f5 03 56 3e
       0.15782826 0.15783554 0.0008944256 0.20899947
000080 34 8f 78 3e 17 92 78 3e 57 53 5b 3a 2f 3d 4d 3e
       0.24273378 0.24274479 0.00083666056 0.20042871
000090 38 d4 46 3e f4 d8 46 3e 5c cb 25 3a 26 61 5d 3e
       0.19416893 0.19418699 0.00063245534 0.2161909
0000a0 37 cb 76 3e cf cd 76 3e d8 94 0f 3a ad 2f 4b 3e
       0.24100958 0.24101947 0.00054771965 0.19842406
0000b0 19 58 83 3e 15 58 83 3e 61 cb 25 3a 36 11 62 3e
       0.2565315 0.2565314 0.00063245563 0.22076878
0000c0 e9 0c 7d 3e 63 0d 7d 3e 0e 78 ea 39 de 9d 4a 3e
       0.24711956 0.24712138 0.00044721406 0.19786784

54 f4 [1, 2]
000000 09 40 07 c0 d1 64 01 c0
       -2.1132834 -2.0217783

distribution.mu.bias f4 [2]
000000 0a c5 84 bc 5a a3 54 3e
       -0.016207237 0.20765439

distribution.mu.weight f4 [2, 128]
000000 03 2f e5 bd 26 5d 00 bd 5c 80 72 bd 4a 38 8f bc
       -0.111906074 -0.031338833 -0.059204444 -0.017482895
000010 68 a2 93 bd 2d 3a 1f bd 2a 0b ca 3d db 1b 2a 3d
       -0.07208711 -0.03887384 0.098654106 0.04153047
000020 4a 3a d3 3d 54 07 c1 bc bd 91 a5 bd dd 82 03 3d
       0.10313852 -0.023563065 -0.08084438 0.032107223
000030 f8 a1 a4 bc 08 12 c5 3d 0b 04 51 3c d8 19 13 3e
       -0.020096764 0.0962258 0.012757312 0.14365327
000040 d7 3d 09 3d 46 f8 ce bc fd 23 f4 3c 02 e1 ff 3b
       0.03350624 -0.02526487 0.029802317 0.0078088054
000050 4f 0e 12 3d 41 aa 62 3d a4 14 67 3d ea a9 da 3d
       0.035658177 0.055338148 0.05641617 0.1067694
000060 c9 75 e9 3c 85 d3 f9 3d 3f 7f 94 bd a7 19 a4 bd
       0.028498547 0.12198547 -0.07250833 -0.08012705
000070 33 a2 2b 3d e0 51 b2 3d 28 78 23 3d 72 ee bf bd
       0.041902732 0.08707023 0.03990951 -0.09371652
000080 a2 84 92 bd 94 52 a3 3d c5 36 b4 3d 34 35 9e bd
       -0.07154204 0.07974735 0.08799509 -0.077249914
000090 7e 94 92 3d 3e 00 57 3d 31 3e 28 3d c2 6c b4 3c
       0.07157229 0.052490465 0.041074935 0.022024516
0000a0 4e 5c 25 3b 78 70 8f 3e 04 cf 58 3d 38 26 c0 3d
       0.002523202 0.28015494 0.0529318 0.0938229
0000b0 8a 02 db 3d 98 a2 b6 3b ab f9 62 bd 66 85 a4 3c
       0.10693844 0.005573582 -0.055413883 0.02008314
0000c0 5b d3 3d bb b9 ca 40 3d 93 4e 50 be bf 5d 75 bc
       -0.002896509 0.04706833 -0.20342474 -0.014975964
0000d0 05 07 99 bd 62 63 5e 3c 85 55 e1 3c 39 54 9c 3b
       -0.07472042 0.013573499 0.0275066 0.0047707823
0000e0 61 1d 2f be 31 ce ae bc c7 ef a6 bd c3 a5 00 3c
       -0.17101051 -0.021338554 -0.08151203 0.007852021
0000f0 d6 5a 98 bd 08 33 f9 bd c8 3b 18 be 93 5c df 3b
       -0.074392006 -0.121679366 -0.14866555 0.0068164556
000100 60 bb a7 bd 99 f3 97 bd 98 c2 2a bc db 93 b7 bb
       -0.08190036 -0.074195094 -0.010422371 -0.0056023425
000110 ea 6d 5d 3b fb 38 7e 3c f8 ae 99 3d 38 ff 6a 3d
       0.0033787438 0.015516515 0.07504076 0.0573723
000120 e4 cb ef 3d 5a a9 61 3d 67 67 34 3b 0a 27 0f be
       0.11708811 0.055093147 0.0027527453 -0.13979736
000130 40 b7 5a 3e da d9 f7 3c 92 3e 8b 3d 85 ee ec bb
       0.21358967 0.030255247 0.06799044 -0.007230582
000140 df b3 80 3d 13 29 ee bc 38 a8 80 3d 3a e2 be bb
       0.06284308 -0.02907232 0.06282085 -0.005825308
000150 0d 1d f8 bb 37 52 38 3e 76 8b 1d bc fb d5 a9 3b
       -0.0075718225 0.18000112 -0.00961577 0.005182979
000160 be 29 8a 3e 8d 95 9a 3c f5 b3 06 3d 75 7a 37 bc
       0.26984972 0.01887014 0.032886464 -0.01119863
000170 08 3f ed bd 57 a1 c4 38 4d b5 85 3d b1 d5 95 3d
       -0.11584288 9.37606e-05 0.06528721 0.07316149
000180 ad 0a d9 bc b2 c7 3e 3e 68 d2 b5 bd e4 43 24 3d
       -0.026494348 0.18630865 -0.088780224 0.040103808
000190 25 7c 53 bd c6 5c 1e 3d 6a 94 0e bd 59 1c 20 be
       -0.051632065 0.038662694 -0.034809507 -0.15635814
0001a0 1f 04 42 3b 0c fc af 3d 3a 95 34 bd 33 83 4f 3e
       0.0029604507 0.08592996 -0.044087626 0.20264892
0001b0 73 11 b5 3c 12 70 91 3d 9e ab 1e bc 78 75 a5 3d
       0.022103047 0.07101454 -0.009684471 0.08079046
0001c0 96 15 2a bd a3 10 af 3c 7f 57 d0 3b d5 70 a3 bb
       -0.041524492 0.021370238 0.0063580866 -0.004987816
0001d0 b3 dc 5b bd 2e d0 10 3d 54 57 dd 3c 8a 7d c3 3d
       -0.053677272 0.035354786 0.02701918 0.09545429
0001e0 86 c0 64 3a 4a b1 92 3c 30 71 77 bc 20 7b 83 3d
       0.0008726198 0.017906804 -0.01510267 0.064199686
0001f0 d6 e6 af bb a3 c9 b8 3d 14 8b d1 bc 5a c9 9d bd
       -0.005368094 0.09022834 -0.025579013 -0.077044204
000200 8e a7 da bb eb a3 47 3d 07 72 89 bd 9e 84 d8 bd
       -0.006672806 0.04874031 -0.06711202 -0.1057217
000210 57 1b cb bd 99 88 cf 3d 0e 2b 66 bc 94 3a 25 bc
       -0.09917324 0.10133476 -0.014048351 -0.010084767
000220 57 02 df 3d ba 4d 73 bd b8 4c b6 bc dc b3 59 3d
       0.10889118 -0.059400298 -0.02225338 0.053150043
000230 6a f7 c5 3d 95 7e 9d bd ce fd 96 3d 5a 30 72 3e
       0.09666331 -0.07690159 0.07372628 0.23651257
000240 66 47 81 bc 94 fa 1c bd 0e 8f 56 bc ab cb 07 3d
       -0.015781116 -0.038324907 -0.01309563 0.033153217
000250 44 e8 5a bd 0a 67 db bc 38 17 10 3e 7a b6 4f 3c
       -0.053444162 -0.026782531 0.14071357 0.012677783
000260 06 df 6f 3c f9 d2 36 bd eb 50 01 be 47 2f 53 be
       0.014640575 -0.044634793 -0.12628524 -0.20623504
000270 4a 98 07 3d eb 7e d2 bd 2b ba 18 3d 36 48 21 bd
       0.03310422 -0.10278114 0.03728692 -0.039375506
000280 24 06 d1 bd c1 31 9e 3c c5 e2 c6 bd 0d 92 6b 3d
       -0.10206249 0.019310834 -0.097112216 0.05751233
000290 d8 5f 70 3d c6 78 9d 3d c6 0b 2e bd 03 d6 c4 bc
       0.058685154 0.07689051 -0.042491697 -0.02402783
0002a0 70 b1 d7 bd a4 3c 5c 3e 12 7c d6 bc 18 37 49 3e
       -0.105318904 0.21507508 -0.026182208 0.19649923
0002b0 47 6c bc 3c 3e 54 b8 3d ed 91 96 bd 9f ae ab 3c
       0.02300085 0.09000443 -0.07352052 0.02095729
0002c0 ce ed 16 bd 04 61 e9 bc fd 99 47 3d 36 42 71 bd
       -0.036847882 -0.028488643 0.04873084 -0.058901034
0002d0 85 fc dd bd 52 f7 0f 3d e5 6d 4e 3a b0 b4 92 3d
       -0.1083918 0.035147972 0.0007874652 0.0716337
0002e0 78 8f 28 be f1 f7 be 3d d8 c5 84 bd f3 bd 15 3c
       -0.16460979 0.09324635 -0.06483048 0.009139526
0002f0 0f f5 82 bc 03 ff f6 bc 3d 74 a5 bc 00 26 33 bc
       -0.015985994 -0.030150896 -0.020197028 -0.010934353
000300 8f 80 8a bd a5 13 47 bd db 71 f9 3c 37 9a 39 bd
       -0.06762802 -0.04860272 0.030449798 -0.045313086
000310 44 0c b8 bb fc 85 8d bd cb d6 ae 3d b0 96 33 3d
       -0.0056166966 -0.06910321 0.08537062 0.04384488
000320 5e 7b b0 bc 0b b9 d5 3c 5c 1d 0a 3d 7d 58 51 bd
       -0.021543201 0.026089212 0.033719406 -0.05110978
000330 91 7f 67 3e ac 51 c5 bc a6 d4 47 3d 66 fd 6c bd
       0.22607256 -0.024086796 0.04878678 -0.057858847
000340 a6 93 9f 3d d0 17 de bd 89 19 d1 3d 18 ed f2 3c
       0.077918336 -0.108443856 0.102099486 0.02965407
000350 85 46 61 bd fe 01 c2 3d c2 6e a3 bd d2 2a 02 3d
       -0.054998893 0.09473036 -0.0798011 0.031779118
000360 53 64 4a 3e f2 33 03 3e e8 45 b5 bd 1d 58 09 3d
       0.19764833 0.12812784 -0.08851224 0.033531297
000370 13 00 f8 bd 15 72 2d 3c 38 81 3a bd d7 0a 5a bc
       -0.12109389 0.010586281 -0.04553339 -0.0133082485
000380 8f b2 e6 3d 96 4a 58 3e 10 68 92 3b 96 2e 1b 3c
       0.11264526 0.21122202 0.0044679716 0.009471556
000390 1a 1e d8 bd d8 ac 02 bd c6 53 e1 3c 39 03 66 bd
       -0.105526164 -0.031903118 0.027505767 -0.056155417
0003a0 46 cb 62 3c eb 8c 88 bd 39 61 5e be 4a 53 a3 3d
       0.0138424095 -0.06667503 -0.21716775 0.079748705
0003b0 74 f7 35 bd 8b 08 a8 bc 85 85 c4 bc e9 fc ce bd
       -0.044425443 -0.020511886 -0.023989448 -0.101068325
0003c0 ec 67 94 bd 61 1a 90 bd 84 3c 96 3d f7 00 8c bd
       -0.07246384 -0.070362814 0.07335761 -0.068361215
0003d0 9d b3 61 bd 01 4b 0f bd d3 ad 25 be 4d 98 4a 3d
       -0.055102933 -0.03498364 -0.1617959 0.04946165
0003e0 53 ee b9 3d f8 85 53 3d 1c 22 8e bc c7 f4 33 bd
       0.0907866 0.051641434 -0.017350249 -0.04393461
0003f0 56 b2 2a 3c e6 99 85 bc 3d df 54 3d 59 89 e4 bd
       0.010418495 -0.016308736 0.05197071 -0.111590095

network_body.linear_encoder.seq_layers.0.bias f4 [128]
000000 49 33 47 bd aa 11 91 bd 4e 2f 61 be 01 d0 2f bc
       -0.048632894 -0.07083447 -0.21990702 -0.010730744
000010 1f e9 8e bc 3b 4a 79 bd 0e a8 5b be ef 8d 9f 3c
       -0.017445145 -0.060861807 -0.21450827 0.019476859
000020 e2 26 a3 bd d5 d7 3b be 0b 34 ff bd 21 d7 dc 3d
       -0.07966401 -0.18344052 -0.12461098 0.1078322
000030 78 ae b9 3b 33 92 77 3e 12 be fd 3c 23 e7 6c 3c
       0.0056665502 0.24176864 0.030974422 0.014459404
000040 8a 40 02 be 60 94 53 be 31 d5 4c 3a b1 15 1d be
       -0.12719932 -0.2066207 0.00078137504 -0.15340306
000050 e6 d8 39 be c1 29 20 bd 1e 62 73 bd f7 fc 71 be
       -0.18149146 -0.03910232 -0.059419744 -0.23631655
000060 49 d5 0c 3e 4c 7c b6 3d 33 14 44 be d2 f5 8b bd
       0.13753237 0.089104265 -0.1914833 -0.06833996
000070 6e da 6c bc 60 65 7d 3d 89 01 35 be 06 1a f4 3d
       -0.014456375 0.061864257 -0.17676367 0.11919026
000080 26 65 7d bd b7 2a e5 bd 37 97 89 3c d1 4e 2e 3e
       -0.06186404 -0.11189788 0.016795738 0.17022254
000090 a7 a7 e7 bd 43 9e 50 be ea cc ae 3d c6 89 f1 bd
       -0.11311274 -0.20372872 0.08535178 -0.11793856
0000a0 59 2a 39 be 4e e0 6e 3e b6 aa 31 be e3 55 01 be
       -0.1808256 0.23327753 -0.17350277 -0.1263042
0000b0 e7 b9 40 be a9 e3 43 3e fd f7 92 bd 04 f1 ad bd
       -0.18820916 0.19129814 -0.07176206 -0.08493236
0000c0 0a ef f5 bd 7d ca 2c be 5c 16 75 3e 47 06 72 3d
       -0.12008484 -0.16874118 0.2393431 0.059088018
0000d0 6f f5 6f 3d 22 81 1b be df ca 83 bd 17 50 fe bc
       0.058583673 -0.15185979 -0.06435179 -0.03104405
0000e0 cc 2c c4 3d 3d 61 79 3d 0a 25 05 3d 3b d7 21 be
       0.09578857 0.06088375 0.032506026 -0.1580476
0000f0 ae 1e 82 3d 48 f0 1c 3e 8a 87 d2 bd b0 b1 0e be
       0.06353508 0.15326035 -0.10279758 -0.1393497
000100 45 6d c5 bc 33 e4 5a be 51 2a 37 be 9c 82 2e 3b
       -0.024099955 -0.21376114 -0.17887236 0.0026628142
000110 6b 02 58 3d 83 87 df 3d 47 1a 24 be 33 40 4d be
       0.05273668 0.10914519 -0.16025649 -0.20044021
000120 7b 7e 5f be af c7 59 be 26 41 06 bd 4c 54 0e 3e
       -0.21825592 -0.2126758 -0.032776974 0.13899344
000130 22 79 4f be 79 6b 44 3c 31 1c 52 3e 57 1f 53 3e
       -0.20261052 0.011988514 0.20518567 0.20617424
000140 b7 0a 3b be 21 4a af bc fc 06 2b 3d 1a 3c e1 bd
       -0.18265806 -0.021397652 0.041754708 -0.109977916
000150 c9 bc 8f be f0 2b 58 be 51 46 4f 3e 7f ad 2c 3e
       -0.2807372 -0.21110511 0.20241667 0.16863059
000160 c5 ec f3 bd 29 01 01 bd fe ab 1f be ac 8b 3b 3d
       -0.119103946 -0.031495247 -0.15592954 0.0457875
000170 fe 4d 67 3c fe 50 ef 3d a4 25 23 3c b8 d8 c8 3c
       0.014117716 0.1168537 0.009957705 0.024517402
000180 26 67 0a 3e d9 81 41 be ae 1c 02 be 8f 57 5d 3c
       0.1351591 -0.18897189 -0.12706253 0.013509645
000190 3e dc 52 be 25 7a 11 be e6 1c 59 be 72 a1 46 be
       -0.20591828 -0.1420675 -0.2120243 -0.19397524
0001a0 b4 6a 5f be 8d b3 3a 3e e1 fa 4a bb b8 fc 8e 3d
       -0.21818048 0.18232556 -0.003097229 0.06981796
0001b0 cc 85 6c 3d 4f b0 5c be 23 1e 25 be 52 b6 21 be
       0.057744786 -0.21551631 -0.16124777 -0.15792206
0001c0 57 1a 32 3e 2c c7 18 be 39 38 26 3e c3 90 f8 bd
       0.1739286 -0.14919728 0.16232385 -0.12136986
0001d0 4c 32 2f 3e d3 a7 8b bd 5a 93 09 be 88 07 66 be
       0.1710903 -0.06819119 -0.13435116 -0.2246381
0001e0 74 ef 85 be 08 66 bc 3d 94 92 b5 3d 6c 56 1b 3e
       -0.2615925 0.091991484 0.08865848 0.15169686
0001f0 1f c0 62 3e e9 1e a6 3d 21 3f 10 bd 25 85 13 3e
       0.22143601 0.081113644 -0.035216454 0.1440626

network_body.linear_encoder.seq_layers.0.weight f4 [128, 52]
000000 67 f7 7d 3d 8e 70 66 bb 42 72 6b bd 85 cd f6 bd
       0.06200352 -0.0035162303 -0.05748201 -0.120509185
000010 b2 45 10 3e 93 f3 8f bd 9b ca 43 3e 5e 3a 06 3e
       0.14089087 -0.0702888 0.19120257 0.13108203
000020 a3 7b 95 3e 8f d9 74 be 9b 41 2f 3e 99 cf 47 3e
       0.2919589 -0.23911117 0.1711487 0.19512786
000030 36 cd 48 3d c2 df 84 3d 83 b8 a1 3c 9f 0e 81 bd
       0.04902383 0.06487991 0.019741302 -0.06301617
000040 6b 13 95 3e 5a 9f a7 bd 50 c4 c4 3c ab 6b 36 3e
       0.29116377 -0.08184691 0.02401939 0.1781451
000050 51 90 2b 3e 89 1e 5a be cb 03 8d be f7 bb 2e 3d
       0.16754271 -0.2130071 -0.27541956 0.042659726
000060 e5 47 3b be f7 84 96 3c 95 20 40 3e 5e 69 50 3d
       -0.18289144 0.01837395 0.18762429 0.050881736
000070 6e 8a 0c 3e 85 46 36 3d 92 6b 0d 3e bb 0e a0 3d
       0.13724682 0.044500846 0.13810566 0.078153096
000080 7b 43 53 3d eb 1e fd bc e8 47 5c bd d7 41 56 3d
       0.051578026 -0.030898532 -0.053779513 0.052308884
000090 1f e1 48 be d3 a9 34 3e 69 86 a9 be aa 5b 22 3e
       -0.19617127 0.17642908 -0.3311036 0.1585528
0000a0 b0 98 30 3e 05 fe df ba bd 7c c6 bd e0 e1 1b be
       0.17245746 -0.0017089254 -0.09691761 -0.15222883
0000b0 f9 f1 05 be 55 fc 96 3c 89 be f3 bd fc 91 56 be
       -0.13080586 0.018430868 -0.11901576 -0.20954126
0000c0 b8 80 01 3e 82 51 ce be a4 6b 00 be 22 be 99 bb
       0.12646759 -0.4029656 -0.12541062 -0.004691855
0000d0 af a3 dd 3d 32 f6 28 be 73 f8 a8 3e 8b a7 91 3e
       0.10822236 -0.16500166 0.33002052 0.28448138
0000e0 4b 34 87 be 8c d5 5d 3c cc 9e 11 3b fb 46 fd bc
       -0.26407084 0.013539683 0.0022219894 -0.030917635
0000f0 1c f8 6f be 93 f4 3d 3e 78 a5 19 3e c5 1e a0 be
       -0.2343449 0.18550329 0.15004528 -0.31273475
000100 2f eb f0 3d b9 78 22 bc 25 0e af 3d c7 38 9f bd
       0.11763608 -0.009916478 0.0854762 -0.07774501
000110 05 ff b0 bd 73 85 94 bd c5 5a e8 bd c4 3f f0 bc
       -0.08642391 -0.07252016 -0.11345438 -0.02932728
000120 f1 59 10 bd dd 0f 38 be c5 06 41 3e 19 cd 29 be
       -0.035242025 -0.17974801 0.18850239 -0.16582145
000130 9e 64 98 3d ec 46 d8 bd 39 c1 8b bd 44 36 14 3e
       0.07441066 -0.10560402 -0.06823964 0.14473826
000140 a6 14 c5 3d 7e e4 a1 bc 68 38 71 3d 78 89 f5 bd
       0.09623079 -0.019762274 0.058891684 -0.11989111
000150 86 d1 d1 3d 64 ac 75 bd ae 7c b0 bd ee 10 e5 bd
       0.102450415 -0.059978858 -0.08617531 -0.1118487
000160 43 dc c4 3e be ea 38 be af b6 92 3d 8b 41 66 be
       0.38449296 -0.18058297 0.071637504 -0.2248594
000170 bd 80 55 3c 14 85 0e be 56 93 17 bd 46 d3 c2 3c
       0.013031182 -0.13917953 -0.037005745 0.023782384
000180 e6 65 01 be 7b 7a 76 3e 30 b6 52 3d 6a 91 ea be
       -0.12636527 0.2407016 0.05144328 -0.45814067
000190 45 04 85 be f7 bc 91 3d c3 7b 4f 3e a1 d9 3a 3e
       -0.2597982 0.0711612 0.20262055 0.18247081
0001a0 69 d1 19 3e ea 29 7d be 5e 7e 79 3e 66 9e 0e be
       0.1502129 -0.2472302 0.24364612 -0.13927612
0001b0 87 3b 0d 3c 63 de 4e be e9 d7 4b 3e 3f 37 37 be
       0.008620149 -0.20202021 0.19906582 -0.17892168
0001c0 8e 7f e5 3d 7d f2 48 bc 93 ad b2 3d e0 86 83 bd
       0.1120597 -0.012264845 0.08724513 -0.0642221
0001d0 0e b4 0c 3e 25 c3 66 3e 22 68 97 3d 90 ad 1d bc
       0.1374056 0.22535379 0.07392909 -0.0096239
0001e0 06 23 25 be b1 a5 3e bb 9e f5 57 3e f5 3b 9c be
       -0.16126642 -0.002909046 0.2108979 -0.30514494
0001f0 b8 fd c7 bd 4d 5c 4c bc 41 e6 6e 3e 40 3e 4b bd
       -0.0976519 -0.012473178 0.23330022 -0.049619913
000200 25 f3 c7 bc 83 3f 77 3d d3 19 33 3e cb 94 49 be
       -0.024407933 0.060363304 0.1749032 -0.19685666
000210 0f 47 53 3e cf 78 83 bd e6 53 5c 3e 88 3a 33 3e
       0.20632575 -0.06419527 0.2151638 0.17502797
000220 32 bc 2f 3e bf 33 a5 bd cd e3 05 be 85 5f 4e bb
       0.17161635 -0.080665104 -0.1307518 -0.003149004
000230 f3 fe 37 be 83 12 7d 3e 8a 3f b4 3e 3e ec 49 3e
       -0.17968349 0.24714093 0.35204726 0.19719025
000240 7c 9b 21 be 3b ef b6 bd f3 77 05 3e aa 66 2b 3e
       -0.15781969 -0.08932348 0.13034038 0.16738382
000250 1e 97 e5 3c a0 a3 1a be 06 a0 b6 bb 07 11 0d 3e
       0.02802616 -0.1510148 -0.0055732755 0.13776027
000260 1b 75 48 bd 87 e4 b6 be ac 16 83 3d b9 ae af be
       -0.048939805 -0.35721228 0.06400809 -0.3431299
000270 4e 11 6a bd 60 ae 1c bd 85 ba 22 3e d3 60 86 3e
       -0.05714541 -0.038252234 0.15891464 0.26245746
000280 6b d6 78 bd ba e5 eb bb 8b e0 00 bb ce d0 9a 3e
       -0.06075136 -0.0071990164 -0.0019665088 0.3023743
000290 de 6b 93 bd be 2a 5b 3d 1c ef 00 3d bb d6 47 bd
       -0.071983084 0.05350756 0.031478032 -0.048788767
0002a0 e6 9e e6 bd 32 f8 14 bb 7c 9c 03 3d 7e b1 34 3e
       -0.11260776 -0.0022730944 0.032131657 0.17645833
0002b0 dc 29 00 3d ba 82 2e 3e 65 7e 11 be a4 6f 88 be
       0.03128992 0.17042056 -0.14208372 -0.26647675
0002c0 87 c6 bd be 9a fc 80 3d 38 d3 ab bb 0a ba 45 bd
       -0.37065527 0.0629818 -0.005243685 -0.048273124
0002d0 eb 81 a2 3e ec 4f 1a be 1d 81 08 bd 9c 2b 7e be
       0.31739745 -0.1506955 -0.033326257 -0.24821323
0002e0 ae 63 38 bd 1c f2 fe 3d 92 92 06 3d 13 36 1c 3d
       -0.045016937 0.124485224 0.032854624 0.038137507
0002f0 ad 33 d0 bd 33 3c 8c be 39 30 4c 3d 5a 5f 98 be
       -0.101661064 -0.27389678 0.049850676 -0.29760247
000300 eb 69 e9 3d ab 0c b9 3d d8 a1 e8 b8 aa 5c c3 bd
       0.113971554 0.09035619 -0.00011092768 -0.09539159
000310 16 21 d6 3e ad 39 a5 bc 83 94 ff bd b0 b9 85 be
       0.41822118 -0.020169104 -0.12479498 -0.2611823
000320 92 99 13 3e f1 f5 11 3d dc 67 51 3d e1 b6 b9 bc
       0.14414051 0.03563494 0.05112444 -0.022670211
000330 13 2f 3d be a0 99 ff bb d1 b4 b9 bc f6 50 3a be
       -0.18474989 -0.007800296 -0.022669228 -0.18194947
000340 14 a9 c7 3c a9 26 08 be 78 3e 89 be 25 97 91 3e
       0.024372615 -0.13295998 -0.26805472 0.28435627
000350 57 52 90 3d c5 11 29 3e 14 c1 10 3e c4 ba ad bd
       0.07046955 0.16510685 0.14136153 -0.08482888
000360 34 3b 34 be e8 95 08 3e 85 a5 0d be 28 84 5c bb
       -0.17600709 0.13338435 -0.13832672 -0.0033648107
000370 42 8a 22 be 1f b4 14 3e a8 83 82 3e 32 d4 dd bc
       -0.15873054 0.14521836 0.2549107 -0.027078722
000380 7f ba 36 bc 9c 65 c9 3c b9 70 68 be b3 25 85 bd
       -0.011152863 0.024584584 -0.2269925 -0.06501331
000390 08 21 41 3d 54 f7 cf 3d a3 29 1a 3d 0e c4 8d 3d
       0.04715064 0.10154596 0.037637364 0.0692216
0003a0 48 a3 02 3e 08 70 ad 3d c3 00 68 3d 06 66 17 be
       0.127576 0.08468634 0.05664135 -0.14785013
0003b0 64 e4 39 bd bb 7b 1d 3e a5 14 16 3d f3 f5 0d 3d
       -0.045383826 0.1537923 0.036640782 0.034658384
0003c0 2b b0 48 3e de bb 5c bc 9c 5d 83 3e 90 05 1d bf
       0.19598453 -0.013472525 0.25657356 -0.6133661
0003d0 bd ec 05 bd ea 76 6e 3d ab cc 1d 3e a7 b9 e6 bc
       -0.032696474 0.058218874 0.15410106 -0.028164698
0003e0 70 b7 8c 3d dc 9b f5 bc ec 9d 52 3e 21 32 6b be
       0.068709254 -0.029981546 0.20568055 -0.22968341
0003f0 20 ee 4c bd 1f 28 54 be fd b1 8b 3e b9 e7 88 be
       -0.05003178 -0.2071843 0.27284232 -0.2673929

network_body.linear_encoder.seq_layers.2.bias f4 [128]
000000 58 40 ed bc 45 41 2e 3e 4f 2a a0 bc ff 32 36 be
       -0.028961346 0.17017086 -0.019551424 -0.17792891
000010 c7 d5 25 3e 43 b9 2c 3e 93 bf 67 bd cf 15 26 be
       0.16194831 0.16867547 -0.056579184 -0.16219257
000020 d7 06 06 3e 8b bc 62 3d 52 ad 48 be 43 22 ee 3d
       0.13088547 0.05535559 -0.19597366 0.11627629
000030 f4 c0 16 3e 6d c5 9a 3d 47 6a d7 3d ad cd 45 3e
       0.14722043 0.07557187 0.10518318 0.1931674
000040 ea e7 cb bc d7 68 4c be e3 4d 91 3d b2 b0 8c 3d
       -0.024890859 -0.19961868 0.07094934 0.068696395
000050 38 de 57 bd cd 70 fc bd 42 1c 36 3e 67 4e 04 bd
       -0.05270216 -0.123262025 0.17784217 -0.032301333
000060 ec 02 70 be bc 80 5a be ba 16 ed 3d af 2a 54 be
       -0.23438615 -0.21338171 0.115766004 -0.20719407
000070 f0 30 a0 3d ee 82 22 be 09 87 36 3d a4 4c 75 3d
       0.07821834 -0.15870258 0.044562373 0.059887543
000080 d3 ce 08 3e 3c a3 b8 3d d7 9b 83 be a6 e2 bd 3d
       0.13360147 0.090155095 -0.25704834 0.092717454
000090 2b 96 57 bc 08 96 0f 3e 28 43 62 be 82 37 f5 bb
       -0.013158361 0.14022076 -0.2209593 -0.0074834237
0000a0 82 88 63 be 66 b9 2f 3e 1d 09 71 bd 8a 1a 48 3e
       -0.22220042 0.17160568 -0.05884658 0.19541374
0000b0 6f 1d 0a 3e 2e a2 db 3d 95 0c 59 be b3 4e 9d 3d
       0.1348779 0.10724293 -0.21196206 0.07681026
0000c0 04 db 04 be 70 ff 40 be c1 5b ad 3c 55 29 ef bd
       -0.12974173 -0.18847442 0.021161916 -0.11677805
0000d0 9c 0c 01 be c3 35 ec 3d 77 53 ad 3c 51 7f 29 3e
       -0.12602466 0.11533692 0.021157963 0.16552474
0000e0 64 00 0d be 75 6c 20 3e cd b6 e3 3d d1 a4 e0 bd
       -0.1376968 0.15666373 0.11118851 -0.10968936
0000f0 34 65 23 3d 6b 4a 2c be a6 57 19 be 44 8a 95 3c
       0.039891437 -0.16825263 -0.14974841 0.018254407
000100 b1 5c 14 be 37 13 d5 bd eb 57 6e 3d 82 d9 20 be
       -0.14488484 -0.104040556 0.058189314 -0.15707973
000110 05 18 d7 bd 9e ba 5f be c7 5a 94 3b 2c f9 94 3d
       -0.10502628 -0.21848533 0.004527423 0.07274088
000120 43 d3 99 3c b3 41 3f 3d 8e 73 07 3e ca 6f bd 3d
       0.018777495 0.046693515 0.13227674 0.09249838
000130 45 91 53 3e 91 91 2b be 00 d0 a0 3d 93 6d 55 be
       0.20660885 -0.16754748 0.07852173 -0.2084258
000140 46 7a a2 3d 82 cf 3d be 49 88 a1 3d d5 f1 ee bd
       0.07933478 -0.18536189 0.078873225 -0.116672195
000150 2b d6 42 be 61 d1 d2 3d 20 64 61 be 39 9a 9a 3d
       -0.19027011 0.10293842 -0.22010851 0.07548947
000160 1f 39 38 3e c2 bf 19 3e 05 0e 5a be e8 28 37 bd
       0.1799054 0.15014556 -0.2129441 -0.044716746
000170 61 b7 64 be 35 5f a6 3c 49 2d c6 bd 20 3e bd 3d
       -0.22335579 0.02030907 -0.09676606 0.09240365
000180 44 e4 19 be f0 b2 6e 3e 76 37 e7 bd d8 d2 60 bd
       -0.15028483 0.23310447 -0.11289875 -0.054888576
000190 19 cd 4e 3d de 39 6c bd ed c4 ab bd 0f 14 85 3d
       0.050488565 -0.057672374 -0.0838717 0.064979665
0001a0 1a 94 d9 3d ac e1 eb bd 2d 04 14 be 73 24 0c 3e
       0.10623951 -0.11517653 -0.14454718 0.1368578
0001b0 ac bb 72 be 33 b1 89 bb 3b a8 38 be 8e 4b 2f be
       -0.23704404 -0.004202032 -0.18032925 -0.17118666
0001c0 b8 39 65 be 03 c5 13 be 1f 98 bf 3d b1 c5 4d be
       -0.22385299 -0.14430623 0.09355187 -0.20094945
0001d0 c3 3b 0b be 35 c0 15 3d 5f 26 41 be 06 4e a3 3d
       -0.13597016 0.036560256 -0.18862294 0.07973866
0001e0 59 bc 20 3c 10 b9 48 3c b4 cd 8e 3d 62 d1 18 be
       0.009810531 0.012251154 0.069728285 -0.14923623
0001f0 5c 84 7b 3d fa c0 22 be 70 a3 b5 3d 1a c7 60 be
       0.061405525 -0.15893927 0.08869064 -0.21950951

network_body.linear_encoder.seq_layers.2.weight f4 [128, 128]
000000 10 14 25 bd c1 ae bf 3d 7a 91 5f bd 8e 75 08 be
       -0.040302336 0.093595035 -0.054582097 -0.13326094
000010 0c 87 1a be 37 54 83 3d 69 50 52 be 75 c7 92 bd
       -0.15090579 0.06412547 -0.20538487 -0.0716695
000020 69 55 6e bb cd af 5f be 1f 24 65 be 0a 27 34 3e
       -0.0036366826 -0.21844406 -0.2237706 0.17593017
000030 2d e4 ff bd d1 03 2f 3e c2 b4 1a 3e 14 1f 79 be
       -0.12494693 0.170913 0.15108016 -0.24328262
000040 0f 9c c9 bd 28 42 65 3d 8e 8c 3d be b1 ba 7d 3d
       -0.09844219 0.055971295 -0.18510649 0.06194562
000050 b2 76 0c be 63 3e a1 3d b3 c9 73 3d 3b b5 cb 3c
       -0.13717154 0.078732274 0.059518527 0.02486669
000060 ce c2 cf bd b0 59 82 bd 16 b4 5e 3c db aa d5 3d
       -0.10144578 -0.06364763 0.0135927405 0.10432979
000070 6f ef 2f be 68 ba 27 be 24 38 f5 3d cb 0d 1f 3e
       -0.1718118 -0.16379702 0.119735986 0.15532605
000080 19 ed c0 bd c7 b0 12 be 77 c0 aa 3c 1a f7 73 3d
       -0.09420223 -0.14325248 0.020843728 0.059561826
000090 83 a6 84 3c 19 30 30 3c ae ff 95 bc 94 0a 98 bc
       0.01619268 0.010753655 -0.018310394 -0.018559732
0000a0 0c c5 13 3d 8b 7d 93 3e e4 d7 fd bd 3f 74 bf bb
       0.03607659 0.2880672 -0.123946935 -0.005842715
0000b0 e6 75 b5 bd a9 b4 c5 3d 2e 8f 0b be 02 a6 d4 bd
       -0.08860378 0.09653599 -0.13628837 -0.10383226
0000c0 2a c6 66 bd b1 87 20 3d 7f ad 8c 3d ed 4b ff 3c
       -0.056341328 0.039191905 0.06869029 0.031164134
0000d0 01 fc 85 3e ba b7 29 3e ca c1 b0 bd 6a 19 68 be
       0.26168826 0.16573992 -0.08630712 -0.22665945
0000e0 f2 66 a2 3e 6e 55 10 3e 39 62 2d be 2a 01 db bc
       0.31719166 0.14095089 -0.16932 -0.026733954
0000f0 a4 b2 4a be 12 88 4b 3e db 9c 5d 3e 7e 58 4d 3d
       -0.19794708 0.19876125 0.21641867 0.05013322
000100 33 d8 15 bc 4b c9 ea bc 80 cb 92 bd 9b 90 01 3e
       -0.009145784 -0.028660437 -0.07167721 0.12652819
000110 57 9f 5f bd 3a 64 96 bc 27 d0 2c be 4e d3 11 be
       -0.054595318 -0.018358339 -0.16876279 -0.14240763
000120 a5 d7 ee bd 7f c2 78 be f7 cf b0 bd 28 36 79 bd
       -0.11662225 -0.24292944 -0.08633416 -0.060842663
000130 69 65 d8 bd 42 9d 0b be 26 bd 50 3d eb d4 51 bc
       -0.105662175 -0.13634208 0.050961636 -0.012807111
000140 5d af d3 bc b0 05 71 3c b4 c8 0c bd 6e 64 82 3d
       -0.025840456 0.014710829 -0.034371093 0.06366812
000150 67 4e 31 3d 17 88 96 b9 5f 8e 7f be 15 6e bf be
       0.04328766 -0.00028711624 -0.24956654 -0.37388673
000160 e4 c6 55 be fa 56 1f be db 94 17 3e 9a 77 19 be
       -0.20876652 -0.15560523 0.14802878 -0.1498703
000170 6c 06 97 bd 53 c8 b2 bd 1a 48 74 3e 20 22 aa bd
       -0.07374272 -0.08729615 0.2385563 -0.0830729
000180 78 8d ad 3d 63 eb 0c be fc 27 68 3e 7a ba 43 be
       0.08474249 -0.13761668 0.22671503 -0.19114104
000190 06 06 7d bc b5 8d 12 bd a6 82 71 3d ab af 47 bc
       -0.015443331 -0.035779674 0.058962487 -0.012187879
0001a0 04 41 55 3d 54 9c a9 bb e4 70 78 be cc 22 8f bd
       0.052063957 -0.0051761065 -0.24261814 -0.06989059
0001b0 d8 e9 23 be ef 35 c4 3d 55 d5 c8 3d 33 a1 38 bd
       -0.16007173 0.095805995 0.09806315 -0.045075607
0001c0 b4 3b 75 bd a8 30 04 3e 1c 20 08 be 11 77 dd bc
       -0.05987139 0.12909186 -0.13293499 -0.027034314
0001d0 fb 22 96 bc 46 ea f3 bd 8e 28 d0 3c 59 a3 1f 3e
       -0.018327227 -0.119099185 0.025409963 0.15589656
0001e0 5a 5c b4 3d 07 9f 6f be c9 86 d8 bd 0f 21 0f 3d
       0.08806677 -0.23400508 -0.10572583 0.034943637
0001f0 71 17 2a be 85 8b 10 be 8e fc f7 bc 92 29 17 3d
       -0.16610505 -0.14115722 -0.030271795 0.03690488
000200 9f 24 3f 3b 90 7b 5f 3b e4 d5 dc 3d cb 2a d3 3a
       0.0029166115 0.0034100749 0.10782984 0.0016110776
000210 ad bf bf bd 2a 0b 0f 3e f6 d6 57 3d 37 f6 8f bc
       -0.09362731 0.13969103 0.052695237 -0.01757346
000220 f2 6b b8 bb b9 cc 0e 3e 0b de 32 bd 8d 54 0c bb
       -0.0056281025 0.13945283 -0.043668788 -0.00214127
000230 ba 6b 6e bd cb 07 89 3d ea 32 1b 3d 29 a7 22 3e
       -0.058208205 0.066909395 0.037890352 0.15884079
000240 ad 7d 8b bc 34 d5 3d be 57 32 51 be e1 87 d0 bd
       -0.0170277 -0.18538362 -0.2042936 -0.10182167
000250 e5 bc b9 bb d9 6f 3f bd aa 43 bc 3d bc 37 b2 bd
       -0.00566827 -0.046737526 0.091925934 -0.08702037
000260 75 13 55 3c 9f 8f 06 3d 00 20 f7 bd 44 db fd 3b
       0.013005127 0.03285181 -0.120666504 0.0077470858
000270 05 b5 4f bd 13 17 06 3e 9b 49 44 bd 7b 1d 06 be
       -0.050709743 0.1309474 -0.04792176 -0.13097183
000280 b7 04 d4 ba c3 16 d0 bd 64 55 42 3d 3b 7c 13 3e
       -0.0016175722 -0.101605915 0.047444716 0.14402859
000290 69 e1 15 be 46 5d 56 3d de 7c 46 bd 0e c3 76 be
       -0.14636768 0.052335046 -0.048458926 -0.24097845
0002a0 27 35 3b 3d b4 27 c3 bd 9b 1a ca bd 6f 5e 82 3d
       0.045704987 -0.09529057 -0.09868356 0.06365668
0002b0 03 7e b1 3c 31 22 0c 3e 40 e8 4f be 55 70 45 be
       0.021666532 0.13684918 -0.2030344 -0.19281133
0002c0 80 aa 62 3d d5 be 64 bd 24 48 16 3e 7f d0 16 be
       0.055338383 -0.055846054 0.14675957 -0.14727972
0002d0 e3 54 c4 3d 16 74 a6 bd ff 6b 71 bd 63 cf e1 bd
       0.09586503 -0.081276104 -0.058940884 -0.11025884
0002e0 a7 48 81 3b ab 6e 73 3e e7 cc a1 bd 53 e3 ab 3c
       0.0039454284 0.23772685 -0.0790041 0.02098242
0002f0 58 98 83 3b 2d c2 6a bc ba f6 69 3e d6 08 83 3c
       0.0040159635 -0.014328522 0.22848025 0.015995424
000300 87 68 25 3e e7 3f 4b bd 9d e7 af 3d 85 11 04 3d
       0.16153155 -0.04962149 0.085890986 0.03224327
000310 75 a6 c2 3d f3 06 60 bd fc 51 30 be 28 ce 8b 3d
       0.095044054 -0.054694127 -0.17218775 0.068264306
000320 b5 44 2a 3d eb 60 3b bd 79 7a 15 bc 93 80 2d be
       0.04156943 -0.045746725 -0.009123438 -0.16943578
000330 df 87 96 bd 49 fc 20 3e 7e 7c 64 3c 5b 76 f7 3b
       -0.07350134 0.15721239 0.013945697 0.007551951
000340 d5 5f b7 3d 8f ab c1 bd d2 4c e4 3d fe 7e 69 3d
       0.089538254 -0.0945655 0.11147465 0.057005875
000350 bf 8e a0 bd 0e ab 96 3d ac 3f 3c 3d e3 19 d9 bd
       -0.07839727 0.07356845 0.04595916 -0.106006406
000360 6d dd ee bd 3f af 09 3d 7d 45 c5 bc 2a 82 42 3d
       -0.11663327 0.033614393 -0.024080986 0.047487415
000370 10 06 fb bd 5c 8e c8 bc 6b b5 b0 be bc 1a 27 be
       -0.12257016 -0.024481945 -0.3451341 -0.16318792
000380 77 c7 a6 3b c0 a9 5c bc aa 2b 62 ba c6 8f 9c bc
       0.005089696 -0.013468206 -0.0008627722 -0.019111525
000390 fa 14 16 3d e4 48 de 3d 6a bb f8 bd c1 c1 ef bc
       0.0366411 0.108537465 -0.121451214 -0.029267194
0003a0 bd 51 56 3d 09 53 f5 3d cd 33 61 bd 30 f1 66 bd
       0.052324045 0.11978728 -0.05498104 -0.056382358
0003b0 92 80 99 3d 05 88 47 3d df 73 79 bd 9a de 14 be
       0.07495226 0.048713703 -0.06090152 -0.14538041
0003c0 0c ab 70 bd 9f 48 28 bc 40 c9 af 3d 78 3c 92 bd
       -0.058756873 -0.0102712205 0.08583307 -0.0714044
0003d0 40 dd 09 3e 76 8f f5 3c a5 d9 aa 3c bc de 55 bd
       0.13463306 0.029975634 0.020855734 -0.05221437
0003e0 f9 10 56 be 80 ed 86 bd 3a 20 79 be 17 4d 45 be
       -0.20904912 -0.06588268 -0.243287 -0.19267689
0003f0 ca 6b 4c bd 5f 91 9e 3d b0 6b 9d bd 30 ed 56 3d
       -0.049907483 0.07742571 -0.076865554 0.052472293

network_body.vector_processors.0.normalizer.running_mean f4 [52]
000000 ab 3c c9 3c 6f b9 79 3f 8a 0f a1 34 3e fe 96 3e
       0.024565062 0.97548574 2.9999893e-07 0.29490846
000010 df 90 a6 3c 87 ab 7a 3f a3 e9 3b 35 4e 0d 98 3e
       0.020332752 0.9791798 7.0002915e-07 0.2969765
000020 89 17 01 3d 58 18 78 3f 72 c3 d6 34 8c a8 96 3e
       0.031516585 0.96912146 4.000281e-07 0.29425466
000030 4e d7 9f 3c f0 d3 7a 3f 75 99 71 35 99 96 98 3e
       0.019511845 0.9797964 9.0002806e-07 0.29802397
000040 41 8f 3d 3d ce 4e 74 3f 25 c4 d6 33 3d 9b 95 3e
       0.046279196 0.95432746 1.000083e-07 0.2922
000050 47 1b b1 3c 5a 64 7a 3f b3 0f a1 35 36 3e 9a 3e
       0.021619452 0.97809374 1.2000004e-06 0.30125588
000060 8a fb 78 3d df 71 70 3f 1b 0f a1 34 79 59 94 3e
       0.06078676 0.93923753 2.9999578e-07 0.28974512
000070 08 b9 d1 3c 10 77 79 3f 89 ea 3b 35 83 00 9d 3e
       0.025600925 0.974473 7.000422e-07 0.30664453
000080 19 ae 80 3d 49 e2 6f 3f ec 0d 21 35 15 3a 93 3e
       0.062832065 0.9370466 5.999743e-07 0.2875525
000090 65 b3 20 3d 77 13 76 3f 3d 0f a1 34 8b f9 9f 3e
       0.039233584 0.9612345 2.9999674e-07 0.31245074
0000a0 49 73 7d 3d f8 1f 70 3f be c4 56 34 e4 c2 91 3e
       0.061877523 0.9379878 2.0001877e-07 0.28469002
0000b0 10 20 91 3d ed d4 6d 3f ea 0f a1 34 7e 7b a0 3e
       0.070861936 0.92903024 3.0000166e-07 0.31344217
0000c0 1c c4 85 3d 20 3f 6f 3f 25 c4 d6 33 b2 8b 90 3e
       0.065315455 0.93455696 1.000083e-07 0.2823158
