results/fifth/Car/Car-5499980.onnx (onnx, 96598 bytes, 9 tensors)

53 f4 [52]
00000000: 8c41 1f3e 2845 1f3e b38e 5f3a d28b 4d3e
00000010: da04 133e 5207 133e 74de 933a 91ea 4e3e
00000020: 0f83 243e 818c 243e bbf1 793a c417 4e3e
00000030: 0fc4 0c3e 5ac7 0c3e 34de 933a 486d 503e
00000040: c530 2b3e 0537 2b3e 3c14 1e3a e20e 4e3e
00000050: 6933 103e 7938 103e 76e6 883a f0b8 523e
00000060: 83c4 383e 82cb 383e b08e 5f3a 15cc 4c3e
00000070: 542c 193e 1931 193e a3f1 793a a610 573e
00000080: 7813 3d3e 6a19 3d3e 429b 413a 725e 4b3e
00000090: 669a 2f3e 169f 2f3e 2e9b 413a 51a6 5c3e
000000a0: 2c00 443e 6206 443e f29a 413a 57ee 493e
000000b0: 3f94 5d3e bd95 5d3e 359b 413a 2471 5f3e
000000c0: 9fa7 513e 16ac 513e 3c14 1e3a 6f08 4a3e
0.15552348 0.15553725 0.0008528039 0.20072868 0.1435732 0.14358261 0.0011281506 0.20206667
0.1606562 0.16069223 0.0009534617 0.20126253 0.13746665 0.13747922 0.0011281432 0.20354187
0.16717823 0.16720207 0.0006030237 0.20122865 0.14082111 0.14084043 0.0010444659 0.2057836
0.18043713 0.18046382 0.0008528037 0.19999726 0.14958316 0.14960136 0.0009534603 0.21002445
0.18464458 0.18466726 0.0007385501 0.19860247 0.17148742 0.1715053 0.00073854893 0.2154782
0.1914069 0.1914306 0.00073854544 0.19719826 0.21638583 0.21639152 0.00073854934 0.21820503
0.20474099 0.20475802 0.0006030237 0.1972978

54 f4 [1, 2]
00000000: 2d4e d4bf 737c c6bf
-1.6586357 -1.5506729

distribution.mu.bias f4 [2]
00000000: 0148 4cbc 9117 4f3e
-0.012468339 0.20223834

distribution.mu.weight f4 [2, 128]
00000000: f492 d3bd fa02 aabc 9c73 a6bd b08e c3bc
00000010: 80f6 a3bd 7cac 47bd 73b2 c73d facb 143d
00000020: 0afb d63d 2ce4 d23c 1c9c 93bd 7a28 d03c
00000030: 8ff4 dfbc 3a2e a73d 87e1 723c ba0e 173e
00000040: ad1b 143d 5969 74bc cfaa 1c3d d1a1 a83c
00000050: 2a0e 1b3d 8641 4a3d a687 743d 90ad d63d
00000060: 926f c23b b4e3 be3d 55b2 62bd 875a 05bd
00000070: 08e7 173d 177e 573d 67fe a33c 6eb4 b5bd
00000080: 704e 11bd 6754 813d 47cb a23d f131 a2bd
00000090: 5782 423d 8ea0 463d d879 123d f3f6 e03b
000000a0: 3754 fabc 2539 813e fd44 253d 51ab bf3d
000000b0: 6d66 c93d 7516 583c db97 4bbd ae0f 19bb
000000c0: 32ac 993c b8e5 0c3d a59f 52be 0400 133c
000000d0: 66b5 a9bd 49bb 623c ae70 a03c 40d1 033c
000000e0: 7fa8 eabd 2adf e5bc 19aa 8fbd cd15 4ebc
000000f0: fd9e 9bbd d868 09be 0899 12be e837 e83c
00000100: 38c3 b4bd 3198 a3bd bb60 ccbc fda3 19bc
00000110: 6b74 f03b d40a 013d be2c 5e3d de32 493d
00000120: 8ac7 053e 74b8 0c3d 06dd 983c 3818 11be
00000130: c73e 593e c6b2 073d e66e 803d 0db6 1bbb
00000140: 761f 973d 1f8c 57bc c64e 5a3d 6024 b6bb
00000150: f56a dd3b c5be 283e 6d02 83bc 122c 473b
00000160: f4e3 733e 3301 1b3d 1801 f53c 5326 29bc
00000170: 63a7 bdbd 608e a23c ed26 873d e3b0 663d
00000180: d369 e6bc d11a 403e 677f bcbd 5ce0 203d
00000190: b7db adbc 5881 373d 1e9f 5dbd f2b1 10be
000001a0: 2744 4c3b fd20 cb3d a427 2ebd be44 443e
000001b0: b62b 0b3b f3d4 973d 96d1 683b 9d5a 973d
000001c0: a43c f3bc f636 623b a9fe cabb 351c 093c
000001d0: b437 87bd 409d 893c 2d91 b73c d2e8 a83d
000001e0: a1c8 90bc 2718 c93c 028a 05b9 4de8 4d3d
000001f0: a824 06bd 396b 863d 934f a2bc 568d 84bd
00000200: 2b60 56bc 2a1e 893d ffea a2bd 7560 cdbd
00000210: 5bf8 9cbd ddd1 bf3d 7291 06bd 81cf 1ebd
00000220: 676b f13d da5d 14bd 7f10 debc afa0 753d
00000230: ae4e d13d 0341 94bd 9cd6 8e3d e98a 6b3e
00000240: 95cb 2abd b865 90bc 495c a3bc 5235 eb3c
00000250: 63c9 34bd 5a6e 24bd 995f db3d dce1 a5bb
00000260: 69b5 f63b 2456 d5bc 5ac1 b4bd 20e8 2bbe
00000270: f3f8 c63c f3e0 a0bd b839 113d 646e 95bc
00000280: 38c7 67bd 8c1b a03c 9829 e1bd 85da 583d
00000290: abe8 3a3d 3f22 a43d 7d13 62bd 3564 9fbc
000002a0: 59ee cfbd dcdb 5a3e 4a0a 0bba fb4b 433e
000002b0: 9490 f73c 7447 e53d 171b 90bd d096 8a3c
000002c0: d73c 79bc 410d 8fbc 8e54 da3c 7210 d5bc
000002d0: 76d7 c8bd a4e8 99bc f09c dfbb 9657 9b3d
000002e0: d75c f8bd aa5d c03d 14fa 1ebd c6f4 643c
000002f0: 0068 70bb 22cd 06bd da5d 7ebc 06f5 8bbc
00000300: ddb6 73bd 8331 19bd 245d fb3c e612 cdbc
00000310: b7a0 9c3b 007d 92bd a12c a63d 3358 053d
00000320: ef80 cbbc 378e b93c 1031 503d 55a0 53bd
00000330: 6144 623e 7808 64bd d182 193d 8453 5bbd
00000340: d8cd 293d a99b 9bbd 81eb c83d 9b19 723c
00000350: 2824 70bd 9e51 e63d f628 a5bd 3230 653c
00000360: d961 513e c9c4 fc3d 8f2f 78bd ff55 a53c
00000370: 4bb8 dabd 56ff 6d3c 0834 68bd e302 76bc
00000380: 7b39 cc3d 1306 5d3e c898 63bc 0715 fd3a
00000390: 3f24 85bd 848a 3bbd 27b3 813c 6b92 5abd
000003a0: 9120 0f3d 00a0 c9bd ce2f 6cbe 5d10 bd3d
000003b0: 7b1d 21bd 2e22 08bc d160 d4bc 7361 edbd
000003c0: fa8c 71bd a208 a2bd ddfd 883d ec24 91bd
000003d0: 3eda 45bd d0fc 1ebd 7382 0cbe cedc 413d
000003e0: 1661 a33d 59fc 5a3d db88 ec3c 453f 57bd
000003f0: 1513 df3b da67 90bb d784 443d 5ed3 e8bd
-0.103307635 -0.020753372 -0.081275195 -0.02387175 -0.080060005 -0.04874848 0.09750833 0.03632734
0.10497101 0.025743566 -0.0720751 0.025409926 -0.027338294 0.08163114 0.014824278 0.14751711
0.036159206 -0.014917695 0.038248833 0.020584973 0.037855305 0.049378894 0.059699677 0.10482323
0.0059337104 0.09320775 -0.055345852 -0.032557037 0.037085563 0.052610483 0.02001877 -0.08872305
-0.035475194 0.063149266 0.07948928 -0.07919682 0.047487583 0.04849296 0.03576073 0.006865376
-0.030557735 0.2523891 0.040348995 0.09358848 0.09833989 0.013188948 -0.049705368 -0.0023355293
0.018758867 0.034398764 -0.20568712 0.008972172 -0.08286552 0.013838598 0.01958498 0.008045495
-0.11457919 -0.028060514 -0.070148654 -0.01257844 -0.07598684 -0.13418901 -0.1431619 0.02834697
-0.088262975 -0.079880126 -0.024948468 -0.009377477 0.007338097 0.031504467 0.05424189 0.049120776
0.130644 0.034355596 0.01866008 -0.14169395 0.21215354 0.033129476 0.06271152 -0.0023759634
0.073790476 -0.013155966 0.05329778 -0.0055585355 0.006757135 0.16479023 -0.015992368 0.0030391258
0.23817426 0.03784294 0.029907748 -0.010324079 -0.09260442 0.01984328 0.065992214 0.056321036
-0.028126633 0.1876023 -0.092039876 0.039276466 -0.021222932 0.044801086 -0.054106824 -0.14130381
0.0031168552 0.099184014 -0.042518273 0.19166848 0.002123577 0.07413664 0.0035525314 0.0739033
-0.029692002 0.0034517623 -0.0061949086 0.0083685415 -0.066024214 0.016798615 0.022408092 0.08247532
-0.017673792 0.02454765 -0.0001273528 0.050270367 -0.032749802 0.0656342 -0.019813335 -0.0647227
-0.013084452 0.066952065 -0.07954978 -0.10028163 -0.076645575 0.093662 -0.03285355 -0.03877211
0.117880635 -0.036222316 -0.027107475 0.059967693 0.10220085 -0.072389625 0.06974527 0.23002209
-0.041698057 -0.017626628 -0.019941466 0.028711949 -0.04413737 -0.040144302 0.10711593 -0.005062325
0.00752895 -0.026042052 -0.088259414 -0.16787767 0.02428863 -0.07855406 0.035455436 -0.018241115
-0.056586474 0.019544385 -0.109942615 0.05294277 0.045632046 0.080143444 -0.055194367 -0.019456962
-0.10152883 0.21372932 -0.00053039624 0.19071953 0.030220307 0.11195269 -0.07036417 0.016917616
-0.015212259 -0.017462375 0.026651647 -0.026008818 -0.09806721 -0.01878769 -0.0068241283 0.07585065
-0.12127083 0.09392865 -0.03881271 0.013974374 -0.0036683083 -0.032910474 -0.015525306 -0.01708461
-0.059500564 -0.037400734 0.030684061 -0.025033426 0.004779901 -0.07152748 0.08113981 0.032554816
-0.024841754 0.022650821 0.05082804 -0.051666576 0.22096397 -0.05567214 0.037478272 -0.053546444
0.041456074 -0.07598049 0.09810544 0.014776613 -0.05862823 0.11246036 -0.08064453 0.013988541
0.20447482 0.12342221 -0.06059223 0.020182608 -0.10679682 0.014526209 -0.056690246 -0.015015337
0.09971901 0.21584348 -0.013891406 0.0019308635 -0.06501054 -0.045786396 0.015832497 -0.05336229
0.034943167 -0.09844971 -0.23065111 0.09231637 -0.039334755 -0.00830893 -0.025925072 -0.115908526
-0.058972336 -0.07911803 0.066890456 -0.070871204 -0.048303835 -0.03881532 -0.13721637 0.047329716
0.07977502 0.053463314 0.028873852 -0.052550573 0.0068076947 -0.0044069113 0.04797825 -0.1136844

network_body.linear_encoder.seq_layers.0.bias f4 [128]
00000000: 564e 44bd f5f3 6ebd 5f1d 54be 37ae 7cbc
00000010: b5e2 33bc ed41 edbc 0a96 4dbe a9da 41bb
00000020: 476f 59bd d4a8 31be e639 edbd f928 013e
00000030: 72bd e73c 0f07 713e b210 563d 6fec ce3c
00000040: 3efe 04be fe87 41be cd35 043b 3dd1 0fbe
00000050: ce9b 30be 9f9c ecbc b2e6 4fbd 4bb9 76be
00000060: ab4e 133e bf92 b83d 8b5a 32be 9ad6 99bd
00000070: 36f1 a0bc 70d8 3d3d ad51 21be 61bb fb3d
00000080: f7a4 24bd de35 bdbd c016 3e3d 62d8 303e
00000090: f1df cdbd 2416 35be 36da e13d 68b3 05be
000000a0: 4981 26be 14a3 713e 3d26 2ebe c134 c7bd
000000b0: 876c 2cbe 9e4a 483e a051 9ebd 8db9 b6bd
000000c0: 5c23 febd 4ad7 16be b515 683e a73f 483d
000000d0: fe3e a93d 9a85 17be b698 0dbd 54ed 20bd
000000e0: 7998 b33d faea 9c3d 2495 423d 9e88 16be
000000f0: da7a 933d 6bb7 1e3e 878e cdbd e5a1 febd
00000100: bef7 2a3c 2332 57be c4f0 2bbe c8d7 cd3c
00000110: c990 833d 1833 dc3d a5b9 07be 7ccf 3dbe
00000120: c0af 49be 7e65 54be b896 bb3b 7f1e 093e
00000130: 711f 3ebe 7404 7c3d 237a 4f3e a1f7 523e
00000140: c8a4 33be 1395 95bc f5fb 773d 8500 cfbd
00000150: 9ac9 7bbe f74d 40be a089 3f3e a4f5 273e
00000160: 1cab ffbd 6521 56bc 2e9e 23be c1e2 a73d
00000170: a8cf eb3b c99e f53d 40ce 823c cb6e 213d
00000180: a708 0a3e ccd6 41be a840 eebd 1a21 223d
00000190: 24fd 46be b09c 04be 2ecf 5cbe a7c2 2dbe
000001a0: 64ec 63be ca7b 443e 33bf e339 ab3a 863d
000001b0: 7a2d b93d 76e7 52be 62fa 1fbe 5bd3 07be
000001c0: c649 1d3e 0928 0abe 3f65 243e de1d cdbd
000001d0: 082c 3d3e 3da9 73bd dab4 f0bd 3718 5bbe
000001e0: 8032 84be aebf c03d 0f8c ac3d 0e90 0a3e
000001f0: 5876 523e 4912 bd3d 6380 cdbc 3d39 0b3e
-0.04792627 -0.058338124 -0.20714329 -0.015422395 -0.010979344 -0.0289621 -0.20076767 -0.0029579795
-0.053084638 -0.17349559 -0.11583309 0.12613286 0.028288577 0.23537849 0.052262016 0.025259225
-0.1298761 -0.18899533 0.002017367 -0.14044662 -0.17246935 -0.028883277 -0.050757118 -0.24094121
0.14385478 0.090123646 -0.17417352 -0.07511635 -0.019646268 0.04634899 -0.15753813 0.12291599
-0.040196385 -0.0923879 0.046408415 0.17270043 -0.10052479 -0.17684227 0.110279486 -0.1305672
-0.16260256 0.23597366 -0.17006774 -0.09726859 -0.16838275 0.19559714 -0.077304125 -0.0892211
-0.12409088 -0.14730564 0.2266453 0.04888883 0.08263968 -0.14797059 -0.034569465 -0.039288834
0.08769316 0.07662006 0.047505513 -0.14700553 0.072011665 0.15499656 -0.100369506 -0.12433223
0.010435043 -0.2101522 -0.16791064 0.025127307 0.064241 0.10751933 -0.13254412 -0.1853618
-0.1969595 -0.20741841 0.005724754 0.1339054 -0.18566681 0.061527684 0.20261435 0.20602275
-0.17543328 -0.01825956 0.06054302 -0.10107521 -0.24588624 -0.18779741 0.18704844 0.16402298
-0.124838084 -0.013069485 -0.1597831 0.08197547 0.0071963854 0.119931765 0.015967488 0.0394123
0.13479863 -0.18929595 -0.11633426 0.03958235 -0.19432503 -0.12950397 -0.21563408 -0.16968785
-0.22258145 0.19187847 0.00043439268 0.06554159 0.09041877 -0.20596108 -0.15622857 -0.1326422
0.15360174 -0.13491835 0.16054247 -0.10015462 0.18473828 -0.05948757 -0.11753245 -0.21395956
-0.25819778 0.0941156 0.084251516 0.13531515 0.20552957 0.09232003 -0.025085634 0.13596053

network_body.linear_encoder.seq_layers.0.weight f4 [128, 52]
00000000: 8721 a73d c463 bebc 825b 6ebd abc5 ffbd
00000010: 62e7 313e 9ea9 d4bd 273e 453e fde5 1b3e
00000020: 7fc3 8a3e f744 60be a786 2e3e ce94 4b3e
00000030: 87b4 a03d 0873 103d 4510 133c a069 5bbd
00000040: b378 9e3e 04c3 cabd 44f4 be3c c6f8 3b3e
00000050: 847a 373e 68a7 66be c84f 8dbe 6159 f53c
00000060: 623a 32be 63dc 2d3c 3f66 3f3e 6dcf 3d3d
00000070: bb49 063e 9b54 463d 2511 053e d9d7 6d3d
00000080: d6ad 683d 890f 11bd 6048 6ebd 51f4 783d
00000090: 98bc 3fbe d277 2b3e ae43 a8be beeb de3d
000000a0: 4c4c 323e a2e1 e6ba d1f0 c7bd 3d08 1dbe
000000b0: 9884 00be fc1b 573c ab1b 01be bab7 80be
000000c0: 3ef7 d83d 6b40 c3be 3f25 01be 165e 083c
000000d0: 3732 c03d 702b 1abe 3197 a23e 15f2 8e3e
000000e0: b03d 8ebe 7b0e e03c 3abd 29bc 4d5b 4ebd
000000f0: fbd3 7fbe 19f3 4d3e aae2 0c3e 2b78 98be
00000100: b88a c63d 8a2b 333c 178a 9c3d 32c0 bdbd
00000110: 789a c5bd 4b2d 81bd d7ed 00be 659b b0bb
00000120: 80f4 35bd 3f8c 2ebe 2486 343e beb1 2ebe
00000130: 13ca ea3c cea5 78bd 8345 a5bd 1a7b 403e
00000140: 6de8 da3d 69ae fcbc 45c2 333d d7f3 efbd
00000150: 5592 783d 4ec4 9fbc b5cc bcbd 5c47 d9bd
00000160: 950b c03e a93f 2fbe 72ae 5b3d 94a5 55be
00000170: 9da4 41bb bc71 ffbd 349a 4abd d89e 073d
00000180: f324 0bbe fa1c 803e ed75 1e3d 12d3 debe
00000190: d153 8abe 4495 a33d 4fbb 423e 97e3 423e
000001a0: 615d 3b3e 6756 8fbe 747d 6c3e 431c 11be
000001b0: 4d1d 203d 26ee 6dbe 7f3c 3f3e 7476 39be
000001c0: 26b5 0c3e 83e4 1bbd dea9 983d 7b92 8cbd
000001d0: f839 383e f30f 3b3e 00da 693d d3c6 99bb
000001e0: b31a 09be f3e1 f6bc 89fa 4a3e 1b66 8ebe
000001f0: 7a19 68bd 93f5 5cbd b6db 683e 6161 71bd
00000200: ec40 5dbc 4d22 4c3d 1019 263e df88 34be
00000210: 8a51 3e3e 3ffd 3dbd 0dd0 533e 32b9 123e
00000220: bceb 2e3e 4421 a4bd 3f02 07be 8240 493c
00000230: 6c7a 1abe de14 5f3e 85c4 af3e e685 243e
00000240: db1c 35be 5eda 8dbd 99f0 f03d 9285 373e
00000250: 4572 653d 3e35 37be d9ac 87bc f5aa f23d
00000260: 9527 5ebd 32ef b3be 3840 523d 6da8 acbe
00000270: 0c76 07bd 6c76 7fbd 3582 273e 3b6a 753e
00000280: 603e a0bb f685 7ebd ca7c 22ba ae6c 843e
00000290: 6e7e 42bd d0fa f63c 0811 143d 8bd3 a7bd
000002a0: 06e3 c3bd 2ee9 a4bc 9bd8 d63c 717d 123e
000002b0: a0d0 833c 5584 3d3e 6ab8 0cbe d7b4 92be
000002c0: 7155 afbe f323 143d d6ad f5b9 37e2 79bd
000002d0: 528c 9b3e cc1c 0dbe 75c1 eabc 1287 72be
000002e0: 7750 10bd 9094 ef3d 7166 1f3d 97bf f93c
000002f0: 641c d7bd 996b 89be 537c 263d a021 a2be
00000300: 473c 0f3e 930a 843d b699 693c e916 dabd
00000310: 5c23 c23e f867 9e3c 6b05 f6bd 32f3 7abe
00000320: 7525 213e 789b b63c b8df 5e3d bb51 2bbd
00000330: f74a 4fbe 35e3 2b3c 7885 93bc 6c9d 16be
00000340: 87bf 973c b242 02be ab8d 8cbe a5fb 8b3e
00000350: 3d5c ca3d 4df2 0a3e 897a 0b3e 8ea8 b3bd
00000360: 59bc 3bbe 18f4 143e b042 14be 7a0c 1abd
00000370: 3fb3 2abe 8884 1b3e c99f 803e b75c 0bbd
00000380: bfc1 dfbc 8f14 243d 620c 6fbe 9a76 03be
00000390: eed0 8c3d 12bc a33d 5613 003d ef17 693d
000003a0: 5349 d03d 55bf e03d 308c 4d3d 911f 08be
000003b0: 4177 36bd 6d17 1d3e 7e47 023d 01b2 8c3c
000003c0: 3ef7 233e b93f b73c 3c70 763e 615d 18bf
000003d0: f954 2dbd 85a7 893d eadf 203e 5ecb 5fbd
000003e0: 4469 3a3d 92ca 0fbc c501 4c3e 31fe 4dbe
000003f0: e1e8 6cbd ded4 4cbe 078a 8a3e b233 9ebe
0.08160692 -0.023240931 -0.058192737 -0.12488874 0.17373422 -0.103839144 0.1926199 0.15224452
0.27102277 -0.21901308 0.17043553 0.19880983 0.07846933 0.035265952 0.008976047 -0.05356753
0.3095146 -0.099004775 0.023309834 0.18356618 0.1791783 -0.22524798 -0.2759993 0.029949846
-0.17405084 0.010611626 0.18691348 0.046340395 0.13114063 0.04842053 0.12994821 0.058067176
0.056806408 -0.035415206 -0.05817449 0.060779873 -0.18724287 0.16744927 -0.32864136 0.10884808
0.17411917 -0.0017614851 -0.09762729 -0.15335174 -0.1255058 0.013129231 -0.1260821 -0.25140172
0.10594033 -0.38135085 -0.12611865 0.008323213 0.09384578 -0.15055633 0.31755975 0.2791907
-0.2778144 0.027350655 -0.010360057 -0.05038004 -0.24983208 0.20112266 0.1375834 -0.2977918
0.09694427 0.0109356735 0.07643526 -0.09265174 -0.09648603 -0.06307467 -0.12590729 -0.005389618
-0.044422626 -0.17045687 0.17629296 -0.17059991 0.02866081 -0.060705 -0.08069899 0.1879696
0.10688863 -0.030844884 0.04388644 -0.11716431 0.060686428 -0.019502785 -0.09218732 -0.10609314
0.37508836 -0.17114128 0.05363316 -0.20863944 -0.002954758 -0.12472865 -0.049463466 0.03311047
-0.13588314 0.25022107 0.03868668 -0.4352041 -0.27017072 0.079874545 0.19016765 0.19032131
0.1829734 -0.27995607 0.23094732 -0.14170937 0.039090443 -0.23235378 0.18675421 -0.18111593
0.13740978 -0.038059723 0.074542746 -0.068638764 0.17990863 0.18267803 0.057092667 -0.004692891
-0.13389091 -0.030137038 0.19822134 -0.27812275 -0.05666492 -0.053945135 0.22740063 -0.05893076
-0.013504248 0.0498374 0.16220498 -0.17630337 0.18585792 -0.046384092 0.20684834 0.14328459
0.17082113 -0.080141574 -0.1318445 0.012283446 -0.15085763 0.21785304 0.3432962 0.16066703
-0.17686789 -0.06926416 0.1176464 0.17922047 0.05601718 -0.17891404 -0.016561912 0.11849014
-0.054236967 -0.3514343 0.051330775 -0.3372225 -0.033071563 -0.062368795 0.16358264 0.23966305
-0.004890248 -0.062139474 -0.00061984046 0.25864166 -0.047483854 0.030148894 0.036149055 -0.081946455
-0.09564786 -0.02013072 0.026226332 0.14305665 0.016090691 0.18507512 -0.13742223 -0.28653595
-0.34244874 0.036167096 -0.0004685956 -0.06100675 0.30380493 -0.13780516 -0.0286567 -0.23684338
-0.035232987 0.11698258 0.038916055 0.030486865 -0.10503462 -0.26839903 0.04064591 -0.3166628
0.13987838 0.06447329 0.014257839 -0.10648901 0.37917602 0.019336686 -0.12012752 -0.24506834
0.15736945 0.02229093 0.054412574 -0.04182599 -0.2024344 0.010491182 -0.018007979 -0.14708489
0.018523945 -0.12720755 -0.27451834 0.27340427 0.09880874 0.13568993 0.13620962 -0.08772384
-0.18333568 0.1454624 -0.14478564 -0.037609555 -0.1666994 0.15187275 0.25121906 -0.034023967
-0.027314065 0.04005867 -0.23344567 -0.12838212 0.06875788 0.07994856 0.03126844 0.05690759
0.101702355 0.10973994 0.05018252 -0.13293292 -0.044547323 0.15340967 0.03180646 0.017174723
0.16012284 0.022369253 0.24066252 -0.59517485 -0.042317364 0.06721405 0.15710416 -0.054637305
0.045510545 -0.008776324 0.1992255 -0.20116498 -0.057839278 -0.20003077 0.27058432 -0.30898815

network_body.linear_encoder.seq_layers.2.bias f4 [128]
00000000: 8d7a dbbc 94c0 343e 66a2 66bc 8ae7 30be
00000010: 30f6 203e 5ec7 263e 4fd6 33bd b7ef 24be
00000020: 9679 193e 3913 7c3d 2e4e 4abe be38 ef3d
00000030: 84fe 0f3e df0a 883d 30ce ee3d 6369 383e
00000040: 5b49 1fbc 4253 4dbe 7a2c a83d dc38 a13d
00000050: 7953 34bd 1e98 edbd 4f34 373e 4224 69bc
00000060: 0b3f 6fbe 6475 5bbe 14d2 dc3d 986e 6bbe
00000070: 61bb b13d 3f3b 3cbe 66a1 113d 8e43 323d
00000080: de60 f13d 2b3a b63d 248d 7bbe 5c80 b23d
00000090: 8c14 39bc bd81 123e ffdc 57be 6bee 6fbc
000000a0: 174f 62be 77a2 1e3e 8356 a1bd 4ace 403e
000000b0: 0675 0c3e e7fb 003e 5a5c 51be 8a3f 973d
000000c0: 54eb ecbd 6c5b 47be 035e d03c 5cf3 fbbd
000000d0: 5489 eebd 617f 013e a682 c53c 2e69 2f3e
000000e0: 01b1 05be 7e56 203e 7218 dd3d 7b75 e0bd
000000f0: b0d1 123d 11de 20be 635c 18be 4361 223d
00000100: 70bb 02be a93f ccbd 16e6 7c3d 1373 3ebe
00000110: 70a4 cabd c9db 33be 31e0 033c 0e19 883d
00000120: 7cb5 bf3b ec6c 3a3d 7966 183e 41e1 c23d
00000130: 16f4 423e 0da3 1dbe 6232 9f3d 7e08 4bbe
00000140: d670 b53d 552c 4ebe 6992 b83d 228d fabd
00000150: e751 44be eba9 c43d 9a28 58be 09f0 a83d
00000160: 9a0b 2c3e 228d 263e efae 58be 3e8d 4dbd
00000170: d1ea 4cbe 9f45 3f3d e579 b6bd e900 c23d
00000180: de62 1ebe fd0e 653e 1a62 e5bd ea25 36bd
00000190: 2d8f 493d c9af 3cbd cce9 afbd 189d 3c3d
000001a0: fc86 f53d 5241 a8bd 01dc f3bd b5f1 003e
000001b0: fcf2 61be b0d3 c6ba 756e 26be 16e9 36be
000001c0: 59c9 5dbe dfe0 0dbe 333d c93d 58ca 47be
000001d0: a2df 01be 4b5b 1f3d cf54 35be 8cd3 ad3d
000001e0: 49bd 543c 9dd4 ae3c 7749 a03d 7e77 1fbe
000001f0: dd3f 983d da40 2dbe b76b b53d d3f1 50be
-0.026791835 0.17651588 -0.014076805 -0.17275825 0.15718913 0.1628699 -0.043905552 -0.16107069
0.14987788 0.06154177 -0.19756386 0.116807446 0.14061934 0.066426985 0.11660421 0.18008952
-0.009722079 -0.20051292 0.08211608 0.07872173 -0.04402492 -0.1160128 0.17891048 -0.014229836
-0.23363893 -0.214315 0.10782257 -0.22991407 0.08678318 -0.18381976 0.035554312 0.043521456
0.11786054 0.088978134 -0.2456556 0.08715889 -0.011296403 0.14307304 -0.21080397 -0.014644246
-0.22100483 0.15491663 -0.07877829 0.18828693 0.13716516 0.12596093 -0.20445386 0.07385166
-0.11568323 -0.19468468 0.025435453 -0.123022765 -0.11647287 0.12646247 0.02411015 0.17129967
-0.13055803 0.15657994 0.10795678 -0.109599076 0.035844505 -0.15709712 -0.14878993 0.039643537
-0.12766814 -0.0997308 0.061742865 -0.18598585 -0.09894645 -0.1756431 0.008049057 0.06645404
0.005850492 0.045514032 0.1488284 0.0951562 0.19038424 -0.1539423 0.07773282 -0.19827458
0.08859412 -0.20134099 0.090123005 -0.1223395 -0.19171868 0.09602722 -0.21109238 0.08248908
0.168013 0.16264775 -0.21160482 -0.050183527 -0.2001145 0.046697255 -0.08909968 0.0947283
-0.15467402 0.22368999 -0.11200352 -0.04446975 0.04920881 -0.04606608 -0.08589515 0.046048254
0.11988637 -0.08215584 -0.11907197 0.12592204 -0.22065347 -0.0015169289 -0.16253074 -0.17862353
-0.2165884 -0.13855313 0.09826126 -0.19510782 -0.12682965 0.038905423 -0.17708133 0.08487615
0.012984582 0.021341616 0.07826512 -0.15572926 0.07434056 -0.1691927 0.088584356 -0.20404749

network_body.linear_encoder.seq_layers.2.weight f4 [128, 128]
00000000: 179c 72bd b231 df3d 5db9 85bd 07c5 04be
00000010: 1b96 2ebe fe84 8a3d 6c33 32be 5a21 e4bd
00000020: 6cf1 debc e30f 6dbe fd60 28be 0169 203e
00000030: fb6e e4bd 0367 303e b80e 133e 7f2d 79be
00000040: 0913 c5bd aa54 863d e01e 2dbe 0e03 153d
00000050: 4084 eabd d302 723d e2b7 413d a6b0 803c
00000060: 704d b3bd 3314 05bd 1cdf e23c e146 c93d
00000070: a8e2 2abe a216 0bbe 1eec 013e 5ec8 063e
00000080: e818 d5bd cced 2fbe efab 523c 095e 7b3d
00000090: 89f6 47bc bada ea3c 1701 67bc 3a96 babc
000000a0: 046c d23c 98cb 863e 06ef 06be 0818 c5ba
000000b0: ed8c 21bd 3021 c83d de5d 05be 382a cfbd
000000c0: 5a9f 5bbd 02b0 593d 3250 8f3d 0bbd 043d
000000d0: ac97 843e cc2e ee3d 7627 ccbd dbee 51be
000000e0: db24 9f3e d3f4 1b3e 54aa 1dbe b9f4 a0bc
000000f0: 92f8 2fbe 5e92 1b3e 7fdb 323e 9d95 5e3d
00000100: 05c3 20bd dbc3 e2bc e8b8 91bd bc89 0c3e
00000110: 3805 24bd 019d f2bc 6b1b 0abe 4357 00be
00000120: a629 18be 65b4 52be 5e24 debd 195b 86bd
00000130: efb4 e1bd 7fcb eebd 6e4d 703d 0c1a 70bc
00000140: 967c 77bc 5470 d13c 0dde 22bd fc90 463d
00000150: 634a c63c c9f6 afbc 0558 62be 619b c3be
00000160: ab97 6bbe 6ef5 1abe 99a0 003e 0d8c 20be
00000170: 1576 6cbd 2cfd bfbd 63b2 7a3e 7cee 91bd
00000180: e566 ed3d a5b8 18be 936e 603e 99a8 3cbe
00000190: 8a3b 6bbc defa 25bd 0a33 843d f043 883b
000001a0: 8e26 623d fbca 0fbc 3a59 7ebe 740b 69bd
000001b0: de21 0abe 0e60 ae3d 2049 b73d 70f3 27bd
000001c0: ec2b a1bd 2df6 013e 9e1d e3bd 2463 2abd
000001d0: 3c53 463c 8b80 bdbd 78e8 ce3c b2a1 213e
000001e0: bbee 9b3d 7446 58be 3e79 ccbd 8b38 553d
000001f0: b03c 29be 2a52 f5bd 0357 1abd 4532 093d
00000200: 9d80 04bb a733 643c 4df9 f43d fdf2 763c
00000210: ba8b 9ebd 672c 153e fcf9 193d 86f0 583c
00000220: 5dea 2f3c 8506 043e e676 1ebd 34c3 d23b
00000230: fb16 27bd dedf 983d 409a 673d a169 353e
00000240: 2d94 babc 2a2c 4cbe 731b 3dbe 6bbb a6bd
00000250: c457 0f3a 6754 67bd 0990 d33d 4611 82bd
00000260: bb4a cb3c 74e5 2d3d aef5 0bbe 2adc d73c
00000270: 453e f1bc 073d 0c3e b20e 54bd 8675 dcbd
00000280: 33c1 d43b cb77 debd 75ed 893d 2996 133e
00000290: 237e 0ebe d470 6f3d e9dc 29bd 6ec9 62be
000002a0: 8701 3c3d 0ed6 a2bd a680 dfbd 2f18 913d
000002b0: 608a d83c 2ea5 133e b302 4fbe 29ce 23be
000002c0: c7d5 153d b571 70bd 2cc7 143e 75e5 efbd
000002d0: fcc7 ee3d b197 9ebd 46a5 4dbd 1ff1 b1bd
000002e0: e3b3 ae3c febc 7a3e 929b 9fbd 94c4 2f3c
000002f0: cd04 b73b 424c 793c 9573 733e 83fa 9c3c
00000300: f38e 303e 028e a8bd ec52 b53d 2633 093d
00000310: 71d2 e83d 1eea 7bbd 536d 37be 4266 723d
00000320: 2233 213d 02fc a2bd 576a 913c d72f 1dbe
00000330: 36a9 96bd cae5 233e 6445 b93b eae7 063c
00000340: a4e4 d23d 692b b6bd 3dfe 003e a0e6 893d
00000350: d902 91bd a5b5 813d e49d 3a3d ca03 9abd
00000360: dfd4 cebd 0a1b 263c 8a32 173c e968 a53d
00000370: d7c0 e3bd a7eb 45bc 128a a3be 9b67 17be
00000380: 40c7 113d 5292 87bc d21a 383c d7e0 38bb
00000390: e012 4c3c 65c5 f53d 8bca b5bd 9a46 16bd
000003a0: 814e 493d 041e 0a3e 2501 3cbd 2c4e 3abd
000003b0: 44eb 9e3d 6c27 263d c21d 6ebd 434e 1bbe
000003c0: 2cdc 22bd 0938 a9bc 6ab7 ba3d 0cb6 84bd
000003d0: b4b1 183e 4d60 3f3d 0ba7 0b3d 4805 4abd
000003e0: 06e5 47be 26d9 4abd 4c41 6fbe 35a8 31be
000003f0: 417e 13bd ebbe ad3d e5e0 87bd 4dca 3c3d
-0.05923089 0.108981505 -0.06529496 -0.12965785 -0.17049448 0.067636475 -0.17402428 -0.11139174
-0.027214728 -0.23150592 -0.16443248 0.15665056 -0.1115398 0.17226796 0.14361084 -0.24333762
-0.09622771 0.06559117 -0.16906309 0.036379866 -0.11451006 0.059084725 0.047294505 0.015709233
-0.087550044 -0.032489967 0.027694277 0.09827972 -0.16688025 -0.13582852 0.12687728 0.13162372
-0.10405141 -0.17180556 0.012858375 0.061368976 -0.012204775 0.02866875 -0.014099381 -0.022776712
0.025686271 0.26327205 -0.13177118 -0.0015037069 -0.039441038 0.09771955 -0.13024089 -0.101154745
-0.053618766 0.05314637 0.06997718 0.032406848 0.25896966 0.116300195 -0.09968464 -0.20501272
0.31082806 0.15230112 -0.15397006 -0.019647943 -0.17184666 0.15192553 0.17466544 0.0543419
-0.039248485 -0.027681282 -0.07115346 0.13724416 -0.04004404 -0.02961588 -0.13487022 -0.12533288
-0.14859638 -0.20576628 -0.1084678 -0.06560344 -0.110208385 -0.116599075 0.058667593 -0.014654648
-0.015105387 0.025566258 -0.039762545 0.04847811 0.024205392 -0.021479981 -0.2210389 -0.38204482
-0.23007075 -0.15132686 0.12561263 -0.15678425 -0.0577298 -0.093744606 0.24482112 -0.071255654
0.11591891 -0.14914186 0.2191718 -0.1842369 -0.014357457 -0.04052245 0.064550474 0.0041584894
0.05521255 -0.008776422 -0.24838725 -0.05689569 -0.13489482 0.08514415 0.08949494 -0.041003644
-0.078697056 0.12691565 -0.110896334 -0.041598454 0.012104806 -0.09253033 0.025257334 0.15784338
0.076138936 -0.21120626 -0.099840626 0.052055877 -0.16527057 -0.11978562 -0.037680637 0.033495206
-0.002021826 0.0139283305 0.11961613 0.015072581 -0.077414945 0.1456772 0.03759192 0.013240939
0.010737029 0.12893112 -0.03868761 0.0064319614 -0.0407934 0.07464574 0.05654359 0.17716075
-0.022775734 -0.19938722 -0.18467502 -0.08141216 0.0005468095 -0.056476977 0.10330207 -0.06350951
0.024815908 0.04245515 -0.13667938 0.0263501 -0.029448638 0.13695155 -0.051771827 -0.10764603
0.0064927577 -0.108626924 0.067347445 0.1441275 -0.13915305 0.05845721 -0.041470442 -0.22147152
0.045899894 -0.07950984 -0.109132096 0.07084691 0.02643317 0.1441848 -0.20215873 -0.15996613
0.036580827 -0.05870219 0.14529103 -0.11713687 0.11659238 -0.077437766 -0.050206445 -0.08688568
0.021326011 0.24486157 -0.077933446 0.01072802 0.005585289 0.015215935 0.2377456 0.019162422
0.17242031 -0.08230211 0.08853707 0.033496045 0.113682635 -0.06150257 -0.17912798 0.059179552
0.039355405 -0.07958223 0.017750902 -0.1535028 -0.07356493 0.16005626 0.005654024 0.008234004
0.10297516 -0.088949986 0.12596984 0.06733441 -0.07080621 0.06333474 0.045560732 -0.07520254
-0.10099196 0.010138283 0.009228358 0.08076651 -0.11120766 -0.01208011 -0.31941277 -0.14785616
0.03559041 -0.016549263 0.011236863 -0.0028210187 0.012455672 0.12000541 -0.08876523 -0.036688425
0.049147133 0.13488013 -0.04589953 -0.045484707 0.07759717 0.04056494 -0.058133848 -0.15166573
-0.039760754 -0.020656602 0.09117015 -0.06480035 0.14911538 0.0467227 0.03409485 -0.049321443
-0.1952096 -0.049523495 -0.23364753 -0.17349322 -0.036009077 0.0848368 -0.06634692 0.046091367

network_body.vector_processors.0.normalizer.running_mean f4 [52]
00000000: a224 cb3c 20b3 793f 916b 1235 65fa 943e
00000010: 4080 ac3c 86ac 7a3f 1b6b 9235 4be9 953e
00000020: a32d d93c 9d3f 793f 263a 4335 0bf2 943e
00000030: b5e7 9d3c 681c 7b3f fe6a 9235 9317 973e
00000040: 64ba eb3c 89ab 783f cd3a 4334 45ce 943e
00000050: d5d6 a53c cfdd 7a3f ab08 7435 387a 983e
00000060: a9fd 093d 8766 773f 2d6b 1235 c65b 943e
00000070: 3694 bb3c e32f 7a3f 563a 4335 9980 9a3e
00000080: c8c0 103d 1ff6 763f f93a c334 41ec 933e
00000090: 9567 f83c 2740 783f 633b c334 6fa6 9c3e
000000a0: 2401 1c3d 6b3f 763f 663b c334 e13f 933e
000000b0: 9bba 493d d362 733f 613b c334 2920 9d3e
000000c0: 6e93 333d 85c3 743f cd3a 4334 0bef 923e
0.024797741 0.9753895 5.454577e-07 0.29097286 0.021057248 0.979195 1.090902e-06 0.2927955
0.02651102 0.9736269 7.272778e-07 0.29090914 0.019275526 0.9809022 1.0908986e-06 0.29510173
0.028775401 0.9713674 1.8182182e-07 0.2906362 0.020244041 0.97994703 9.0909697e-07 0.29780746
0.033689175 0.9664082 5.45452e-07 0.28976268 0.02289782 0.9772932 7.272805e-07 0.30176237
0.0353401 0.964693 3.636449e-07 0.28891185 0.03032283 0.9697289 3.636479e-07 0.3059573
0.038087025 0.9619052 3.6364798e-07 0.28759673 0.049250226 0.9507267 3.6364784e-07 0.306886
0.04384177 0.9561084 1.8182182e-07 0.28698
