results/fifth/Car/Car-4499998.pt (torch, 582455 bytes, 40 tensors)

network_body.vector_processors.0.normalizer.running_mean f4 [52]
00000000: 0435 ae3c 5690 7a3f 5ef5 3235 f6f2 943e
00000010: 8a58 993c 2b39 7b3f cff4 b235 83d0 953e
00000020: 02c2 b43c 025c 7a3f 82f5 3235 aad6 943e
00000030: d7ce 8a3c caac 7b3f aaf4 b235 af2e 973e
00000040: 355f b83c 4041 7a3f e39c 6e34 e3a4 943e
00000050: 400a 903c 7a84 7b3f 0a9d 6e35 f9a5 983e
00000060: 973d ca3c f2b2 793f e3f4 3235 4e54 943e
00000070: 597b a13c 4afb 7a3f 969d ee34 db58 9a3e
00000080: 7cd8 d03c eb79 793f 129d ee34 9407 943e
00000090: 6704 ca3c bdb1 793f 929d ee34 96fd 9b3e
000000a0: 5730 ec3c 349d 783f 969d ee34 9c84 933e
000000b0: a7a1 1c3d fd33 763f 909d ee34 d645 9c3e
000000c0: c8f2 0c3d a12d 773f e39c 6e34 ae8d 933e
0.021265514 0.9787649 6.6667224e-07 0.29091614 0.018718977 0.98134106 1.3333282e-06 0.29260644
0.022065166 0.9779664 6.666743e-07 0.29070026 0.016944332 0.9831053 1.333324e-06 0.29527804
0.022506336 0.97755814 2.2222552e-07 0.2903205 0.017583013 0.9824902 8.889043e-07 0.29814127
0.024687571 0.97538674 6.6666524e-07 0.2897057 0.019712137 0.98039687 4.4445613e-07 0.30145916
0.025493853 0.9745166 4.4445238e-07 0.28912032 0.024660302 0.9753683 4.4445602e-07 0.30466908
0.028831644 0.9711487 4.4445613e-07 0.2881211 0.0382401 0.9617308 4.4445596e-07 0.3052203
0.03441122 0.96554 2.2222552e-07 0.2881903

network_body.vector_processors.0.normalizer.running_variance f4 [52]
00000000: 4bf0 b647 3af8 b647 edff 7f40 ad82 3148
00000010: 7a6b a147 0871 a147 a6ff df40 cc30 3448
00000020: 0baa bd47 e7c2 bd47 97ff 7f40 208f 3148
00000030: 9760 9247 3566 9247 e5fe df40 20a7 3848
00000040: 6d5c c147 0c6e c147 feff ff3f 125f 3048
00000050: 43cc 9747 00d3 9747 d7ff 9f40 78b6 3d48
00000060: 68a1 d347 f6b6 d347 e7ff 7f40 8cec 2d48
00000070: f0d7 a947 ebdf a947 5dff 3f40 4f7c 4448
00000080: 225b da47 f16f da47 fcff 3f40 fb5b 2b48
00000090: d668 d347 f074 d347 d5ff 3f40 b572 4c48
000000a0: 6218 f647 3a2f f647 5eff 3f40 a563 2948
000000b0: 729e 2148 54a1 2148 e2ff 3f40 f970 4f48
000000c0: ff03 1248 bb0d 1248 feff ff3f aac7 2a48
93664.586 93680.45 3.9999955 181770.7 82646.95 82658.06 6.999957 184515.19
97108.086 97157.805 3.999975 181820.5 74945.18 74956.414 6.999865 189084.5
99000.85 99036.09 1.9999998 180604.28 77720.52 77734.0 4.9999804 194265.88
108354.81 108397.92 3.999994 178098.19 86959.875 86975.836 2.9999611 201201.23
111798.266 111839.88 2.999999 175471.92 108241.67 108265.875 2.9999897 209354.83
126000.766 126046.45 2.9999614 173454.58 165497.78 165509.31 2.9999928 212419.89
149519.98 149558.92 1.9999998 174878.66

network_body.linear_encoder.seq_layers.0.weight f4 [128, 52]
00000000: fd40 983d fb9c 84bc 0664 90bd a8f3 03be
00000010: 7623 363e 7ab2 ddbd 69cd 383e 3cd5 143e
00000020: 8a7a 893e cf4d 5dbe 85dd 253e 2b6d 3a3e
00000030: b17f 8e3d 31bf 333d a8f6 4fbb 90d7 7ebd
00000040: ca0e 9d3e f58a c3bd 3a07 2f3c 844e 273e
00000050: f027 363e b1c2 64be f744 99be 96dd a93c
00000060: 1650 20be 62d0 c1bb 69c9 323e 89aa 153d
00000070: 8bf6 073e 8814 3e3d 0207 0e3e de5f 6a3d
00000080: 8a7f 8e3d 3b8c 3cbd 0693 90bd 6cc8 183d
00000090: 31fb 5dbe 0d96 493e 5a9f aebe d42c f23d
000000a0: 5eb1 2d3e 5bf1 8c3b a25f e1bd 86b2 2cbe
000000b0: 3350 1ebe 8cce 2c3d 25d3 0dbe 2d40 66be
000000c0: a28f e23d 1101 c5be 3313 0ebe 7a12 d0bb
000000d0: c662 d03d 5472 21be b260 a13e 1e5a 893e
000000e0: 7242 8bbe 3822 b93c 6c0e 51bc d2d2 7ebd
000000f0: 73ee 83be f435 553e 526a 063e 25c5 99be
00000100: 5471 db3d 953d ed3a e49f 973d 2f9e bebd
00000110: ac0e d4bd 1a55 67bd e5f2 02be cf69 ddbb
00000120: ead9 26bd a276 31be 06d5 2f3e 846b 2dbe
00000130: 52cf 913c 115b 50bd fa1a aabd 918e 493e
00000140: 7809 d43d 923d d8bc 6a04 293d a38d dcbd
00000150: c24d c73c 1d90 7d3c d27e c1bd ef02 d6bd
00000160: 91da be3e 3266 2cbe 334a 523d e808 48be
00000170: bbb3 6a3c 9f0e 12be 6ffe 53bd 14a6 5c3d
00000180: f6ef 05be b804 7b3e ad11 153d 1386 dabe
00000190: d882 89be 09eb 9e3d 60b6 403e 5855 553e
000001a0: ef3f 353e fd2d 8cbe d63c 6a3e 44ee fabd
000001b0: 865a 373d f85f 73be 83c3 3c3e 3769 24be
000001c0: 8eb2 083e d1ca 0cbd f710 9d3d dfec 88bd
000001d0: 1c42 3b3e 546c 383e a1f6 5f3d ffa9 9a3c
000001e0: e1f7 10be 5b74 b9bc 0970 493e dd81 90be
000001f0: 3e47 85bd 890e 38bd 06e7 603e e72b 42bd
00000200: f1ee 133c 3e14 de3c 71d8 233e a25f 33be
00000210: 5a75 423e 8be1 4cbd 6840 4f3e 47fd 0b3e
00000220: e0f5 313e b412 abbd ab11 09be fe0e 8d3c
00000230: e7a0 37be 1d72 7c3e ddbc ae3e 7cac 173e
00000240: 6ac5 29be 5aa9 a4bd a8d1 ec3d 3389 333e
00000250: 1170 413d aa2d 2ebe 1428 98bc 89fb 053e
00000260: ecb5 84bd daa0 aebe dc14 4c3d 5879 b6be
00000270: c730 fbbc 7839 85bd a1c6 283e f3f4 693e
00000280: cc0f 173c 33e4 9cbd abb0 1f3a 22a3 7d3e
00000290: 8c44 39bd 9ce8 e13c 5901 eb3c e999 61bd
000002a0: 144a adbd 13c7 01bd b7e9 e03c 82bd 0a3e
000002b0: 780f 3a3c e16b 413e ff64 0bbe 6e11 85be
000002c0: 4b4c a5be 77a5 633c f75b 093c 77ed 67bd
000002d0: 2146 943e 0109 ffbd 5c9d e0bc 183c 56be
000002e0: 9cc5 e9bc 5101 e13d ce13 4f3d 73cf ca3c
000002f0: fbcc ecbd cc0d 85be b59a 2b3d 06f7 a4be
00000300: 1835 1e3e 76ec 4c3d 7b12 7e3c 8a99 06be
00000310: e5d0 a63e 13c0 8d3d 2676 f3bd 98c8 84be
00000320: da77 1a3e a49e ec3c e6fd 633d 277d 5cbd
00000330: 839f 51be 4644 143c f3e8 88bc f035 26be
00000340: 3c5a 163d 53e9 14be 7f40 89be 9d05 8a3e
00000350: 66c4 033e 7575 d83d 1115 123e dabe b3bd
00000360: 3fc8 23be 01d3 f63d a158 14be 6ac5 abbc
00000370: 72a0 16be 9902 073e 2ced 833e 1cb9 febc
00000380: 4fdb 30bc 50e2 b43c 1674 68be 66d7 f8bd
00000390: 1911 963d e7f1 943d eb64 063d 23cf 643d
000003a0: c7a2 de3d 088b cf3d a113 683d 8062 e9bd
000003b0: a54b 30bd c4f8 1c3e d3a4 363d 5048 803c
000003c0: c0fe 0b3e 40bc 333d 0e0a 7d3e 9be7 12bf
000003d0: 1298 9fbc e9a9 3a3d 7679 273e 5183 9dbd
000003e0: c568 f43c 9fb9 853b 539b 523e a345 44be
000003f0: ec25 7abd 1923 49be 2bd7 8d3e 25ca a9be
0.074342705 -0.016188135 -0.07050328 -0.12885916 0.17786965 -0.10825057 0.18047108 0.14534467
0.26851302 -0.21611713 0.16197784 0.18205707 0.06957949 0.043883506 -0.0031732712 -0.062217295
0.30675346 -0.09547988 0.010682875 0.16338545 0.17788672 -0.22339894 -0.29935429 0.020735543
-0.1565555 -0.0059147337 0.17459644 0.036539588 0.13277642 0.0464063 0.13869861 0.057220332
0.0695792 -0.04603217 -0.070592925 0.037300512 -0.21677853 0.19686146 -0.3410595 0.118249565
0.16962191 0.0043012328 -0.11004569 -0.16864976 -0.15460281 0.042189166 -0.13850076 -0.22485419
0.11062552 -0.38477376 -0.13874511 -0.006349859 0.101750895 -0.15766269 0.31519085 0.26826566
-0.2719913 0.022599325 -0.012759786 -0.062212773 -0.2576786 0.20821363 0.13126495 -0.30033222
0.10714975 0.0018100018 0.074035436 -0.09307515 -0.10354361 -0.056477644 -0.1278797 -0.006756998
-0.040735163 -0.17330411 0.17171106 -0.16935545 0.017799053 -0.050868098 -0.083059266 0.19683291
0.103533685 -0.026396547 0.041263975 -0.107692026 0.02432907 0.015476254 -0.09448017 -0.10449778
0.37276128 -0.1683586 0.051340293 -0.19534647 0.014325078 -0.1426339 -0.05175632 0.053869322
-0.13079819 0.24513519 0.03639381 -0.42680416 -0.26857638 0.07759673 0.1881957 0.20833337
0.1770017 -0.27378836 0.2287477 -0.12252477 0.044764064 -0.23767078 0.18433957 -0.16055761
0.13349363 -0.03437311 0.076692514 -0.066858046 0.18286937 0.18010074 0.054678563 0.018879889
-0.14157058 -0.02263849 0.19671644 -0.28224078 -0.06507729 -0.044935737 0.21963128 -0.04740515
0.009029136 0.027109262 0.16000535 -0.1751695 0.18990079 -0.050019782 0.20239413 0.13670836
0.1737895 -0.08353177 -0.13385646 0.017219063 -0.17932473 0.24652906 0.34128466 0.14811891
-0.16579214 -0.08040114 0.11563426 0.17532806 0.047226015 -0.17009607 -0.018573798 0.13084234
-0.06480011 -0.34107095 0.04982458 -0.35639453 -0.030662907 -0.06505102 0.16482021 0.22847347
0.009220075 -0.07660713 0.0006091694 0.24769261 -0.045231387 0.027576737 0.028687166 -0.05507842
-0.08461395 -0.031683993 0.027455194 0.13548854 0.011356227 0.18888809 -0.13612746 -0.2598986
-0.3228477 0.01389443 0.0083837425 -0.05662295 0.28959754 -0.12452889 -0.027418785 -0.20921361
-0.02853661 0.10986579 0.050555997 0.024757123 -0.115625344 -0.2598709 0.041895587 -0.32219714
0.15449941 0.050030194 0.015507336 -0.13144508 0.3258125 0.06921401 -0.118877694 -0.2593429
0.15084782 0.02888424 0.05566206 -0.053830292 -0.20471005 0.009049481 -0.016712641 -0.16231513
0.036707148 -0.14542131 -0.2680702 0.26957408 0.12867889 0.10569278 0.14265849 -0.087766364
-0.15994357 0.120519646 -0.14486934 -0.020968158 -0.14709643 0.13184585 0.25766885 -0.031094126
-0.010794475 0.02208057 -0.22700533 -0.12150459 0.0732748 0.07272702 0.032811087 0.055861603
0.10870891 0.1013394 0.056659345 -0.113957405 -0.04304089 0.15329272 0.044590782 0.015659481
0.13671398 0.0438807 0.24710867 -0.5738465 -0.019481692 0.045572195 0.16354927 -0.07691062
0.029835114 0.0040809656 0.20567064 -0.1916719 -0.06107132 -0.19642295 0.27703223 -0.33162037

network_body.linear_encoder.seq_layers.0.bias f4 [128]
00000000: ef20 14bd e735 65bd 075d 51be f252 88bc
00000010: da00 8fbc 3d28 bb3b 5d1a 47be b32d 46bc
00000020: 8b8b 22bd 6b81 35be 5e82 e6bd 9529 093e
00000030: 225a 0c3d 0339 773e 333a 913d 39fb 013d
00000040: 52ed f2bd 2ff4 3dbe e64d 0b3c 8dc6 e8bd
00000050: d6ba 1cbe eba0 a1bc 67a7 6fbd 7f5e 75be
00000060: fec4 183e b42b cd3d 8054 2cbe 89d9 a0bd
00000070: 96ab a6bc 7645 863d 388a 15be f51a f63d
00000080: d146 e1bc 59e2 aebd 4a13 5e3d 0dcd 3e3e
00000090: 678b bebd 4c60 2bbe 1985 f43d 2e63 ecbd
000000a0: fb14 1bbe 8124 793e ee0d 34be bef5 8dbd
000000b0: c3f6 1dbe 4148 473e a940 b2bd 5d4e 99bd
000000c0: 85c3 09be edd6 10be d05e 5f3e f730 583d
000000d0: 690a cc3d a2c3 09be b900 a1bc 7ce6 44bd
000000e0: 88e1 c83d 65c2 c83d bd50 543d fe10 10be
000000f0: 75d5 aa3d b1e0 1b3e 6e9a cfbd d6f7 e8bd
00000100: dcf4 2e3d b3e3 5abe b4ae 29be 020a 173d
00000110: 009f a23d d75b ea3d 074f 04be e888 31be
00000120: 0709 48be 4b91 52be f85c 253c fb7d 043e
00000130: f568 31be d722 9f3d 87f0 4e3e 8806 503e
00000140: 483e 2dbe 7756 23bb 817e 923d af4c bcbd
00000150: 90e3 6fbe 6e8c 2bbe 1404 363e cb85 1f3e
00000160: 4a45 0ebe 7e6b 8bba 871a 14be 6007 c93d
00000170: 1a8f 4c3c 0d44 003e 65bd a73c 62ff 513d
00000180: 33c0 043e e39b 46be e075 efbd fe4c 483d
00000190: 0779 3cbe a65a 00be 6f48 45be 004f 27be
000001a0: 6b09 5ebe fd86 3f3e 91be 133c b1c2 903d
000001b0: 22c6 c33d 89e6 41be 516e 1bbe 6331 00be
000001c0: 19b2 1f3e f86b 01be dd10 293e 3db7 b6bd
000001d0: d902 513e 43b5 60bd b666 e1bd 3c51 56be
000001e0: 46f3 7cbe 28a4 b73d c9ee be3d ddb3 033e
000001f0: 46d8 4a3e a6d3 cf3d 2963 b6bc f1d5 093e
-0.03616422 -0.05595961 -0.20445643 -0.016641114 -0.01745646 0.005711584 -0.1944365 -0.0120958565
-0.03968386 -0.1772515 -0.11255334 0.13394769 0.034265645 0.24142842 0.07091179 0.031733725
-0.118616715 -0.1855018 0.008502459 -0.113659956 -0.15305647 -0.019730052 -0.058509257 -0.23961829
0.14918897 0.10018101 -0.16829109 -0.078539915 -0.02034549 0.06556217 -0.14603508 0.120168604
-0.027499588 -0.08539266 0.054217614 0.18632908 -0.09303933 -0.16735953 0.11939449 -0.115423545
-0.15144722 0.24330331 -0.17583439 -0.06931637 -0.15426163 0.19461156 -0.08703739 -0.0748565
-0.13453491 -0.14144488 0.21813512 0.05278107 0.09962923 -0.13453534 -0.019653665 -0.04807137
0.09808642 0.09802703 0.05183481 -0.14068982 0.08341495 0.15222432 -0.10136877 -0.11375396
0.042713985 -0.21375923 -0.1657055 0.03687478 0.07940483 0.11443298 -0.12920772 -0.17337382
-0.19534694 -0.20563237 0.010092966 0.12938683 -0.17325194 0.07770317 0.20208941 0.20314991
-0.1691829 -0.0024923363 0.07153035 -0.09194314 -0.23426652 -0.16752788 0.17774993 0.15578382
-0.13893619 -0.0010636894 -0.14463244 0.0981586 0.01248529 0.1252596 0.020476053 0.051268943
0.12963943 -0.19395404 -0.11692405 0.04890155 -0.18405543 -0.1253458 -0.19265912 -0.1633873
-0.2168328 0.18703838 0.009017603 0.070683844 0.09559275 -0.18935598 -0.15178801 -0.1251884
0.15595283 -0.12638843 0.16510339 -0.08921669 0.20411243 -0.054860365 -0.11005919 -0.20929426
-0.24702176 0.08966857 0.093228884 0.12861581 0.19809064 0.101477906 -0.02226408 0.13460518

network_body.linear_encoder.seq_layers.2.weight f4 [128, 128]
00000000: cbab 4bbd df68 e53d 7928 0ebd 3e39 14be
00000010: c4ed 36be 06fd 683d 5726 07be 7f9d d3bd
00000020: 9e56 2fbd e973 64be d2e9 0abe 86e6 163e
00000030: 6f14 d2bd edfc 213e 0bbe fc3d 4056 6dbe
00000040: 180f bebd 16ca 7b3d db70 30be 3eea 203c
00000050: af11 e1bd 2746 2c3d ceba 593c 6e7d c139
00000060: 1336 a9bd 9373 fdbb 8127 193d f64c ae3d
00000070: 4a87 0fbe e973 11be de31 013e a022 c93d
00000080: 2b7c 0bbe 128a 1cbe d0a3 813c bb89 743d
00000090: d369 9bbc bfad 043d 7739 14bd 1be9 1cbd
000000a0: 2cac 4d3d 4afb 763e 07b3 02be dca2 97bc
000000b0: 6d90 eebc f343 b13d 8da0 e9bd 2551 f2bd
000000c0: 0882 3ebd cb9d 4b3d 0ea8 443d 2866 1c3d
000000d0: 82ef 793e 8754 053e 2f0e 06be 9c8a 2bbe
000000e0: 4493 9a3e 121e 173e d286 18be f177 ab3a
000000f0: 2635 09be 5ff4 dc3d 1601 163e 646d 803d
00000100: ebc8 51bd 9746 c6bb 5e8d 47bd 375e 043e
00000110: f48a 84bc 4cb9 0ebd 8bca 09be fcae acbd
00000120: bec8 efbd 6a05 32be 6b33 e0bd dfea 80bd
00000130: 9654 e8bd f3ad b0bd 9aca 893d 1eef a1bc
00000140: fb59 9bbc 0a61 c2bc 3974 5bbd ad46 213d
00000150: 3944 b4bb f383 3fbc 2834 81be 0f1f bdbe
00000160: 33f2 72be 4de8 10be 9626 d13d 7b49 20be
00000170: 5b16 28bd 882d b8bd f307 813e 6190 83bd
00000180: fceb f53d 93cd 0fbe c178 5b3e 6f6b 41be
00000190: befa 413c c591 2bbd edc8 5d3d 489b 033c
000001a0: a80a 393d 6b4e 86bc b866 8dbe 77c5 a3bd
000001b0: 646f 09be d6a1 b73d 6493 af3d a115 28bd
000001c0: 4b9e bbbd 4530 043e 6656 ffbd aca8 0ebd
000001d0: fd1a 993c 04f5 c6bd 2861 a13c d3bb 263e
000001e0: f8d0 8d3d f37a 49be 588d 96bd 4f74 b43c
000001f0: 55b5 2abe 3382 aebd 47bb 00bd d2bc 983c
00000200: 9cf3 3fbc 90cf 823b cf54 e13d c231 a33b
00000210: 8516 c5bd e7dd 123e 6fdc 113d eef7 033c
00000220: f7ef 803c 2f93 fc3d fb4e 28bd 8997 5c3c
00000230: 3131 e1bc 577d 8e3d e97b 683d 5ea7 1f3e
00000240: 3fca 95bc 2047 60be 061e 5abe 48da cbbd
00000250: 32a9 0cbc 8991 96bd 7dcb a13d 5c84 97bd
00000260: 1845 323c ce49 0d3d 5e4e 14be d839 1e3d
00000270: 6fdd 13bd 5574 eb3d 5d52 86bd 23e5 e0bd
00000280: 13d8 e2bb d215 e5bd 484a 933d 3d08 0b3e
00000290: 378f 14be 11c5 593d 55ea 01bd a206 6fbe
000002a0: 23e4 083d 613a 90bd 98b5 fbbd c44a 6e3d
000002b0: 63c8 c73c 39f5 163e 3676 5ebe 0fdc 21be
000002c0: f54c 1d3d 735a 8cbd 2e05 0f3e 5aa8 0dbe
000002d0: 1a17 e13d 3e94 9ebd 5960 56bd 1b4f d3bd
000002e0: 398f c93c 07cc 803e 3869 98bd e286 86bb
000002f0: b32c e83b 0186 573c 51c4 553e 8ad2 b539
00000300: 3efd 413e 746f a3bd 94e9 843d 7667 a73c
00000310: bdfb ce3d 3c7f 7bbd d934 2fbe bc18 3b3d
00000320: ad11 0e3d 4620 a1bd 15b2 223c 802b 19be
00000330: cf4b c0bd 59e1 2e3e 5362 8e3c 6ff6 503c
00000340: 91e3 b33d bdd9 e3bd ae9d e53d 66c8 5b3d
00000350: 09b0 d6bd 5275 793d e00c 443d 1326 95bd
00000360: 451c e5bd dfb7 a83b 2981 013c 8966 aa3d
00000370: 94aa efbd b987 6cbc 0d74 a8be 1892 10be
00000380: b7cf d43c 16ec d2bc b242 1ebc 59c2 ecbb
00000390: 5e8c f63b 2082 f23d 233a 9abd c6c6 3abd
000003a0: 3391 c33c 1852 0d3e 1076 91bd 24e2 96bd
000003b0: dfda 8d3d c25b 183d d0c0 97bd 6554 26be
000003c0: 960f 53bd bf9a aebc 6d20 c93d b94a 8ebd
000003d0: 763e 2b3e 9cf1 973d 3957 2d3d 8008 3fbd
000003e0: 2372 4fbe f98b 15bd 5d6d 6abe 189e 35be
000003f0: da9e 00bd db21 bc3d a46d 95bd 3f24 5c3d
-0.04972438 0.11201643 -0.034706566 -0.14474961 -0.17864138 0.056881927 -0.13198219 -0.10332774
-0.042807214 -0.22309841 -0.13565758 0.14736375 -0.10257804 0.1581914 0.12340935 -0.23177433
-0.09280223 0.06147202 -0.17230551 0.009821473 -0.10989701 0.04205909 0.013289167 0.0003690528
-0.08262267 -0.007734725 0.03739119 0.08510773 -0.14016452 -0.14204372 0.12616679 0.09821057
-0.13621585 -0.15287045 0.015825182 0.059701663 -0.01897136 0.03239226 -0.036187615 -0.038308244
0.050213024 0.24119297 -0.12763606 -0.018510275 -0.029121602 0.086555384 -0.11407576 -0.11831883
-0.046510726 0.04971103 0.048011832 0.03818336 0.24407771 0.13020526 -0.13091348 -0.16752094
0.3019048 0.14757565 -0.1489518 0.001308201 -0.13399181 0.107887976 0.14648852 0.062708646
-0.051217 -0.0060508954 -0.048718803 0.12926565 -0.01617954 -0.03484468 -0.1345617 -0.08431813
-0.117082104 -0.17384878 -0.10947307 -0.06294798 -0.113442585 -0.08626928 0.06728096 -0.01976734
-0.018963804 -0.023727912 -0.053577635 0.039374042 -0.005501297 -0.011689174 -0.25235105 -0.36937758
-0.23725204 -0.14151116 0.10212438 -0.1565303 -0.041036945 -0.089930594 0.25201377 -0.064240225
0.12007901 -0.14043264 0.21432783 -0.18888639 0.011839567 -0.041887064 0.054146696 0.008032627
0.04517618 -0.016394814 -0.2761743 -0.07996648 -0.13421398 0.08966415 0.085730344 -0.041036252
-0.09161051 0.12909038 -0.12467651 -0.034828827 0.018689627 -0.09714702 0.019699648 0.16282587
0.06924623 -0.19675808 -0.07351178 0.022028117 -0.16670735 -0.08520927 -0.0314286 0.018644724
-0.011715796 0.0039920285 0.11002504 0.004980297 -0.09623436 0.14342462 0.035610612 0.0080547165
0.015739424 0.123327605 -0.041090947 0.013463863 -0.027489277 0.069575004 0.056758795 0.1559119
-0.018284915 -0.21902132 -0.21300516 -0.09953743 -0.008585261 -0.073519774 0.079001404 -0.073982924
0.010880731 0.034494214 -0.1448302 0.038629383 -0.036099847 0.11496798 -0.06558678 -0.10981204
-0.0069227307 -0.111858025 0.071919024 0.13577361 -0.14507757 0.053166453 -0.031717617 -0.23342374
0.033420693 -0.07042385 -0.12290496 0.05817677 0.024387544 0.14741983 -0.21724781 -0.15806602
0.03840347 -0.06853189 0.1396682 -0.13833752 0.109907344 -0.07743119 -0.052337978 -0.103178225
0.024604427 0.2515566 -0.07441944 -0.0041054348 0.0070854067 0.013154508 0.2087567 0.00034679874
0.1894426 -0.07980242 0.06489864 0.020435076 0.10106609 -0.061400637 -0.17110004 0.045677885
0.034684826 -0.07867484 0.009930153 -0.14958 -0.09389459 0.17078151 0.017380869 0.012754067
0.08783639 -0.11125515 0.11211716 0.05365791 -0.10482795 0.0609029 0.04786384 -0.07282653
-0.111870326 0.0051488723 0.007904329 0.08320338 -0.11702457 -0.014436656 -0.3290104 -0.1411823
0.025977952 -0.02574734 -0.009659456 -0.0072253165 0.0075240573 0.118412256 -0.0753062 -0.04559972
0.023872947 0.13800848 -0.07102597 -0.07367352 0.06926512 0.037196882 -0.07409823 -0.16243131
-0.051528536 -0.021314023 0.09820638 -0.06947846 0.16723046 0.0741913 0.04231951 -0.046638966
-0.20258383 -0.03651044 -0.22893281 -0.17736089 -0.031401493 0.09186145 -0.07296303 0.053745504

network_body.linear_encoder.seq_layers.2.bias f4 [128]
00000000: 23a3 c9bc a731 2f3e 6b1b 31bc cb71 26be
00000010: 0aa1 273e 4156 2a3e 5335 24bd 44e5 32be
00000020: 40a1 123e 560c 7e3d 5fff 3bbe 386e e53d
00000030: 1741 113e 681f a03c 1294 f13d 3029 323e
00000040: 87a1 28bc fc48 47be b7b3 813d 3d15 a13d
00000050: a9ba ffbc 9768 c7bd ef81 423e 968b fdbb
00000060: 6d5f 66be 5f93 61be a484 d13d b7ca 65be
00000070: 5cdd a53d 141f 30be 2819 e83c 818a 3c3d
00000080: 2255 f33d f9db b43d dd17 77be 957c ce3d
00000090: 4b9f 27bc 32cf 0e3e 942c 5ebe a7ec dcbc
000000a0: 7753 4ebe ef5f 163e 690d a8bd 7067 3d3e
000000b0: 7809 0a3e 628f 013e cbe4 36be 7034 8a3d
000000c0: f5b7 e4bd 31c3 4ebe f114 a23c 0031 efbd
000000d0: af46 e1bd 9fde 003e ecbb 8f3c e6da 303e
000000e0: 7e59 04be 9c64 203e d306 f03d c7bf d6bd
000000f0: f6cd 1f3d 5948 26be da11 18be f7d6 4f3d
00000100: c2c3 f3bd 96ca c2bd ddf8 8d3d fda6 24be
00000110: 5744 c4bd f321 2cbe 18c8 143c fd55 823d
00000120: 2253 f13b 5420 423d 75e4 123e 7e86 c93d
00000130: 997e 363e dad4 28be 0655 a93d 6a0b 46be
00000140: bdf3 aa3d b73d 41be f918 b83d 7fbe f6bd
00000150: 9e98 3bbe cf6e c53d 4789 53be e758 a73d
00000160: ecc9 2b3e d1a3 303e eb5a 67be 1c8b 3abd
00000170: da99 38be 5b4a 4f3d 0eee a1bd c07f bb3d
00000180: cadc 1bbe d8be 5a3e 9796 f5bd 12fc 1dbd
00000190: 75bc 533d 7794 33bd 1ea0 98bd 7c69 413d
000001a0: c60f 003e dc07 a0bd 330b e6bd 1091 ea3d
000001b0: 8b22 4fbe bee9 ad3b 5b07 23be 33bc 39be
000001c0: 7a52 4ebe 2cc2 0ebe 9183 cb3d 3c5b 45be
000001d0: 8219 f3bd dc96 ce3c 73bc 3cbe 28a1 953d
000001e0: bc51 103b cd61 cb3c a3ad ac3d 73c2 25be
000001f0: 3d93 a93d 23e4 2dbe fce7 be3d 3f0b 46be
-0.024613922 0.17108785 -0.01080976 -0.16254346 0.16370025 0.16634466 -0.040089916 -0.1747027
0.14319324 0.062023483 -0.18359135 0.11202663 0.14184986 0.019546226 0.1179582 0.17398524
-0.010292417 -0.19461435 0.06333106 0.07865379 -0.031216936 -0.09736746 0.18994878 -0.007737587
-0.2249734 -0.22028874 0.10230377 -0.22440611 0.080988616 -0.17199355 0.028332308 0.046030525
0.11881472 0.08831019 -0.24130197 0.10082356 -0.0102308495 0.13946226 -0.21696693 -0.026968313
-0.20149027 0.14685033 -0.08205683 0.1849649 0.13480175 0.12652352 -0.17860715 0.06748283
-0.111678995 -0.20191647 0.019785376 -0.11679268 -0.1099981 0.12584923 0.017545663 0.17271003
-0.12924764 0.1566338 0.117200516 -0.104857974 0.03901478 -0.16238536 -0.1485056 0.050742116
-0.11902572 -0.095112965 0.069322325 -0.16079326 -0.09583347 -0.16809826 0.009080909 0.06364057
0.0073646465 0.04739411 0.14344962 0.098401055 0.1782173 -0.16487446 0.0826817 -0.19340292
0.08347271 -0.18871199 0.08989138 -0.12048053 -0.18319938 0.09640276 -0.20657836 0.08171254
0.16776246 0.17249991 -0.22593276 -0.04554282 -0.1802744 0.05060802 -0.079067335 0.09155226
-0.15220943 0.21361864 -0.11991613 -0.03857047 0.0516934 -0.04384276 -0.07452415 0.04721974
0.12506017 -0.07813999 -0.11232605 0.1145345 -0.20228021 0.0053074053 -0.15920775 -0.18138199
-0.2014865 -0.13941258 0.09937204 -0.19273084 -0.118700996 0.02521842 -0.18431263 0.07306129
0.0022021374 0.024826908 0.08431556 -0.16187458 0.082800366 -0.16981559 0.09321591 -0.19340228

distribution.log_sigma f4 [1, 2]
00000000: a380 c4bf 5b89 b9bf
-1.5351757 -1.4495043

distribution.mu.weight f4 [2, 128]
00000000: 6e34 b6bd ece1 e9bc ba6c b8bd ab25 f4bc
00000010: b0bd a1bd b449 4bbd 9aef cf3d 9909 143d
00000020: e313 a83d ccf3 6f3c 86c4 92bd b483 803c
00000030: b478 08bd fc40 4d3d 4d8e 05b9 f699 033e
00000040: 4a13 e13c 37f9 55bc 6d06 413c 5090 1c3c
00000050: d0a3 2c3d 43c7 563d 0461 ab3c 1c43 e33d
00000060: 8705 373c 86a6 a23d 1a13 34bd c292 0dbc
00000070: 13a5 0f3d 2381 b53d bda5 723c 2f59 bdbd
00000080: c09b eebc cdb9 2d3d 734a a73d a5d1 9cbd
00000090: 991b 503d ce49 4c3d f604 bf3c 4e6e f83b
000000a0: 70de 5cbc cd9a 453e ed25 3b3d 33f9 aa3d
000000b0: 3a9c a93d 2e6e e33a 559a 86bd 1079 26ba
000000c0: a593 d93b c2b8 233d 3234 46be a957 e33c
000000d0: 9406 c3bd 5574 0c3c f9f3 763c 55f4 0dbc
000000e0: e4e1 a0bd 4e14 2abd 0b45 a2bd 5c46 40bc
000000f0: abfb acbd d2ed 0bbe d7e4 09be 8d09 273d
00000100: 939c b8bd deb7 a4bd b0e6 07bd 3325 55bc
00000110: 2a00 103c e182 d13c eff2 5c3d f16a 483d
00000120: b367 063e 88c8 c03c f950 263c d15b 07be
00000130: b250 4a3e 8dca d33c 9543 7e3d 5bda 33bc
00000140: 77e0 8c3d af73 99bc ac5b 283d eb8e c3bc
00000150: 1bce 4b3c 4b92 203e ea5d a8bc 7126 933c
00000160: 37d4 2c3e ccaa 833c dd45 f43c 1b9d b3ba
00000170: 5ff8 cabd 0884 ba3c d3db 903d 9006 203d
00000180: 5e9c 1dbd 1698 2f3e e427 8cbd 017d 2a3d
00000190: b759 81bc e659 4f3d 359d 2abd 2477 12be
000001a0: a794 68ba 3997 d73d 3007 34bd 00a3 433e
000001b0: 4766 1dbc 4f5d 833d 8c1c bd3a 0250 9c3d
000001c0: 01f9 1dbd 896c d53b 1c00 18bd 30f7 1d3c
000001d0: 4db8 89bd 4c70 a23c 8bb0 9a3c 8c2f 803d
000001e0: e84e 51bc 2aaa 663d 60c7 ac3b 7843 893d
000001f0: a07f 2fbd fe3a 7f3d 5d3f 97bc 8275 95bd
00000200: 2e8c acbc 6fe3 9f3d 444a 87bd 776a d9bd
00000210: 29d0 5cbd c32f bb3d af4f 22bd 0667 20bd
00000220: b4a3 eb3d d148 f6bc e6d6 94bd 73c5 7c3d
00000230: 98d2 e03d 244d 65bd 8acf 973d fe61 6c3e
00000240: 19d0 e1bc 6328 19bd 8666 133c b399 103d
00000250: c131 2dbd 5f96 2ebd 4e78 193e cb3b 18bc
00000260: 5960 2f3c b438 52bc 4b76 8bbd 0162 13be
00000270: e5da ed3c 03f1 8dbd 5aba fe3c 34a2 f5bb
00000280: 0ecb 20bd 842c 663d 0bec d7bd e1d2 423d
00000290: 8b2d 043d 1acd b83d 42e2 1fbd 2a91 22bc
000002a0: e404 e6bd 7f6c 603e e64b babb 92e7 373e
000002b0: 35ee 0b3d f092 de3d cdf3 6ebd 2265 463c
000002c0: f64b 73bc d35e 9cbc 3339 1a3c 2b4d d8bc
000002d0: c913 a7bd 8b62 b8bb 8b7c fcbb c3f0 9e3d
000002e0: 451f e0bd c475 d73d 777b 5ebd 84b0 2c3b
000002f0: 223d 193c bc95 f8bc 6281 a4bc c6ab b7bc
00000300: 3ea0 29bd ee6a 96bc b4ac e63c 1d54 fdbc
00000310: 094b 6d3c 1084 7fbd de61 ae3d 8629 113d
00000320: 138b 93bc 1d5c c83c 46e3 873d 765b 5abd
00000330: 06b3 5c3e 44dd 32bd bf5f 243d 3798 0bbd
00000340: 5347 413d 5dc0 89bd 98e4 cc3d ae6f 8c3b
00000350: 2cc5 7fbd ad05 083e 8b77 72bd 024a a63c
00000360: 0fd3 633e 7254 103e 46bf 44bd 8236 2c3c
00000370: 8e1f b0bd 2ce3 9a3c ab87 70bd 4276 033c
00000380: 460a a23d 772e 593e 0317 9bbc 08ed 08bb
00000390: ab1a 0ebd 7b9d 26bd d350 b23c dced 1fbd
000003a0: 5150 543d 8188 bbbd a88d 63be fbe6 b23d
000003b0: 3fea fcbc fe12 0ebc 45f2 fbbc fef7 ddbd
000003c0: 679f 33bd 9146 9bbd 2557 743d b2c8 66bd
000003d0: 5649 30bd 4efc 78bc 9350 07be 3f01 453d
000003e0: 2385 903d 2777 863d 49e8 033d 5f57 60bd
000003f0: 841e 633c e30d 873b bd9d 2a3d e59f c8bd
-0.08896719 -0.02855011 -0.09005113 -0.029803118 -0.07897508 -0.049630836 0.10153122 0.036141966
0.08206918 0.014645528 -0.0716639 0.015687801 -0.033318236 0.050110802 -0.0001273688 0.128517
0.027475018 -0.013059906 0.011781317 0.009555891 0.04214841 0.052436125 0.020920284 0.110967845
0.011170751 0.07941918 -0.04396353 -0.008640947 0.035069536 0.088625215 0.014810023 -0.09245526
-0.029127002 0.04241352 0.08168497 -0.07657174 0.05080757 0.049875073 0.023317795 0.0075815087
-0.013480768 0.19297333 0.045690466 0.08348312 0.08281751 0.0017351562 -0.06572405 -0.0006350437
0.006639915 0.03997112 -0.19355848 0.02775176 -0.09522739 0.008572658 0.015072816 -0.00866421
-0.07855585 -0.04152327 -0.07923325 -0.011735525 -0.08446439 -0.1366494 -0.13466202 0.040780593
-0.09014239 -0.080428824 -0.033178985 -0.013009357 0.008789102 0.025575103 0.053942617 0.048930112
0.13125496 0.02353312 0.010151141 -0.13218619 0.19757345 0.02585342 0.06207617 -0.010977353
0.06878751 -0.01873192 0.04110305 -0.02387186 0.012439276 0.15680806 -0.020552594 0.017962666
0.16877829 0.016072653 0.02981847 -0.0013703437 -0.09910654 0.022768036 0.07073178 0.03906876
-0.0384792 0.1714786 -0.06843546 0.04162312 -0.01578985 0.050622843 -0.04165383 -0.14303261
-0.00088722486 0.1052689 -0.043952167 0.19105148 -0.009606904 0.064142816 0.0014428063 0.07632448
-0.038567547 0.0065131825 -0.03710948 0.009641454 -0.06724606 0.019828938 0.01888301 0.06259069
-0.01277516 0.056314625 0.005272791 0.06702322 -0.042846322 0.06231212 -0.018462831 -0.072978035
-0.021062937 0.078070514 -0.06605962 -0.1061601 -0.053909454 0.09139969 -0.039626773 -0.03916075
0.11505833 -0.030064018 -0.07267551 0.06171174 0.109776676 -0.05598177 0.07412632 0.23084256
-0.027565049 -0.03739203 0.008996611 0.03530283 -0.042283777 -0.042623874 0.14987299 -0.0092915995
0.010704123 -0.012830902 -0.06809672 -0.14392854 0.029035041 -0.06930735 0.031094719 -0.0074961428
-0.039256148 0.056194797 -0.105430685 0.04756439 0.032269996 0.09023495 -0.039034136 -0.009922305
-0.112314016 0.21916388 -0.0056853173 0.17959431 0.03416272 0.1086787 -0.058337975 0.012109073
-0.0148496535 -0.019088184 0.009413051 -0.026403984 -0.081580706 -0.0056269816 -0.0077052764 0.077607654
-0.10943464 0.10520509 -0.054316964 0.0026350329 0.009352954 -0.030344836 -0.020081226 -0.022420775
-0.041412584 -0.018361535 0.028158523 -0.030923897 0.014483222 -0.062381804 0.085147604 0.03543999
-0.018010652 0.024457986 0.06635146 -0.05330988 0.21552667 -0.043668047 0.040130373 -0.03408071
0.04718716 -0.067261435 0.10004538 0.004285774 -0.062443897 0.13283415 -0.059196036 0.020298962
0.22248481 0.14094713 -0.048033975 0.010511043 -0.085997686 0.018907152 -0.058723133 0.0080238
0.07912116 0.21209131 -0.018931871 -0.0020893235 -0.0346934 -0.04067753 0.021767056 -0.0390452
0.05183441 -0.091568954 -0.22222006 0.08735462 -0.030873416 -0.00867152 -0.030755172 -0.108383164
-0.04385319 -0.07581819 0.05965342 -0.05634374 -0.04303869 -0.015196873 -0.1321433 0.04809689
0.07056644 0.06565695 0.032203946 -0.054770824 0.013862256 0.0041215285 0.041654337 -0.097961225

distribution.mu.bias f4 [2]
00000000: c532 81bc cdf2 493e
-0.01577128 0.19721527

critic.network_body.vector_processors.0.normalizer.running_mean f4 [52]
00000000: 0435 ae3c 5690 7a3f 5ef5 3235 f6f2 943e
00000010: 8a58 993c 2b39 7b3f cff4 b235 83d0 953e
00000020: 02c2 b43c 025c 7a3f 82f5 3235 aad6 943e
00000030: d7ce 8a3c caac 7b3f aaf4 b235 af2e 973e
00000040: 355f b83c 4041 7a3f e39c 6e34 e3a4 943e
00000050: 400a 903c 7a84 7b3f 0a9d 6e35 f9a5 983e
00000060: 973d ca3c f2b2 793f e3f4 3235 4e54 943e
00000070: 597b a13c 4afb 7a3f 969d ee34 db58 9a3e
00000080: 7cd8 d03c eb79 793f 129d ee34 9407 943e
00000090: 6704 ca3c bdb1 793f 929d ee34 96fd 9b3e
000000a0: 5730 ec3c 349d 783f 969d ee34 9c84 933e
000000b0: a7a1 1c3d fd33 763f 909d ee34 d645 9c3e
000000c0: c8f2 0c3d a12d 773f e39c 6e34 ae8d 933e
0.021265514 0.9787649 6.6667224e-07 0.29091614 0.018718977 0.98134106 1.3333282e-06 0.29260644
0.022065166 0.9779664 6.666743e-07 0.29070026 0.016944332 0.9831053 1.333324e-06 0.29527804
0.022506336 0.97755814 2.2222552e-07 0.2903205 0.017583013 0.9824902 8.889043e-07 0.29814127
0.024687571 0.97538674 6.6666524e-07 0.2897057 0.019712137 0.98039687 4.4445613e-07 0.30145916
0.025493853 0.9745166 4.4445238e-07 0.28912032 0.024660302 0.9753683 4.4445602e-07 0.30466908
0.028831644 0.9711487 4.4445613e-07 0.2881211 0.0382401 0.9617308 4.4445596e-07 0.3052203
0.03441122 0.96554 2.2222552e-07 0.2881903

critic.network_body.vector_processors.0.normalizer.running_variance f4 [52]
00000000: 4bf0 b647 3af8 b647 edff 7f40 ad82 3148
00000010: 7a6b a147 0871 a147 a6ff df40 cc30 3448
00000020: 0baa bd47 e7c2 bd47 97ff 7f40 208f 3148
00000030: 9760 9247 3566 9247 e5fe df40 20a7 3848
00000040: 6d5c c147 0c6e c147 feff ff3f 125f 3048
00000050: 43cc 9747 00d3 9747 d7ff 9f40 78b6 3d48
00000060: 68a1 d347 f6b6 d347 e7ff 7f40 8cec 2d48
00000070: f0d7 a947 ebdf a947 5dff 3f40 4f7c 4448
00000080: 225b da47 f16f da47 fcff 3f40 fb5b 2b48
00000090: d668 d347 f074 d347 d5ff 3f40 b572 4c48
000000a0: 6218 f647 3a2f f647 5eff 3f40 a563 2948
000000b0: 729e 2148 54a1 2148 e2ff 3f40 f970 4f48
000000c0: ff03 1248 bb0d 1248 feff ff3f aac7 2a48
93664.586 93680.45 3.9999955 181770.7 82646.95 82658.06 6.999957 184515.19
97108.086 97157.805 3.999975 181820.5 74945.18 74956.414 6.999865 189084.5
99000.85 99036.09 1.9999998 180604.28 77720.52 77734.0 4.9999804 194265.88
108354.81 108397.92 3.999994 178098.19 86959.875 86975.836 2.9999611 201201.23
111798.266 111839.88 2.999999 175471.92 108241.67 108265.875 2.9999897 209354.83
126000.766 126046.45 2.9999614 173454.58 165497.78 165509.31 2.9999928 212419.89
149519.98 149558.92 1.9999998 174878.66

critic.network_body.linear_encoder.seq_layers.0.weight f4 [128, 52]
00000000: a408 233e 9d77 2fbe 641e f7bd 03f1 bbbe
00000010: 8154 60bd eae7 543c 02d7 7fbe 1581 093d
00000020: 9ff5 a4bc 905f 59be d891 d8bd 86d4 b8bd
00000030: 8887 30bd e45e c0bd 528b bb3d 51ce 3fbe
00000040: 4bbc b5bc 5992 ff3d bf11 0e3e 4a0a 43bd
00000050: 7689 b53e c5ab b83c 8888 36be ddef 223e
00000060: c3c7 8a3c 14b7 16be 357d 88be a4a8 02be
00000070: e3aa b73d fd93 6dbd 6290 47be c0b9 b43c
00000080: f3ff 8f3d 66a1 35be 364a b13d efe5 8ebe
00000090: aec8 1c3d 9497 143d e251 23be 9bc6 0f3d
000000a0: ac41 c9bc 2aab 17bd 26a9 77be 849c 963b
000000b0: a27c ce3c 4ba5 d1bd 1b53 9cbd 1217 f6bb
000000c0: 9e0e bb3e b725 20be 49a1 97bd 6cee 6fbe
000000d0: e5e4 5c3e 4631 ad3e da9f bdbe c41b 563e
000000e0: fdfe b5bd b10f 26be 8206 6ebe 82e9 91bd
000000f0: 4a5d d5bd 0388 d83c 442b 9cbe 1d63 5a3e
00000100: 8bca b6bd dc1a 0dbe 3a2b 67be b5f1 d23d
00000110: 161a 943c 4e34 60bc ce0e 3cbe 90b8 933d
00000120: f4d5 f63d 3f3b a43d 2b25 efbd da63 90bd
00000130: 6aaf 9bbd 0019 613e 5462 45bb 1439 4b3e
00000140: 6981 a13d a46f 0b3e d868 25bc 5aca fd3b
00000150: bf6a 9abb 0ba9 3d3e b232 8c3e e11d 113e
00000160: 1494 503d 4d02 963c a9b8 56be dd50 8ebb
00000170: 2717 19be cf3d 1e3e b21c 9ebe 2cda 41be
00000180: 110c 953d 180f 89be 8949 03be cfc6 1ebe
00000190: a69a 153e 61c0 133e bc41 ae3d 0f19 8b3e
000001a0: 236e e13d a385 e3bd 1723 25bd 1530 9c3d
000001b0: 2d55 11be d299 84be c197 29be e8a9 b23e
000001c0: 6676 f1bc 86da 09bd af82 c6be bb36 e03c
000001d0: 520e f43d 2666 83bc 7bba d8bc 4522 483e
000001e0: 5e3a 733e ec8d 08be 875f 293c cfed aabe
000001f0: 70bf e1bb 8da0 9a3d f056 b43d 9828 2cbe
00000200: fed1 863d f08e 90bd ee6e 0bbe 9f69 ebbd
00000210: 921c 0a3e 63f4 153e 37fe 0bbe 3cc0 ebbc
00000220: fd4d b73d a033 79bd 6818 aa3e 59eb 473e
00000230: 7aa9 483e a321 00be b439 bcbd 626d 1abe
00000240: 71eb 913d 5dfe cdbc c3c1 fd3d b06b 3a3e
00000250: 5127 703d d72d a4bd 0cb8 d3bd 5d93 dfbb
00000260: 1e92 afbd f328 ecbc 9b7c 00be 24e3 cb3e
00000270: 1ce5 03be 7fbf 853e dbba 033e bd31 28be
00000280: b54d d5bd 3cf9 163e 363c a13e d86f c3be
00000290: 9242 0f3e 72ef 39be 434b 003e fe7c 34bd
000002a0: 6ecd 0abe e7d0 92bc f902 80bc 2465 33be
000002b0: 13e8 803a 2122 c1bd 73ca 2cbe 2c84 503e
000002c0: 6244 6e3d 41c4 fcbd 51a7 853e f77c b1bc
000002d0: 881a 5bbd b94c 853d ad7e ad3d 60d8 4fbe
000002e0: 6520 13bd bcbc 14be 1ca8 ecbc e2a8 313c
000002f0: 64df 02be 91b8 9cbd 0333 7e3e 8001 923e
00000300: 5bbb 1b3c 32fc 90be 242f 723e fec9 863e
00000310: 09af 26bd 0282 573e fa8a 753e 6c6c e4bd
00000320: c81b 0abe 695f 1ebe 7c5d 1e3e c7d9 dfbd
00000330: 9e72 eebd 7fe6 0d3e 1025 6d3d f6e8 9b3d
00000340: f02e 43bd a3e6 a7bd c4ff 6abe 4b89 09be
00000350: dfae 5dbc 81c3 75bc 64f0 b43e 3a88 013c
00000360: 68c8 7cbe 460d 2c3e 1714 3e3e eec5 3dbe
00000370: e454 8a3c ad25 c0bd 652d e63d 533f 2abe
00000380: 359c 33be 6fda 73be 708f cf3d 8881 d6bd
00000390: 9b81 aa3d 8c45 29be 8f64 a7bc deb0 993d
000003a0: bd24 dd3c 8d70 cfbd c472 b43e 8999 f9bc
000003b0: 325d ba3d 2549 23be 2b5a c7bd 15e4 083e
000003c0: 6d03 9a3c 7424 f83d 2cea 0f3e adfa 643e
000003d0: 9859 89bd 7920 2c3d b502 3f3e 8136 8c3d
000003e0: a4ec 66bd c2cb 953e f57a 953c b7e4 dd3d
000003f0: 0e76 3b3c 3304 643e e143 35be 1a49 5fbc
0.15921265 -0.17135473 -0.120663434 -0.36707315 -0.05476809 0.012994746 -0.24984363 0.033570368
-0.020136653 -0.2122786 -0.105746925 -0.09024911 -0.043098003 -0.09393099 0.091574326 -0.18731047
-0.022184512 0.124790855 0.13873957 -0.047617234 0.35456437 0.022542844 -0.1782552 0.15911813
0.016940957 -0.14718276 -0.26658025 -0.12759644 0.08968141 -0.05800246 -0.19488671 0.022061229
0.0703124 -0.1773735 0.08656733 -0.279098 0.03827732 0.03627737 -0.15949205 0.035101514
-0.024567448 -0.03702847 -0.24185619 0.004596295 0.025205914 -0.10236605 -0.076330386 -0.0075100744
0.3653459 -0.15639387 -0.074038096 -0.23430794 0.21571691 0.33826655 -0.3703602 0.20909029
-0.08886526 -0.16216923 -0.2324467 -0.07124616 -0.10418184 0.026432043 -0.3050176 0.21326871
-0.08925351 -0.13779777 -0.22575083 0.10300008 0.018078845 -0.013684345 -0.18365023 0.07212937
0.12052527 0.08019113 -0.11677011 -0.07050295 -0.07601817 0.21982193 -0.0030118423 0.19845992
0.07886011 0.13616806 -0.0100957975 0.0077450695 -0.004712432 0.18521516 0.27382427 0.14171554
0.05092247 0.018311644 -0.2096888 -0.0043431357 -0.14950238 0.15453266 -0.30881268 -0.18930882
0.07277692 -0.26769328 -0.1282102 -0.15505527 0.14609775 0.14428855 0.085086316 0.27167556
0.11007335 -0.111094736 -0.040316667 0.076263584 -0.14192648 -0.25898606 -0.16561796 0.34895253
-0.029475402 -0.033655666 -0.3877158 0.027369848 0.11916794 -0.01603992 -0.026456108 0.19544323
0.23752734 -0.13335389 0.010337717 -0.3338456 -0.006889276 0.07550154 0.088056445 -0.1681236
0.065830216 -0.07058513 -0.13616535 -0.11494755 0.13487461 0.14644007 -0.13671194 -0.028778188
0.08950422 -0.06084025 0.33221745 0.19523372 0.195959 -0.12512831 -0.091906935 -0.15080789
0.07124985 -0.025145704 0.12390473 0.18205142 0.058631245 -0.08016556 -0.103378385 -0.006822987
-0.085727915 -0.02882812 -0.12547533 0.39821732 -0.12880367 0.26122662 0.12864248 -0.16425224
-0.10415212 0.14743513 0.3149125 -0.38171268 0.13990238 -0.18157747 0.1252871 -0.044064514
-0.13554928 -0.017921878 -0.015626417 -0.17519051 0.0009834789 -0.09430338 -0.16874103 0.2036292
0.058170684 -0.1234212 0.26104215 -0.021666033 -0.0534921 0.06508774 0.08471427 -0.20297384
-0.035919566 -0.14525121 -0.028888755 0.010843487 -0.1278053 -0.07652391 0.24824147 0.2851677
0.009505118 -0.2831741 0.23650795 0.26325983 -0.04069427 0.21045688 0.23978797 -0.11153492
-0.1348716 -0.15466084 0.15465349 -0.109302096 -0.11642955 0.13857459 0.057896674 0.07612793
-0.047652185 -0.08198287 -0.2294913 -0.1343128 -0.013530462 -0.015000225 0.35339653 0.007906014
-0.24685824 0.16801938 0.18562351 -0.18532535 0.016886182 -0.09382186 0.11239127 -0.16625719
-0.17540057 -0.23813795 0.101347804 -0.10473925 0.083255015 -0.16530436 -0.020433692 0.07504438
0.026995057 -0.10128889 0.3524381 -0.03046872 0.09099807 -0.15945871 -0.09733995 0.13368256
0.018800462 0.12116328 0.14054173 0.2236125 -0.06706542 0.042023156 0.18653376 0.06846333
-0.05637802 0.29257017 0.018247107 0.108346395 0.011441721 0.22267227 -0.17701675 -0.013628269

critic.network_body.linear_encoder.seq_layers.0.bias f4 [128]
00000000: 6c9b 883d fcb8 2a3e 83a3 793e c9d3 14be
00000010: e463 17be 36bc e3bd a526 34be 98fc 49be
00000020: a125 c8bc 1657 aabd d126 fd3b 33c7 0abe
00000030: 5d46 d43d 4705 7bbe 0240 e6bd 2013 09bc
00000040: fd7e cf3d 260e 433e 9301 bebc 3443 e03e
00000050: e445 69bd 980c 493d cb85 823d 537f 9fbe
00000060: a984 09be 2447 08bc ed60 4cbe 3bb2 a7bd
00000070: 7e65 793d 0225 a53d b24d 06bd 6822 cfbd
00000080: 4333 123d 71f0 02bb fd7d 263c 927c 47be
00000090: 4934 0bbe 1240 c83d d25e 6ebe d35c bdba
000000a0: 44e4 6f3d 108f 133d 8600 adbd 001b b03d
000000b0: 14dc eabd bf30 37be 43ac 6f3e 255e c8bd
000000c0: c251 813d 991d a7bd f87b b5be bbf7 8ebe
000000d0: a5e2 d73d b8dc 88bd 4760 253e 7fb4 8dbd
000000e0: c8d3 a3bd 0a8b 253d 063c f9bd 7ddc 45be
000000f0: 6e53 9a3d a327 b9bd 7eab 30be 02f6 45be
00000100: 9241 3abd c9d6 9b3d b374 a23e c115 31be
00000110: 3184 f9bd db42 1b3e 2c99 073e e46b 77bd
00000120: c8c6 aebd 6c5b 3fbe 3a25 a5bd 85ab 073e
00000130: 40af a2bc 8d32 3c3e c7a2 c23c 61a1 143e
00000140: 95b3 91be 750b 443e 1801 c1bc c14f 0cb9
00000150: 4847 f53d 68c6 83be 5bcd 9cbe 590e adbc
00000160: 9334 fb3b 6a2f 313e dc46 8ebd 59c5 56bc
00000170: 9ea2 dfbd 1001 46bd 7c95 7b3d 991e 23be
00000180: e50b 11bd e662 78bc 8dd4 15bd dc6c 32be
00000190: 4f97 26bd 7d8c 17be 6c15 8cbe 1d5d b33b
000001a0: bb9b 52be d04c 8cbd b68e 083d 1a24 0bbe
000001b0: dbdf 77be 1665 853c 01b3 55be 7ec8 a33e
000001c0: d077 b93d c304 45be f870 6f3d c0a8 4c3e
000001d0: 374c c33a 8caa 33bd f45c 12be 9ec2 0d3e
000001e0: 717f 6fbe 5996 a7be f975 a83d 0fc6 d33d
000001f0: 81d5 043e 8477 fa3d ac6b 75be 8615 a63d
0.06670269 0.16672128 0.24378781 -0.14533915 -0.14784199 -0.11119883 -0.17592867 -0.19725263
-0.024432005 -0.083173916 0.0077255745 -0.13552551 0.10364983 -0.24513732 -0.11242677 -0.008366376
0.10131643 0.19048366 -0.02319411 0.43801272 -0.05695142 0.049084276 0.06373175 -0.31151828
-0.13429512 -0.0083177425 -0.19958849 -0.08188292 0.060887806 0.08063699 -0.03278894 -0.10113984
0.03569342 -0.001997974 0.010161874 -0.19481114 -0.13594164 0.097778454 -0.23278359 -0.001444722
0.0585673 0.036025107 -0.084473655 0.085989 -0.11467758 -0.17889689 0.23405556 -0.09783582
0.06314422 -0.08159942 -0.35446143 -0.27923378 0.10541276 -0.06682724 0.16150008 -0.069191925
-0.079993784 0.0404158 -0.12169652 -0.19322391 0.07535444 -0.09040763 -0.17252919 -0.19332126
-0.04547269 0.076093264 0.3172966 -0.17293455 -0.12183417 0.15162222 0.13242024 -0.060405627
-0.08534008 -0.18687218 -0.08063741 0.13249023 -0.019858956 0.18378659 0.023759259 0.14514686
-0.28457323 0.19144996 -0.023560092 -0.00013381151 0.119764864 -0.2573731 -0.30625424 -0.021125006
0.0076661794 0.17303243 -0.06947109 -0.013108575 -0.10919689 -0.048340857 0.061421856 -0.15929641
-0.035411734 -0.015160298 -0.036579657 -0.17424339 -0.040671643 -0.14799686 -0.27360094 0.0054737465
-0.20567219 -0.06850588 0.033339225 -0.1358799 -0.24206488 0.016283553 -0.20869066 0.319889
0.090560555 -0.19240098 0.058457345 0.19986248 0.0014900033 -0.043863818 -0.14293271 0.13843772
-0.23388459 -0.32731894 0.082256265 0.10340511 0.1297207 0.12229827 -0.23966855 0.08109574

critic.network_body.linear_encoder.seq_layers.2.weight f4 [128, 128]
00000000: 551e d5bc 22b3 8e3d 07e7 ecbd 8f36 343d
00000010: be83 72be 0af1 88bb 824e f53d f399 193d
00000020: d4e2 4abe b3c9 723d f6fc 44bd 7fd1 a7bd
00000030: 0830 a53b 4159 9b3d 1ba0 b43d f99f 1b3e
00000040: 048a 1bbe eabd 8abd 6c18 59bc e845 ebbc
00000050: f84f 143d 16b2 d0ba ad4c e93a d5f5 893d
00000060: 5fc4 6abd 5059 00be d48c c73d 643e 953d
00000070: ecc2 873d 3df9 d03c 5846 383d 2303 8abd
00000080: 4314 1bbe 18a7 a7bd 833a 60bd 7704 603e
00000090: a2cd a33d 0545 28bd 1917 4abe b599 4dbe
000000a0: 6f03 cdbd 40ee 53be 97d7 2cbd acee 503d
000000b0: 2039 643d 57ef 55bd 4265 24bd f823 f53d
000000c0: 3a25 8bbd bbba 15bc 70b4 dfbb 334f af3d
000000d0: f365 bf3c 970e 96bd 16d6 02bd faf1 b2bd
000000e0: 8d0b 7abd df5f 7fbd d3ca 863c fcf6 0c3d
000000f0: ac6a 8d3d 1285 d73d 0719 8dbd 9564 7b3c
00000100: 05f3 283b 47aa aa3d ee4f fc3c 4c0d 8cbd
00000110: dcd8 9d3d 4885 983d 6ca5 893e bc75 d63d
00000120: 3be1 a7bd 9e39 223d 46fc 0abc 4d7f 7c3c
00000130: 76b9 56be e060 b7bd c978 3cbe 0439 0d3e
00000140: 7c9a 723d 4196 12bc 68ea 4f3d e87a 813c
00000150: 18a4 d33c 851a 1d3e 282e bdbd 3721 d73d
00000160: 2d1b 183d 101b bebd 0365 bdbd f1b9 4c3d
00000170: be4a afbd 3023 21bc d253 17be b550 c7bd
00000180: beae d83d bc1d e93d 6093 b93c f5fe babd
00000190: a4e9 cabd 3f0f c6bd db8f 9f3d 921e 18be
000001a0: 323e c23d 6bd2 1fbe 55a2 d53b 9df8 98bd
000001b0: c657 cb3d bdd2 10bd 11c7 40be 9b79 7fbd
000001c0: f5f7 553d 991d 353e e604 273d 8638 67bc
000001d0: 164d e43c 45d8 893d d1d4 523d 6ecc 4cbc
000001e0: 711c dc3b f032 163d 60c2 e33d edfc 18be
000001f0: a4b2 2c3c d2cb 7abc d13a acbc d1c6 64be
00000200: 6f6a 313d f7ef ef3d 30d1 f63c 3393 06be
00000210: b5f4 af3c e4ab d1bd 1639 f33c af98 80bc
00000220: 23b3 a1bd f033 41bd 83ab 523d e616 dd3d
00000230: 0b05 323e cbf4 20be 0e29 fd3d e135 9bbd
00000240: a115 ce3d 9164 133e 1cba 3abd f8ea eb3d
00000250: f067 e4bd 1c73 d93d add6 bc3d 4dd1 0dbd
00000260: e4f4 8ebb cc0f 48bc 96ab f3bc d5ab c63c
00000270: 2622 d03d 7fbb 443e 5053 4dbd 3aad 383c
00000280: 68a0 9b3d fb0d 02be 82ad 603e a561 60bc
00000290: 8875 413d f4ae cf3d 8858 72b5 f5c4 08bd
000002a0: 8090 0bbc 1738 9f3c 2f76 e33d 71f7 6d3d
000002b0: 1b5b 593e 130e 39be 5863 2f3b daab 4c3c
000002c0: 81c3 2e3d bc1c 073e c424 903d 72f0 ba3d
000002d0: 1ad5 e23c 8914 343d 805b c13d b882 06bd
000002e0: 7ac9 23bd 9e20 4fbb 46d2 debc 7a57 ec3d
000002f0: 1138 0cbe 2aa7 59be 653f 4e3c caa7 e23c
00000300: 5998 173e f9bc 9f3c af88 3f3e a775 a83d
00000310: 2456 15be fe7c a4bc ad16 b23d 1fc4 3dbd
00000320: f4dc fabd 42a8 2fbd f809 36bc 229a 8a3d
00000330: d811 7d3c e681 83bd 3fea 1dbe 11da 393d
00000340: a5fb 143d 566a ffbb 20b5 ba3c b936 303d
00000350: b3e7 893d 232d 0cbd 8112 b73d 7165 c4bc
00000360: 3329 33bc 37a5 cf3b 11d6 8bbe 26f1 d33d
00000370: 0b08 013d 484c d23c 9edd 62bc 4d02 8cbd
00000380: 9eff 13bc 5e04 e93a 0f55 413d a53f 65bd
00000390: 2493 e0bd 5d23 653e 8590 b63c 5350 e1bd
000003a0: 08f9 6c3d 94bb 43be 7718 493d 3a99 673d
000003b0: 76af 133d e8ec f93c e2dc 4a3d 7b4b 3d3d
000003c0: 820f ed3d c2b8 07be b4cb 2c3d aa4e 84bd
000003d0: f07c 1b3e a004 ef3d 2593 88bd a373 0c3d
000003e0: 6f91 0f3d 012e e23d f6b1 5dbd 4def 063e
000003f0: 4eb2 0d3c 895e 163e 045f 31be 5dad 9e3d
-0.02601544 0.069677606 -0.115675025 0.043997344 -0.23683068 -0.0041791247 0.11977865 0.037500333
-0.1981309 0.059274387 -0.048092805 -0.08194255 0.005041126 0.07585383 0.088196 0.15197743
-0.15189368 -0.067745045 -0.013250452 -0.028719857 0.036209077 -0.0015922214 0.001779934 0.06736342
-0.05731618 -0.1253407 0.09743658 0.07287291 0.06628975 0.025509471 0.04498896 -0.067388795
-0.15144448 -0.081861675 -0.0547433 0.21876703 0.07998206 -0.041081447 -0.19735374 -0.20078166
-0.100104205 -0.20696354 -0.04219779 0.051008865 0.05571854 -0.052230205 -0.04013563 0.11969751
-0.0679421 -0.009138758 -0.0068269297 0.08560028 0.023364043 -0.073270015 -0.03194245 -0.087375596
-0.061046172 -0.06234729 0.016454136 0.03441523 0.06905112 0.10523428 -0.06889539 0.015343805
0.0025779617 0.08333259 0.030799832 -0.06838474 0.07707378 0.074472964 0.2688402 0.10471675
-0.08197256 0.03960573 -0.008482998 0.01541121 -0.20969185 -0.08954024 -0.18405451 0.13791281
0.05922936 -0.008946956 0.050760657 0.015805677 0.025835082 0.15342148 -0.09237319 0.10504382
0.03713529 -0.092825055 -0.09247782 0.049982015 -0.08559178 -0.0098350495 -0.14778069 -0.097321905
0.105802044 0.113826245 0.022653282 -0.091306604 -0.09907845 -0.09670877 0.0779111 -0.14855412
0.09484519 -0.15607612 0.0065195956 -0.07469294 0.09928851 -0.035357226 -0.18825938 -0.06237183
0.052238423 0.17687072 0.040776156 -0.014112597 0.027868789 0.06730703 0.05147249 -0.012499912
0.0067172577 0.03666967 0.111210585 -0.14940234 0.010540638 -0.015307384 -0.02102414 -0.22341467
0.043314394 0.117156915 0.030129045 -0.1314209 0.02147899 -0.10237864 0.029690307 -0.015697805
-0.07895496 -0.047168672 0.051433098 0.10795383 0.17384736 -0.15718381 0.12361346 -0.07578636
0.10062719 0.14393832 -0.045587644 0.11519426 -0.11152637 0.106176585 0.09220634 -0.034623433
-0.0043626893 -0.0122107975 -0.029744904 0.024251858 0.10162763 0.19212149 -0.05012828 0.011271769
0.075989544 -0.12700646 0.21941188 -0.013695155 0.047231227 0.101407915 -9.0280855e-07 -0.033390958
-0.008518338 0.019435925 0.11106526 0.058097307 0.2122616 -0.18071775 0.0026762094 0.0124921445
0.042666916 0.13194555 0.070382625 0.091278926 0.027689505 0.043964896 0.0944128 -0.032839507
-0.039987065 -0.0031605135 -0.027199876 0.11540122 -0.13693263 -0.21255174 0.012588357 0.027667899
0.1480421 0.019499289 0.18704484 0.082255654 -0.14583641 -0.020079132 0.08695731 -0.046329614
-0.12249175 -0.042885073 -0.011110775 0.0676768 0.015446149 -0.064212605 -0.15421389 0.04537398
0.0363728 -0.0077946587 0.022791445 0.043020938 0.06733646 -0.034222733 0.08939076 -0.023974152
-0.010935116 0.006336834 -0.27311757 0.1034873 0.03150181 0.02567114 -0.013846783 -0.06836376
-0.009033112 0.0017777791 0.04720026 -0.0559689 -0.10965565 0.22376771 0.02228571 -0.11001649
0.057854682 -0.19114524 0.049095597 0.056542613 0.036056004 0.030508474 0.049527057 0.046214562
0.115752235 -0.13254073 0.042186454 -0.064603165 0.15184379 0.11670804 -0.066686906 0.034289967
0.035050806 0.11043931 -0.054124795 0.13177224 0.008648468 0.146845 -0.17321402 0.0774791

critic.network_body.linear_encoder.seq_layers.2.bias f4 [128]
00000000: 6685 c53c 9f4f 823d 3519 52bd 8bb3 05be
00000010: 1029 a63c 35f2 9dbc 0722 063d 9601 80bd
00000020: ec64 92ba e1cd 1abd c8c6 2fbe def5 f1bd
00000030: ffcb 80bd c7c5 f9bd c962 22be 4073 50bb
00000040: f660 b5ba d8e4 f4bd dea8 13be 5ef9 07be
00000050: a774 7bbd e75a adbc 1e21 d0bd 0a19 473d
00000060: 529a 1abe 9d26 16be 7a28 13be c49e 253c
00000070: 239e 0ebe 2423 12be 1a7d 77bd 1908 30be
00000080: 2531 f9bc 6884 1fbe 9d42 ad3c 066f 06bd
00000090: f496 003c 6536 803d 4416 3ebe 9d8c d7bd
000000a0: 4bb4 5fbd b939 2ebe 264e 1fbd 18e4 fd3c
000000b0: d096 8e3c 35b2 2dbe df4c eabc bd8f 89bd
000000c0: d41d 09be 400e 3dbe 66ea 0cbe f318 18be
000000d0: c0b8 dd3c df95 96bc 0795 12be 2987 37bd
000000e0: 0dcc b2bd 78cd 1cbe a0bd 35be a6eb e5bd
000000f0: e4a9 0e3d 7fed 883d 9b43 d3bd a971 1bbe
00000100: c0b7 21bd a69c c3bc 5be8 12be af82 12be
00000110: 5495 38be d8c8 56bd cd6a 87bd 507a 0bbe
00000120: 15ea 1a3d 914f e4bc c3ab 1abd c337 1cbe
00000130: 240f 00be ec48 34be 62fb c4bd 9d7b 393d
00000140: 83dc 89bd 2a56 203d c584 cdbd 16dd 20be
00000150: c5e9 13be ed5e 02bd a182 a8bd 13e4 b1bb
00000160: 44d3 35be f61f 1cbe b097 d03c abbe 8f3d
00000170: 079a 2bbe 2368 1abd 7d1f 1fbe e761 22be
00000180: 1bb5 20bd f534 14be e53a 1db9 5a55 0fbc
00000190: 340b 0c3b eb09 83bd 4d5a 94bc 82b4 35ba
000001a0: 4b24 97bc 16f5 98bc c50a 95bc 4024 eabc
000001b0: 3fcc 123d 2285 e73c 9a61 5d3d e79a b8bd
000001c0: c403 18be f0b5 fd3c c5e9 38bd 6e22 7bbd
000001d0: 236c 8d3d 89f9 98bd 6007 86bd 4feb 0fbe
000001e0: 0c51 12be 1fe1 31be c37b 753d b121 983d
000001f0: 0b4d 2dbc 571f 063d e541 0fbe 175f 25be
0.02411146 0.06362843 -0.05129357 -0.13056771 0.020283252 -0.019280532 0.032747295 -0.062503025
-0.0011168993 -0.037793998 -0.17165673 -0.118144736 -0.06288909 -0.12195926 -0.15857996 -0.0031806976
-0.0013838101 -0.11957711 -0.14419886 -0.1327872 -0.061390545 -0.02116151 -0.101625666 0.048607863
-0.15097931 -0.14663167 -0.1437091 0.010108653 -0.13927512 -0.14271218 -0.06042204 -0.17190589
-0.030418942 -0.15577853 0.021149928 -0.032820724 0.00784849 0.06260375 -0.18563181 -0.10524867
-0.0546153 -0.17014207 -0.038892888 0.030992553 0.017405897 -0.16962512 -0.028601108 -0.06716869
-0.13390285 -0.18462467 -0.13761291 -0.14853267 0.027065635 -0.018382011 -0.14314662 -0.044806633
-0.08730326 -0.15312755 -0.17748117 -0.11226587 0.03482999 0.06685924 -0.10315629 -0.15180077
-0.03948188 -0.023878407 -0.14346449 -0.14307664 -0.18025714 -0.052437633 -0.066121675 -0.13620877
0.037820894 -0.027869971 -0.03776146 -0.15255646 -0.12505776 -0.17605942 -0.0961826 0.045283902
-0.067315124 0.039144672 -0.100350894 -0.15709338 -0.14444645 -0.03182881 -0.082280405 -0.0054288
-0.17756373 -0.15246567 0.025462955 0.07018789 -0.16757976 -0.03769697 -0.15539356 -0.1585766
-0.039235216 -0.14473327 -0.00014994627 -0.008748377 0.0021368982 -0.06398376 -0.018109465 -0.00069315
-0.018449923 -0.018671554 -0.018193612 -0.028581738 0.035839316 0.028261725 0.05404816 -0.0901392
-0.14845186 0.030970544 -0.045144815 -0.06131213 0.06905391 -0.0746947 -0.065443754 -0.14054607
-0.1428873 -0.17371033 0.05993248 0.07428301 -0.0105774505 0.03274473 -0.1398998 -0.16149555
