results/fifth/Car/Car-4999986.onnx (onnx, 96598 bytes, 9 tensors)

53 f4 [52]
0.14979121 0.1498024 0.0008944278 0.20092352 0.13949358 0.13950181 0.0011832139 0.20231985
0.15384433 0.15388134 0.0009999987 0.20116746 0.13329889 0.1333079 0.0011832061 0.20426138
0.15747581 0.15750138 0.00063245633 0.20089538 0.13638972 0.13640176 0.0010954445 0.2066591
0.16789907 0.16792798 0.00089442765 0.19958572 0.14493667 0.14495072 0.0007745926 0.21069293
0.17173497 0.17176093 0.0007745976 0.19822367 0.16463725 0.16465469 0.00077459635 0.21560219
0.1806149 0.1806419 0.0007745927 0.19694857 0.20606673 0.20607257 0.00077459676 0.21777718
0.19519858 0.1952186 0.00063245633 0.19730522
00000000: de62 193e cd65 193e 0978 6a3a e5be 4d3e
00000010: 68d7 0e3e 90d9 0e3e 1216 9b3a ef2c 4f3e
00000020: 5e89 1d3e 1293 1d3e 6312 833a d8fe 4d3e
00000030: 817f 083e de81 083e cf15 9b3a e529 513e
00000040: 5741 213e 0b48 213e 6dcb 253a 85b7 4d3e
00000050: bfa9 0b3e e7ac 0b3e 0595 8f3a 719e 533e
00000060: bced 2b3e 50f5 2b3e 0678 6a3a 3360 4c3e
00000070: 476a 143e f66d 143e 080e 4b3a e3bf 573e
00000080: 4bdb 2f3e 19e2 2f3e 5d0e 4b3a 25fb 4a3e
00000090: ab96 283e 3d9b 283e 480e 4b3a d2c6 5c3e
000000a0: 1df3 383e 31fa 383e 090e 4b3a e3ac 493e
000000b0: 2803 533e b004 533e 4f0e 4b3a fb00 5f3e
000000c0: 23e2 473e 62e7 473e 6dcb 253a 610a 4a3e

54 f4 [1, 2]
-1.611385 -1.4883696
00000000: dd41 cebf e582 bebf

distribution.mu.bias f4 [2]
-0.014428094 0.19988115
00000000: d063 6cbc a5ad 4c3e

distribution.mu.weight f4 [2, 128]
-0.095951736 -0.016572984 -0.08032864 -0.021278158 -0.08064472 -0.05100701 0.10202359 0.031955328
0.09500001 0.025433524 -0.05807919 0.020089218 -0.029638268 0.05212793 0.0029025397 0.14400807
0.037036143 -0.0028415192 0.020808456 0.016235555 0.044011205 0.057051025 0.028195607 0.11057394
0.02072446 0.09186092 -0.056577202 -0.023039406 0.040463276 0.07845737 0.030455112 -0.088468276
-0.038005874 0.062478047 0.08142659 -0.07756359 0.050519127 0.059723992 0.031507075 0.01241068
-0.01720306 0.22268012 0.04734263 0.09262144 0.1010818 0.0033013904 -0.057211336 0.004198092
0.008698985 0.041914616 -0.19792865 0.010181051 -0.089410886 0.019499756 0.024478834 -0.005431019
-0.091072425 -0.038420692 -0.0718914 0.005938023 -0.07799401 -0.14299999 -0.14067025 0.036625013
-0.09450608 -0.08107 -0.01185605 -0.00986762 0.022795562 0.025137471 0.05905717 0.050659098
0.1339427 0.032179244 0.020265866 -0.14204618 0.21164665 0.027356874 0.06640868 -0.0081432555
0.061213907 -0.012587552 0.045033656 -0.008189211 0.012858286 0.16149712 -0.019411165 0.01402147
0.20720874 0.021083536 0.02810981 -0.014676041 -0.09976286 0.021113107 0.070094936 0.044318058
-0.014976034 0.18701053 -0.07768465 0.043352507 -0.017282419 0.053068932 -0.039572395 -0.1441746
-0.0029138948 0.107183814 -0.040825546 0.19483104 -0.0006178346 0.07398702 1.4043718e-07 0.07634714
-0.03687726 0.0064262403 -0.007863046 0.0051442855 -0.06264568 0.034657385 0.025561692 0.07449255
-0.012184342 0.054245234 0.0045023714 0.07066026 -0.036908165 0.06653824 -0.014827856 -0.07255993
-0.011892923 0.06913373 -0.08146616 -0.108888075 -0.060877014 0.090468064 -0.03482069 -0.02955557
0.1102061 -0.021979893 -0.052309487 0.057096537 0.10391748 -0.050807822 0.07367475 0.23005007
-0.03850706 -0.027687777 -0.0023303898 0.029229864 -0.04801174 -0.04530552 0.116115086 -0.011342363
0.006190386 -0.023213975 -0.07759988 -0.15144274 0.022898963 -0.06235304 0.025512889 -0.012747973
-0.05439932 0.037225287 -0.101562254 0.054842286 0.048928395 0.07726653 -0.03525879 -0.024086397
-0.112240404 0.21830137 -0.01188224 0.18350229 0.029197419 0.10310296 -0.07227364 -0.0006298375
-0.027193466 -0.021693502 0.00514581 -0.026486054 -0.084448695 -0.01268744 -0.00043803285 0.07476912
-0.116960965 0.099467516 -0.030041516 -0.010455293 0.004381083 -0.034808304 -0.015151791 -0.02547911
-0.060192965 -0.026254514 0.017286735 -0.026851514 -0.005414771 -0.0655801 0.091459274 0.02913543
-0.029566273 0.031076938 0.04435225 -0.03380346 0.21848886 -0.041290622 0.03012512 -0.054841
0.05076531 -0.07894226 0.08803049 0.006154968 -0.06623703 0.12983619 -0.081886314 0.012521383
0.2113489 0.13412493 -0.043717843 -0.0019997582 -0.10397841 0.017609356 -0.059720714 -0.00097367464
0.068942636 0.21197878 -0.01595711 -0.00683418 -0.05503486 -0.0508123 0.017540287 -0.04640871
0.03675009 -0.103746295 -0.23352757 0.08219367 -0.04286374 -0.013658086 -0.019756112 -0.12003626
-0.064562574 -0.08233137 0.05248214 -0.061508503 -0.044782188 -0.03680598 -0.13184413 0.045619477
0.06718337 0.055215746 0.035070125 -0.052910313 0.008197091 0.0018213049 0.035690483 -0.111212924
00000000: 5882 c4bd 11c4 87bc 5883 a4bd 884f aebc
00000010: 0f29 a5bd baec 50bd bef1 d03d 97e3 023d
00000020: 5e8f c23d f759 d03c 72e4 6dbd 2592 a43c
00000030: f4cb f2bc 1984 553d 8938 3e3b da76 133e
00000040: 36b3 173d c838 3abb 7f76 aa3c 6d00 853c
00000050: 1845 343d 56ae 693d 79fa e63c 9774 e23d
00000060: 58c6 a93c 9421 bc3d 7fbd 67bd 23bd bcbc
00000070: d2bc 253d 42ae a03d 007d f93c db2e b5bd
00000080: 0cac 1bbd fbe8 7f3d fcc2 a63d a9d9 9ebd
00000090: 25ed 4e3d 25a1 743d 900d 013d 2a56 4b3c
000000a0: 6fed 8cbc 4206 643e 58ea 413d 4fb0 bd3d
000000b0: fa03 cf3d 245c 583b 6f56 6abd 2690 893b
000000c0: 3086 0e3c a9ae 2b3d cfad 4abe 6cce 263c
000000d0: 0e1d b7bd f4bd 9f3c d687 c83c b0f6 b1bb
000000e0: 2e84 babd 045f 1dbd cc3b 93bd bf93 c23b
000000f0: 53bb 9fbd 976e 12be dd0b 10be 1c04 163d
00000100: 678c c1bd 0708 a6bd e13f 42bc ccab 21bc
00000110: c2bd ba3c 19ed cd3c eee5 713d ea7f 4f3d
00000120: 4628 093e 62ce 033d 9a04 a63c 8e74 11be
00000130: e6b9 583e 861b e03c 4601 883d 4a6b 05bc
00000140: 6fbb 7a3d 053c 4ebc 3675 383d 0a2c 06bc
00000150: 8fab 523c 805f 253e 2a04 9fbc 4fba 653c
00000160: 872e 543e 61b7 ac3c 8b46 e63c c773 70bc
00000170: 7850 ccbd 65f5 ac3c ef8d 8f3d da86 353d
00000180: 0a5e 75bc b07f 3f3e 2119 9fbd 6692 313d
00000190: dc93 8dbc cf5e 593d aa16 22bd 82a2 13be
000001a0: 0bf7 3ebb 3083 db3d b038 27bd ca81 473e
000001b0: 2ef6 21ba 8286 973d 14cb 1634 e45b 9c3d
000001c0: 9c0c 17bd 3693 d23b 01d4 00bc 6591 a83b
000001d0: 614c 80bd e7f4 0d3d c166 d13c 8d8f 983d
000001e0: d6a0 47bc 4030 5e3d a188 933b 54b6 903d
000001f0: 042d 17bd 3345 883d 89f0 72bc 4d9a 94bd
00000200: 89da 42bc fc95 8d3d bbd7 a6bd b600 dfbd
00000210: 2d5a 79bd 5247 b93d 24a0 0ebd 861e f2bc
00000220: bcb3 e13d 2d0f b4bc 7942 56bd 0fde 693d
00000230: b0d2 d43d dd1b 50bd cae2 963d 3f92 6b3e
00000240: 94b9 1dbd 7ad1 e2bc 74b9 18bb 7873 ef3c
00000250: f5a7 44bd 4892 39bd bfcd ed3d 52d5 39bc
00000260: b9d8 ca3b 3c2b bebc b0ec 9ebd ce13 1bbe
00000270: 9b96 bb3c e765 7fbd 6800 d13c e0dc 50bc
00000280: d2d1 5ebd 8b79 183d dfff cfbd 4ea2 603d
00000290: 2469 483d ea3d 9e3d 856b 10bd d650 c5bc
000002a0: 4cde e5bd 658a 5f3e baad 42bc 06e8 3b3e
000002b0: 6d2f ef3c a527 d33d 3404 94bd ae1b 25ba
000002c0: d5c4 debc 92b6 b1bc 2f9e a83b 48f9 d8bc
000002d0: 70f3 acbd fbde 4fbc c6a7 e5b9 8d20 993d
000002e0: 3b89 efbd a0b5 cb3d a019 f6bc ad4c 2bbc
000002f0: 308f 8f3b 2793 0ebd 383f 78bc 91b9 d0bc
00000300: e68c 76bd b513 d7bc e99c 8d3c b5f7 dbbc
00000310: 646e b1bb dc4e 86bd 004f bb3d 6dad ee3c
00000320: f834 f2bc 1095 fe3c b4aa 353d 7f75 0abd
00000330: 8bbb 5f3e 5b20 29bd f5c8 f63c f5a0 60bd
00000340: 49ef 4f3d 7bac a1bd 5449 b43d 9daf c93b
00000350: 48a7 87bd c7f3 043e 03b4 a7bd 7d26 4d3c
00000360: d96b 583e 0c58 093e 7b11 33bd 600e 03bb
00000370: a2f2 d4bd 7f41 903c b59d 74bd 333e 7fba
00000380: cc31 8d3d f710 593e 7cb8 82bc 42f1 dfbb
00000390: 3c6c 61bd 8f20 50bd a6b0 8f3c 0f17 3ebd
000003a0: 4387 163d f078 d4bd da21 6fbe 2855 a83d
000003b0: e491 2fbd 2ac6 5fbc 92d7 a1bc 92d5 f5bd
000003c0: 6239 84bd 599d a8bd 83f7 563d 57f0 7bbd
000003d0: 876d 37bd dec1 16bd 2602 07be 7ddb 3a3d
000003e0: 6f97 893d e829 623d b1a5 0f3d 7cb8 58bd
000003f0: 174d 063c dab8 ee3a 2f30 123d 9ac3 e3bd

network_body.linear_encoder.seq_layers.0.bias f4 [128]
-0.035335567 -0.05895153 -0.21253519 -0.021603612 -0.015258361 -0.015611657 -0.2017227 0.001286622
-0.052412026 -0.18141936 -0.11804128 0.12743068 0.021003222 0.24199878 0.065100424 0.027867917
-0.12731977 -0.18459572 0.00012950649 -0.12520675 -0.16254768 -0.026953444 -0.055365298 -0.24467792
0.1463961 0.09049453 -0.17431423 -0.077364095 -0.018706165 0.060473014 -0.14995383 0.11663756
-0.035938952 -0.09756784 0.051145695 0.18160371 -0.10046458 -0.1747527 0.11100513 -0.12225687
-0.15784892 0.23795621 -0.17618743 -0.08381409 -0.1580631 0.19948699 -0.087063625 -0.08829523
-0.1329581 -0.14269663 0.22727728 0.050117314 0.08550488 -0.14129259 -0.03252826 -0.045391552
0.09319487 0.09310905 0.050160147 -0.14431357 0.07443441 0.15464975 -0.09840667 -0.111728355
0.024394115 -0.21528693 -0.1681811 0.029551286 0.073132835 0.11445334 -0.13023107 -0.1769521
-0.20210117 -0.20861627 -0.0017471197 0.13148142 -0.16509661 0.074901365 0.19984041 0.20320801
-0.16495262 -0.012253834 0.059887655 -0.100098014 -0.24539511 -0.17906414 0.18122704 0.16006504
-0.13514237 -0.004966983 -0.15222752 0.08249248 0.011599238 0.12238078 0.016484994 0.045786437
0.12879641 -0.19986078 -0.11758139 0.04003953 -0.18778701 -0.12858996 -0.20934246 -0.16930324
-0.2169016 0.18692748 -0.0007682466 0.066040754 0.08690249 -0.19405219 -0.15295112 -0.12868577
0.15570827 -0.12999044 0.16367085 -0.104830064 0.19080552 -0.05962231 -0.11495531 -0.20698372
-0.25265637 0.09340677 0.08936459 0.13222273 0.20130415 0.10071889 -0.024588177 0.13949938
00000000: 07bc 10bd 2977 71bd d3a2 59be 0ffa b0bc
00000010: 34fe 79bc 09c8 7fbc 6590 4ebe dfa3 a83a
00000020: fead 56bd ffc5 39be a0bf f1bd 307d 023e
00000030: f30e ac3c 87ce 773e 5f53 853d 424b e43c
00000040: 1d60 02be a906 3dbe 22cc 0739 3336 00be
00000050: e672 26be 78cd dcbc b9c6 62bd d98c 7abe
00000060: dce8 153e 3255 b93d 6e7f 32be 1171 9ebd
00000070: ac3d 99bc 8db2 773d 7f8d 19be acdf ee3d
00000080: b934 13bd a6d1 c7bd 267e 513d 53f6 393e
00000090: 60c0 cdbd 5ff2 32be a856 e33d cf61 fabd
000000a0: 26a3 21be cbaa 733e 7a6a 34be b9a6 abbd
000000b0: 4bdb 21be 5146 4c3e 6a4e b2bd 21d4 b4bd
000000c0: 2b26 08be 111f 12be 60bb 683e d047 4d3d
000000d0: 2f1d af3d 01af 10be 5a3c 05bd 7eec 39bd
000000e0: f4dc be3d f5af be3d ba74 4d3d f0c6 13be
000000f0: 1171 983d 815c 1e3e 7089 c9bd d6d1 e4bd
00000100: 2bd6 c73c 2d74 5cbe ab37 2cbe 8a15 f23c
00000110: abc6 953d 8366 ea3d 4b5b 05be ee32 35be
00000120: 9cf3 4ebe 819f 55be 9cff e4ba 11a3 063e
00000130: 160f 29be e365 993d f7a2 4c3e c315 503e
00000140: 57e9 28be 4ec4 48bc c24c 753d 3000 cdbd
00000150: db48 7bbe 975c 37be 9593 393e 17e8 233e
00000160: c362 0abe 13c2 a2bb 88e1 1bbe d1f1 a83d
00000170: bb0a 3e3c c6a2 fa3d 8a0b 873c 8f8a 3b3d
00000180: 35e3 033e 4ea8 4cbe 83ce f0bd 7d00 243d
00000190: 3d4b 40be 16ad 03be df5d 56be d45d 2dbe
000001a0: 741b 5ebe eb69 3f3e 2864 49ba 6040 873d
000001b0: eff9 b13d 9eb5 46be 389f 1cbe 34c6 03be
000001c0: fd71 1f3e 371c 05be 5599 273e 25b1 d6bd
000001d0: 8662 433e 8636 74bd b16d ebbd 8af3 53be
000001e0: 2d5c 81be 0c4c bf3d c804 b73d 6565 073e
000001f0: ad22 4e3e b545 ce3d 256d c9bc edd8 0e3e

network_body.linear_encoder.seq_layers.0.weight f4 [128, 52]
0.08490952 -0.026754484 -0.07072457 -0.12956108 0.18899101 -0.11936913 0.18008381 0.14400795
0.28194273 -0.23021233 0.1580009 0.19251516 0.08904151 0.02442455 -0.0035602448 -0.05262586
0.30989954 -0.09980165 0.010791719 0.16379313 0.18831605 -0.23457426 -0.28853485 0.025017804
-0.1655006 0.0014929319 0.1743814 0.034907322 0.14249264 0.036728725 0.1385881 0.05396341
0.061269205 -0.039829426 -0.0707031 0.046781015 -0.1964337 0.17657302 -0.34116915 0.10673466
0.16159318 0.011013746 -0.11015583 -0.15543619 -0.12765677 0.015270869 -0.13861135 -0.23802695
0.113195844 -0.38843644 -0.13863708 0.0028338425 0.09096703 -0.14687331 0.31816575 0.2801174
-0.27881265 0.029429287 -0.009752542 -0.053865556 -0.2589473 0.21037945 0.1381904 -0.2970391
0.09418758 0.014779815 0.07704281 -0.09705417 -0.09773569 -0.061737545 -0.12530124 -0.009881505
-0.045757312 -0.16805196 0.17690107 -0.17868009 0.013460369 -0.04534619 -0.08009155 0.18997633
0.10190275 -0.024781896 0.0441637 -0.1188651 0.033219095 0.0079383105 -0.091580585 -0.1024354
0.3821865 -0.17781007 0.054240048 -0.21195506 0.00231282 -0.13000461 -0.04885659 0.045393687
-0.1255976 0.23991302 0.039293554 -0.43581614 -0.26723474 0.07692768 0.19077404 0.20271946
0.18804927 -0.2848333 0.2363092 -0.12846981 0.050756223 -0.24367395 0.19211687 -0.1730091
0.14484498 -0.045427952 0.075243995 -0.06093817 0.19194108 0.17103419 0.06245628 0.011188332
-0.12816435 -0.035871383 0.20357531 -0.2779624 -0.051696364 -0.058309503 0.23275258 -0.051228475
-0.0025574085 0.038879123 0.16756691 -0.18071309 0.18661854 -0.04676336 0.20976473 0.15194826
0.17056197 -0.07986911 -0.1264859 0.0010401893 -0.16291945 0.23008932 0.34865442 0.15624624
-0.15567245 -0.0901659 0.123005316 0.1617527 0.06599724 -0.1888939 -0.011202884 0.122341745
-0.06302953 -0.34254602 0.056683592 -0.35674816 -0.032279182 -0.06343389 0.16972944 0.2410454
0.0072919494 -0.074678965 0.0055302097 0.26128155 -0.053861342 0.036729004 0.039224286 -0.068177044
-0.0753794 -0.040920224 0.032376356 0.14087039 0.0068162973 0.19478635 -0.13128644 -0.27565175
-0.3214219 0.01470642 0.005680614 -0.055839352 0.29022586 -0.12381097 -0.022509946 -0.21356685
-0.014164934 0.09519474 0.05545034 0.029701546 -0.12178448 -0.25168583 0.04678992 -0.30690628
0.16039786 0.0437887 0.020401653 -0.11457612 0.35066321 0.047168907 -0.11398348 -0.23096807
0.15803096 0.021676984 0.060556557 -0.04275252 -0.20755227 0.01480984 -0.011872016 -0.12499636
0.033979725 -0.14269699 -0.27025905 0.2786214 0.114337735 0.12011549 0.14047022 -0.08260491
-0.17410554 0.13678285 -0.13970104 -0.020298824 -0.14409938 0.12883128 0.25547874 -0.031005187
-0.017643308 0.031006372 -0.22919224 -0.114206426 0.07814232 0.07011939 0.035528127 0.058260664
0.10127645 0.11060474 0.054441337 -0.1188255 -0.019921737 0.12831299 0.042403094 0.0143583
0.14028965 0.042053185 0.24491979 -0.5850535 -0.011812314 0.03660444 0.16136143 -0.0634813
0.020705739 0.015171529 0.20348273 -0.19080797 -0.06406282 -0.19380343 0.27484232 -0.30399877
00000000: 0be5 ad3d 382c dbbc 0bd8 90bd a9ab 04be
00000010: dc86 413e cd77 f4bd e467 383e d276 133e
00000020: cc5a 903e c8bc 6bbe fdca 213e b222 453e
00000030: 655b b63d fe15 c83c ff52 69bb 378e 57bd
00000040: 27ab 9e3e cf64 ccbd c0cf 303c 63b9 273e
00000050: ecd5 403e 3c34 70be d7ba 93be 23f2 cc3c
00000060: fd78 29be 7bae c33a 0a91 323e fbfa 0e3d
00000070: 97e9 113e dc70 163d 0aea 0d3e bd08 5d3d
00000080: 6bf5 7a3d 2e24 23bd c9cc 90bd 739d 3f3d
00000090: ea25 49be 8fcf 343e b9ad aebe b497 da3d
000000a0: af78 253e 0073 343c 6199 e1bd aa2a 1fbe
000000b0: 75b8 02be ab32 7a3c 22f0 0dbe 56bd 73be
000000c0: 39d3 e73d 24e1 c6be e1f6 0dbe fdb7 393b
000000d0: ec4c ba3d f565 16be 9fe6 a23e 8c6b 8f3e
000000e0: 88c0 8ebe b015 f13c 20c9 1fbc 21a2 5cbd
000000f0: be94 84be b66d 573e c981 0d3e 8215 98be
00000100: 6be5 c03d 0a27 723c 9fc8 9d3d 56c4 c6bd
00000110: a629 c8bd 82e0 7cbd f84e 00be 09e6 21bc
00000120: 056c 3bbd d015 2cbe 8e25 353e eaf7 36be
00000130: e188 5c3c edbc 39bd 0a07 a4bd 2889 423e
00000140: 64b2 d03d 6703 cbbc ffe4 343d 8c6f f3bd
00000150: bf10 083d b00f 023c 9a8e bbbd a7c9 d1bd
00000160: f3ad c33e d813 36be d02a 5e3d bf0a 59be
00000170: ae92 173b ee1f 05be d91d 48bd bbee 393d
00000180: a89c 00be c2ab 753e 47f2 203d 4b23 dfbe
00000190: fed2 88be 428c 9d3d 455a 433e b195 4f3e
000001a0: fd8f 403e acd5 91be 0afb 713e 978d 03be
000001b0: c2e5 4f3d aa85 79be 49ba 443e 4c29 31be
000001c0: 3e52 143e a912 3abd 8619 9a3d 4d9a 79bd
000001d0: 348c 443e 9623 2f3e 28d2 7f3d 444f 373c
000001e0: 843d 03be dfed 12bd 0c76 503e 1651 8ebe
000001f0: 91bf 53bd f2d5 6ebd b156 6e3e f3d4 51bd
00000200: 329a 27bb b73f 1f3d a996 2b3e da0c 39be
00000210: ee18 3f3e f08a 3fbd 91cc 563e 5398 1b3e
00000220: cca7 2e3e 6a92 a3bd 8585 01be f656 883a
00000230: 5bd4 26be 899c 6b3e d582 b23e 04ff 1f3e
00000240: 9968 1fbe e6a8 b8bd 36ea fb3d 80a2 253e
00000250: 9029 873d 676d 41be 4d8c 37bc 4f8e fa3d
00000260: a015 81bd 3162 afbe 0e2d 683d b2a7 b6be
00000270: 2d37 04bd a1e9 81bd 8ecd 2d3e 9bd4 763e
00000280: 4ef1 ee3b 49f1 98bd c336 b53b b2c6 853e
00000290: b69d 5cbd 2771 163d a5a9 203d 68a0 8bbd
000002a0: 8460 9abd f79b 27bd 129d 043d 5440 103e
000002b0: 3f5b df3b 1376 473e f46f 06be 3a22 8dbe
000002c0: 6991 a4be 32f3 703c 7224 ba3b ceb7 64bd
000002d0: 7c98 943e 9b90 fdbd c766 b8bc 45b1 5abe
000002e0: 0a14 68bc 76f5 c23d e51f 633d a850 f33c
000002f0: 246a f9bd f7dc 80be caa6 3f3d d222 9dbe
00000300: 563f 243e c85b 333d 5e21 a73c e3a6 eabd
00000310: 218a b33e 2f34 413d 2c70 e9bd e582 6cbe
00000320: ded2 213e ee93 b13c 270a 783d 441d 2fbd
00000330: 9588 54be f9a4 723c d882 42bc 17fe ffbd
00000340: 532e 0b3d 291f 12be 655f 8abe 77a7 8e3e
00000350: e729 ea3d 1cff f53d 6dd7 0f3e c32c a9bd
00000360: b948 32be ce10 0c3e ca0d 0fbe b849 a6bc
00000370: ca8e 13be 59ec 033e 1cce 823e 97fe fdbc
00000380: b388 90bc 1301 fe3c 5fb1 6abe 0fe5 e9bd
00000390: 1509 a03d c19a 8f3d f185 113d bca2 6e3d
000003a0: 076a cf3d bd84 e23d e1fd 5e3d c95a f3bd
000003b0: e932 a3bc 7b64 033e deae 2d3d 133f 6b3c
000003c0: 17a8 0f3e f63f 2c3d 41cc 7a3e 11c6 15bf
000003d0: 7088 41bc 8aee 153d ee3b 253e 7c02 82bd
000003e0: 159f a93c 0192 783c c75d 503e 2a63 43be
000003f0: 5e33 83bd 6874 46be 22b8 8c3e baa5 9bbe

network_body.linear_encoder.seq_layers.2.bias f4 [128]
-0.024122858 0.17528613 -0.0054181884 -0.16735765 0.15619569 0.16929464 -0.04526735 -0.16556953
0.14404267 0.056270834 -0.19668764 0.11404909 0.14266026 0.03565476 0.1167057 0.18353605
-0.0053810827 -0.19971056 0.06571149 0.08098859 -0.03506793 -0.10425126 0.18131486 -0.01623701
-0.22403978 -0.21301866 0.09918168 -0.23039131 0.08628313 -0.17516541 0.029001333 0.042547543
0.11948408 0.094506554 -0.23836347 0.09629829 -0.006015803 0.1391978 -0.21826775 -0.015086057
-0.21993838 0.15530306 -0.069531865 0.18881167 0.14027931 0.12819554 -0.19120868 0.065106586
-0.113980554 -0.19262104 0.024365518 -0.1161096 -0.11395636 0.12699118 0.021794653 0.1712003
-0.13350041 0.15440929 0.11069469 -0.10646008 0.036028404 -0.15138632 -0.14425555 0.045321338
-0.12156915 -0.09802078 0.058573022 -0.1812984 -0.09662774 -0.17892724 0.009528884 0.06889866
0.013982229 0.053105846 0.14260481 0.09900504 0.1870523 -0.1651557 0.08068872 -0.18785292
0.08317498 -0.19824763 0.087413535 -0.12530118 -0.18202323 0.10370684 -0.2020088 0.08076797
0.17044795 0.17034702 -0.22638866 -0.044250477 -0.18474002 0.051156737 -0.08381221 0.09088664
-0.16137964 0.22279072 -0.11634759 -0.044204574 0.05047785 -0.042114623 -0.07958763 0.047417786
0.1253128 -0.07697774 -0.11098298 0.12339209 -0.20784304 0.0051051057 -0.1802682 -0.17035028
-0.20727219 -0.13588642 0.09255611 -0.19687928 -0.12499102 0.040650513 -0.19157816 0.07304486
0.00012252455 0.021511206 0.08651945 -0.1531208 0.07983519 -0.16722812 0.08904018 -0.19742435
00000000: 4d9d c5bc 357e 333e 0f8b b1bb ce5f 2bbe
00000010: c3f1 1f3e 935b 2d3e 426a 39bd 0f8b 29be
00000020: ec7f 133e 3f7c 663d 7c68 49be 9292 e93d
00000030: 8815 123e ba0a 123d 6603 ef3d e0f0 3b3e
00000040: cb53 b0bb ed80 4cbe bf93 863d 59dd a53d
00000050: 64a3 0fbd af81 d5bd 9aaa 393e 7a03 85bc
00000060: af6a 65be 9021 5abe c41f cb3d b3eb 6bbe
00000070: 36b5 b03d 905e 33be 3494 ed3c 5546 2e3d
00000080: 12b4 f43d a78c c13d 8e15 74be 0a38 c53d
00000090: 3720 c5bb de89 0e3e 9581 5fbe 822b 77bc
000000a0: 8737 61be c407 1f3e b966 8ebd d957 413e
000000b0: 61a5 0f3e b145 033e 35cc 43be 9a56 853d
000000c0: a36e e9bd 733e 45be 329a c73c dfca edbd
000000d0: f461 e9bd fa09 023e b38a b23c 224f 2f3e
000000e0: 55b4 08be 781d 1e3e e6b3 e23d be07 dabd
000000f0: 8592 133d 0405 1bbe bab7 13be dea2 393d
00000100: 3ff9 f8bd 1ebf c8bd 44ea 6f3d 4aa6 39be
00000110: c4e4 c5bd b438 37be 091f 1c3c be1a 8d3d
00000120: b815 653c 8485 593d ff06 123e 28c3 ca3d
00000130: a38a 3f3e 931e 29be 2140 a53d 845c 40be
00000140: a557 aa3d 6d01 4bbe de05 b33d f44e 00be
00000150: 4c64 3abe 4064 d43d 65db 4ebe ad69 a53d
00000160: e889 2e3e 736f 2e3e 6ed2 67be fd3f 35bd
00000170: 7d2c 3dbe ba89 513d bca5 abbd c622 ba3d
00000180: b440 25be 4023 643e a547 eebd db0f 35bd
00000190: ddc1 4e3d 6280 2cbd d7fe a2bd 2739 423d
000001a0: 0052 003e 81a6 9dbd 0b4b e3bd feb4 fc3d
000001b0: ced4 54be bb48 a73b 3a98 38be 4e70 2ebe
000001c0: 293f 54be cf25 0bbe 0f8e bd3d b99a 49be
000001d0: 4bfb ffbd 2781 263d 112d 44be 8b98 953d
000001e0: ef79 0039 4538 b03c 1c31 b13d b3cb 1cbe
000001f0: a280 a33d d93d 2bbe b35a b63d 9c29 4abe

network_body.linear_encoder.seq_layers.2.weight f4 [128, 128]
-0.048270132 0.10981648 -0.041016214 -0.12954853 -0.16744037 0.058716293 -0.14634062 -0.09369243
-0.035518356 -0.22042847 -0.14518313 0.16918962 -0.10264211 0.16534694 0.12202619 -0.239538
-0.09378574 0.06883655 -0.17480542 0.030252786 -0.102466024 0.050575294 0.031076944 0.010432943
-0.088186435 -0.023229523 0.037044026 0.087691374 -0.14969818 -0.14631464 0.13231619 0.11078974
-0.12306288 -0.1516727 0.011142768 0.058132824 -0.019544058 0.033670176 -0.028046604 -0.02838426
0.038616296 0.25018364 -0.12600693 -0.012227776 -0.027361805 0.093584776 -0.12355127 -0.10989171
-0.054307364 0.057711475 0.063968316 0.03891191 0.24374479 0.11555664 -0.120493226 -0.18076281
0.30770785 0.15180182 -0.15087406 -0.0024520906 -0.14486353 0.13810396 0.16535108 0.06635294
-0.046128493 -0.009561725 -0.059636183 0.13439709 -0.033815634 -0.027063113 -0.12937795 -0.09499607
-0.124471635 -0.18616053 -0.10119993 -0.061475135 -0.09930548 -0.10406732 0.070039034 -0.011434214
-0.018702604 0.006085178 -0.050169047 0.04301966 0.0057727145 -0.013955001 -0.24439417 -0.37660024
-0.22417644 -0.14138319 0.11833446 -0.15873219 -0.04876088 -0.08262445 0.24838059 -0.056699578
0.11709883 -0.14207733 0.21579047 -0.18758164 0.00018245079 -0.04524595 0.060453426 0.010271243
0.055574957 -0.01164905 -0.28143686 -0.05838021 -0.13960008 0.09018411 0.08874066 -0.035727866
-0.08333769 0.13565986 -0.120010294 -0.041181706 0.0120237805 -0.10138294 0.019008432 0.16456601
0.07680942 -0.20651096 -0.07840546 0.03926763 -0.16539502 -0.0951276 -0.029980708 0.023042038
-0.01622973 0.006274021 0.11255209 0.024812382 -0.081971385 0.14354111 0.03365553 0.015600198
0.019265592 0.13642055 -0.045968574 0.0077058636 -0.039444663 0.07325806 0.049482897 0.16651027
-0.009099658 -0.21001303 -0.19748072 -0.0903262 -0.012656179 -0.07401358 0.08040378 -0.059309207
0.012250525 0.035986274 -0.12314171 0.0331338 -0.031193813 0.115093105 -0.057344705 -0.11223376
0.0043585827 -0.11150327 0.07239209 0.14671609 -0.1467447 0.054373566 -0.030265503 -0.22088398
0.029413678 -0.072900645 -0.103841916 0.06969085 0.013556427 0.15268683 -0.19879818 -0.15503228
0.030367631 -0.07180003 0.1455952 -0.14439373 0.102818854 -0.06831066 -0.046222292 -0.089560196
0.019848363 0.24144252 -0.0865174 0.01871893 -0.0019739196 0.021588353 0.22797228 0.00495453
0.17001571 -0.065052286 0.084506735 0.023030983 0.10608046 -0.056857757 -0.18031389 0.046060074
0.03500178 -0.067899935 0.020509714 -0.14256604 -0.09243467 0.15930353 0.005012798 0.011566771
0.09552243 -0.104799256 0.10887796 0.057988685 -0.083701134 0.05691574 0.05792255 -0.065698236
-0.10043886 -0.0018841904 0.018253656 0.082434185 -0.11852766 -0.0068642735 -0.3229264 -0.14492834
0.034659058 -0.0063761296 0.0050772396 -0.008754161 0.0038323244 0.121680275 -0.065765165 -0.037259564
0.03710613 0.13718165 -0.065001056 -0.05707266 0.07358467 0.028135994 -0.062142827 -0.14595687
-0.051063877 -0.021197455 0.09171317 -0.063306525 0.15470499 0.067925684 0.036698963 -0.051188648
-0.19140986 -0.042647723 -0.23589768 -0.17291208 -0.03045152 0.07819067 -0.059456572 0.059510447
00000000: e7b6 45bd 76e7 e03d 9e00 28bd 5fa8 04be
00000010: 7d75 2bbe 7f80 703d 51da 15be d1e1 bfbd
00000020: b27b 11bd 00b8 61be e3aa 14be 0b40 2d3e
00000030: 0736 d2bd b550 293e dee8 f93d 7349 75be
00000040: bd12 c0bd 2dfa 8c3d 3100 33be b1d4 f73c
00000050: b5d9 d1bd 0a28 4f3d 1395 fe3c efee 2a3c
00000060: 179b b4bd d74b bebc 7abb 173d 8997 b33d
00000070: 7b4a 19be 81d3 15be e57d 073e bbe5 e23d
00000080: 6408 fcbd 1750 1bbe 2890 363c af1c 6e3d
00000090: dc1a a0bc bde9 093d fec1 e5bc 1c86 e8bc
000000a0: 1f2c 1e3d 1218 803e f607 01be 0357 48bc
000000b0: dd25 e0bc 60a9 bf3d 7308 fdbd e80e e1bd
000000c0: 6671 5ebd de62 6c3d d201 833d 1862 1f3d
000000d0: 3c98 793e f6a8 ec3d 27c5 f6bd e319 39be
000000e0: e28b 9d3e f071 1b3e bb7e 1abe 41b3 20bb
000000f0: 1b57 14be 206b 0d3e cb51 293e 0de4 873d
00000100: 3bf1 3cbd c8a8 1cbc 1245 74bd 649f 093e
00000110: 4382 0abd 76b3 ddbc a77b 04be 4d8d c2bd
00000120: fcea febd dea0 3ebe e941 cfbd 5acd 7bbd
00000130: ac60 cbbd 3f21 d5bd a070 8f3d 9256 3bbc
00000140: 3436 99bc 2c66 c73b 0f7e 4dbd 6235 303d
00000150: 0a29 bd3b 84a3 64bc 7742 7abe bfd1 c0be
00000160: 828e 65be c1c6 10be 5659 f23d b18a 22be
00000170: 7db9 47bd 0237 a9bd 7b57 7e3e d13d 68bd
00000180: 83d1 ef3d b87c 11be 2df8 5c3e 6715 40be
00000190: 4350 3f39 d153 39bd 039e 773d b748 283c
000001a0: 91a2 633d a8db 3ebc 7e18 90be 1620 6fbd
000001b0: 53f3 0ebe 72b2 b83d aabd b53d 6257 12bd
000001c0: f3ac aabd 6bea 0a3e f5c7 f5bd 26ae 28bd
000001d0: 64ff 443c dca1 cfbd 92b7 9b3c fe83 283e
000001e0: 424e 9d3d 9c77 53be 0b93 a0bd 18d7 203d
000001f0: 505d 29be 42d2 c2bd 1a9a f5bc a8c2 bc3c
00000200: 36f4 84bc 4e96 cd3b b681 e63d 5643 cb3c
00000210: 9de0 a7bd 71fc 123e 62da 093d f997 7f3c
00000220: e0d2 9d3c d4b1 0b3e 8b49 3cbd 7881 fc3b
00000230: ba90 21bd 5208 963d 94ae 4a3d ab81 2a3e
00000240: bb16 15bc a80d 57be 6338 4abe f1fc b8bd
00000250: dd5b 4fbc 6f94 97bd bdaa a43d 36ee 72bd
00000260: 6db6 483c 5866 133d b931 fcbd 4fb7 073d
00000270: 2b8a ffbc efb5 eb3d 48e2 6abd d0da e5bd
00000280: 71d2 8e3b d45b e4bd 4e42 943d be3c 163e
00000290: 3e44 16be d1b6 5e3d 5cef f7bc 692f 62be
000002a0: f4f4 f03c ef4c 95bd 12ab d4bd 14ba 8e3d
000002b0: c71b 5e3c f059 1c3e c091 4bbe c8c0 1ebe
000002c0: 8ac5 f83c e50b 93bd e816 153e f3db 13be
000002d0: b192 d23d 76e6 8bbd 9653 3dbd 566b b7bd
000002e0: 0999 a23c b53c 773e 0930 b1bd 7158 993c
000002f0: e05c 01bb 0fda b03c 9171 693e 9c59 a23b
00000300: 9918 2e3e 223a 85bd de11 ad3d 79ab bc3c
00000310: b640 d93d aee3 68bd 34a4 38be 7da9 3c3d
00000320: 075e 0f3d 1f0f 8bbd fd03 a83c d5fc 11be
00000330: 634e bdbd 7720 233e 6642 a43b 8e82 3d3c
00000340: 44a1 c33d fea0 d6bd 68fb de3d 8b85 6d3d
00000350: 806b abbd 7b20 693d 3240 6d3d cc8c 86bd
00000360: e4b2 cdbd f0f6 f6ba b188 953c 41d3 a83d
00000370: a1be f2bd b3ed e0bb 9c56 a5be 1868 14be
00000380: a8f6 0d3d daee d0bb f95e a63b 9d6d 0fbc
00000390: bc27 7b3b 8233 f93d e3af 86bd 7c9d 18bd
000003a0: 99fc 173d 5979 0c3e 461f 85bd 06c5 69bd
000003b0: 8fb3 963d 757d e63c 7a89 7ebd b875 15be
000003c0: 5b28 51bd 49a6 adbc 1dd4 bb3d daa6 81bd
000003d0: fc6a 1e3e 9f1c 8b3d a751 163d 30ab 51bd
000003e0: f200 44be 61af 2ebd 298f 71be dd0f 31be
000003f0: 7775 f9bc 6e22 a03d bc88 73bd 3ac1 733d

network_body.vector_processors.0.normalizer.running_mean f4 [52]
0.022961402 0.9771255 6.00012e-07 0.29101565 0.019855136 0.9802729 1.2000093e-06 0.29274586
0.024252217 0.97581685 8.0000933e-07 0.29088315 0.018100953 0.9819955 1.2000056e-06 0.29518905
0.025443329 0.9746393 2.0000493e-07 0.29062435 0.01896424 0.9811617 1.0000163e-06 0.29787764
0.029032473 0.971037 6.000057e-07 0.28990588 0.02146691 0.97867036 4.0001453e-07 0.30154532
0.030417537 0.9695844 4.0001115e-07 0.2892318 0.027881406 0.97213984 4.0001444e-07 0.3052518
0.033760972 0.9662158 4.0001453e-07 0.28804743 0.044439405 0.95553386 4.000144e-07 0.3059655
0.039678402 0.9602681 2.0000493e-07 0.28770363
00000000: 8d19 bc3c e624 7a3f 8310 2135 0100 953e
00000010: 3da7 a23c 2af3 7a3f 0110 a135 c9e2 953e
00000020: 96ac c63c 22cf 793f 39c0 5635 a3ee 943e
00000030: 7348 943c 0f64 7b3f e10f a135 0523 973e
00000040: 876e d03c f681 793f f0c0 5634 b7cc 943e
00000050: e55a 9b3c 6a2d 7b3f 4c38 8635 6b83 983e
00000060: 82d5 ed3c e195 783f 1410 2135 8b6e 943e
00000070: 60db af3c 248a 7a3f 94c1 d634 2664 9a3e
00000080: 332e f93c af36 783f 1dc1 d634 3116 943e
00000090: 8c67 e43c 28de 783f 91c1 d634 f749 9c3e
000000a0: f248 0a3d eb59 773f 94c1 d634 f47a 933e
000000b0: 1806 363d de9d 743f 8fc1 d634 83a7 9c3e
000000c0: d285 223d 21d4 753f f0c0 5634 e44d 933e
