results/fifth/Car/Car-3999991.pt (torch, 582455 bytes, 40 tensors)

network_body.vector_processors.0.normalizer.running_mean f4 [52]
000000 bc 6e 9d 3c 79 13 7b 3f 65 54 49 35 d8 ec 94 3e
       0.019217841 0.9807659 7.5001145e-07 0.29086947
000010 ed 99 8f 3c 89 81 7b 3f c7 53 c9 35 67 bc 95 3e
       0.017529452 0.9824453 1.5000049e-06 0.29245302
000020 09 21 a2 3c 87 ef 7a 3f 8f 54 49 35 e0 c3 94 3e
       0.019791143 0.9802174 7.5001384e-07 0.2905569
000030 b2 1d 81 3c f0 f3 7b 3f 9c 53 c9 35 84 2b 97 3e
       0.01576123 0.98419094 1.5e-06 0.29525387
000040 87 3a a1 3c 8c f9 7a 3f e0 37 86 34 ab 89 94 3e
       0.019681228 0.9803703 2.50001e-07 0.29011282
000050 4d 5b 83 3c 22 e5 7b 3f f6 37 86 35 a9 b0 98 3e
       0.016034747 0.98396504 1.0000065e-06 0.2982228
000060 dc 32 a6 3c 22 d2 7a 3f 46 38 06 35 ce 46 94 3e
       0.020287924 0.9797689 5.000078e-07 0.2896027
000070 76 bd 8f 3c 47 85 7b 3f 48 38 06 35 a2 40 9a 3e
       0.017546397 0.9825024 5.000079e-07 0.30127436
000080 e1 3e a5 3c f6 d5 7a 3f fa 37 06 35 30 1c 94 3e
       0.020171585 0.9798273 5.0000347e-07 0.28927755
000090 85 1e ac 3c d6 a0 7a 3f 46 38 06 35 8b a9 9b 3e
       0.021010647 0.97901666 5.000078e-07 0.3040279
0000a0 5e 64 bd 3c b3 13 7a 3f 48 38 06 35 28 b6 93 3e
       0.023119148 0.9768631 5.000079e-07 0.28849912
0000b0 ce 73 00 3d 95 f7 77 3f 44 38 06 35 64 db 9b 3e
       0.03136044 0.96862155 5.000077e-07 0.3044082
0000c0 f7 2f e7 3c 35 c3 78 3f e0 37 86 34 ed f4 93 3e
       0.028221114 0.9717286 2.50001e-07 0.288978

network_body.vector_processors.0.normalizer.running_variance f4 [52]
000000 2c 41 93 47 fd 48 93 47 ed ff 7f 40 28 50 1e 48
       75394.34 75409.98 3.9999955 162112.62
000010 45 8b 86 47 d1 8f 86 47 a6 ff df 40 c5 bb 20 48
       68886.54 68895.63 6.999957 164591.08
000020 8c 8e 97 47 2b a6 97 47 97 ff 7f 40 08 ec 1d 48
       77597.09 77644.336 3.999975 161712.12
000030 1d 64 72 47 99 6f 72 47 e5 fe df 40 03 51 25 48
       62052.113 62063.598 6.999865 169284.05
000040 ef ba 96 47 cd cb 96 47 fe ff ff 3f b5 4d 1c 48
       77173.87 77207.6 1.9999998 160054.83
000050 cc 87 76 47 45 94 76 47 d7 ff 9f 40 3e 58 2a 48
       63111.797 63124.27 4.9999804 174432.97
000060 29 48 9b 47 bc 5b 9b 47 ec ff 3f 40 48 cf 19 48
       79504.32 79543.47 2.9999952 157501.12
000070 4f ad 86 47 ee b3 86 47 5d ff 3f 40 d2 17 30 48
       68954.62 68967.86 2.9999611 180319.28
000080 af 68 9a 47 4b 7b 9a 47 fc ff 3f 40 7a 9b 17 48
       79057.37 79094.586 2.999999 155245.9
000090 44 b3 a0 47 59 bd a0 47 d5 ff 3f 40 ae 15 36 48
       82278.53 82298.695 2.9999897 186454.72
0000a0 48 71 b0 47 82 86 b0 47 5e ff 3f 40 29 1a 16 48
       90338.56 90381.016 2.9999614 153704.64
0000b0 a5 51 ed 47 c5 56 ed 47 e2 ff 3f 40 fa 8f 37 48
       121507.29 121517.54 2.9999928 187967.9
0000c0 2b 42 d6 47 09 54 d6 47 fe ff ff 3f fb 2c 18 48
       109700.336 109736.07 1.9999998 155827.92

network_body.linear_encoder.seq_layers.0.weight f4 [128, 52]
000000 65 52 a2 3d 1c bc ac bc 8e 86 90 bd 64 37 09 be
       0.07925872 -0.021085791 -0.07056914 -0.13400036
000010 38 ab 45 3e 6c c2 fc bd 64 bc 38 3e 8e ca 08 3e
       0.19303596 -0.123417705 0.18040615 0.13358518
000020 96 6e 8b 3e 71 4a 61 be 30 cc 25 3e c9 e1 3d 3e
       0.27232808 -0.22001053 0.16191173 0.18543161
000030 c4 d8 c5 3d ee 85 8a 3c 1c 37 54 bb 42 e9 87 bd
       0.096604854 0.016909566 -0.003238148 -0.06636287
000040 55 b6 9c 3e 5e 2a c2 bd 8f 62 2e 3c 08 1f 21 3e
       0.30607858 -0.09480737 0.010643615 0.15734494
000050 8f 75 3f 3e ea 94 6d be 2e 4e 99 be ec 57 ac 3c
       0.18697189 -0.23201337 -0.2994246 0.021038018
000060 a8 e1 1f be ff ab d4 bb 71 a5 33 3e cb da f0 3c
       -0.15613425 -0.00649023 0.1754358 0.029401204
000070 7e a3 0b 3e 2e 43 2e 3d fb f7 0d 3e db 26 73 3d
       0.13636586 0.042544536 0.13864128 0.059363227
000080 44 2b 97 3d b1 f7 4f bd 1d b1 90 bd 51 9b 40 3d
       0.07381299 -0.050773326 -0.07065032 0.04702312
000090 67 49 67 be 33 9f 52 3e ca a6 ae be 25 ea fd 3d
       -0.22586595 0.20568542 -0.34111625 0.12398175
0000a0 5f 07 24 3e 77 83 5a 3c bc 7d e1 bd c2 2c 38 be
       0.16018437 0.013337008 -0.1101031 -0.17985824
0000b0 38 2d 2b be 80 d5 5e 3d 2c e2 0d be ac 3a 64 be
       -0.16716468 0.05440283 -0.13855809 -0.22288007
0000c0 ec f6 ce 3d e0 16 c0 be 97 1d 0e be d0 66 05 bd
       0.1010569 -0.37517452 -0.13878475 -0.032568753
0000d0 0a 57 d9 3d 2c f6 25 be 57 12 a0 3e d6 c7 8f 3e
       0.106123045 -0.16207188 0.31263992 0.2808215
0000e0 45 0f 8b be 68 43 b6 3c 61 17 82 bc 08 ed 61 bd
       -0.27160087 0.022248939 -0.015880289 -0.05515769
0000f0 7a 3f 8a be 79 a7 61 3e b4 cd 03 3e bf 64 96 be
       -0.27001554 0.22036542 0.12871438 -0.29373738
000100 f5 41 e7 3d 3e 58 82 bb d7 3b 91 3d 92 cb b8 bd
       0.11291877 -0.0039778044 0.07091492 -0.09023203
000110 04 0e dd bd 47 2a 55 bd f5 6d 04 be d8 93 12 bc
       -0.10793689 -0.052042272 -0.1293257 -0.0089463815
000120 2f 2a 0d bd 9d 11 38 be 67 f3 2c 3e dd df 24 be
       -0.034464058 -0.17975469 0.16889726 -0.16101022
000130 5d c5 78 3c ac 67 41 bd 08 24 b2 bd 63 37 4e 3e
       0.015183774 -0.04721801 -0.08698279 0.20138316
000140 ea 6a e4 3d 1b 3f 0c bd 5b 3b 20 3d 42 36 bf bd
       0.11153205 -0.03423987 0.039119106 -0.09336521
000150 d2 46 88 3c b0 a7 bf 3c a2 e3 c5 bd c7 ff cc bd
       0.016635332 0.02339539 -0.09662558 -0.10009723
000160 74 12 c4 3e a1 a1 36 be 27 81 49 3d 5c e9 3a be
       0.3829533 -0.17835094 0.049195435 -0.18253082
000170 b0 34 65 3c 0e a4 11 be 7e c7 5c bd c1 10 8d 3d
       0.013989612 -0.14222738 -0.053901188 0.06887961
000180 13 a2 0b be 97 6f 80 3e a4 48 0c 3d 17 12 d7 be
       -0.13636045 0.25085136 0.034248963 -0.4200599
000190 65 99 74 be 58 24 46 3d 50 3b 3f 3e 0b b1 65 3e
       -0.2388664 0.048374504 0.1867497 0.22430818
0001a0 86 78 35 3e a6 48 8c be 30 c9 69 3e fd 56 00 be
       0.17721757 -0.27399176 0.22830653 -0.12533183
0001b0 1a eb 75 3d 86 25 82 be 41 20 3c 3e 96 3e 24 be
       0.060038663 -0.25419253 0.18371679 -0.160395
0001c0 f1 f2 0e 3e 32 a6 25 bd ae 29 9c 3d 6e d1 8e bd
       0.13959862 -0.0404417 0.07625137 -0.06973539
0001d0 be 64 5a 3e 6a 4f 19 3e 15 69 5d 3d 1a 3d b3 3c
       0.21327493 0.149717 0.054055292 0.021879721
0001e0 91 57 17 be 76 2c 86 bc b8 36 49 3e d1 ec 98 be
       -0.14779498 -0.016378623 0.1964978 -0.29868177
0001f0 75 be 5d bd 28 95 64 bd 9e 60 60 3e 96 ba 34 bd
       -0.054136712 -0.05580631 0.21911857 -0.044123255
000200 f4 d6 db 3b 0b 5b f1 3c 12 55 23 3e 17 89 3f be
       0.006708974 0.029462358 0.1595042 -0.1870464
000210 7e e8 4b 3e 81 9f 72 bd e5 e4 4e 3e 25 72 03 3e
       0.19912907 -0.059234146 0.20204504 0.12836511
000220 eb f7 2d 3e 5e be a2 bd 29 6d 09 be c1 dc 2c 3c
       0.16989104 -0.07946466 -0.13420548 0.010550679
000230 49 6d 39 be ca a1 7d 3e 06 8f ae 3e 99 c8 08 3e
       -0.18108095 0.24768749 0.34093493 0.13357772
000240 50 ba 2f be 78 77 98 bd cc 1a ec 3d fe d6 32 3e
       -0.17160916 -0.07444662 0.115285486 0.17464826
000250 8b c6 d4 3c 6d 17 19 be c7 03 9b bc a8 08 00 3e
       0.025973579 -0.14950342 -0.0189227 0.12503302
000260 c6 f3 7c bd 28 fc af be bf 2e 4b 3d bd 21 be be
       -0.061755918 -0.34372067 0.049605127 -0.37135115
000270 d9 1c 3a bc cd c0 ac bd 3c e4 39 3e 0f de 67 3e
       -0.011359417 -0.08435211 0.18153471 0.22643302
000280 b4 2d c2 3c 39 5a bb bd d3 f5 96 3c b4 c1 80 3e
       0.023703434 -0.09148068 0.018427765 0.25147784
000290 cd d9 0f bd a3 e1 90 3c 1d f6 39 3d c0 bf 61 bd
       -0.03511982 0.017685717 0.045400728 -0.055114508
0002a0 9b 68 a7 bd 17 85 0d bd f8 70 39 3d 6d 88 17 3e
       -0.08174249 -0.034550752 0.04527375 0.14798136
0002b0 7e 0c 3c 3c 1c 50 41 3e 43 26 f8 bd 38 90 76 be
       0.011477588 0.18878216 -0.12116673 -0.24078453
0002c0 9d 2d 9e be aa 3b 51 ba bf 3e d1 3c 15 10 23 bd
       -0.30894175 -0.0007981608 0.025542615 -0.03981026
0002d0 e8 1f 95 3e 39 33 01 be a7 a5 35 bc 02 92 41 be
       0.29125905 -0.12617196 -0.011086858 -0.18903354
0002e0 25 c8 39 bd ec b5 01 3e b6 81 88 3d 7d b2 2d 3d
       -0.04535689 0.12667054 0.066653654 0.042406548
0002f0 fc 85 e5 bd 8a 9f 86 be 56 8a 6d 3d 22 ef 9f be
       -0.11207196 -0.26293594 0.057993256 -0.3123713
000300 24 f9 08 3e 3d 44 90 3d a9 74 01 3d f5 8f de bd
       0.1337629 0.070442654 0.031605396 -0.108673014
000310 1c d6 9e 3e 1e 8b af 3d 4c 7e d2 bd 0a 9f 7d be
       0.31022727 0.085714564 -0.102779955 -0.247677
000320 77 d5 25 3e 0b 6f 8e 3c b8 f6 92 3d 3b af f7 bc
       0.16194712 0.017386934 0.07175964 -0.030234924
000330 13 48 52 be dd b6 1f 3c 7d 9b e5 ba 84 9d 08 be
       -0.20535307 0.009748188 -0.0017517653 -0.13341337
000340 39 66 4e 3d 63 eb 22 be da d4 83 be 79 f3 8b 3e
       0.050390456 -0.15910105 -0.2574833 0.27334192
000350 f7 1f 0d 3e 77 ce cd 3d 1e eb 1d 3e d1 00 9d bd
       0.13781725 0.10049146 0.15421721 -0.07666171
000360 b8 53 0b be 64 98 c5 3d 6a 81 09 be ce be 9e bc
       -0.13606155 0.09648207 -0.13428274 -0.019378092
000370 c2 bf 00 be 40 44 e2 3d 5e d8 89 3e 7c 3e be bc
       -0.1257315 0.11048174 0.26922888 -0.023223154
000380 ea a4 53 bc 38 6e c6 3c 23 0b 5f be 9f 28 d5 bd
       -0.012917737 0.024222478 -0.21781592 -0.104081385
000390 37 5f bc 3d cf 76 5a 3d fd 74 33 3d de 8b 88 3d
       0.09197848 0.05333596 0.04381274 0.066673025
0003a0 8c 43 fc 3d 9b 78 b1 3d 0b 1d 90 3d 35 0d ce bd
       0.12317571 0.08665582 0.070367895 -0.10061113
0003b0 9f 80 30 bd 62 cf 1c 3e b5 a7 5f 3d 80 10 0f 3d
       -0.043091413 0.15313485 0.054603297 0.034927845
0003c0 aa 7f 22 3e 8d 47 c5 3c 6b a5 83 3e d8 d8 10 bf
       0.15869012 0.02408197 0.2571214 -0.5658088
0003d0 48 93 e5 bc 00 56 5c 3d 37 ba 31 3e da 6c 6f bd
       -0.02802433 0.053792953 0.17356192 -0.05845342
0003e0 7f cc 4b 3d 6f c9 61 bc 13 dc 5c 3e 42 b3 3e be
       0.04975557 -0.013780936 0.21568327 -0.18623069
0003f0 18 b7 37 bd ce bb 59 be 96 f7 92 3e 29 12 a4 be
       -0.044852346 -0.21263048 0.28704518 -0.32045105

network_body.linear_encoder.seq_layers.0.bias f4 [128]
000000 98 83 0f bd ce 39 4a bd e0 13 4d be 46 67 26 bd
       -0.035037607 -0.049371533 -0.20027113 -0.040625833
000010 22 98 f9 bc 73 56 78 3c f5 a6 4a be a8 87 39 bc
       -0.03046805 0.01515733 -0.19790252 -0.011323847
000020 e7 9b 11 bd a1 30 3d be 87 f8 03 be f5 a8 08 3e
       -0.03554907 -0.18475582 -0.12887774 0.13345702
000030 5f 08 20 3d c5 e0 7a 3e 81 c5 a1 3d 4b b3 1c 3d
       0.039070483 0.24499805 0.07898999 0.038256925
000040 f5 f0 df bd be d9 41 be 15 87 4a 3c 97 7f e0 bd
       -0.10934631 -0.18930718 0.012361308 -0.10961836
000050 37 e8 27 be 7d 6e 3f bc 18 16 82 bd bc f0 76 be
       -0.16397177 -0.011684057 -0.0635187 -0.2411527
000060 0f fb 19 3e 1a b6 d3 3d b6 61 2b be d9 36 ac bd
       0.15037178 0.103374675 -0.16736493 -0.08408899
000070 4a b7 99 bc 44 ef 83 3d 00 99 14 be f3 10 f8 3d
       -0.018764157 0.06442121 -0.1451149 0.12112608
000080 6a 3e e8 bc fd fb ab bd 99 c8 7b 3d d4 75 46 3e
       -0.028350074 -0.08397672 0.0614706 0.19380885
000090 92 3f ab bd 78 a9 29 be 53 8a 03 3e 14 69 dd bd
       -0.083617344 -0.16568553 0.12845735 -0.10811058
0000a0 f1 06 12 be 70 de 7d 3e 1d 57 35 be 71 65 85 bd
       -0.1426046 0.24791884 -0.17709012 -0.06513489
0000b0 3c 09 1e be ae 84 4d 3e b1 b8 cc bd 3d eb 9a bd
       -0.1543321 0.20070145 -0.099961646 -0.075643994
0000c0 ea 6b 11 be 6f 17 12 be 7c 08 61 3e 35 be 5d 3d
       -0.14201322 -0.14266752 0.21975893 0.054136474
0000d0 c0 6a ed 3d 45 40 07 be 94 be a7 bc 7b 59 7e bd
       0.115926266 -0.1320811 -0.020476617 -0.062097054
0000e0 80 17 cb 3d 4a c1 e3 3d 29 97 4c 3d 81 0b 08 be
       0.09916592 0.11120851 0.049948845 -0.13285638
0000f0 f7 e8 ac 3d b6 3f 1f 3e be 1e c5 bd b8 0a e5 bd
       0.08442872 0.15551648 -0.09625004 -0.11183685
000100 9d 89 59 3d 0b ed 55 be 63 b3 28 be 9b ac 22 3d
       0.053109754 -0.20891206 -0.1647468 0.03971539
000110 ce 95 cc 3d 8f 81 02 3e ee e8 fc bd e4 8b 38 be
       0.099895105 0.12744735 -0.12349115 -0.18022114
000120 ae d4 46 be 83 48 53 be 01 35 be 3c 43 b1 f8 3d
       -0.19417068 -0.2063313 0.023218634 0.12143185
000130 ca 97 30 be 35 b5 aa 3d 78 32 52 3e 57 1c 4e 3e
       -0.17245403 0.08335344 0.20527065 0.20127998
000140 d4 16 1e be cd ed c3 bb 53 ba 89 3d 9e e8 a9 bd
       -0.15438396 -0.005979276 0.06724992 -0.08296321
000150 40 24 6d be b4 0e 25 be e5 f6 2e 3e b2 da 15 3e
       -0.2315836 -0.1611889 0.1708637 0.14634207
000160 3e 43 16 be 6a 87 30 3a b6 a0 0e be 6d 56 e9 3d
       -0.14674088 0.00067340455 -0.13928494 0.113934375
000170 c2 65 71 3c b5 b5 05 3e ac 91 ca 3c f9 1f 82 3d
       0.014733734 0.13057597 0.024727665 0.063537546
000180 76 bf 07 3e d2 c5 46 be 4c 04 e3 bd 56 61 5e 3d
       0.1325663 -0.194114 -0.11084804 0.054292046
000190 3f 5e 39 be 67 d8 dc bd b5 67 40 be 74 70 22 be
       -0.18102358 -0.10783463 -0.18789561 -0.1586321
0001a0 f9 55 63 be 72 2a 45 3e d3 ae 32 3c 71 03 84 3d
       -0.22200765 0.19254473 0.010905939 0.06445969
0001b0 22 e7 ca 3d e5 38 45 be 4a f0 17 be 15 f7 ff bd
       0.09907366 -0.19259985 -0.14837757 -0.12498299
0001c0 e4 21 18 3e ba f7 03 be 87 f6 28 3e 0a 74 af bd
       0.14856678 -0.12887469 0.16500293 -0.085670546
0001d0 e6 6d 54 3e 75 45 3e bd 16 2e dd bd 04 88 55 be
       0.20745048 -0.046452958 -0.10799806 -0.20852667
0001e0 57 4b 73 be 64 5c a4 3d 8d c5 b5 3d 7a 61 fb 3d
       -0.23759209 0.080254346 0.088755704 0.122744516
0001f0 e3 7c 45 3e fe b7 d7 3d 0c 24 a3 bc 31 f5 0e 3e
       0.19285922 0.105331406 -0.01991465 0.1396072

network_body.linear_encoder.seq_layers.2.weight f4 [128, 128]
000000 aa 72 7d bd 6b cc ec 3d 19 d1 fc bc 8c ac 0d be
       -0.06187693 0.11562427 -0.030861424 -0.13835353
000010 3c 6a 2e be 4a d8 86 3d d6 7c 07 be d8 c0 eb bd
       -0.17032713 0.065842226 -0.13231215 -0.115113914
000020 fa 7e 67 bd 57 65 55 be d3 d1 f6 bd 75 8e 1f 3e
       -0.05651758 -0.2083944 -0.120517395 0.15581687
000030 a7 61 e7 bd f3 0c 29 3e 59 19 db 3d 26 44 6d be
       -0.112979226 0.16508846 0.10698194 -0.23170528
000040 dc 43 d7 bd ac 22 61 3d b7 8e 4a be a2 de 22 3c
       -0.1051099 0.054964706 -0.19781004 0.009940775
000050 fd cb ce bd 24 dc eb 3c ff 0f 26 3c f8 7f bb bb
       -0.100975014 0.028791495 0.01013565 -0.005722042
000060 27 c9 7e bd 90 04 26 3b 85 92 cd 3c e6 c4 83 3d
       -0.062203553 0.002533231 0.02509428 0.0643404
000070 99 52 18 be 3a 06 f9 bd d9 7f f4 3d 88 70 d7 3d
       -0.14875259 -0.12159391 0.119384475 0.105195105
000080 74 c1 f5 bd 46 09 1a be 74 d5 ac 3c 85 4e 86 3d
       -0.11999789 -0.150426 0.021097876 0.06557945
000090 e2 c7 0b bd 63 e8 b4 3c 7a e2 1b bd c8 41 0b bd
       -0.03412617 0.022083467 -0.03805778 -0.03399828
0000a0 33 df 4f 3d 3c 58 71 3e 9a a4 e9 bd dc 85 4b bb
       0.05074997 0.23568815 -0.114083484 -0.0031055128
0000b0 28 31 10 bd 9e fb c0 3d 3d f2 d3 bd 79 13 f1 bd
       -0.03520313 0.09422992 -0.10348938 -0.11771292
0000c0 e2 9d 86 bd 60 3f 3c 3d 4c ed 67 3d 9e cc 07 3d
       -0.065730825 0.045958877 0.05662279 0.033154123
0000d0 52 0a 77 3e 1b f5 ed 3d f5 05 fd bd 03 ee 34 be
       0.2412503 0.11619016 -0.12354652 -0.1766892
0000e0 b5 df 97 3e e7 49 18 3e a3 24 1a be 50 30 7f 3b
       0.29662862 0.14871942 -0.15053038 0.0038938709
0000f0 0e 2e f8 bd e4 92 c5 3d 15 02 08 3e 1b c8 42 3d
       -0.12118159 0.09647158 0.13282044 0.047554117
000100 8c 67 86 bd 16 0d a4 3b 5a 1f 7c bd a2 0b 0d 3e
       -0.06562719 0.005006443 -0.061553337 0.13773969
000110 da 73 80 bc d7 0b 0c bd ba 01 12 be b6 c1 d0 bd
       -0.015680242 -0.03419098 -0.14258471 -0.101931974
000120 0c 2c d5 bd 7c 1e 35 be 83 4a 06 be d9 5e 46 bd
       -0.10408792 -0.1768741 -0.13114361 -0.048430298
000130 67 c4 0f be 5c 67 8a bd cd 48 ac 3d a6 17 29 bc
       -0.14039765 -0.067579955 0.08412323 -0.01032058
000140 b9 45 d3 bc a4 9c 7f bc a3 aa 6b bd 32 a7 1f 3d
       -0.025790082 -0.015601311 -0.05753578 0.03897781
000150 dd 94 3f bc 8f 87 b5 bc b8 81 68 be 45 bf c2 be
       -0.011693207 -0.022159366 -0.22705734 -0.38036552
000160 b2 7d 70 be b7 c5 14 be 45 74 bc 3d 43 95 25 be
       -0.23485449 -0.14528547 0.09201864 -0.1617022
000170 11 34 2e bd 64 ff e7 bd fa ae 78 3e 76 53 8b bd
       -0.042530123 -0.11328009 0.24285498 -0.06803028
000180 7b 51 d1 3d 84 c6 01 be 4e ac 4d 3e f0 5e 3e be
       0.10220619 -0.12673384 0.2008526 -0.18590903
000190 61 58 9e 3b be 55 27 bd 82 cd 4c 3d 6e a4 5b bb
       0.004832313 -0.040853254 0.050000675 -0.0033514756
0001a0 94 17 50 3d 34 9b 2d bc 6d 44 8f be 40 67 85 bd
       0.050803736 -0.010596085 -0.27981892 -0.06513834
0001b0 e0 80 f3 bd 8d d6 bb 3d f0 23 85 3d 70 7c 3c bd
       -0.11889815 0.09171782 0.06500995 -0.04601711
0001c0 c6 16 a0 bd 8d 73 e9 3d a4 6e f0 bd 63 ed d0 bc
       -0.07816844 0.11398993 -0.11739853 -0.02550382
0001d0 b0 70 ea 3c dc c9 d0 bd 9d 16 e7 3b 2b 60 0c 3e
       0.028618187 -0.101947516 0.0070522563 0.1370856
0001e0 9a b5 83 3d ee 81 46 be 67 be bf bd 8a 24 eb 3c
       0.06431122 -0.19385502 -0.09362488 0.028703947
0001f0 0d 9e 1d be 81 55 bd bd 89 27 fb bc f3 2d a9 3c
       -0.15392323 -0.09244824 -0.0306585 0.020651793
000200 22 37 e2 bc 80 3c 02 bc f1 7e b9 3d fa 31 21 bc
       -0.02761418 -0.007948995 0.09057415 -0.0098385755
000210 c6 3c cb bd c5 6e 0f 3e 9d 1e ca 3c 9c f1 88 3c
       -0.09923701 0.14007099 0.0246728 0.01671677
000220 75 a0 b5 3c c3 4b 0a 3e 59 3a 83 bd d9 12 a6 bb
       0.022171238 0.13505463 -0.06407613 -0.005068165
000230 d2 c7 94 bc 2f 7d 43 3d b7 19 0a 3d d3 4d 24 3e
       -0.018161688 0.047726806 0.03371593 0.16045313
000240 5c 6f c3 bc b3 ad 60 be 49 3f 51 be 2a 6a c9 bd
       -0.023856811 -0.21941261 -0.20434298 -0.09834702
000250 c9 df e8 bc aa 80 ce bd f9 23 96 3d 15 cb 92 bd
       -0.028427022 -0.100831345 0.0733108 -0.07167641
000260 48 ea 97 3b b2 ea 51 3d 61 8d 11 be 2e 94 10 3d
       0.004636083 0.051249214 -0.14214088 0.035297565
000270 f5 e2 00 bd c0 04 9e 3d 94 e5 9b bd 80 2d 08 be
       -0.031466443 0.0771575 -0.07612148 -0.13298607
000280 54 31 9b bc 08 c6 f1 bd d2 5b ac 3d 31 03 0c 3e
       -0.01894442 -0.118053496 0.08415951 0.13673092
000290 cb f2 36 be e0 18 35 3d d6 88 10 bd 33 5a 73 be
       -0.17866056 0.044213176 -0.035286747 -0.23764877
0002a0 17 71 0a 3d 4f 8f a8 bd 37 56 df bd ca 6c 5e 3d
       0.033799257 -0.08230459 -0.10905116 0.054302968
0002b0 53 7c ad 3b 3b cf 10 3e 81 da 41 be f5 b3 25 be
       0.0052943616 0.14141552 -0.18931009 -0.1618193
0002c0 5f a1 85 3d cb 6c 99 bd 45 66 06 3e f3 57 09 be
       0.0652492 -0.07491454 0.1312495 -0.13412456
0002d0 38 4b c6 3d 6c 9b a1 bd 14 2f 81 bd 72 44 9e bd
       0.096823156 -0.078909725 -0.063078076 -0.07727899
0002e0 a7 0e d4 3c 27 ce 74 3e 2b 68 d6 bd 81 71 e1 bb
       0.025885893 0.23906766 -0.10469087 -0.006879986
0002f0 73 46 0b ba f9 14 31 3c 8b f6 3c 3e 74 80 8a bc
       -0.0005312927 0.010808223 0.18453424 -0.016906954
000300 35 dc 3c 3e f0 a4 a5 bd 3c e0 1e 3d 1c c1 6c 3b
       0.18443377 -0.080881 0.038788065 0.0036125844
000310 bd ed 00 3e 78 7b 6f bd 0e f0 3a be 94 d4 ef 3c
       0.1259069 -0.05846736 -0.18255636 0.02927617
000320 7a d9 be 3c 7f 47 84 bd 2e 0c e3 3c e2 ad 0e be
       0.02329706 -0.06458949 0.027715769 -0.13933519
000330 5a bd dd bd df c3 19 3e 44 af 64 3c 66 d0 0e 3c
       -0.108271316 0.15016125 0.013957802 0.008716678
000340 9a e7 91 3d 1a 60 0b be 71 f1 cf 3d 2d c2 0e 3d
       0.071242526 -0.13610879 0.10153473 0.03485315
000350 eb c8 dd bd 02 45 3f 3d 00 23 26 3d 79 96 7d bd
       -0.10829338 0.04669667 0.040560722 -0.06191108
000360 73 97 f4 bd 82 1a 2c bc 52 d5 2f 3c c8 e6 c1 3d
       -0.11942949 -0.010504367 0.010732012 0.09467846
000370 31 bf 10 be 6b ca 62 bb 48 b8 a7 be 4a e2 06 be
       -0.14135434 -0.0034605514 -0.32757783 -0.1317226
000380 2d ae 08 3d 0c de 3d bc 37 ea 83 bc d1 af ad bb
       0.033369232 -0.011588585 -0.016102893 -0.0053005
000390 69 95 38 bc 39 87 db 3d c0 16 b5 bd b8 dc 3a bd
       -0.011266091 0.10719151 -0.0884223 -0.04562065
0003a0 2c 54 cc 3a 2f b9 07 3e 2a 07 b2 bd d2 98 cf bd
       0.001558905 0.13254236 -0.08692773 -0.1013657
0003b0 dd 53 85 3d c9 a1 80 3c 2c d7 ae bd c1 4a 2f be
       0.06510136 0.015702145 -0.085371345 -0.1711836
0003c0 80 01 5b bd cd da 2c bd a0 aa ad 3d 7a 56 82 bd
       -0.053468227 -0.042200852 0.0847981 -0.0636415
0003d0 11 d5 26 3e ec 02 a0 3d 7b 99 13 3d f0 72 51 bd
       0.16292216 0.07813057 0.036035042 -0.051135004
0003e0 d6 da 3d be 04 8a 34 bd 8f bd 70 be 20 72 46 be
       -0.1854051 -0.044076934 -0.23509811 -0.19379473
0003f0 dc 11 2e bc 5b 98 88 3d 0e d9 97 bd 35 3b 68 3d
       -0.010624375 0.066696845 -0.07414447 0.05669709

network_body.linear_encoder.seq_layers.2.bias f4 [128]
000000 49 4f 57 bc 63 1e 32 3e 49 00 0b bc 47 d8 20 be
       -0.013141462 0.17394404 -0.008483955 -0.15707503
000010 f1 d5 2c 3e c3 67 33 3e 4a ba 38 bd ef c8 37 be
       0.16878487 0.1752005 -0.045099534 -0.17947744
000020 40 9c 11 3e 50 53 85 3d 3c b3 3a be 9a f3 d8 3d
       0.14219761 0.06510031 -0.18232435 0.10593338
000030 63 40 18 3e 91 6b ba 3c 3d 09 f4 3d c6 5b 34 3e
       0.14868312 0.02275637 0.119158246 0.17613134
000040 c6 02 10 bc cb 58 43 be 60 b0 6e 3d 9c fb a7 3d
       -0.008789724 -0.1907684 0.058273673 0.082022876
000050 2b 8d 22 bd d2 d7 ce bd 35 a4 48 3e 17 43 43 bc
       -0.03968541 -0.10099758 0.1959389 -0.011917851
000060 91 48 66 be e6 70 60 be c6 89 dd 3d a2 ea 5e be
       -0.2248862 -0.21918067 0.10817294 -0.21769193
000070 f1 1c 9c 3d 2c 9a 32 be 05 44 03 3d fb a0 24 3d
       0.07622708 -0.17441624 0.03204729 0.040192585
000080 1d 8a fa 3d 33 af ba 3d 40 af 68 be 25 d7 e9 3d
       0.12233374 0.09115448 -0.22723103 0.11417989
000090 f7 53 93 bc f7 93 0b 3e 16 b9 51 be 29 40 4a bc
       -0.017984373 0.13630663 -0.20480761 -0.012344399
0000a0 cf 17 44 be 5e 1e 17 3e 1b 32 a2 bd 9c d5 3a 3e
       -0.19149707 0.14757678 -0.07919713 0.18245548
0000b0 be e0 0c 3e 86 e9 04 3e 77 ca 33 be 6d 10 84 3d
       0.13757607 0.12979707 -0.17557703 0.064484455
0000c0 3e 31 e9 bd 8f 5a 4f be 4d 4a a2 3c 10 45 db bd
       -0.11386345 -0.20249389 0.01981082 -0.10706532
0000d0 e1 26 dc bd f2 c5 fb 3d d9 b0 4e 3c 14 07 35 3e
       -0.10749603 0.122936144 0.012615406 0.17678481
0000e0 79 12 f7 bd d5 08 23 3e b1 00 02 3e fe 78 d0 bd
       -0.1206407 0.15921338 0.12695576 -0.101793274
0000f0 70 f4 23 3d ef a4 1d be 29 cf 0b be a7 55 19 3d
       0.040028036 -0.15394948 -0.13653244 0.0374352
000100 c3 3b df bd 03 75 aa bd 73 8f 97 3d 15 75 24 be
       -0.109000705 -0.083230995 0.07400408 -0.16060288
000110 a1 77 be bd 46 a8 29 be 5d a4 86 3c 51 91 85 3d
       -0.09300161 -0.16568097 0.016435796 0.065218575
000120 05 57 c7 3b 33 82 59 3d 07 eb 12 3e f9 ea d9 3d
       0.0060833716 0.053102683 0.14347468 0.106405206
000130 53 3f 2d 3e 41 20 27 be fd 85 ab 3d 24 ef 3d be
       0.16918688 -0.16320898 0.083751656 -0.18548256
000140 d0 dd 9f 3d 2e d0 3a be 33 c5 ac 3d d1 20 e6 bd
       0.07805979 -0.18243477 0.0843605 -0.11236728
000150 93 cc 2b be d1 69 c4 3d f5 95 4e be 8b ae b0 3d
       -0.16777258 0.095904954 -0.20174392 0.086270414
000160 38 62 31 3e 80 12 33 3e f9 a6 65 be ab db 4e bd
       0.17322624 0.17487526 -0.22426976 -0.05050246
000170 e5 97 2f be 5b 52 66 3d 72 84 b1 bd 18 ef bb 3d
       -0.17147787 0.056230884 -0.0866784 0.09176463
000180 57 42 1b be 69 c7 58 3e 2b 4c ea bd 24 58 21 bd
       -0.15162025 0.21169819 -0.11440309 -0.039390698
000190 7e 47 64 3d 84 14 32 bd a8 47 8b bd b3 7e 2b 3d
       0.055732243 -0.043476596 -0.06800777 0.041868877
0001a0 ed b9 02 3e 80 fb 91 bd 0e 0e e2 bd 66 5f e6 3d
       0.12766238 -0.07128048 -0.11037837 0.112486646
0001b0 85 2a 4b be ff 36 fa 3b a7 96 29 be b7 eb 34 be
       -0.19840439 0.0076359506 -0.16561376 -0.17668043
0001c0 e1 e5 4b be 76 c5 01 be 39 f0 dc 3d ff 74 3b be
       -0.1991191 -0.12672982 0.10788006 -0.18306349
0001d0 1e fd e9 bd 7e 3e e7 3c 5c 31 49 be 9a db 95 3d
       -0.114252314 0.02822804 -0.19647735 0.07317276
0001e0 db 3d 92 3b dc 88 9a 3c 9f 6c aa 3d d8 aa 22 be
       0.00446294 0.018864088 0.08321499 -0.15885484
0001f0 c4 52 b0 3d 72 0b 2e be 50 85 ce 3d 4a 9a 40 be
       0.08609536 -0.16996554 0.10084021 -0.18808857

distribution.log_sigma f4 [1, 2]
000000 da 82 bb bf 44 a8 ae bf
       -1.4649308 -1.36451

distribution.mu.weight f4 [2, 128]
000000 61 c7 ab bd 52 e7 13 bd 85 f7 b2 bd 0e 28 4f bc
       -0.08387638 -0.036109276 -0.08738617 -0.012643827
000010 74 1f a3 bd 12 93 5b bd 8d d2 d8 3d 9e 31 00 3d
       -0.079649836 -0.053607054 0.105870344 0.03129732
000020 2e f6 a5 3d 66 34 61 bb cd ad 52 bd b4 cd 96 3c
       0.08103596 -0.0034363507 -0.05143528 0.018408634
000030 b7 56 07 bd 76 0e 23 3d a0 bd 9c 3a 9e 70 04 3e
       -0.033041682 0.039808713 0.0011958368 0.12933585
000040 68 66 f5 3c 84 a8 c5 3b 09 c3 11 3c 05 e3 5d 3c
       0.029956058 0.0060320515 0.008896598 0.013542895
000050 5f 70 84 3d 2b 05 86 3d e2 d5 2c 3c 28 f4 f4 3d
       0.064667456 0.065439545 0.0105490405 0.119606316
000060 c3 90 76 3c 69 6b 97 3d 55 93 53 bd a8 36 7e bb
       0.015049162 0.07393534 -0.05165418 -0.0038789902
000070 31 c0 06 3d 01 9c ae 3d 60 53 04 3d 78 b6 9e bd
       0.03289813 0.08525849 0.032306075 -0.07749647
000080 17 c6 45 bd 2b 0b 53 3d 3a db ad 3d a6 c4 ad bd
       -0.048284616 0.051524322 0.0848908 -0.08484773
000090 36 6b 16 3d 1b cb 5d 3d dc 24 ac 3c 8e 2b 0c 3d
       0.036723338 0.054148775 0.02101367 0.034221224
0000a0 30 e4 4b bc b1 f2 3c 3e 6f 63 8a 3d bb 61 b8 3d
       -0.012444541 0.18451954 0.06757247 0.090030156
0000b0 5e 17 cc 3d 41 f9 ae ba 29 f6 50 bd 69 fe 20 3c
       0.099653944 -0.001334943 -0.051016007 0.009826281
0000c0 dd 4b 01 3b 54 5f 49 3d 45 6b 3d be e1 f6 78 3c
       0.0019729056 0.049163178 -0.18497951 0.015195579
0000d0 11 8a b9 bd c8 c5 4c bc 50 cb 9d 3b 33 fe 37 bc
       -0.09059537 -0.012498327 0.0048154965 -0.011230039
0000e0 d7 63 95 bd eb 0f 2b bd 50 73 c4 bd 37 f6 44 bc
       -0.072944336 -0.041763227 -0.095923066 -0.012021593
0000f0 af db a3 bd ed 2e eb bd 38 e2 fa bd 7b e1 8d 3d
       -0.08000886 -0.1148356 -0.12250179 0.069277726
000100 04 7e a2 bd 1d cb a3 bd 31 42 f4 bc ae 2e 9c bb
       -0.07934192 -0.07997725 -0.029816719 -0.004766307
000110 53 f3 fd bb 48 ff 46 3c 5a fd 60 3d c2 bf 5d 3d
       -0.007749954 0.012145825 0.054929115 0.054137953
000120 2b fc 1d 3e 4f 32 5c 3d 49 53 1d 3c be 57 0b be
       0.15428226 0.053758916 0.009602376 -0.1360769
000130 1c 0d 4a 3e 6e 8c fc 3c 7e 04 82 3d 6a 7e 06 bb
       0.19731563 0.03082868 0.06348513 -0.0020522126
000140 13 27 5b 3d 9e 18 87 bc c2 32 01 3d 90 9a 8c bc
       0.05350406 -0.01649123 0.031542547 -0.017163545
000150 9b f9 29 3d 10 52 1d 3e c3 b5 32 3a 10 7a 75 3c
       0.041497808 0.15363336 0.0006817246 0.014982715
000160 40 fe 32 3e b9 b7 09 3c d8 9e 2a 3d 90 c9 4d bb
       0.17479801 0.008405619 0.04165539 -0.0031400658
000170 11 5a 96 bd ce c1 c5 3c 90 3b ad 3d 4f 0d 07 3d
       -0.073413976 0.024140265 0.08458626 0.032971676
000180 91 33 06 bd a6 d3 37 3e aa 2a 7a bd e4 68 68 3d
       -0.03276402 0.17951831 -0.061075844 0.056740656
000190 89 32 bb bc 98 b9 a8 3d 42 47 31 bd 14 d1 0c be
       -0.022851245 0.08238524 -0.043280847 -0.13751632
0001a0 20 2d 67 3a 76 ba 03 3e c3 6c ef bc f2 43 4b 3e
       0.0008818675 0.12864098 -0.029226666 0.19850138
0001b0 b0 82 69 3b 79 2e c1 3d ab 39 b4 bb 59 da ca 3d
       0.0035630874 0.09432692 -0.0055000386 0.09904928
0001c0 f9 d5 a5 bc cc 58 00 3d de 26 2c bd e7 8f f2 3b
       -0.020243632 0.031334683 -0.042029254 0.0074024084
0001d0 84 0e 44 bd d6 1c 02 3d 88 e8 72 3c 71 bc 86 3d
       -0.047865406 0.03176578 0.014825948 0.06578911
0001e0 d0 8c 22 bc 3f ae 7c 3d 55 21 aa 3b f5 72 87 3d
       -0.009921268 0.06168961 0.005191962 0.06613723
0001f0 64 13 30 bd 17 1a 81 3d 8f d2 86 bc fa 4f 4d bd
       -0.042987242 0.06303804 -0.016457824 -0.0501251
000200 12 75 bc bc 9c 0e a5 3d 3c af 85 bd 3e 07 de bd
       -0.023005042 0.08059427 -0.06527564 -0.10841225
000210 0d c0 57 bd bd 4f b1 3d 7e 36 0f bd 6c 9d 21 bd
       -0.05267339 0.08657787 -0.034964077 -0.03945677
000220 ee 4e eb 3d 91 87 c1 bc b1 07 b6 bd c9 c4 80 3d
       0.11489664 -0.023624213 -0.08888186 0.06287534
000230 88 80 ea 3d 0c ee 7f bd 39 dd a3 3d a2 39 67 3e
       0.11450297 -0.06248288 0.08001179 0.22580579
000240 cd 55 01 bd 06 7d 7e bd e4 21 52 3a 98 a2 3d 3d
       -0.031575967 -0.06213095 0.00080159144 0.04629764
000250 c1 10 32 bd 09 cf 27 bd fb 7f 24 3e 54 17 e3 bb
       -0.04347301 -0.04096893 0.16064446 -0.006930271
000260 0e a2 f5 bb 41 33 e7 bc b4 14 54 bd ac 7d 1d be
       -0.007496125 -0.028222682 -0.051777557 -0.15379971
000270 b4 39 ee 3c df af 91 bd 9f fa 0b 3d db 9b 0d bc
       0.02908025 -0.07113623 0.034174558 -0.008643116
000280 31 de 17 bd d8 3b fc 3c ca 54 f2 bd d0 c9 0d 3d
       -0.037077133 0.030790254 -0.118325785 0.03461629
000290 6e 8a ed 3c 50 27 a7 3d 43 68 4e bd 54 3b 9c bc
       0.028996672 0.08161795 -0.0503924 -0.019071259
0002a0 36 ef ee bd 5c d4 49 3e f7 f4 75 bc cb d1 2e 3e
       -0.116667196 0.19709915 -0.015012017 0.17072217
0002b0 23 f8 1a 3c 3e 27 f0 3d 4f 70 8a bd c4 e9 3f 3c
       0.0094585745 0.11726235 -0.067597024 0.011713449
0002c0 85 86 13 bc 46 9e c9 bc bb 06 cc 3b f7 42 23 bd
       -0.00900424 -0.024611603 0.0062263883 -0.039858785
0002d0 56 a5 aa bd de 28 aa ba 49 58 1d 3b d8 7f ae 3d
       -0.083323166 -0.001298215 0.002400892 0.08520478
0002e0 a6 a1 04 be 33 e1 dd 3d 67 18 86 bd dc 9b 00 3c
       -0.12952289 0.10833969 -0.06547623 0.00784966
0002f0 03 dd 6e 3c 0c 0e 12 bd 1a 16 af bc d0 9f e3 bc
       0.0145790605 -0.035657927 -0.021372844 -0.027786165
000300 d5 e8 37 bd 6f 61 68 bc 76 bb e9 3c 8d fd ea bc
       -0.04489978 -0.014183386 0.028531771 -0.028685356
000310 f3 1e 81 3c 90 93 73 bd 07 08 c3 3d 9c c2 28 3d
       0.015761828 -0.0594669 0.095230155 0.04120122
000320 73 3f ab bc f0 21 06 3c 0b 1f a0 3d 0f 40 6d bd
       -0.020904278 0.008186802 0.07818421 -0.05792242
000330 28 5c 55 3e 4b 09 55 bd 61 08 36 3d 9d 9e 16 bd
       0.20835936 -0.052010816 0.044441584 -0.03677236
000340 fa 55 46 3d 78 b5 7b bd 8e 9e ab 3d 09 4a 9e 3b
       0.048421837 -0.06145236 0.08379851 0.004830603
000350 27 0c 9e bd b2 41 f9 3d 24 66 8b bd b2 77 16 3d
       -0.077171616 0.121707335 -0.06806591 0.036735244
000360 54 bf 41 3e 0c f9 11 3e f6 df 37 bd 3a 3e 65 3b
       0.18920642 0.1425516 -0.04489132 0.0034979717
000370 96 7e c1 bd 09 18 cb 3c c7 40 6f bd 0f a6 77 bb
       -0.094479725 0.024791734 -0.058411386 -0.0037788188
000380 ae c0 98 3d 1e 41 4d 3e 3a 1f 14 bc 78 5e d3 38
       0.07458626 0.20044371 -0.009040648 0.0001007886
000390 a1 e7 37 bd 7e a5 4b bd ca 94 2c 3c 22 00 1a bd
       -0.044898633 -0.049718373 0.010533521 -0.037597783
0003a0 89 d4 57 3d 1f ab d2 bd 2f de 67 be 73 b8 b1 3d
       0.052692924 -0.10286545 -0.2264335 0.08677759
0003b0 f7 3b 20 bd 0b 6a 6d bc a1 fc 95 bc c6 3a e5 bd
       -0.039119687 -0.014490615 -0.01830894 -0.11192851
0003c0 d5 7b 3a bd 2f 1b af bd f3 c0 7a 3d da 37 6a bd
       -0.04552825 -0.08550107 0.061219167 -0.05718217
0003d0 6f d9 26 bd 05 be d7 bc 4c f1 04 be b5 df 1c 3d
       -0.040734705 -0.026335726 -0.12982672 0.03829928
0003e0 50 b1 92 3d c2 c6 4a 3d 9b 16 b9 3c 11 88 80 bd
       0.07162726 0.049505956 0.022593787 -0.062759526
0003f0 20 d0 76 3c cf f7 75 bb 69 5f 30 3d 78 34 dd bd
       0.015064269 -0.0037531739 0.04305974 -0.10801023

distribution.mu.bias f4 [2]
000000 2e e1 8e bc b7 7d 4a 3e
       -0.017441358 0.19774519

critic.network_body.vector_processors.0.normalizer.running_mean f4 [52]
000000 bc 6e 9d 3c 79 13 7b 3f 65 54 49 35 d8 ec 94 3e
       0.019217841 0.9807659 7.5001145e-07 0.29086947
000010 ed 99 8f 3c 89 81 7b 3f c7 53 c9 35 67 bc 95 3e
       0.017529452 0.9824453 1.5000049e-06 0.29245302
000020 09 21 a2 3c 87 ef 7a 3f 8f 54 49 35 e0 c3 94 3e
       0.019791143 0.9802174 7.5001384e-07 0.2905569
000030 b2 1d 81 3c f0 f3 7b 3f 9c 53 c9 35 84 2b 97 3e
       0.01576123 0.98419094 1.5e-06 0.29525387
000040 87 3a a1 3c 8c f9 7a 3f e0 37 86 34 ab 89 94 3e
       0.019681228 0.9803703 2.50001e-07 0.29011282
000050 4d 5b 83 3c 22 e5 7b 3f f6 37 86 35 a9 b0 98 3e
       0.016034747 0.98396504 1.0000065e-06 0.2982228
000060 dc 32 a6 3c 22 d2 7a 3f 46 38 06 35 ce 46 94 3e
       0.020287924 0.9797689 5.000078e-07 0.2896027
000070 76 bd 8f 3c 47 85 7b 3f 48 38 06 35 a2 40 9a 3e
       0.017546397 0.9825024 5.000079e-07 0.30127436
000080 e1 3e a5 3c f6 d5 7a 3f fa 37 06 35 30 1c 94 3e
       0.020171585 0.9798273 5.0000347e-07 0.28927755
000090 85 1e ac 3c d6 a0 7a 3f 46 38 06 35 8b a9 9b 3e
       0.021010647 0.97901666 5.000078e-07 0.3040279
0000a0 5e 64 bd 3c b3 13 7a 3f 48 38 06 35 28 b6 93 3e
       0.023119148 0.9768631 5.000079e-07 0.28849912
0000b0 ce 73 00 3d 95 f7 77 3f 44 38 06 35 64 db 9b 3e
       0.03136044 0.96862155 5.000077e-07 0.3044082
0000c0 f7 2f e7 3c 35 c3 78 3f e0 37 86 34 ed f4 93 3e
       0.028221114 0.9717286 2.50001e-07 0.288978

critic.network_body.vector_processors.0.normalizer.running_variance f4 [52]
000000 2c 41 93 47 fd 48 93 47 ed ff 7f 40 28 50 1e 48
       75394.34 75409.98 3.9999955 162112.62
000010 45 8b 86 47 d1 8f 86 47 a6 ff df 40 c5 bb 20 48
       68886.54 68895.63 6.999957 164591.08
000020 8c 8e 97 47 2b a6 97 47 97 ff 7f 40 08 ec 1d 48
       77597.09 77644.336 3.999975 161712.12
000030 1d 64 72 47 99 6f 72 47 e5 fe df 40 03 51 25 48
       62052.113 62063.598 6.999865 169284.05
000040 ef ba 96 47 cd cb 96 47 fe ff ff 3f b5 4d 1c 48
       77173.87 77207.6 1.9999998 160054.83
000050 cc 87 76 47 45 94 76 47 d7 ff 9f 40 3e 58 2a 48
       63111.797 63124.27 4.9999804 174432.97
000060 29 48 9b 47 bc 5b 9b 47 ec ff 3f 40 48 cf 19 48
       79504.32 79543.47 2.9999952 157501.12
000070 4f ad 86 47 ee b3 86 47 5d ff 3f 40 d2 17 30 48
       68954.62 68967.86 2.9999611 180319.28
000080 af 68 9a 47 4b 7b 9a 47 fc ff 3f 40 7a 9b 17 48
       79057.37 79094.586 2.999999 155245.9
000090 44 b3 a0 47 59 bd a0 47 d5 ff 3f 40 ae 15 36 48
       82278.53 82298.695 2.9999897 186454.72
0000a0 48 71 b0 47 82 86 b0 47 5e ff 3f 40 29 1a 16 48
       90338.56 90381.016 2.9999614 153704.64
0000b0 a5 51 ed 47 c5 56 ed 47 e2 ff 3f 40 fa 8f 37 48
       121507.29 121517.54 2.9999928 187967.9
0000c0 2b 42 d6 47 09 54 d6 47 fe ff ff 3f fb 2c 18 48
       109700.336 109736.07 1.9999998 155827.92

critic.network_body.linear_encoder.seq_layers.0.weight f4 [128, 52]
000000 bd 11 39 3e a4 79 45 be f1 df f4 bd 04 1b b1 be
       0.18073173 -0.19284683 -0.11956776 -0.34590924
000010 cd d6 96 bc fa c2 c0 bc ff dc 7e be e9 00 7c 3d
       -0.018412972 -0.023530472 -0.24888991 0.061524305
000020 19 bd 71 bc 46 4e 5e be 57 53 d6 bd 6e 15 90 bd
       -0.014754557 -0.21709546 -0.104651146 -0.070353374
000030 d5 ff be bb 61 72 06 be 07 7f bd 3d 3f 48 38 be
       -0.0058288374 -0.1312957 0.09252744 -0.1799631
000040 30 d0 3c bc 29 ce ea 3d cf 05 0f 3e e6 6c f3 bc
       -0.011524245 0.11465103 0.1396706 -0.029715013
000050 7b fb bc 3e 21 81 03 3c a6 74 35 be fe 91 0f 3e
       0.36910614 0.008026392 -0.17720279 0.14020535
000060 c7 40 bd 3c 22 db 1c be de 23 86 be ce 7b e2 bd
       0.023102177 -0.15317968 -0.2619924 -0.1105877
000070 4d 14 c6 3d 76 ce 86 bd 89 70 46 be 69 f9 41 3b
       0.09671841 -0.06582348 -0.19378866 0.0029598123
000080 60 f5 93 3d 2d 88 39 be 25 8a b3 3d ff 98 8c be
       0.07224536 -0.18118353 0.08766583 -0.27460477
000090 17 a2 d1 3c 9f c3 46 3d 0b 32 22 be 97 56 55 3c
       0.025589986 0.048526403 -0.15839402 0.013021133
0000a0 74 27 09 bd be c3 f5 bc 4c 89 76 be 3b 42 8f 3c
       -0.03348489 -0.030000564 -0.24075812 0.017487636
0000b0 58 b7 a2 bb e5 81 94 bd 36 13 9a bd c7 89 a7 bc
       -0.004965704 -0.07251338 -0.075231954 -0.02045144
0000c0 c7 19 c3 3e f4 37 31 be d6 b8 95 bd dd 70 6d be
       0.38105604 -0.173065 -0.07310645 -0.23187585
0000d0 e8 5d 7a 3e f0 74 9e 3e 76 e9 b6 be bd f6 52 3e
       0.24449885 0.3094859 -0.35724992 0.20601936
0000e0 74 a5 43 bd 81 9c 4e be 73 3a 5f be 55 1e 86 bd
       -0.04776521 -0.20176889 -0.2179964 -0.06548754
0000f0 2e 68 96 bd f4 35 68 bb e2 74 95 be 4c 69 45 3e
       -0.073440894 -0.003543255 -0.29190737 0.19278449
000100 f0 4c 5e bd 5f e5 30 be 02 5f 58 be bb e7 a1 3d
       -0.054272592 -0.17274998 -0.21129993 0.07905527
000110 7a bd bd 3c 96 9e 99 bc be 4f 31 be 4b 7d 82 3d
       0.023161639 -0.018752377 -0.17315575 0.06371554
000120 9c 42 fc 3d 38 d8 9d 3d 0e 1c d3 bd 14 29 b7 bd
       0.12317392 0.07707256 -0.103080854 -0.08943382
000130 70 3c 9f bd 01 f7 65 3e 09 a3 37 bc 72 e4 34 3e
       -0.077751994 0.22457506 -0.011208304 0.1766527
000140 a9 ff d8 3d 65 e8 de 3d ca 86 0b 3b 48 50 79 bc
       0.10595638 0.108841695 0.0021290057 -0.015216894
000150 33 ae 0d bc bc e4 41 3e 6b 73 92 3e 2e 5b fd 3d
       -0.008647489 0.18934911 0.28603682 0.12370907
000160 50 bd 88 3d 36 6f c5 3a e3 33 4a be ae 0b 8f bc
       0.066767335 0.0015063051 -0.19746356 -0.017461624
000170 61 14 b6 bd 12 0d c1 3d 5a da 97 be 4e d1 41 be
       -0.08890606 0.09426321 -0.29658777 -0.189275
000180 3a 99 59 3d 71 39 7e be 0a 8a ed bd 47 43 18 be
       0.053124644 -0.248266 -0.115985945 -0.14869414
000190 e4 fb d4 3d e3 e4 3f 3e e6 bf c3 3d 13 b6 88 3e
       0.10399607 0.18739657 0.09558086 0.26701412
0001a0 37 c6 fa 3d 63 0c f6 bd 5c 72 24 bd 16 8c a6 3d
       0.12244838 -0.12014081 -0.040148124 0.08132188
0001b0 85 a2 22 be fe 8e 7a be ee 54 29 be dd 2c b7 3e
       -0.15882309 -0.2446861 -0.16536304 0.35776415
0001c0 7b 1a bd bc ff 53 28 bd b1 6c c6 be a8 84 f8 3c
       -0.023083916 -0.04109573 -0.387548 0.030336693
0001d0 23 d8 24 3e 4d 98 4b bd 65 a4 d6 bc ba 60 49 3e
       0.16098075 -0.049705792 -0.026201436 0.19665805
0001e0 dd 13 6c 3e e6 df 09 be e2 ac 2a 3c 88 e0 9c be
       0.23054452 -0.13464317 0.010417195 -0.30640054
0001f0 dd 16 b6 3a 3d ed 75 3d 36 c0 b4 3d cb 3e 17 be
       0.0013892312 0.0600407 0.08825724 -0.14770047
000200 9e fa 65 3d 14 5a 87 bd f3 dd 0b be 3f 4f c1 bd
       0.05614721 -0.06608978 -0.13658886 -0.09438943
000210 1c db 04 3e c0 3a 1a 3e 2b dc 0b be 90 18 8f bb
       0.12974209 0.15061474 -0.13658206 -0.0043669418
000220 75 46 b5 3d c5 d8 59 bd 57 29 aa 3e bd 35 59 3e
       0.08851329 -0.053185243 0.33234665 0.21211906
000230 19 5f 3a 3e 8f c3 ef bd 73 f5 bb bd 07 19 18 be
       0.1820034 -0.11707222 -0.09177675 -0.14853297
000240 44 ba ae 3d 4d c5 f6 bc 03 06 fe 3d e1 bf 31 3e
       0.08531621 -0.030123377 0.124034904 0.17358352
000250 7a c0 0f 3d 92 70 5c bd cb 73 d3 bd 75 12 b0 bb
       0.03509567 -0.053818293 -0.1032482 -0.005373294
000260 9b 27 d7 bd 19 0a 57 bc 15 68 00 be db 9e cc 3e
       -0.10505601 -0.013124966 -0.12539704 0.39964947
000270 1e 7b 16 be c0 91 90 3e 30 fe 02 3e 77 ca 33 be
       -0.14695403 0.28236198 0.12792277 -0.17557703
000280 57 0b f8 bd d8 6a 2c 3e c8 ad a0 3e 84 ad bf be
       -0.12111538 0.16837633 0.31382585 -0.3743707
000290 32 f8 05 3e 37 85 2e be 15 1d ff 3d b5 60 6e bd
       0.1308296 -0.17043005 0.12456719 -0.058197696
0002a0 95 09 12 be 9b 05 bc bb 65 e9 88 bc 35 7a 3b be
       -0.14261468 -0.005737973 -0.016712854 -0.18308337
0002b0 5f fb ad 3c 05 1f e9 bd 39 23 2d be df f4 4e 3e
       0.021238027 -0.1138287 -0.16907968 0.20210598
0002c0 1a e4 4a 3d df 12 ee bd b6 36 85 3e 71 4a d8 bc
       0.04953394 -0.11624693 0.26018304 -0.026402684
0002d0 97 96 a0 bc 71 a7 0c 3d 1f 43 a8 3d 05 eb 4e be
       -0.019603057 0.034339372 0.08215927 -0.2020684
0002e0 e6 a5 71 bd 85 4e fa bd 80 32 f1 bc 59 7f 22 bb
       -0.058996104 -0.12222008 -0.029443026 -0.0024795143
0002f0 cd d6 c4 bd 60 88 d4 bd da a1 7d 3e 42 33 92 3e
       -0.096112825 -0.10377574 0.24768773 0.28554732
000300 48 bd 94 3a 0e 03 8d be fd 9d 71 3e 44 e2 82 3e
       0.0011347914 -0.27541393 0.23595424 0.25563252
000310 9d 52 23 bc 24 7c 40 3e d5 f9 74 3e cf d7 d8 bd
       -0.009968427 0.18797356 0.23923428 -0.10588037
000320 66 b5 2e be bb be fb bd 55 cc 1d 3e 3a 30 05 be
       -0.17061386 -0.12292238 0.15409978 -0.13006678
000330 4a f2 fd bd e9 2b 12 3e 02 c1 6b 3d ff 31 e6 3d
       -0.123997286 0.14274563 0.057557113 0.11240005
000340 ab ef cb bd bf 6a 1b bd 76 7d 6b be 81 ca 01 be
       -0.099578224 -0.037943598 -0.22997078 -0.12674905
000350 5a 18 4b bd 00 64 67 3c 10 93 b4 3e 76 e2 21 3c
       -0.04958377 0.014122963 0.3526845 0.009880653
000360 8b b0 85 be f5 28 40 3e 65 96 3d 3e 5a 9d 29 be
       -0.26111254 0.18765624 0.18514402 -0.16563931
000370 32 f4 24 3c 43 a2 b9 bd a0 b7 e4 3d 1e 3a 2a be
       0.010067986 -0.09064152 0.11167836 -0.16623732
000380 85 9e 2f be fc b4 77 be b4 17 cf 3d e9 66 dc bd
       -0.17150314 -0.24190134 0.10111943 -0.10761816
000390 ad 51 bc 3d d0 85 33 be 6d 0d ac bc c1 16 95 3d
       0.09195266 -0.17531514 -0.021002496 0.072797306
0003a0 70 86 b8 3c 53 6e cd bd b0 ac b7 3e da 09 0e bd
       0.022525042 -0.10030808 0.35873938 -0.034677364
0003b0 7b b5 a6 3d 8d fb 1b be e8 1c c8 bd e1 0a eb 3d
       0.081400834 -0.15232678 -0.097711384 0.11476684
0003c0 e2 0c 32 3c 1a 84 04 3e c1 88 0f 3e 50 13 6e 3e
       0.010867329 0.12941018 0.14017011 0.23249555
0003d0 4c 61 8c bd 50 9e 3f 3d 4d a1 3e 3e a9 de 24 3d
       -0.068544954 0.046781838 0.18616219 0.040251408
0003e0 14 dc 91 bd 47 4b 9d 3e 11 70 92 3c c3 66 ce 3d
       -0.07122055 0.30721495 0.017875703 0.10078194
0003f0 6c 71 4c bc 57 ad 7a 3e 49 a5 35 be 1a 58 00 bd
       -0.012478214 0.24480186 -0.17738833 -0.03133402

critic.network_body.linear_encoder.seq_layers.0.bias f4 [128]
000000 37 1e 8f 3d 3f 18 17 3e b8 6d 79 3e f6 8c f3 bd
       0.06988185 0.14755343 0.2435826 -0.118921205
000010 1d 1e 11 be bd 27 db bd 84 65 34 be dd c3 39 be
       -0.14171644 -0.10700939 -0.1761685 -0.18141122
000020 54 26 d7 bc 4a c0 ac bd 7f cd 18 3c 59 ca 0c be
       -0.026263393 -0.08435114 0.009326338 -0.13749065
000030 72 ad c3 3d 80 1a 6f be c1 29 e8 bd e3 9b 15 39
       0.095545664 -0.23349953 -0.11336089 0.0001426782
000040 7d 22 ca 3d 92 c9 3b 3e 65 e1 35 bb c6 4e e2 3e
       0.09869859 0.18338612 -0.0027752754 0.44200724
000050 6e 4c 52 bd 1d 07 78 3d f3 9a 8d 3d 34 f5 8f be
       -0.05134242 0.06055366 0.0691432 -0.28116763
000060 9a 5b 01 be 1a ee 27 bc cc ed 43 be 41 f8 88 bd
       -0.126326 -0.010249639 -0.19133681 -0.06687976
000070 ea 27 77 3d 41 6b be 3d f5 e4 ff bc f8 9f da bd
       0.0603408 0.09297801 -0.031237105 -0.10675043
000080 a1 12 38 3d 7c f9 22 ba 31 d4 e7 3c 44 6d 4f be
       0.04493964 -0.00062169856 0.028299423 -0.20256525
000090 dc 07 0d be a5 b1 c5 3d f8 ce 67 be 2d 32 fd bb
       -0.1377253 0.09653024 -0.22637546 -0.0077269287
0000a0 75 b4 5a 3d d1 a7 2c 3d 7a 56 75 bd 53 0b 9f 3d
       0.053394753 0.04215223 -0.059896924 0.07765832
0000b0 df 63 e9 bd 9e c6 2f be 60 83 67 3e 5f 2f a3 bd
       -0.11396002 -0.1716561 0.2260871 -0.0796802
0000c0 ab b2 68 3d 2d d7 c9 bd a5 f5 ab be 34 24 87 be
       0.056811016 -0.09855495 -0.3358585 -0.26394808
0000d0 1f f5 e8 3d f6 c9 69 bd 89 78 0f 3e 46 77 86 bd
       0.11374878 -0.05707737 0.14010824 -0.06565718
0000e0 2c 4b 99 bd 0a 3f 24 3d ac 74 fb bd bd ab 48 be
       -0.07485041 0.04009918 -0.12278113 -0.19596763
0000f0 5c 3a a1 3d a4 a3 b4 bd 1a 2f 21 be d0 e5 42 be
       0.07872459 -0.088202745 -0.15740624 -0.19032979
000100 3f b4 84 bd 86 61 9c 3d 69 5e a3 3e 99 d7 33 be
       -0.06479692 0.076357886 0.31907967 -0.17562713
000110 24 a4 f5 bd 7c 4d 08 3e f8 15 0b 3e 29 57 55 bd
       -0.11994198 0.13310808 0.13582599 -0.052085076
000120 51 a8 b2 bd 87 06 28 be 5a 86 8e bd b4 57 d6 3d
       -0.0872351 -0.1640874 -0.06959219 0.10465947
000130 f4 bd a7 bc 29 bf 3a 3e 3c 3c 02 3d 05 6e 18 3e
       -0.020476319 0.18236984 0.031795725 0.14885719
000140 5c 57 86 be 0e 0b 2a 3e 38 42 93 bc 0d 3d 25 3c
       -0.26238525 0.1660578 -0.017975911 0.010085356
000150 a5 31 f3 3d de 4d 70 be 4b 82 94 be ec fc 95 bc
       0.11874703 -0.23467204 -0.29005656 -0.01830908
000160 37 a1 0d 3c f6 7f 3a 3e 83 44 99 bd bd 09 77 bc
       0.008644394 0.18212876 -0.07483771 -0.015078005
000170 9a 91 e3 bd 0b 14 2b bd b3 7d 6f 3d fc d2 15 be
       -0.11111756 -0.04176716 0.058469485 -0.14631265
000180 4e 11 ce bc 78 45 60 b9 e4 a2 12 bd 04 a7 2f be
       -0.025154736 -0.00021388184 -0.035799876 -0.17153555
000190 59 f9 2f bd 86 23 10 be 34 15 89 be eb d3 50 3c
       -0.042962406 -0.14076051 -0.2677399 0.012745838
0001a0 79 d8 2f be 4b 4f 93 bd 47 54 13 3d 64 88 d6 bd
       -0.17172422 -0.07192858 0.035969045 -0.10475233
0001b0 0e e8 6d be d7 85 6f 3c 4a 36 2f be 48 1a a6 3e
       -0.23233053 0.014619312 -0.17110553 0.32441926
0001c0 a0 c8 a0 3d 1a 04 40 be c5 37 74 3d 01 71 4f 3e
       0.07850766 -0.18751565 0.0596235 0.20257951
0001d0 6e f2 88 bb 61 cb 4c bd 7d c5 08 be e3 16 15 3e
       -0.0041792905 -0.049998645 -0.13356586 0.14559512
0001e0 80 6c 6d be 91 52 a1 be 14 8e 9c 3d 64 6d d8 3d
       -0.2318592 -0.31508306 0.07644287 0.105677396
0001f0 e9 7c f9 3d 20 dd 08 3e 7c 85 6f be e2 c7 b7 3d
       0.12182028 0.13365602 -0.23390764 0.089736715
