results/fifth/Car/Car-999989.onnx (onnx, 96598 bytes, 9 tensors)

53 f4 [52]
000000 66 04 8b 3d 3b 32 8b 3d 58 5d b9 3a 49 21 5b 3e
       0.06787948 0.0679669 0.0014142198 0.21399416
000010 14 2b 8f 3d 90 4c 8f 3d fa 5c b9 3a 69 d5 5b 3e
       0.069906384 0.06997025 0.0014142089 0.21468128
000020 cf dc 89 3d a7 48 8a 3d 0b 06 e3 3a 8d 05 5a 3e
       0.06731569 0.067521386 0.0017320527 0.2129118
000030 30 9b 8c 3d 59 cc 8c 3d 11 12 03 3b 75 fe 5c 3e
       0.06865537 0.06874914 0.0019999782 0.21581443
000040 44 32 86 3d 8b 85 86 3d 9a 12 83 3a b2 c0 56 3e
       0.06552556 0.0656844 0.001000005 0.20971945
000050 16 f5 8a 3d 76 17 8b 3d 30 5d b9 3a 8e 46 5e 3e
       0.06785028 0.06791584 0.0014142152 0.21706602
000060 24 c8 81 3d 6b 22 82 3d 52 5d b9 3a 91 f8 52 3e
       0.06337002 0.06354221 0.0014142192 0.20602633
000070 f1 74 8f 3d b1 92 8f 3d eb 5c b9 3a 29 fc 5f 3e
       0.07004727 0.07010401 0.0014142072 0.21873535
000080 76 80 83 3d 13 dd 83 3d 9a 12 83 3a 85 2a 4f 3e
       0.06420986 0.06438651 0.001000005 0.20231064
000090 a9 73 99 3d 45 96 99 3d 42 5d b9 3a 10 28 61 3e
       0.074927635 0.07499365 0.0014142173 0.21987939
0000a0 f3 0f 93 3d 64 78 93 3d eb 5c b9 3a f8 7d 4c 3e
       0.071807764 0.07200697 0.0014142072 0.19969928
0000b0 d5 bc aa 3d 93 d8 aa 3d 4b 5d b9 3a 3a 96 60 3e
       0.08336798 0.083420895 0.0014142183 0.21932307
0000c0 f9 5e a7 3d 22 b1 a7 3d 9a 12 83 3a e7 91 4c 3e
       0.081724115 0.08188082 0.001000005 0.19977532

54 f4 [1, 2]
000000 10 fd 1e bf 29 9c 09 bf
       -0.6210489 -0.53753906

distribution.mu.bias f4 [2]
000000 ff c0 b1 39 93 9a 1c 3e
       0.00033903864 0.1529334

distribution.mu.weight f4 [2, 128]
000000 77 00 2a bd c5 70 53 bd 06 da 68 bd 23 48 df bc
       -0.04150435 -0.051621217 -0.05684855 -0.027256077
000010 86 cd d4 bc 05 4d 9a bd 9b 3d a2 3d 15 46 36 3c
       -0.025976907 -0.075342216 0.079219066 0.011125107
000020 58 9e 1e 3d 4a 4d 8b 3a e5 08 4f bd e5 50 3d bb
       0.038725227 0.0010627892 -0.05054559 -0.0028887328
000030 73 c6 f6 bc 04 b1 70 3b 17 24 dd bb 18 ee 06 3d
       -0.030123925 0.0036726603 -0.006748687 0.032941908
000040 bb c4 22 3c 16 32 f4 bc 60 5f 60 39 9a 51 98 3c
       0.0099345995 -0.02980904 0.00021397835 0.018593598
000050 8c a4 38 3d 61 92 87 3d 26 fe 0c bc 84 a6 d4 3d
       0.0450788 0.066197164 -0.008605516 0.10383323
000060 e5 8c 61 3c 20 e4 ba 3c ba e6 c0 ba 08 74 87 3c
       0.013766502 0.022813857 -0.0014717199 0.01653482
000070 78 ea 17 3d cf 53 8f 3d 38 3b df bc b3 2a 3b bd
       0.03708884 0.06998407 -0.027249917 -0.045695018
000080 24 8d aa bc f1 71 16 bc 6d ab 51 3d e9 35 5c bd
       -0.020819254 -0.009182439 0.051188875 -0.05376235
000090 13 d2 0c 3d e5 36 65 bb 35 07 30 b7 b4 ba 11 3d
       0.03438003 -0.0034975347 -1.04920955e-05 0.035578445
0000a0 81 1e 8d bc d9 7e 97 3d 80 20 0f 3d fb 79 08 3c
       -0.01722646 0.07397241 0.034943104 0.008329864
0000b0 2b 4b 4b 3c ab ca aa 3b 7f c4 ea bc 37 b1 c9 bb
       0.012408058 0.005212148 -0.02865815 -0.006155159
0000c0 12 aa 9a bc 4d 60 05 3d 09 68 a6 bd eb 73 d9 39
       -0.018879924 0.032562543 -0.08125312 0.0004147583
0000d0 71 d6 9d bd a1 59 02 3c 22 9b aa 3c da 66 ba bc
       -0.07706917 0.0079559395 0.020825926 -0.022754122
0000e0 62 7a 09 bd 36 a9 dd bc 5b 66 e1 bc 03 ca 05 bd
       -0.03356398 -0.027058225 -0.027514627 -0.032663357
0000f0 7d 9d 4a bd 85 bf 89 bd 13 38 ac bd a3 d6 28 3d
       -0.0494666 -0.067259826 -0.08409133 0.04122032
000100 c4 e2 59 bd 23 18 8b bd 73 9e 49 bd ec 87 8d 3c
       -0.053194776 -0.06791713 -0.049223375 0.017276727
000110 8a d2 a1 bc bc e3 a0 3c 0f 2d 62 3d b8 56 6b 3d
       -0.019753713 0.019639842 0.055218752 0.05745575
000120 ec ea 00 3e 1d 6b 3f bc 55 08 e7 bc da ee 18 bd
       0.12589616 -0.011683253 -0.028202215 -0.03733716
000130 81 d1 87 3d 2f 11 51 3c e2 3b 27 3d 42 56 f1 3c
       0.066317566 0.012760445 0.040828593 0.029460076
000140 53 5f 9e bb 13 09 d1 3c 3d 84 c3 bb 3c 1d 99 3a
       -0.004833141 0.025517022 -0.0059666918 0.0011681686
000150 ac c9 9c 3d f3 d3 20 3d c6 91 ea bc 92 44 dd 3b
       0.07655653 0.03926463 -0.028633963 0.006752559
000160 df 8e 22 3d 86 37 21 3c bf 97 d7 3c 45 0c 06 3d
       0.039687034 0.009839898 0.026317475 0.032726545
000170 c1 04 48 bd 99 36 fc 3c 8b ec 67 3d 83 b3 f3 3c
       -0.04883266 0.030787753 0.05662207 0.029748684
000180 02 b7 ba bb 11 f9 54 3d 0f 83 1d bd ce 45 5c 3d
       -0.0056980858 0.05199534 -0.038455065 0.05377751
000190 dc 03 c3 bc e2 dd 09 3d cb 69 05 bc 35 b9 c1 bd
       -0.023805551 0.03365887 -0.008142899 -0.094591536
0001a0 54 1b 2f 3c 02 ca d4 3d df 63 0f bc 0d 39 0d 3e
       0.010687668 0.103900924 -0.0087518385 0.13791294
0001b0 ef d8 e7 bc b0 cb 6d 3d 36 cb c7 3c 70 42 82 3d
       -0.028301684 0.05805558 0.02438889 0.06360328
0001c0 13 be 67 ba 0f 51 a9 3c 0d 2a 9a bc 74 d5 0d 3d
       -0.0008840274 0.020668535 -0.01881888 0.034627393
0001d0 f9 d4 68 bb 0f 11 e9 3c d7 5a 65 3d b7 dc 65 3c
       -0.0035527332 0.028450517 0.055994835 0.014029673
0001e0 0d 35 9d bc c0 e8 00 3c da 74 3a 3c 0c bc 77 3d
       -0.019190336 0.007867992 0.011380399 0.06048207
0001f0 3f 06 d6 bc 21 1e 32 3d 81 6d d9 bc 52 9f 2f bd
       -0.026126025 0.043485764 -0.026541473 -0.04287655
000200 0a ca c5 3c cf bb 8b 3d 9a 1a a2 bc 92 d4 8b bd
       0.024144191 0.06822931 -0.019788075 -0.06827654
000210 ef 9c 6f 3c 06 ec a5 3d 0f f6 a5 bc 0f 66 43 bd
       0.014624818 0.081016585 -0.020258931 -0.047704753
000220 cf 45 9e 3d c7 e1 81 bb 46 2d d5 bd d2 f5 83 3d
       0.07728159 -0.0039636823 -0.10409026 0.06443371
000230 9f be bc 3d dd c7 67 3c 67 88 99 3d 59 9c 15 3e
       0.092160456 0.014146772 0.0749672 0.14610423
000240 4e e7 49 bb 91 26 9e bd 7f 85 f5 3c 95 85 6a 3d
       -0.0030808034 -0.077222 0.029970882 0.0572563
000250 f7 2e c0 3b aa b1 c7 bc b2 c2 f4 3d 4d 1e 50 bb
       0.0058649736 -0.024376709 0.11951198 -0.0031756342
000260 9d c6 29 bd 51 08 2a bd 7b 6f cc 3c 82 cc 9b bd
       -0.041449178 -0.041511837 0.024955502 -0.07607366
000270 ef 65 12 3d dd d9 3e bd da 2a 10 bc 5a 9c 8c 3a
       0.035741743 -0.04659449 -0.008799279 0.0010727749
000280 65 f3 c9 3c 4c 38 58 3c 2c 2e 77 bd 56 c2 46 3d
       0.024652192 0.013197016 -0.060346767 0.048525177
000290 e1 76 13 3c c1 af 6a 3d b5 f1 1d bd 40 b1 6a bb
       0.009000511 0.05729652 -0.038560588 -0.0035811216
0002a0 dd e0 95 bd 93 70 77 3d e6 18 87 bb 12 ed 0d 3e
       -0.0731828 0.060410094 -0.004122841 0.13859966
0002b0 fb d8 19 3d 6e 08 53 3d 62 e3 46 bd d3 ed f0 ba
       0.037560444 0.05152171 -0.048556693 -0.0018381424
0002c0 e1 49 1d bc 0e 96 19 bd a1 ea 1f bd 22 bf 29 bb
       -0.009600134 -0.03749662 -0.03904212 -0.0025901278
0002d0 d1 f0 9b bd 6e 1e a3 3b 30 19 01 3b 35 22 ce 3d
       -0.076142915 0.0049779927 0.001969885 0.10065118
0002e0 e8 7c ac bd 84 93 cb 3d 6a a9 f3 3c e0 59 d3 bb
       -0.084222615 0.09940246 0.029743869 -0.006449923
0002f0 07 23 9a 3c d1 bb 1e bd b4 06 20 bd 8f 5f be 3c
       0.01881553 -0.038753334 -0.039068893 0.023238925
000300 0c 27 bb bc 83 02 05 bd ee 56 21 3d 5e f8 42 bd
       -0.022845767 -0.0324731 0.039389543 -0.047600143
000310 74 89 2f 3c 93 19 ec bc 72 4b b1 3c 83 01 21 3d
       0.010713924 -0.028820788 0.02164242 0.039308082
000320 87 13 01 3b 1e 06 5a 3b 15 36 86 3d 4c 30 2b 3d
       0.0019695477 0.0033267806 0.06553284 0.041794106
000330 af c7 eb 3d 80 c0 a0 bc 6a a0 37 3d 95 d8 21 bd
       0.11512696 -0.019623041 0.044830717 -0.03951319
000340 20 2b 1f 3d d0 f3 55 bc e7 8c f2 3c cb ad 06 3b
       0.038859487 -0.013058618 0.029608203 0.0020550366
000350 c6 85 80 bd 93 1e a7 bb 00 ac 68 bd 26 6d 07 3d
       -0.06275515 -0.0051000803 -0.056804657 0.033063076
000360 3b d5 ca 3d 2d 0a f8 3d e6 4e 80 bd 9d 4e 37 3b
       0.09903952 0.12111316 -0.06265049 0.002797044
000370 3a 74 52 bd 0f fb 45 3d 1a 05 05 bd 47 92 04 3d
       -0.051380374 0.04833513 -0.03247557 0.032366063
000380 ba f9 49 bc 39 12 01 3e f5 0c 03 bd e6 e2 4a 3c
       -0.012327606 0.12604608 -0.03199478 0.012383198
000390 f2 12 8d 3c 47 73 28 bc c7 49 1e 3c 03 5d c5 bc
       0.017220948 -0.0102813905 0.009661145 -0.024092203
0003a0 aa fc 74 3d 72 a7 18 bd 74 e0 ff bd 32 ba 6d 3d
       0.05981127 -0.037269063 -0.12493983 0.058038898
0003b0 97 2b 88 bd ca e6 ac 3c e1 21 43 bd f2 3f 34 bd
       -0.06648939 0.021106143 -0.04763973 -0.044006296
0003c0 b3 59 32 bd a7 7e 67 bc bd d7 46 3d a9 67 c5 bc
       -0.043542575 -0.014129317 0.048545588 -0.02409728
0003d0 69 29 0f bc 57 8d da 3a 12 ec a2 bd 25 dc f4 3c
       -0.0087379 0.0016674203 -0.07955183 0.02989013
0003e0 a6 3e 52 bb 22 fd 6f bc b4 e8 79 3d d8 1d 34 bd
       -0.0032080798 -0.014647754 0.06101294 -0.043973774
0003f0 35 c5 29 3d 5b d0 82 bd 87 49 2c 3d 70 2b 96 bd
       0.041447837 -0.06387397 0.04206231 -0.07332504

network_body.linear_encoder.seq_layers.0.bias f4 [128]
000000 95 07 ad bc e3 4b 8f bd c8 84 e8 bd 22 cb f1 bc
       -0.02112178 -0.06996896 -0.11353451 -0.029515807
000010 5d 90 18 bd 9c 78 9b 3d 3a bc 04 be cf 1a a9 ba
       -0.03724705 0.07591364 -0.12962428 -0.0012901666
000020 14 a5 5f bc 6f 18 d2 bd f4 be 43 bd fc 27 c9 3d
       -0.013650198 -0.102585666 -0.04778953 0.098220795
000030 f9 53 84 3d e0 a5 3f 3e 6c ad 9f 3d fb 88 66 3d
       0.06461329 0.1871562 0.077967495 0.05628298
000040 41 fb bf bd 8f 89 17 be c8 df 66 3a 72 b3 87 bd
       -0.09374095 -0.14798568 0.000880715 -0.06626023
000050 8c 1d b7 bd a5 0a 44 3c be f4 91 bd 5d e6 20 be
       -0.089411825 0.0119654285 -0.07126759 -0.15712877
000060 52 36 0c 3e 4e c1 07 3e 68 56 10 be e2 aa 6f bd
       0.13692597 0.13257334 -0.14095461 -0.058512576
000070 1c c8 84 3c 0b 1e ab 3d a1 f6 08 be 84 a1 07 3e
       0.0162087 0.083553396 -0.13375331 0.13245207
000080 07 1f e1 bc 9b 10 94 bd 01 1e 8d 3d 2a b9 26 3e
       -0.027480615 -0.0722973 0.068904884 0.16281572
000090 02 ad 2d bd e9 ce 04 be 1e d4 15 3e 92 5d 89 bd
       -0.04240132 -0.12969555 0.14631698 -0.067073
0000a0 5b 34 fb bd 4f 42 3e 3e 05 34 b1 bd 11 ba ec bc
       -0.122658454 0.18579982 -0.086525 -0.028897317
0000b0 a4 62 09 be 72 4d 39 3e e1 63 b0 bd c2 a1 d8 bc
       -0.13416535 0.1809595 -0.086128004 -0.02644432
0000c0 88 c8 20 bd a5 08 04 be 66 4e 46 3e 22 6b 2f 3b
       -0.03925374 -0.12893923 0.19365844 0.0026766737
0000d0 db 3d 17 3e 6c 55 03 be 50 79 b3 3c 0f 69 64 bb
       0.1476969 -0.12825555 0.021908432 -0.003485266
0000e0 e8 9c 9d 3d 5b 7e 1f 3e 75 62 9e 3d 8a 0d e1 bd
       0.07695943 0.15575545 0.07733623 -0.109889105
0000f0 a2 5b e2 3d 36 9d 03 3e 4a 62 ed bd 21 b2 a5 bd
       0.11052634 0.1285294 -0.11591013 -0.08090616
000100 98 2e c1 3d 4d bb 06 be 8c 87 0e be e7 90 2c 3d
       0.09432715 -0.13157387 -0.13918895 0.042130377
000110 95 c9 fa 3d b6 92 15 3e 4c 49 dc bc 30 bb dc bd
       0.1224548 0.14606747 -0.02689042 -0.10777891
000120 ce 57 02 be e8 76 10 be 9a 44 b9 3c e0 ac e9 3d
       -0.12728807 -0.14107859 0.02261572 0.114099264
000130 24 1c ca bd 3c bd 02 3e 2d 78 4c 3e b1 82 3f 3e
       -0.09868649 0.127675 0.19967718 0.18702199
000140 49 ec 00 be 6a 0f 8a 3c 21 08 93 3d a6 03 cc bd
       -0.12590136 0.016853053 0.07179285 -0.099616334
000150 2e fc ff bd ac be b3 bd 95 f0 fc 3d f5 95 e6 3d
       -0.12499271 -0.08776602 0.12350575 0.11259071
000160 5a 84 97 bd 72 fe 1a 3d 77 63 fc bc 73 c1 cb 3d
       -0.07398291 0.037840314 -0.030809147 0.09949007
000170 69 f0 97 3d 54 31 ad 3d 04 12 33 bc c0 3a bd 3d
       0.074189015 0.08456674 -0.010929588 0.09239721
000180 3d 13 8f 3d 45 a2 d0 bd 4a 93 e7 bd 99 11 1d 3d
       0.06986091 -0.101872005 -0.1130739 0.03834686
000190 e5 6f 09 be 94 cc ec bd 4d b7 dd bd b2 f9 0d be
       -0.1342159 -0.11562458 -0.108259775 -0.13864782
0001a0 81 20 16 be a2 f0 47 3e 1b 8c 86 3c df f1 1c 3d
       -0.14660837 0.19525388 0.01642423 0.038316604
0001b0 4f 4b a5 3d 3a 7c f6 bd c5 cb 02 be 0f bf f6 bd
       0.080710046 -0.12035413 -0.12773044 -0.1204816
0001c0 ae 4e b2 3d 65 33 d1 bd 78 98 21 3e d0 fc a7 bd
       0.08706413 -0.10214881 0.15780818 -0.08202517
0001d0 8e 1e 3c 3e c7 9c 1d bd bd 4e 0b be 51 5a 4a be
       0.1837103 -0.038479593 -0.13604255 -0.19761015
0001e0 b8 7c 11 be 77 ac b4 3d 0b f3 b1 3d 6a a5 c5 3d
       -0.14207733 0.088219576 0.08688935 0.09650691
0001f0 b0 dc 21 3e ac e0 e7 3d dd b8 a8 bc 03 ac f7 3d
       0.15806842 0.1132215 -0.020595962 0.120933555

network_body.linear_encoder.seq_layers.0.weight f4 [128, 52]
000000 aa 34 7e 3d fc be f3 bb bb 72 94 bd 64 c1 28 be
       0.062061943 -0.0074385386 -0.072484456 -0.16480023
000010 c1 c6 39 3e 93 32 e9 bd a2 a1 2a 3e d7 b6 d3 3d
       0.18142225 -0.113865994 0.1666322 0.10337608
000020 d1 b7 80 3e 17 44 45 be 22 a9 1e 3e 33 68 4c 3e
       0.2514024 -0.19264255 0.15494207 0.19961624
000030 5e 6d 00 3d 21 a9 a4 3d be 1a fd bb 2b c9 d6 bd
       0.0313543 0.08040071 -0.007724135 -0.104875885
000040 28 c8 94 3e 7d 76 8b bd 0c 2d 5b 3c 60 3f 45 3e
       0.29058957 -0.06809709 0.013377439 0.19262457
000050 f1 56 22 3e 9f 26 53 be 18 a0 9a be cf 42 1e 3c
       0.15853478 -0.20620202 -0.30200267 0.009659483
000060 b5 5b 03 be 99 00 05 bd 0a 70 2c 3e 70 f9 f3 3c
       -0.12827952 -0.032471273 0.16839615 0.029782027
000070 ef 77 a5 3d 84 2d c4 3d f1 c1 06 3e 90 b9 53 3d
       0.08079516 0.09578994 0.1315992 0.051690638
000080 c0 e6 ca 3c 28 1e 72 3b c0 42 47 bd d0 49 a7 3d
       0.024768233 0.0036944244 -0.048647642 0.081683755
000090 93 5d ca bd 69 32 99 3d c2 41 b2 be 1b c8 b3 3d
       -0.09881129 0.07480318 -0.34815794 0.087784015
0000a0 80 78 18 3e 36 d1 b8 3c f2 e9 ef bd 2b cf e6 bd
       0.14889717 0.022560697 -0.117145434 -0.11269983
0000b0 77 40 12 be 35 8c d5 3c 16 18 15 be b8 da 79 be
       -0.14282404 0.026067832 -0.1455997 -0.24399841
0000c0 e2 e4 ac 3d 10 90 b5 be eb 50 0b be 48 93 2c bc
       0.084420934 -0.35461473 -0.13605087 -0.010533161
0000d0 50 60 96 3d ba f0 01 be 8b 7c a1 3e c2 aa a9 3e
       0.07342589 -0.12689486 0.3154033 0.3313809
0000e0 33 10 9b be f0 09 5f 3d 2b a4 2a bc 71 bd 3e 3b
       -0.30285797 0.054452837 -0.010415117 0.0029104615
0000f0 1f 21 7c be 24 c9 4c 3e de 3e 13 3e 1e 7c 54 be
       -0.2462201 0.19998604 0.1437945 -0.20750472
000100 6e 0b 29 3b ee c1 da 3d 2a f2 be 3d 1a 93 0f bd
       0.0025794166 0.106815204 0.09323533 -0.035052396
000110 63 56 9d bd 71 65 a0 bd 51 08 09 be e8 a5 a6 3d
       -0.076824926 -0.078318484 -0.13382079 0.08137113
000120 3b c2 44 bd 01 c3 28 be 58 1a 44 3e 3c 75 04 be
       -0.048036795 -0.16480638 0.19150674 -0.12935346
000130 c7 74 8a 3c fc 21 2f bd ac 37 93 bd c8 4c 57 3e
       0.016901387 -0.04275702 -0.07188353 0.21025383
000140 0a fe f4 3c 82 12 46 3d 0a 15 5e 3d a6 2c b1 bd
       0.029906292 0.048357494 0.054219283 -0.08651094
000150 38 0b 47 bc e7 b5 69 3d 59 25 cd bd 9c b3 ce bd
       -0.012148671 0.05705824 -0.10016889 -0.100928515
000160 11 f5 93 3e a1 0d a9 bd 65 ad 83 3d af 8a d7 bd
       0.28897908 -0.08254553 0.06429557 -0.10524499
000170 88 f8 02 3c f5 af 0d be 48 ee 1e bd 97 0f 84 3d
       0.007993825 -0.13836654 -0.03880146 0.06448286
000180 2c 1f ad bd ce ae 4d 3e 12 22 4a 3d 1f bc a2 be
       -0.08453211 0.20086214 0.0493489 -0.3178415
000190 cd da 67 be 15 7f 04 3d f4 a0 3a 3e a6 85 3e 3e
       -0.2264206 0.032347757 0.18225461 0.1860567
0001a0 b7 35 26 3e a2 b0 85 be 76 73 27 3e aa 9d ce bd
       0.16231428 -0.26111323 0.16352639 -0.10088666
0001b0 97 85 1b 3d 67 bc 6e be 5f 92 ec 3d 1e 93 e0 bd
       0.037969198 -0.23314057 0.115513556 -0.109655604
0001c0 07 cb fc 3d e4 e8 90 bc ff 4f d7 39 59 29 6f bd
       0.12343412 -0.017689176 0.00041067597 -0.05838904
0001d0 1d ad 32 3e 25 76 3f 3e aa 30 ca bc ed 79 a2 3c
       0.1744885 0.18697412 -0.024681408 0.01983353
0001e0 1a 63 23 be 35 ca 40 3c 72 4e 50 3e 57 e2 94 be
       -0.15955773 0.01176696 0.20342425 -0.29078934
0001f0 46 f4 a2 bd 61 1a 05 bd 8f c3 0e 3e cf f7 03 bc
       -0.07956748 -0.03249586 0.13941787 -0.008054688
000200 09 a0 ca bc 37 40 6f 3d 64 78 ab 3d bf b5 4a be
       -0.024734514 0.05841085 0.08372572 -0.19795893
000210 58 95 1a 3e d7 3b 56 bc 1a 4c 01 3e d7 f4 24 3e
       0.15096033 -0.01307579 0.12626687 0.16109024
000220 63 5f b8 3d e0 7b f0 b9 8b 25 08 be d1 7b 37 3c
       0.090025686 -0.0004586866 -0.13295572 0.011198954
000230 cb 90 2f bd ec 4e db 3d 77 c2 87 3e 7b df 16 3e
       -0.042862695 0.107084125 0.26515552 0.14733689
000240 e6 ba 61 be 53 c6 c2 bc c6 d1 21 3d a6 79 39 3e
       -0.22043952 -0.023776209 0.039506696 0.18112811
000250 44 ad 07 3d 36 c4 22 be 96 f2 c1 bd 9d 95 bc 3d
       0.033124223 -0.15895161 -0.09470098 0.09208224
000260 07 fb 01 be a0 5e 8a be 9d 8d 67 3d 14 c3 b8 be
       -0.12693416 -0.27025318 0.056531537 -0.36086333
000270 c8 b1 2e bc f2 fa b8 bd 0d 2d 26 3e 28 1e 45 3e
       -0.010662504 -0.09032239 0.16228123 0.19249785
000280 f7 5e 80 3d 07 03 06 be 3e 47 20 3b c4 d3 34 3e
       0.06268113 -0.13087092 0.0024456526 0.17658907
000290 d4 0e 02 bd f9 21 25 3c 02 e3 b9 3c 08 8f b3 bd
       -0.031752422 0.0100789005 0.022691254 -0.087675154
0002a0 13 4b 72 bd 85 8a 6f bd 97 5a 9c 3c e8 36 bc 3d
       -0.059153628 -0.058481712 0.019086165 0.0919016
0002b0 8d f6 fe 3b d9 19 3d 3e 88 00 06 be aa ec 1a be
       0.007780856 0.18466891 -0.1308614 -0.15129343
0002c0 8f 91 93 be 96 90 a8 bc e6 79 40 bc 33 46 3b 3c
       -0.2882199 -0.020576756 -0.011747813 0.011430311
0002d0 cd 0c 9d 3e 6f 10 13 be fc 86 0a bd 84 8a 6b bd
       0.3067383 -0.14361738 -0.033820137 -0.057505146
0002e0 81 45 8f bd 33 70 1a 3e 1a e6 33 3d 31 30 e1 3d
       -0.06995679 0.15081863 0.043920614 0.1099552
0002f0 70 25 28 be 57 2a 55 be 0f 90 45 3d 5b ee 41 be
       -0.16420531 -0.20816933 0.048233088 -0.18938582
000300 c9 a8 28 3e 1c 27 1b 3d 03 5c 11 3c d6 18 08 bd
       0.16470636 0.037879094 0.008872035 -0.03322681
000310 7b 70 8a 3e 8f 88 f7 3d 64 86 00 be ee c7 fe bd
       0.2703894 0.12086593 -0.12551266 -0.12440477
000320 53 8b 35 3e 2e 68 17 3a 48 d0 48 3d 3c 21 59 3d
       0.17728929 0.0005775717 0.049026757 0.05301021
000330 55 78 bb bd a3 72 da bd 18 8a 3b bc 76 af 94 bd
       -0.09153811 -0.106663965 -0.011446498 -0.07260029
000340 31 e3 7d 3d 01 ec 2f be 1a 4d 77 be 8b a3 a3 3e
       0.061984245 -0.17179872 -0.24150506 0.3196071
000350 ec d0 07 3e ae a1 d5 3d ea 57 2f 3e 31 bb 0a bd
       0.13263291 0.104312286 0.1712338 -0.033869926
000360 61 15 9c bd 49 f1 0a 3d 18 7d f2 bd 7e ba c3 3a
       -0.07621265 0.033921514 -0.11840266 0.0014932898
000370 1a 33 f9 bd 4e b9 d3 3d cf 64 8c 3e 34 46 14 3c
       -0.1216795 0.103380784 0.2742066 0.009049941
000380 e5 52 95 3d ea e3 97 bd b7 b0 55 be 51 1d 0a 3b
       0.072912015 -0.07416518 -0.20868193 0.0021074603
000390 c3 f1 af 3d f3 7a 6e 3d 1f 3f 4b 3d a4 94 fe 3d
       0.08591034 0.058222722 0.049620744 0.12430695
0003a0 99 5b 14 3e e7 a9 86 3d 9d 9e b0 3d 19 15 84 bc
       0.14488067 0.06575375 0.08624003 -0.016123341
0003b0 7d 67 cf bc 86 18 08 3e 20 55 90 3d fb a6 82 3d
       -0.025317902 0.13290605 0.07047486 0.06379505
0003c0 a5 8d c1 3d b0 64 af 3d 18 0f 86 3e 71 2e ee be
       0.09450845 0.085641265 0.2618339 -0.46519807
0003d0 a6 e5 4c bb a5 2e c1 3c 98 fa 41 3e 89 68 4a 3c
       -0.003126481 0.023581812 0.1894325 0.012354025
0003e0 32 cc 37 3d 83 f8 61 bc b4 1c 6d 3e c2 4b a7 bd
       0.04487247 -0.01379216 0.2315548 -0.081687465
0003f0 58 79 c6 bb f7 bc 82 be be 18 9b 3e fe 42 62 be
       -0.006056946 -0.25534794 0.30292314 -0.22095868

network_body.linear_encoder.seq_layers.2.bias f4 [128]
000000 07 85 80 bc e2 2d 2c 3e a8 a4 06 bd 5f 61 0b be
       -0.015688432 0.16814378 -0.032871872 -0.13611363
000010 3a 92 1b 3e 54 fa 1d 3e b4 6a 84 bc 40 07 ba bd
       0.151925 0.15427524 -0.016164161 -0.09083414
000020 01 c1 16 3e 81 4d 1e 3d c6 65 f5 bd 13 d1 f5 3d
       0.14722063 0.038648132 -0.11982302 0.12002768
000030 9a 02 18 3e b9 82 bb 3d 19 e5 01 3e 69 75 18 3e
       0.14844742 0.09155793 0.1268505 0.14888538
000040 61 39 0a 3d fa 55 f2 bd 26 49 fc 3d c8 08 d1 3d
       0.033746127 -0.11832805 0.123186395 0.10206753
000050 a5 93 71 3c 57 ba 76 bd 04 34 49 3e 4a 29 9f 3a
       0.014744674 -0.0602363 0.19648749 0.0012143042
000060 dc a7 1a be b6 15 21 be 5c 4f eb 3d f1 7b 25 be
       -0.15103096 -0.15730938 0.11489746 -0.16160561
000070 3f 2f ef 3d a2 3e c4 bd ad 68 23 3d 16 08 ea 3c
       0.11678933 -0.09582259 0.03989475 0.028568309
000080 9b 0a 2a 3e e6 52 f3 3d 8c 05 27 be 25 b7 c9 3d
       0.16605608 0.11881046 -0.1631071 0.09849385
000090 09 fe b0 3c d2 11 0f 3e 9c 7e 15 be 79 b1 c9 3c
       0.021605508 0.13971642 -0.14599079 0.024620758
0000a0 be c9 11 be d7 b0 01 3e a4 73 74 bd 65 a5 2b 3e
       -0.14237115 0.12665115 -0.059680596 0.16762312
0000b0 45 0c f7 3d 16 f2 e5 3d b6 c7 06 be 9f aa b5 3d
       0.12062887 0.11227815 -0.13162121 0.08870434
0000c0 eb 29 a7 bd 32 53 0d be f4 35 b3 bc 10 0f 52 bd
       -0.08162292 -0.13801268 -0.021876313 -0.051283896
0000d0 37 d4 9b bd 0e 7a 00 3e 73 0b 86 3d 31 6b 35 3e
       -0.07608836 0.1254656 0.065451525 0.17716672
0000e0 07 26 11 be bd 3d 14 3e 61 fd ee 3d 74 bb 87 bd
       -0.14174663 0.14476676 0.11669422 -0.06627551
0000f0 a1 77 bd 3c f6 1e 00 be 34 fa d2 bd 50 fd b5 3d
       0.023128333 -0.1251181 -0.10301629 0.08886206
000100 58 24 73 bd 09 dd 4d bd 2d 93 a4 3d 76 51 d6 bd
       -0.059360832 -0.050259624 0.08035884 -0.10464756
000110 5f 2a 39 bd 50 ed 05 be 1d 1c ab 3b b5 0f bc 3d
       -0.045206424 -0.13078809 0.005221857 0.091826834
000120 aa bc 96 3c cf 4b b1 3d a5 2b 1a 3e 9d b2 a3 3d
       0.018400509 0.086570375 0.15055712 0.07993052
000130 00 7e f9 3d 48 24 c5 bd 62 00 b0 3d ec 57 16 be
       0.12182236 -0.09626061 0.08593823 -0.14681977
000140 47 10 d2 3d cf 2e 15 be 9d f0 d9 3d f5 b0 55 bd
       0.10257011 -0.14568637 0.106415965 -0.052170713
000150 9d 66 c8 bd a0 9c 19 3d 19 b7 0b be f5 d7 e9 3d
       -0.09785197 0.037502885 -0.13644065 0.11418144
000160 ad a5 25 3e 94 cb 32 3e 4c 82 15 be 0f dd b1 bc
       0.16176482 0.17460471 -0.14600486 -0.021711854
000170 74 76 fb bd 22 bb b5 3d 2b 0e 49 bd 29 f8 f2 3d
       -0.122784525 0.088735834 -0.049085777 0.11863739
000180 66 c3 f1 bd 24 71 32 3e f6 72 d7 bd e5 35 90 bc
       -0.118048474 0.17425972 -0.10519974 -0.017603824
000190 50 b6 8a 3d e5 26 c5 bc 57 78 d9 bc c3 1a 9d bb
       0.067730546 -0.024066398 -0.02654664 -0.00479445
0001a0 7f a5 19 3e c0 62 06 bd 48 81 12 be 67 0d 9a 3d
       0.15004538 -0.03280902 -0.1430713 0.075220875
0001b0 a1 dc ec bd 2b 17 28 3c 1a 4b 07 be 80 a2 1c be
       -0.11565519 0.01025943 -0.13212243 -0.15296364
0001c0 11 1e 0a be c7 99 a0 bd 90 3c 02 3e b7 ab 07 be
       -0.13488032 -0.07841831 0.12718415 -0.13249098
0001d0 99 33 da bd 41 4d 80 3d 8b c2 1d be 70 86 ae 3d
       -0.10654373 0.06264735 -0.15406244 0.08521736
0001e0 3f 96 94 3c d5 a5 06 3d 64 c8 07 3e af dc ba bd
       0.01813805 0.032872993 0.13260037 -0.09124123
0001f0 18 ee 9c 3d a8 f4 e5 bd bc e5 d5 3d fc 46 05 be
       0.076626 -0.11228305 0.10444209 -0.1301536

network_body.linear_encoder.seq_layers.2.weight f4 [128, 128]
000000 3f 42 f0 bc 6c 81 00 3e 30 af 7d 3b eb 23 fa bd
       -0.029328464 0.1254937 0.0038709156 -0.12213882
000010 99 45 e6 bd 96 d5 fc 3d 92 a9 e3 bd 31 9b 98 bd
       -0.112437434 0.12345426 -0.11116327 -0.074514754
000020 89 b7 ab bd a7 d0 b3 bd 09 aa 60 bd 54 88 60 3d
       -0.08384616 -0.08780032 -0.05484966 0.054817513
000030 dd 22 fb bc eb 44 f2 3d bb f6 9a 3d d7 b2 6d be
       -0.030656273 0.11829551 0.07566591 -0.23212753
000040 18 9d ab bc 20 b2 c4 3d 5a 2e 23 be 68 fd 5c 3d
       -0.020948932 0.09604287 -0.1593565 0.053952605
000050 c7 1f 0b bd 6b 28 46 bd 27 2b e3 3c 05 dd 13 3d
       -0.033965852 -0.04837839 0.027730538 0.036099453
000060 ef 0b c1 bc 05 0e 79 3d fd e7 2c 3c 0f d6 ea 3d
       -0.02356526 0.060804386 0.010553357 0.1146661
000070 52 e9 e2 bd 5b e1 0f be 07 ed ee 3d 3b b0 7f 3d
       -0.110796586 -0.1405081 0.11666303 0.062423926
000080 6f f2 d0 bd 07 7e 19 be ac 15 af 3d f2 95 bd 3c
       -0.102024905 -0.14989482 0.085490555 0.023142789
000090 db 43 41 bd 4f 7f 5b 3d e7 d0 45 3b 42 73 dc bc
       -0.047183853 0.053588208 0.003018433 -0.026910428
0000a0 e3 ef 78 3d 58 08 51 3e 71 e0 eb bb a1 4d 47 3d
       0.06077565 0.20413339 -0.0071983864 0.048658017
0000b0 0f 65 16 bc 71 ea b7 3d 19 4f 88 3b 6d 7d ed bd
       -0.009179368 0.08980263 0.00415982 -0.11596189
0000c0 c3 47 12 3d 0e 5f 97 3d 4a 1a 21 ba 3f 91 1b 3c
       0.03571297 0.07391177 -0.000614558 0.009495079
0000d0 d4 76 68 3e 33 39 88 3c d6 6b cb bd c8 d3 ad bd
       0.2270158 0.016628837 -0.099326774 -0.0848766
0000e0 0c 32 8d 3e 6c 6f cf 3d bd dd 7c be 0f 3a 5f bc
       0.27577245 0.10128674 -0.24693961 -0.013624682
0000f0 67 85 9f bd b5 0c 84 3d c9 18 11 3d 6d 70 1e 3d
       -0.07789116 0.06447736 0.035424028 0.038681436
000100 72 e3 09 bd ec ee a7 3d 99 4b 5a bd 68 3d 0c 3e
       -0.033664174 0.081998676 -0.05329475 0.136953
000110 9e 00 9b 3c 3e 61 93 bd c7 2e 04 be f2 b3 76 bd
       0.018921193 -0.07196282 -0.12908469 -0.060230203
000120 8c 73 8d bd 8c b3 62 bd 91 a9 a8 bd a8 d8 a5 bc
       -0.069068044 -0.05534701 -0.08235467 -0.020244911
000130 d0 8f 0a be 48 22 e4 bc de ae 7a 3d cf d4 a2 bc
       -0.13531423 -0.027848378 0.061201923 -0.019876866
000140 68 77 bb bd f5 22 91 ba fd 0d 80 bc c7 cf 46 bd
       -0.09153634 -0.001107304 -0.01563167 -0.048537996
000150 1f e4 86 ba fc 55 ac bc 86 23 42 be be 67 8a be
       -0.0010291374 -0.021037094 -0.18958864 -0.27032274
000160 e8 3a 2c be 56 86 88 bd 77 83 d5 3d 2a 80 dc bd
       -0.16819346 -0.066662475 0.104254656 -0.10766633
000170 42 0b 66 bd 6c 04 01 be 4c a3 f3 3d 0f b6 b8 bd
       -0.05616308 -0.12599343 0.11896381 -0.090191
000180 d6 32 a0 3d 2c 01 08 bd 6d 61 51 3e 1e e6 6f bd
       0.07822196 -0.033204243 0.20447321 -0.058569066
000190 fe ad 8e 3d 94 82 92 bd 9d 52 b1 3d 62 e5 e7 bc
       0.0696678 -0.07153812 0.08658335 -0.02830762
0001a0 79 c3 0a 3e f1 9c 37 bc 56 65 61 be 20 fb 7b bd
       0.1355113 -0.011206851 -0.22011313 -0.06151879
0001b0 38 a8 a6 bd c9 54 e0 3d 66 ec 32 3d 2c 61 0f bd
       -0.08137554 0.109536715 0.04368248 -0.03500478
0001c0 fa 6c 38 bd ac 3a bb 3d c4 2e b7 bd 7c e9 2a bd
       -0.045025803 0.0914205 -0.08944467 -0.041726574
0001d0 fd 94 88 3d 10 85 18 bc c4 5a 3e 3d ad bd 00 3e
       0.06669042 -0.009309068 0.04647328 0.12572356
0001e0 d7 9e b4 3d 6e 63 eb bd 7c e3 85 bd 4a 74 2c 3d
       0.08819359 -0.11493574 -0.0653753 0.04210309
0001f0 2b cd c3 bd e1 85 f6 bd 78 c2 7e bb f5 b6 20 bd
       -0.09560617 -0.12037254 -0.0038873237 -0.03923698
000200 13 6a 08 bd 3e 2a 05 bd d1 78 ee 3c dd 29 ae 3c
       -0.033304285 -0.03251099 0.029110344 0.021260196
000210 95 50 8d bd 81 ed ad 3d 6a bc 81 3d c8 65 64 3d
       -0.069001354 0.08492566 0.06334765 0.05576113
000220 c1 bd 38 3d ce e6 07 3e a6 ac e5 bd 5e 0a 22 bd
       0.04510284 0.13271639 -0.11214571 -0.03956067
000230 ed 8b 9a bd 56 d0 2f 3d b5 16 af 3d dc 8c 8a 3d
       -0.0754622 0.042923294 0.08549253 0.06765148
000240 36 98 92 3c 95 12 22 be 29 63 52 be 69 cb 57 bd
       0.017894845 -0.15827401 -0.20545639 -0.05268422
000250 e1 12 8d bd 06 99 84 bd 43 f9 2e 3d aa 7e 56 bd
       -0.068883665 -0.064744994 0.042718183 -0.05236689
000260 32 c0 b8 bd 42 1b a7 3d 71 51 86 bd d1 2f 6f 3d
       -0.09021033 0.08159496 -0.065585025 0.05839521
000270 62 34 62 bc f6 c7 10 3d 6d 57 f1 bc be 01 06 be
       -0.013806434 0.035346948 -0.029460633 -0.13086602
000280 b4 b3 c1 bd 45 c4 52 bd 9f 01 89 3c 81 7d 0c 3e
       -0.09458104 -0.05145671 0.016724406 0.13719751
000290 62 40 32 be 69 e0 6b 3d 79 73 a2 bc 02 17 3d be
       -0.17407373 0.05758706 -0.019830452 -0.18465808
0002a0 45 97 91 bb 2b 48 d9 bd b6 b2 b0 bd 98 78 ee 3b
       -0.0044430816 -0.10609468 -0.086278364 0.0072775595
0002b0 4f 6f 1c bd c3 89 19 3e cc b7 19 be 74 fc 09 be
       -0.03819209 0.14993958 -0.15011519 -0.1347521
0002c0 a8 9b d2 3d af 54 0c bd c4 cf ed 3d 91 ed 9d bc
       0.10283595 -0.034260448 0.11611894 -0.01927832
0002d0 e7 96 da 3d 86 85 38 3b 62 1e e2 bd 69 8f b8 bd
       0.106733136 0.0028155758 -0.11040951 -0.09011728
0002e0 51 3a 30 3d 29 ee 68 3e 67 5d 2d be 6d 2c 8a 3d
       0.043024365 0.22747101 -0.16930161 0.06746755
0002f0 9e 5d be bd d0 c6 03 3e 23 0b cb 3d 92 dd 5c 3c
       -0.092952 0.1286881 0.099142335 0.013480561
000300 e6 ba fe 3d 34 10 6f bd 24 fe aa 3d 91 31 db bc
       0.12437992 -0.058365062 0.08349255 -0.026757034
000310 0a d2 02 3e 34 d3 bd bd 8a fc 0f be c9 20 3c 3d
       0.12775436 -0.092687994 -0.1406118 0.045929704
000320 4a f0 9c bc 61 59 03 3c 84 3d 24 bc 3a 1d 0d be
       -0.019157548 0.008016915 -0.010024432 -0.1378068
000330 a0 25 f3 bd b7 70 cf 3d 0e b8 23 3d b5 66 e6 3c
       -0.11872411 0.101289205 0.03997045 0.028125146
000340 70 55 ba 3c b2 10 11 be b3 c2 d0 3d 9d 2d f4 3d
       0.022745818 -0.14166525 0.10193386 0.119227625
000350 c1 9c 28 be 3c 54 82 3d 1e cc ad bb ce 02 79 bd
       -0.16466047 0.06363723 -0.0053038737 -0.06079369
000360 72 b8 b8 bd 90 68 9a bd d4 dc e3 3b 1b 06 b9 3d
       -0.09019555 -0.07539475 0.006953815 0.09034368
000370 12 23 6c be 26 f4 c2 bc 69 11 76 be a0 5e 25 be
       -0.23060253 -0.02379806 -0.24030079 -0.16149378
000380 bb c0 58 3d 3a 4a 1a bd f4 7f d6 bc b3 81 b2 bc
       0.052918177 -0.037668444 -0.02618406 -0.021790361
000390 10 4f eb bc 79 71 cb 3d 90 f7 e9 bd 43 50 86 3b
       -0.028724223 0.099337526 -0.11424172 0.0040989234
0003a0 50 40 26 bd 53 f7 13 3e e8 eb 49 bc 5a 54 e1 bd
       -0.040588677 0.14449815 -0.012324311 -0.11002417
0003b0 42 aa af 3c 0a 4f 1f 3b f2 dc b0 bc 46 c6 9b bd
       0.02144349 0.0024308586 -0.02158973 -0.07606177
0003c0 6b ae b1 bc 23 e6 b4 3c e4 7b 82 3d 92 3f 19 be
       -0.021689614 0.022082394 0.063712865 -0.14965656
0003d0 35 a7 0f 3e 74 41 69 3c 40 0e e8 3b 4a f5 91 3c
       0.14028628 0.014236797 0.007081777 0.017817158
0003e0 a8 c4 48 be 20 5a 18 be 74 37 29 be b7 61 19 be
       -0.19606268 -0.1487813 -0.1652506 -0.14978682
0003f0 95 00 57 3d 1c bb b5 3c 58 25 2b bc 7c 12 4a 3d
       0.05249079 0.022183947 -0.010445915 0.049334034

network_body.vector_processors.0.normalizer.running_mean f4 [52]
000000 da a6 97 3b 76 cf 7e 3f 1b 38 86 35 67 30 9b 3e
       0.0046280446 0.9953531 1.0000107e-06 0.30310366
000010 99 e4 a0 3b 5e bd 7e 3f 2b 38 86 35 29 ee 9b 3e
       0.0049100635 0.995077 1.0000125e-06 0.3045514
000020 06 21 95 3b 84 d3 7e 3f 24 38 06 36 ee 8d 9a 3e
       0.004551056 0.995415 2.0000234e-06 0.3018641
000030 5a 28 9b 3b 5d c8 7e 3f 11 54 49 36 21 c2 9c 3e
       0.004735035 0.9952448 3.0000267e-06 0.3061686
000040 ae 43 8d 3b 1a e4 7e 3f 00 00 00 00 98 7b 99 3e
       0.0043110466 0.99566805 0.0 0.29977107
000050 62 85 97 3b da cf 7e 3f 31 38 86 35 0e 55 9d 3e
       0.004624055 0.99535906 1.0000132e-06 0.30728954
000060 ca 16 84 3b 43 f6 7e 3f 24 38 86 35 30 4f 98 3e
       0.004031037 0.99594516 1.0000117e-06 0.29747915
000070 4e 8c a1 3b 2e bc 7e 3f 2c 38 86 35 0a c6 9d 3e
       0.0049300557 0.9950589 1.0000126e-06 0.30815154
000080 c8 a0 87 3b 6b ef 7e 3f 00 00 00 00 de 26 97 3e
       0.0041390397 0.9958407 0.0 0.2952184
000090 46 fa b8 3b cf 8c 7e 3f 24 38 86 35 a7 ee 9d 3e
       0.0056450693 0.99433607 1.0000117e-06 0.3084614
0000a0 35 ce a9 3b 99 aa 7e 3f 2c 38 86 35 d8 39 96 3e
       0.0051820525 0.9947906 1.0000126e-06 0.29341006
0000b0 0d 50 e5 3b 09 35 7e 3f 21 38 86 35 18 7e 9d 3e
       0.006998068 0.99299675 1.0000114e-06 0.30760264
0000c0 6b 4d dc 3b 77 45 7e 3f 00 00 00 00 f4 34 96 3e
       0.006723096 0.99324745 0.0 0.29337275
