results/fifth/Car/Car-7999987.onnx (onnx, 96598 bytes, 9 tensors)

53 f4 [52]
000000 78 b2 20 3e 47 b1 20 3e 24 5d 39 3a 13 6f 4e 3e
       0.1569308 0.15692626 0.0007071069 0.20159559
000010 6c 00 13 3e f2 03 13 3e 73 36 75 3a 41 2e 4f 3e
       0.1435563 0.14356974 0.0009354122 0.20232488
000020 ca 9b 2b 3e 12 a3 2b 3e 1d 3e 4f 3a 3f d4 4f 3e
       0.16758648 0.16761425 0.0007905679 0.20295809
000030 e6 ec 0e 3e eb ef 0e 3e c2 8a 92 3a b6 da 4e 3e
       0.13957557 0.13958709 0.0011180269 0.20200619
000040 47 f5 43 3e 27 fb 43 3e 74 12 03 3a b4 97 4f 3e
       0.19136535 0.19138776 0.0005000003 0.20272714
000050 dc 55 14 3e 7d 5b 14 3e a5 15 a7 3a d0 e7 50 3e
       0.14485878 0.14488025 0.001274754 0.2040093
000060 af 37 60 3e 1f 3d 60 3e 22 5d 39 3a a2 33 4e 3e
       0.21896242 0.21898316 0.0007071068 0.20136884
000070 04 fc 1f 3e 28 ff 1f 3e 5d 12 83 3a a8 00 56 3e
       0.1562348 0.15624678 0.000999998 0.20898688
000080 a4 87 67 3e 97 8b 67 3e 9d 36 75 3a 06 92 4c 3e
       0.22610337 0.22611843 0.00093541463 0.19977579
000090 ff a0 40 3e 53 a4 40 3e 1a 5d 39 3a 0e f3 5c 3e
       0.18811415 0.18812685 0.0007071063 0.21577093
0000a0 ad 0d 68 3e 69 11 68 3e 62 87 20 3a 15 c5 4a 3e
       0.22661467 0.22662891 0.0006123689 0.19801743
0000b0 1d 7b 7b 3e b6 7b 7b 3e 1f 5d 39 3a ad 57 61 3e
       0.24558683 0.2455891 0.0007071066 0.22006102
0000c0 fe b0 70 3e 9c b3 70 3e 74 12 03 3a 00 29 4a 3e
       0.23505017 0.23506016 0.0005000003 0.19742203

54 f4 [1, 2]
000000 cb e7 00 c0 39 f0 f4 bf
       -2.0141475 -1.913581

distribution.mu.bias f4 [2]
000000 68 81 9b bc 64 34 55 3e
       -0.018982604 0.20820767

distribution.mu.weight f4 [2, 128]
000000 69 ca e9 bd a3 ea 01 bd 5f 10 6d bd df 8e 9d bc
       -0.1141556 -0.031717908 -0.05787694 -0.019233165
000010 68 ca 91 bd 88 10 38 bd d7 d9 cc 3d be b8 38 3d
       -0.07118684 -0.04493764 0.10002487 0.04509806
000020 62 81 d2 3d f6 c0 b1 bc f8 fd 97 bd 6f f4 d1 3c
       0.10278584 -0.021698456 -0.074214876 0.02562925
000030 c8 fd ae bc 92 3b ca 3d 67 a7 46 3c b6 a0 0a 3e
       -0.021361247 0.098746434 0.012124873 0.13537869
000040 33 8f 30 3d 2f 03 78 bc d2 45 de 3c 32 fd 25 3c
       0.043105315 -0.015137478 0.027132902 0.010131167
000050 2f 45 05 3d 1a 0e 64 3d 3c 6f 4b 3d 10 5e dd 3d
       0.03253668 0.05567751 0.04966663 0.108089566
000060 2e 66 0c 3d 20 16 04 3e fc 6c 81 bd 76 7c 94 bd
       0.034277134 0.12899065 -0.06319615 -0.072503015
000070 95 fd 2d 3d 11 ee bd 3d ea 9f 03 3d 41 ae bf bd
       0.042478163 0.09273923 0.032134928 -0.09359408
000080 c8 77 8e bd dd c7 b4 3d ab ec bc 3d 67 23 a9 bd
       -0.0695644 0.088271834 0.09224828 -0.082587056
000090 e2 06 96 3d ed 33 44 3d 50 13 48 3d a8 6e d9 3c
       0.073255315 0.047901083 0.048846543 0.026542023
0000a0 c3 71 18 3b f9 62 8d 3e 83 e1 57 3d 06 dd b0 3d
       0.0023261167 0.27614573 0.0527053 0.08635907
0000b0 56 77 d3 3d 5c ad 79 3b 3d 64 4c bd cc 2b 2c 3c
       0.10325496 0.0038097715 -0.049900282 0.010508489
0000c0 81 3d b9 bb e9 6f 57 3d af 79 53 be b1 ca 9a bb
       -0.005653084 0.05259696 -0.20651887 -0.0047238697
0000d0 cd 76 99 bd f1 9c 4f 3c 40 92 ab 3c dd aa 81 b8
       -0.074933626 0.012671695 0.02094376 -6.183025e-05
0000e0 ed b7 2b be b1 8d ad bc f6 1f ac bd a2 e5 45 3b
       -0.16769381 -0.021185728 -0.084045336 0.0030196686
0000f0 1d d3 98 bd 0f 4e fb bd 85 b6 19 be 49 22 27 3c
       -0.07462142 -0.12270748 -0.15011032 0.010201045
000100 01 66 9b bd 0d c3 98 bd 5d 94 85 bc fc 8f 89 3b
       -0.07587815 -0.07459078 -0.016306097 0.0041980725
000110 9f 78 22 3c 89 48 99 3c 16 aa 9d 3d 73 0f 70 3d
       0.009916454 0.018711345 0.07698457 0.058608484
000120 4a fc ee 3d 16 8e 51 3d 51 a2 30 ba de 84 13 be
       0.11669214 0.051160894 -0.0006738054 -0.14406154
000130 45 e2 52 3e 91 db 30 3d 20 93 89 3d 60 9c 06 3b
       0.20594127 0.043178145 0.06717515 0.0020539984
000140 1c 65 65 3d f5 f7 d2 bc 8f 53 7a 3d 6b 12 dc bb
       0.05600463 -0.025753 0.061114844 -0.006716063
000150 f1 60 10 ba a0 e7 35 3e a8 1d e8 bb d5 f0 88 39
       -0.00055076095 0.17764139 -0.0070836134 0.00026119375
000160 cb 8a 8b 3e a7 fb 82 3c 2b ea 1d 3d c1 44 3c bc
       0.27254328 0.015989138 0.038553398 -0.011491002
000170 3e 97 e3 bd df 73 bc 3b c7 35 85 3d 48 0b 93 3d
       -0.111128315 0.0057511176 0.06504398 0.07179886
000180 9f af d8 bc 74 76 34 3e 0c bc ba bd 09 dd 23 3d
       -0.02645093 0.17623311 -0.09117898 0.040005717
000190 8c 1c 3c bd 29 a7 3d 3d 3a ea 11 bd 12 53 1f be
       -0.045925662 0.046301994 -0.035623766 -0.15559033
0001a0 2d 83 a1 3a 6c 9b bc 3d 7e ae 3f bd 48 38 4d 3e
       0.0012322419 0.09209332 -0.046797268 0.20041001
0001b0 6d df c3 3c 26 68 85 3d 11 82 20 bc a5 52 a9 3d
       0.023910249 0.06514005 -0.009796635 0.08267716
0001c0 32 cd 2d bd 8b d7 cb 3c 1c 69 d1 b8 84 23 49 bb
       -0.042432018 0.024883052 -9.985475e-05 -0.0030691335
0001d0 90 a5 52 bd 27 97 16 3d 96 1f d2 3c 70 ad c9 3d
       -0.051427424 0.036765244 0.025649827 0.09847534
0001e0 93 09 20 bb 78 ff 95 3c 7e 52 79 bc 1a 13 91 3d
       -0.002441977 0.018310294 -0.015217422 0.070837215
0001f0 36 e2 2c bc d3 5a c5 3d 66 39 d4 bc 9a 92 8a bd
       -0.01055198 0.09636464 -0.025906276 -0.06766243
000200 58 2c 7a bb 54 9c 68 3d 3e 67 8d bd 6d be d4 bd
       -0.0038173404 0.05678971 -0.069044575 -0.10387883
000210 01 24 c8 bd 11 5e d0 3d b4 24 7e bc 2c 06 5f bc
       -0.09772492 0.10174192 -0.01551168 -0.013612311
000220 86 91 ea 3d 03 4e 5a bd 64 9c d7 bc cf 6c 68 3d
       0.11453538 -0.053297054 -0.02631969 0.056744393
000230 8a c0 c9 3d 85 f8 a2 bd 64 51 94 3d df aa 74 3e
       0.09851177 -0.079575576 0.072420865 0.23893307
000240 dc da 59 bc 80 d9 0e bd 69 c5 6d bb 94 c8 1a 3d
       -0.013296809 -0.034875393 -0.0036280996 0.037788942
000250 b6 5f 34 bd 63 05 d3 bc 85 43 17 3e 9d 51 12 3c
       -0.04403659 -0.025759405 0.1477185 0.008930591
000260 d7 ee 44 3c 89 75 3e bd c3 ba fa bd 77 f4 55 be
       0.0120198345 -0.04649881 -0.12242653 -0.20894037
000270 e1 e6 0f 3d 00 f2 cb bd 41 e4 22 3d 8b d1 26 bd
       0.035132293 -0.09958267 0.03976846 -0.04072718
000280 93 86 cf bd cc f1 8d 3c d9 58 ca bd 09 07 7f 3d
       -0.1013309 0.017327212 -0.098802276 0.06226257
000290 e6 68 63 3d c4 a1 a2 3d ce c7 3c bd 2a 69 d3 bc
       0.05551996 0.079410106 -0.046088986 -0.025806982
0002a0 15 49 c4 bd ef 5d 5e 3e b9 36 c9 bc b7 2b 4c 3e
       -0.09584252 0.2171552 -0.024562227 0.19938551
0002b0 a3 23 e2 3c 00 93 ca 3d 26 30 8e bd 4a 5d ee 3c
       0.027604884 0.09891319 -0.06942777 0.029097218
0002c0 e8 c3 f8 bc b6 ee fe bc 93 0b 48 3d 82 38 5f bd
       -0.030366853 -0.031119686 0.048839163 -0.05449725
0002d0 f2 42 d5 bd e1 38 1a 3d f2 c1 09 3c 00 71 97 3d
       -0.104131594 0.0376519 0.008408057 0.073946
0002e0 65 20 2f be 90 7d bf 3d 3c a5 5d bd 2a bd 79 3c
       -0.17102201 0.09350121 -0.054112658 0.015242854
0002f0 d0 dd 9c bc 43 77 cd bc 22 05 63 bc 9b f7 26 bc
       -0.019148737 -0.025081282 -0.013856204 -0.01019087
000300 19 02 7b bd b8 2e 31 bd 5b 42 12 3d a8 b7 1e bd
       -0.061281297 -0.043257445 0.035707813 -0.038749367
000310 61 e8 9a bc 54 36 88 bd 29 aa ac 3d 77 ff 42 3d
       -0.018909635 -0.06650987 0.08430893 0.04760691
000320 c6 55 8a bc 8e 27 d8 3c 50 78 18 3d 4c 11 45 bd
       -0.016886603 0.026386049 0.037224114 -0.0481122
000330 db f5 6b 3e 32 23 e7 bc cb f4 46 3d c5 c2 56 bd
       0.23043005 -0.028215025 0.048573297 -0.05243184
000340 1b c5 aa 3d f4 e2 d4 bd 4b 01 da 3d e4 91 da 3c
       0.08338376 -0.103948504 0.10644778 0.026680894
000350 5c 8d 58 bd 19 01 c6 3d 01 07 a0 bd 73 80 1c 3d
       -0.052869186 0.09668178 -0.07813836 0.038208436
000360 82 34 47 3e 2a 50 07 3e 6d 76 a3 bd 1d 13 b4 3c
       0.19453624 0.13214174 -0.07981572 0.02198177
000370 0b c2 ee bd fe 17 53 3c 8c 82 3b bd 0b a7 2e bc
       -0.116581045 0.012884138 -0.045778796 -0.010659943
000380 27 71 ee 3d 53 b5 5c 3e 42 3b 42 3c 40 8a 58 3c
       0.11642676 0.21553545 0.0118549485 0.013216555
000390 49 6a d5 bd c0 75 f9 bc 0f a3 ff 3c e6 da 70 bd
       -0.10420663 -0.030451655 0.031205682 -0.058802508
0003a0 62 6e ef 3c 08 c1 87 bd d8 bd 5f be 15 2e aa 3d
       0.02922744 -0.06628615 -0.21849763 0.08309571
0003b0 63 7a 39 bd 9b 1b 9c bc ad 76 9c bc 03 72 db bd
       -0.045282733 -0.019056132 -0.019099558 -0.107151054
0003c0 b4 3f 8f bd fc f1 91 bd 33 68 a1 3d f0 f3 8b bd
       -0.06994572 -0.07126233 0.078812025 -0.06833637
0003d0 d1 4a 3d bd d5 88 13 bd e7 7c 1f be d2 8e 53 3d
       -0.04621393 -0.036019165 -0.1557499 0.051649876
0003e0 24 41 b8 3d 81 69 6d 3d 7f 72 59 bb e8 f5 3c bd
       0.089967996 0.057961944 -0.0033179817 -0.046132952
0003f0 83 4f 13 3c 4b b3 73 bc 4a 0f 6f 3d ae b5 d9 bd
       0.008991125 -0.01487429 0.05836419 -0.10630356

network_body.linear_encoder.seq_layers.0.bias f4 [128]
000000 8a 0b 3b bd b6 62 7b bd ca 18 67 be 59 7c a4 bc
       -0.0456653 -0.061373435 -0.2256805 -0.020078825
000010 91 8c 32 bc 28 be 76 bd 2e c9 62 be cb 68 89 3c
       -0.010897771 -0.06023994 -0.22147056 0.016773602
000020 b3 a1 a7 bd 34 60 3d be 1d 75 06 be a2 dd f4 3d
       -0.081851386 -0.1849373 -0.13130613 0.119563356
000030 42 a0 49 ba 51 0a 7f 3e f5 e5 f7 3c 0d fb 3d 3c
       -0.0007691422 0.24906279 0.03026102 0.0115955
000040 a9 92 0a be 3a 8d 4f be c4 49 77 bb f5 cb 22 be
       -0.13532509 -0.20268717 -0.0037733177 -0.15898116
000050 3a 18 3a be 6f 69 20 bd 14 a9 4e bd 61 87 72 be
       -0.18173304 -0.03916305 -0.050454214 -0.23684455
000060 dc f0 0a 3e 9f 84 b5 3d 70 3c 45 be 73 bb 8e bd
       0.13568443 0.08863186 -0.19261336 -0.06969347
000070 f2 ee e5 bc cd 65 5c 3d 73 1b 30 be 88 c8 fd 3d
       -0.02806804 0.053808022 -0.17197971 0.12391764
000080 c7 4f 83 bd 80 9e e8 bd fb 66 80 3c 88 ae 37 3e
       -0.06411701 -0.113583565 0.015674105 0.17937672
000090 5c 36 e6 bd e9 3d 53 be 2a 45 a7 3d 10 fa f5 bd
       -0.11240837 -0.20629086 0.08167489 -0.12010586
0000a0 6e ab 3c be 86 5a 76 3e f9 fe 30 be c9 e4 02 be
       -0.1842477 0.2405797 -0.17284764 -0.12782587
0000b0 e3 29 3d be 65 f0 49 3e ae 13 9e bd 68 85 af bd
       -0.1847301 0.1972061 -0.07718597 -0.08570367
0000c0 98 7c 01 be e4 7d 27 be 01 49 7a 3e ed a6 7c 3d
       -0.12645185 -0.16356617 0.24441911 0.06168263
0000d0 f4 71 7f 3d 7d 53 1b be dd 19 86 bd 81 a1 20 bd
       0.062364534 -0.15168567 -0.06547902 -0.039216522
0000e0 c5 90 c2 3d 88 c4 7d 3d d8 8c 06 3d 59 42 1f be
       0.09500269 0.061955005 0.032849163 -0.15552653
0000f0 d0 c0 78 3d b4 df 1d 3e 2e 8c bf bd c3 e4 0b be
       0.060730755 0.15417367 -0.09352909 -0.13661484
000100 d6 0c b8 bc e0 5d 5e be 31 32 37 be 54 3b 78 3c
       -0.022467058 -0.21715498 -0.1789024 0.015150864
000110 8a de 56 3d 75 6e e7 3d d6 8a 1e be 0e 0e 58 be
       0.052458324 0.11300365 -0.15482649 -0.21099111
000120 8c 6f 5e be 4f 59 5e be e2 8c f6 bc c1 ef 05 3e
       -0.2172224 -0.21713756 -0.030096475 0.1307974
000130 2b 07 4e be 10 68 dd 3b 5a e7 54 3e fe a3 57 3e
       -0.20119922 0.00675679 0.20791379 0.21058652
000140 7c 26 42 be 47 1c 7d bc 82 56 23 3d a0 43 dd bd
       -0.18959993 -0.015448636 0.039877422 -0.10803914
000150 0e bd 8c be ff db 5c be f3 81 4f 3e 7e 79 27 3e
       -0.27487987 -0.21568297 0.20264415 0.1635494
000160 33 4d 00 be 2d 27 08 bd da c6 24 be b0 08 47 3d
       -0.12529449 -0.033240486 -0.16091481 0.04859227
000170 f3 0f 51 3c e8 d5 e7 3d fa ed 79 3c 2d a1 a6 3c
       0.01276015 0.11320096 0.015254492 0.020340526
000180 e0 d0 00 3e 69 24 42 be 00 1e f8 bd 7c 64 9a 3b
       0.1257968 -0.18959202 -0.12115097 0.0047116857
000190 41 6a 57 be d9 03 0d be 67 d8 5f be 08 b7 43 be
       -0.21036626 -0.13770999 -0.21859895 -0.1911279
0001a0 28 71 63 be df 00 44 3e 60 59 2a bc c0 98 8e 3d
       -0.22211134 0.19140957 -0.010397285 0.069627285
0001b0 86 bb 80 3d ed 1b 5f be 78 0d 20 be 17 98 1e be
       0.06285767 -0.21787997 -0.15630138 -0.15487705
0001c0 d8 06 37 3e f3 79 19 be 29 1b 2d 3e 65 a1 f2 bd
       0.17873704 -0.14987926 0.16904892 -0.1184719
0001d0 9e c6 33 3e 67 48 93 bd 67 fc 04 be a6 5d 66 be
       0.17556235 -0.07191544 -0.12986909 -0.22496662
0001e0 52 0c 88 be d3 84 b2 3d ce a7 a3 3d e9 d9 20 3e
       -0.265719 0.087167405 0.079909906 0.15708126
0001f0 e4 0c 60 3e 53 fc 96 3d bf 6c f7 bc 8f fb 1a 3e
       0.21879917 0.07372346 -0.030203221 0.15135024

network_body.linear_encoder.seq_layers.0.weight f4 [128, 52]
000000 57 6e 6d 3d c8 31 05 3a b9 8e 77 bd 19 43 04 be
       0.057966556 0.00050809653 -0.060438845 -0.1291622
000010 99 6b 12 3e dc 7a 95 bd e5 f0 42 3e 9e 34 08 3e
       0.14298858 -0.07298824 0.19037206 0.13301322
000020 fa eb 95 3e 61 b4 75 be 6e 3a 2c 3e 58 07 3f 3e
       0.29281598 -0.2399459 0.16819164 0.18655145
000030 85 76 59 3d 23 1f 79 3d 02 71 89 3c e6 56 63 bd
       0.053091545 0.06082071 0.01677752 -0.055502795
000040 b1 7e 95 3e 26 50 a9 bd 6e 93 ac 3c 80 04 2c 3e
       0.2919822 -0.0826724 0.021066394 0.16798592
000050 8f 31 26 3e 4c ce 54 be e6 8b 8e be a2 9f 49 3d
       0.16229843 -0.20781821 -0.2784111 0.049224503
000060 08 84 33 be 58 ca 30 3c 54 19 3d 3e 9d 59 37 3d
       -0.17530835 0.01079043 0.18466693 0.044763196
000070 59 d6 14 3e 71 9c 14 3d 26 64 0a 3e e7 3e b0 3d
       0.14534892 0.036282007 0.13514766 0.08605748
000080 f6 9c 2c 3d 52 59 b2 bc 6f 65 68 bd 55 59 4e 3d
       0.042141877 -0.021771107 -0.05673736 0.050378162
000090 f1 29 46 be 73 e9 31 3e 19 0a ab be 18 ac 20 3e
       -0.19351937 0.1737421 -0.3340614 0.15690649
0000a0 99 d6 30 3e e8 e8 18 bb fa 89 cc bd f9 b3 1f be
       0.17269363 -0.0023332182 -0.099872544 -0.15595998
0000b0 d9 ad 06 be 0a 74 9c 3c 64 cc f9 bd c6 4d 5c be
       -0.13152255 0.0190983 -0.121971875 -0.21514043
0000c0 e9 cb 02 3e 48 14 cf be a7 71 03 be 49 44 0c bc
       0.12773098 -0.4044516 -0.12836324 -0.008561202
0000d0 cd 4e d0 3d d3 56 22 be 02 24 a4 3e 4b 7f 8e 3e
       0.1017128 -0.15853433 0.32058722 0.27831492
0000e0 9c 9d 8d be f2 c4 d5 3c 4a 50 f0 bb c9 92 12 bd
       -0.2765931 0.026094887 -0.00733379 -0.035784516
0000f0 f0 26 77 be d3 13 45 3e 43 fc 0f 3e c2 1c a2 be
       -0.24135947 0.19245844 0.14061074 -0.31662565
000100 5b fe dc 3d 0f 1c 3d b9 aa bb 9b 3d ce 91 ad bd
       0.10790702 -0.00018034897 0.076041535 -0.08475076
000110 d8 41 ba bd 7b 53 8b bd db a9 fb bd 9f bc 00 bd
       -0.0909459 -0.06803032 -0.12288257 -0.031429883
000120 a3 7c 1b bd d8 3c 35 be 46 5d 37 3e db 4a 2f be
       -0.03796066 -0.17698991 0.17906675 -0.17118399
000130 f2 fc 6d 3d bf de b6 bd ee 12 9f bd 8e 53 14 3e
       0.058102556 -0.08929204 -0.077672824 0.14484999
000140 10 c5 bc 3d 8d ea 80 bc 9d 93 4a 3d 86 0c fe bd
       0.09217274 -0.015736843 0.04945718 -0.124047324
000150 96 91 c5 3d 26 f9 5c bd 6c cf c3 bd a4 1c eb bd
       0.09646909 -0.053948544 -0.09561047 -0.11480072
000160 a3 93 bf 3e 21 5a 2e be cf c9 7e 3d 8e 2f 67 be
       0.37417325 -0.17026569 0.06220418 -0.22576734
000170 ff 73 e7 3b ab 4c 08 be 7a 35 3e bd e2 03 a8 3c
       0.0070633884 -0.13310497 -0.046437718 0.020509664
000180 1b 7e 09 be 68 92 7e 3e d0 12 2c 3d a3 4e ea be
       -0.13427012 0.24860537 0.04201013 -0.4576312
000190 c9 e9 89 be ea 8b a5 3d 16 d4 45 3e 78 d9 38 3e
       -0.26936176 0.08083327 0.19319186 0.18051708
0001a0 6a 8b 1a 3e 27 dd 7d be ba 62 7f 3e 39 9d 0c be
       0.15092245 -0.24791394 0.24940005 -0.1373185
0001b0 bc bb 91 3c 08 87 58 be 32 24 52 3e 12 41 33 be
       0.017789714 -0.2114526 0.2052162 -0.17505291
0001c0 58 7c fa 3d 8a 3f b9 bc c6 76 be 3d 67 c1 8c bd
       0.12230748 -0.022613306 0.09299998 -0.06872826
0001d0 86 40 1b 3e 03 47 58 3e ac 32 a3 3d ac c9 b4 ba
       0.15161332 0.21120839 0.07968649 -0.0013793013
0001e0 25 dd 1a be c3 41 54 bc 74 d8 5d 3e 3c 64 9d be
       -0.15123422 -0.012955132 0.21664602 -0.30740535
0001f0 c8 39 b7 bd e7 6d a9 bc da c8 74 3e 6f 00 3b bd
       -0.08946568 -0.020682288 0.23904744 -0.04565471
000200 17 ac 2d bc f0 a5 3e 3d 2f fe 38 3e 28 ab 4b be
       -0.010600111 0.04654497 0.18065713 -0.1988951
000210 92 97 4f 3e 8a 1f 78 bd 61 38 62 3e 87 02 35 3e
       0.20272663 -0.060576953 0.2209182 0.17676745
000220 76 09 3b 3e e7 3b bc bd 65 fe ff bd bb 0c 52 bb
       0.18265328 -0.09191113 -0.12499694 -0.0032051045
000230 c4 9b 31 be 0e b2 76 3e e7 31 b7 3e 2d a9 49 3e
       -0.17344576 0.2409136 0.3578026 0.19693442
000240 38 60 18 be 48 be c9 bd e8 5b 0b 3e 54 79 2a 3e
       -0.14880455 -0.098507464 0.13609278 0.16647846
000250 46 c2 14 3d 5d 17 23 be 7e 6c 3d 39 93 81 07 3e
       0.036318086 -0.15926881 0.00018064861 0.13233022
000260 7d 4a 1c bd 44 7a bc be 6d dc 8e 3d 2a 84 b0 be
       -0.038156975 -0.3681203 0.06975637 -0.34475833
000270 e8 02 60 bd 19 94 26 bd 78 43 2c 3e 21 9b 85 3e
       -0.05469027 -0.04066858 0.16822612 0.26094916
000280 8a 6e 7c bd 96 1a be bb 6f df 83 3b 49 b3 99 3e
       -0.061628856 -0.005801509 0.004024438 0.30019596
000290 14 53 84 bd 91 c3 3c 3d 7e 15 27 3d 96 5b 36 bd
       -0.064611584 0.046084944 0.04079198 -0.044520937
0002a0 f1 91 ce bd f5 6d 65 bc 60 5f 27 3d e5 aa 2f 3e
       -0.1008643 -0.014003267 0.04086244 0.17155035
0002b0 0f cd e7 3c 2a a7 31 3e ac f8 07 be c2 71 87 be
       0.028296022 0.17348924 -0.13278455 -0.26453978
0002c0 9c 70 b5 be e9 de 3f 3d 9c 35 85 3b 14 9a 52 bd
       -0.35437477 0.046843443 0.0040652286 -0.05141647
0002d0 00 cd a0 3e c0 e3 16 be 45 b9 c4 bc dc 07 72 be
       0.31406403 -0.14735317 -0.024014125 -0.2363581
0002e0 6d c5 6f bd 84 80 0d 3e 9b bb 2c 3d c6 a9 03 3d
       -0.05853789 0.13818556 0.042171102 0.03214433
0002f0 71 f2 df bd 41 27 88 be 87 58 72 3d 19 b2 97 be
       -0.10934914 -0.26592448 0.059166458 -0.29628065
000300 fb 4c 01 3e 08 e3 9f 3d 64 c0 16 3c c9 7f c1 bd
       0.12627022 0.07806975 0.009201143 -0.09448201
000310 9b db d0 3e 6f 39 1e bc 01 84 ec bd 70 17 84 be
       0.40792546 -0.009657248 -0.11548615 -0.2579913
000320 fd c7 16 3e 42 44 05 3d 3d 8c 77 3d a3 f0 a3 bc
       0.14724727 0.0325358 0.060436476 -0.020012205
000330 c7 85 37 be 97 3c 56 bc 28 0f 5b bc dc 99 35 be
       -0.17922126 -0.013075969 -0.013370313 -0.17734474
000340 cf 31 df 3c b0 23 0b be fd 95 8c be 11 bf 8d 3e
       0.02724543 -0.13587832 -0.27458182 0.27684835
000350 39 b0 8e 3d a1 eb 29 3e a5 68 0b 3e 88 12 b4 bd
       0.069672056 0.16593792 0.13614137 -0.08792597
000360 d3 8e 3e be 58 f3 12 3e 68 54 14 be ff 1d db bb
       -0.1860917 0.14350641 -0.14485323 -0.0066869254
000370 9b 52 20 be e7 fb 12 3e 77 57 7e 3e e0 ae 02 bd
       -0.15656511 0.14353906 0.24838053 -0.031905055
000380 2d 26 80 bb ab 34 8d 3c a4 1d 6f be b4 85 a8 bd
       -0.003910801 0.017237028 -0.23351151 -0.08228627
000390 c3 5a 66 3d 9d 86 bd 3d c9 d5 fe 3c 46 3f 84 3d
       0.0562389 0.09254191 0.0311078 0.06457381
0003a0 98 b7 01 3e f0 40 af 3d 9a 45 4d 3d 83 01 18 be
       0.12667692 0.08557308 0.050115205 -0.14844327
0003b0 73 dc 41 bd 44 77 1f 3e 02 af f6 3c bd ce 04 3d
       -0.047329377 0.1557284 0.030112747 0.032423723
0003c0 23 8b 40 3e da 91 a6 bb b0 05 80 3e 06 51 1b bf
       0.18803076 -0.005083305 0.2500434 -0.60670507
0003d0 69 12 19 bd 48 cb 80 3d 2d 1e 17 3e 67 20 e3 bc
       -0.037371073 0.06288773 0.14757605 -0.027725412
0003e0 1f 3c 68 3d 7e bb 8f bc 3b f0 4b 3e 3d 8e 63 be
       0.05669796 -0.017545458 0.1991586 -0.22222228
0003f0 c2 b8 6c bd 90 83 4c be 76 5a 88 3e 82 17 86 be
       -0.057793386 -0.19972062 0.26631516 -0.2618981

network_body.linear_encoder.seq_layers.2.bias f4 [128]
000000 c0 94 bc bc f4 11 33 3e c9 20 6d bc 80 bc 36 be
       -0.023020148 0.17487317 -0.014473149 -0.17845345
000010 df 57 2b 3e 7e df 32 3e d1 54 60 bd d6 ec 2d be
       0.16732739 0.17468068 -0.054768387 -0.16984877
000020 0a ea 06 3e 06 b5 62 3d 63 b9 46 be 10 f9 ea 3d
       0.13175216 0.05534842 -0.19406657 0.11473286
000030 74 e1 17 3e e8 36 91 3d f2 1e da 3d bc 10 47 3e
       0.14832097 0.07090551 0.106504336 0.19439977
000040 68 ca d5 bc 60 75 49 be 92 57 7f 3d 8c 82 8a 3d
       -0.026097491 -0.19673681 0.062339373 0.06763181
000050 c3 97 5c bd 03 ae 03 be 93 1d 3b 3e 49 15 09 bd
       -0.05385567 -0.12859349 0.18273 -0.033467565
000060 da f0 6f be 56 6e 5b be e0 0d f8 3d ce 7d 53 be
       -0.23431721 -0.21428809 0.121120214 -0.2065346
000070 db 59 a3 3d 6b 51 23 be 73 29 32 3d 32 94 83 3d
       0.07976123 -0.15949027 0.04349656 0.064247504
000080 d3 7c 0c 3e ff 2c ae 3d 5f d6 85 be 88 b9 ce 3d
       0.13719492 0.08504676 -0.26140115 0.10093981
000090 0a ca 8b bc 44 cf 11 3e 58 01 64 be 8e fb 57 bc
       -0.017064113 0.14239222 -0.22266138 -0.013182534
0000a0 5f 09 5f be 4b 92 27 3e e0 04 8a bd 6d 8a 4a 3e
       -0.21780919 0.163644 -0.06739211 0.19779368
0000b0 40 1b 06 3e 18 87 e4 3d 13 69 5d be 61 a4 9f 3d
       0.13096333 0.111585796 -0.21622114 0.07795025
0000c0 bd 2b 06 be c0 1b 44 be cd db fa 3c 15 9e ec bd
       -0.13102622 -0.19151211 0.030622387 -0.11553589
0000d0 17 5a 00 be 81 62 f5 3d 00 f6 83 3c 6e dd 2a 3e
       -0.12534367 0.11981679 0.016108513 0.16686031
0000e0 cb f2 05 be f3 2d 21 3e 70 cd eb 3d 85 78 e0 bd
       -0.130809 0.15740184 0.115137935 -0.10960487
0000f0 44 39 34 3d 84 3a 2c be be 29 16 be 82 d0 10 3c
       0.043999925 -0.16819197 -0.14664361 0.008838775
000100 2c 2c 14 be 2e cd d0 bd aa a1 7b 3d 14 6b 26 be
       -0.14469975 -0.10195385 0.06143347 -0.16251785
000110 58 5d d4 bd 18 fe 62 be af e8 4d 3b d5 fc 8d 3d
       -0.103693664 -0.22167242 0.0031419208 0.069329895
000120 5c a0 e7 3b 62 4f 29 3d 0d e2 0c 3e 0b eb c9 3d
       0.007068677 0.04133547 0.13758107 0.09859284
000130 07 5e 53 3e e7 a1 2d be ab 9b a0 3d 2e b4 59 be
       0.20641337 -0.16956292 0.07842191 -0.2126014
000140 5e a3 a6 3d 73 52 3e be d8 73 9f 3d 83 2d ea bd
       0.081366286 -0.1858614 0.07785767 -0.11434462
000150 8a cb 4e be 63 1d c9 3d e8 2e 63 be a1 f6 a4 3d
       -0.20194831 0.09820058 -0.22185862 0.08054853
000160 29 13 2f 3e e9 df 1b 3e 1a 6e 5f be b6 fc 41 bd
       0.17097153 0.15222134 -0.21819344 -0.047360145
000170 b9 83 67 be 2a 67 b5 3c 0d 59 c7 bd 7d 98 a9 3d
       -0.22608842 0.022143919 -0.09733782 0.08281038
000180 6a 35 1a be 23 5b 6d 3e 48 7d dc bd b6 ce 70 bd
       -0.15059438 0.23179297 -0.10766083 -0.058790885
000190 49 2a 5f 3d c6 ac 7c bd f5 e4 9e bd 52 b1 8f 3d
       0.054483686 -0.061688207 -0.07758514 0.07016243
0001a0 bb 2f e5 3d 59 95 fa bd a1 53 0e be 03 7a 09 3e
       0.111907445 -0.12235517 -0.1389909 0.1342545
0001b0 07 a4 76 be 44 57 55 bc a7 64 39 be b8 49 31 be
       -0.24086009 -0.013021294 -0.18104802 -0.17313278
0001c0 61 55 6a be b8 0b 16 be b6 f9 c5 3d 94 69 52 be
       -0.22884132 -0.14652908 0.09666769 -0.20548087
0001d0 a2 5d 0b be 2d 60 fe 3c 2c ed 44 be c8 6a 9b 3d
       -0.13609937 0.03105172 -0.19231099 0.07588726
0001e0 68 c4 3e 3c 72 fa 87 3c 8a d6 92 3d c8 5b 1a be
       0.011643507 0.016598914 0.07169826 -0.15074074
0001f0 60 3e 86 3d c7 a3 24 be 98 9f bb 3d a2 54 62 be
       0.06554866 -0.16078101 0.091612995 -0.22102597

network_body.linear_encoder.seq_layers.2.weight f4 [128, 128]
000000 c7 8e 46 bd df cb c5 3d ab f6 85 bd 97 57 0a be
       -0.048476007 0.09658026 -0.06541189 -0.13509975
000010 aa 27 1c be 12 dd 87 3d da 5a 51 be 0c 9f 93 bd
       -0.15249506 0.06633963 -0.20444813 -0.0720807
000020 d1 44 bb b9 b8 87 63 be cb 2d 5d be 1c 42 36 3e
       -0.00035718692 -0.22219741 -0.215995 0.17798656
000030 8b 7e 01 be ef f7 32 3e 12 39 12 3e 48 3e 81 be
       -0.12645929 0.17477392 0.14279583 -0.2524283
000040 c9 3e d8 bd fb 8b 6b 3d 9b 44 3a be ba b4 80 3d
       -0.1055885 0.057506543 -0.18190233 0.06284471
000050 7f 55 0c be 3f bc a7 3d 74 92 78 3d 8f ad a0 3c
       -0.13704489 0.08190202 0.060686544 0.01961401
000060 68 6d db bd 9f bf 71 bd 44 cb 89 3c 61 e6 c9 3d
       -0.10714227 -0.059020635 0.016820557 0.098583944
000070 ab bc 31 be 35 8b 26 be 6f 2c f7 3d b1 20 1c 3e
       -0.17357127 -0.16264041 0.12069022 0.15246846
000080 f3 c4 bd bd bb ff 14 be ab d7 7c 3c 16 71 83 3d
       -0.09266081 -0.14550678 0.015432279 0.06418054
000090 bd 2a 03 3c a0 1c 26 3c 0d eb 30 bc be 1f 96 bc
       0.008005795 0.010138661 -0.010798228 -0.018325683
0000a0 06 e5 06 3d 08 93 92 3e 86 5b fc bd 88 4e 53 bb
       0.032933258 0.286278 -0.12322144 -0.0032242853
0000b0 1e c3 a6 bd 02 4b d0 3d 45 42 08 be 6a e4 d7 bd
       -0.081426844 0.101705566 -0.1330653 -0.105416134
0000c0 61 12 55 bd 78 55 30 3d c2 56 92 3d f6 4c 20 3d
       -0.05201948 0.04305026 0.07145454 0.039135896
0000d0 5c a3 85 3e f6 33 23 3e f6 46 b4 bd 66 12 65 be
       0.26101196 0.1593779 -0.08802597 -0.223703
0000e0 8e ae 9f 3e 8b 78 0e 3e 67 35 32 be ec 41 be bc
       0.31187862 0.13913171 -0.17403184 -0.023224793
0000f0 46 34 4a be 6e ae 51 3e 53 bf 58 3e d0 57 4c 3d
       -0.19746503 0.20476696 0.21166734 0.049888432
000100 49 f6 b4 bc ec 1e dc bc 6e a7 8e bd f6 f2 06 3e
       -0.022090094 -0.026870213 -0.069655284 0.1317862
000110 ca 6e 63 bd ab 3f 81 bc 8a 05 27 be 8c 73 16 be
       -0.05552558 -0.01577743 -0.16310707 -0.14692515
000120 25 0e 00 be 2f 56 75 be ac 4a c5 bd b1 b1 70 bd
       -0.12505396 -0.23958658 -0.09633383 -0.05876321
000130 7a 74 df bd 75 94 10 be c4 4e 64 3d a5 ff c5 bb
       -0.10910888 -0.14119132 0.05573918 -0.006042438
000140 27 45 0f bd 47 78 a3 3c 2b 30 0d bd c2 81 89 3d
       -0.03497806 0.019954814 -0.034469765 0.067142025
000150 56 6d 38 3d 59 80 2b bc ec 32 79 be 52 2c c1 be
       0.045026146 -0.010467612 -0.24335831 -0.37729126
000160 65 0e 59 be 3a 29 24 be 61 e8 14 3e ae e1 15 be
       -0.21196897 -0.16031352 0.1454177 -0.14636871
000170 1a f6 a3 bd b9 54 bf bd bb 8a 7a 3e 19 da ac bd
       -0.080059245 -0.093423314 0.24466984 -0.08440036
000180 89 13 ab 3d 93 63 0e be 05 17 67 3e 26 b8 40 be
       0.083533354 -0.13905172 0.22567375 -0.18820247
000190 6b 79 2a bc a2 26 12 bd 16 a3 48 3d c6 76 20 bc
       -0.010404925 -0.035681374 0.048983656 -0.009793943
0001a0 03 a1 41 3d 02 3b 83 3a aa e1 72 be 64 77 84 bd
       0.047272693 0.0010012093 -0.23718897 -0.064680845
0001b0 9b 9e 21 be 68 9d b2 3d bc 7f c7 3d 8c 84 2d bd
       -0.1578316 0.08721429 0.0974116 -0.042362735
0001c0 06 a3 60 bd 7e e7 05 3e 27 17 05 be 25 ef bf bc
       -0.05484297 0.13076589 -0.12997113 -0.023429463
0001d0 8a 9a 5d bc 7e 86 f9 bd 82 ae c7 3c 2f 7a 1f 3e
       -0.0135256145 -0.121838555 0.024375204 0.15573953
0001e0 e3 9a a9 3d 4e fb 73 be 95 d4 dd bd 03 11 1d 3d
       0.082814954 -0.23826334 -0.108315624 0.0383463
0001f0 ba ef 24 be 69 9d 12 be 1c 74 dc bc e8 34 1d 3d
       -0.16107073 -0.1431786 -0.026910834 0.038380533
000200 81 c6 21 bc 52 93 49 3c 22 37 db 3d e2 9f 92 bb
       -0.009873987 0.01230319 0.10703875 -0.004474626
000210 01 3c b4 bd 92 7c 09 3e 27 05 70 3d 2d 44 ca bc
       -0.08800507 0.13426426 0.058598664 -0.024690712
000220 7e ad 72 bc fd 66 0f 3e 49 f2 24 bd 3a 4b 21 bc
       -0.014811872 0.1400413 -0.040270124 -0.009844596
000230 4e 2a 46 bd 51 54 8a 3d 0f a0 f7 3c ec bc 21 3e
       -0.04838019 0.06754363 0.03022769 0.15794724
000240 b3 e2 a0 bc 3b 63 38 be e5 cf 53 be 35 8c e4 bd
       -0.019639349 -0.18006603 -0.20684774 -0.11159555
000250 cc d1 60 bc 0b a2 5f bd f3 76 be 3d 0b d5 c7 bd
       -0.0137218945 -0.054597896 0.093000315 -0.097574316
000260 b7 be 11 3c 54 c1 28 3d b5 e4 e6 bd 64 c5 b8 ba
       0.008895568 0.041199997 -0.11274091 -0.0014096913
000270 29 da 44 bd b3 e7 eb 3d 65 1b 26 bd 8f f6 0e be
       -0.048059616 0.115188025 -0.04055347 -0.13961242
000280 4f cd 5c bc ff e5 d5 bd af d2 49 3d e6 86 19 3e
       -0.013476684 -0.10444259 0.04927319 0.14992866
000290 3c 17 1e be ea 3b 63 3d fe 8d 2f bd 05 20 84 be
       -0.1543855 0.05547706 -0.042860024 -0.2580568
0002a0 c6 0b 66 3d 48 9e c5 bd 95 be c2 bd 9c d9 72 3d
       0.05616357 -0.096493304 -0.09509007 0.05928956
0002b0 cf d3 af 3c 4d 69 0f 3e b3 c6 56 be 2a 3f 53 be
       0.021463303 0.14005013 -0.20974235 -0.20629564
0002c0 1f c4 56 3d 24 4c 44 bd 63 2c 15 3e 0a ab 11 be
       0.05243313 -0.047924176 0.14567713 -0.14225402
0002d0 99 c2 ce 3d 13 7f 97 bd 31 68 8f bd cd d1 d5 bd
       0.1009571 -0.07397284 -0.07002295 -0.10440407
0002e0 a3 e9 ab 38 a5 e8 7a 3e 6c ce bc bd d3 dc ea 3c
       8.1974336e-05 0.2450281 -0.09219059 0.02866975
0002f0 8e e1 cf 3b 06 ba 9e bc d1 3c 6f 3e 2b 8a b4 3c
       0.006344027 -0.019375812 0.23363043 0.02203854
000300 46 73 2b 3e 8b 87 37 bd 94 55 c2 3d c6 8a fd 3c
       0.16743192 -0.044807 0.09488979 0.030949961
000310 f1 ec d4 3d 34 dc 54 bd 22 37 2a be f2 63 8d 3d
       0.103967555 -0.051967815 -0.16622594 0.06903829
000320 6c 94 2d 3d cc ed 1f bd a4 32 00 bb 8c 55 2f be
       0.042377874 -0.03904514 -0.0019561434 -0.17122477
000330 0b 3b 90 bd 74 28 23 3e 74 cd 5e 3c 7a 17 1a 3c
       -0.070425116 0.159334 0.0135987885 0.009405011
000340 d3 39 b8 3d 23 1f d5 bd a9 67 d6 3d f6 b0 73 3d
       0.08995404 -0.104063295 0.1046899 0.059494935
000350 af 49 bb bd ef 5d a0 3d 4a e8 2b 3d 3c 33 dd bd
       -0.091449134 0.078304164 0.041969575 -0.10800788
000360 dd ef f2 bd 6f f2 e2 3c 12 b6 0f bd 0f 67 68 3d
       -0.118621565 0.027703492 -0.035085745 0.05673891
000370 df a4 02 be 03 db 99 bc 0e 0f ac be 25 c5 1f be
       -0.12758206 -0.01878119 -0.33605236 -0.15602548
000380 ff d4 80 3b f8 71 00 bc e8 66 99 3b 1c 58 80 bc
       0.003931641 -0.007839672 0.004681457 -0.015667014
000390 72 7a 38 3d 63 78 de 3d 0a df ff bd 6d 93 a6 bc
       0.045038648 0.10862806 -0.12493713 -0.02033397
0003a0 cd b3 4c 3d da a9 f9 3d e8 d5 87 bd f3 00 62 bd
       0.04997616 0.121906 -0.06632596 -0.055176686
0003b0 ea 42 94 3d e3 fd 1a 3d df bb 4f bd fb d3 0d be
       0.07239325 0.03783978 -0.050716277 -0.13850395
0003c0 47 8d 7a bd 1a 4d 52 bb 73 ba b4 3d 2a 2c a2 bd
       -0.06116989 -0.0032089413 0.08824625 -0.0791858
0003d0 9b 41 0b 3e fa 7e 18 3d 69 e0 c3 3c 9d 84 2e bd
       0.13599245 0.03723047 0.023910718 -0.04260694
0003e0 15 71 59 be e3 f5 7e bd aa ff 79 be 92 73 48 be
       -0.21234544 -0.062246215 -0.24413934 -0.19575337
0003f0 29 af 4e bd 8a 6d 8c 3d ac fc 8c bd 50 31 5b 3d
       -0.050460014 0.068568304 -0.06884131 0.053513825

network_body.vector_processors.0.normalizer.running_mean f4 [52]
000000 b2 2a cf 3c f7 a2 79 3f 67 53 c9 34 ca 2f 96 3e
       0.025288913 0.9751429 3.749985e-07 0.29333335
000010 65 90 ac 3c ce 9e 7a 3f c3 52 49 35 e8 25 97 3e
       0.021064946 0.97898567 7.499877e-07 0.29521108
000020 bf ec ec 3c 6a b8 78 3f 5d 39 06 35 20 20 96 3e
       0.028921483 0.97156394 5.0002365e-07 0.29321384
000030 bd ee a2 3c 3b dd 7a 3f 31 ff 96 35 2a e9 97 3e
       0.01988923 0.9799382 1.1250141e-06 0.29670078
000040 ee ea 1b 3d a0 58 76 3f d0 39 06 34 43 6f 95 3e
       0.038065843 0.9622898 1.2500755e-07 0.29186448
000050 45 b9 af 3c f9 81 7a 3f 99 53 c9 35 45 71 99 3e
       0.021450648 0.9785457 1.4999997e-06 0.2996923
000060 7a b6 4e 3d 5c 1d 73 3f e1 52 c9 34 52 63 94 3e
       0.050466992 0.94966674 3.749947e-07 0.28982025
000070 3b 4b cd 3c c4 a7 79 3f 6c e4 6a 35 41 f7 9b 3e
       0.025060287 0.97521615 8.750419e-07 0.30462077
000080 34 4e 5d 3d 8b 2e 72 3f 65 51 49 35 58 8f 93 3e
       0.05402966 0.9460227 7.499678e-07 0.288203
000090 37 71 16 3d 83 9f 76 3f 09 53 c9 34 8b c8 9e 3e
       0.036729064 0.96337146 3.7499584e-07 0.31012377
0000a0 cc 63 5e 3d 54 1b 72 3f 33 3a 86 34 6c 7c 92 3e
       0.054294392 0.9457295 2.500179e-07 0.2861055
0000b0 78 0e 84 3d 7a 7d 6f 3f e1 53 c9 34 bd 65 9f 3e
       0.06448072 0.9355084 3.7500197e-07 0.31132308
0000c0 3f 65 70 3d 90 f8 70 3f d0 39 06 34 f5 8a 91 3e
       0.058690306 0.94129276 1.2500755e-07 0.28426328
