results/fifth/Car/Car-6999995.onnx (onnx, 96598 bytes, 9 tensors)

53 f4 [52]
0.15800792 0.15800701 0.00075592875 0.20106572 0.14475721 0.14476913 0.0009999973 0.20220107
0.16615085 0.16617815 0.00084515224 0.20213938 0.13987646 0.13988814 0.0010690361 0.20269072
0.18302567 0.18304874 0.0005345226 0.20197229 0.14444095 0.14445974 0.001133892 0.20467037
0.20560518 0.20562693 0.00075592863 0.2006306 0.15501267 0.1550315 0.0010690422 0.20937517
0.2126346 0.2126522 0.00092582 0.1991818 0.18357992 0.18359478 0.0007559281 0.21577267
0.21543129 0.21544886 0.00065464963 0.1976411 0.23682782 0.23683107 0.00075592846 0.2195587
0.22552407 0.22553636 0.0005345226 0.1972743
00000000: d4cc 213e 97cc 213e 8529 463a 2ce4 4d3e
00000010: 3c3b 143e 5c3e 143e 5712 833a cc0d 4f3e
00000020: 7323 2a3e 9b2a 2a3e 358d 5d3a a0fd 4e3e
00000030: c63b 0f3e d63e 0f3e e61e 8c3a 288e 4f3e
00000040: 156b 3b3e 2171 3b3e 341f 0c3a d3d1 4e3e
00000050: 54e8 133e 41ed 133e 1a9f 943a 1c95 513e
00000060: 2a8a 523e de8f 523e 8329 463a 1c72 4d3e
00000070: a4bb 1e3e 94c0 1e3e 1b1f 8c3a 7266 563e
00000080: e2bc 593e 80c1 593e bab2 723a 50f6 4b3e
00000090: 60fc 3b3e 4500 3c3e 7a29 463a 83f3 5c3e
000000a0: 059a 5c3e a09e 5c3e cb9c 2b3a 6e62 4a3e
000000b0: fe82 723e d883 723e 8029 463a ffd3 603e
000000c0: c8ef 663e 01f3 663e 341f 0c3a 4602 4a3e

54 f4 [1, 2]
-1.8715726 -1.7638079
00000000: b18f efbf 75c4 e1bf

distribution.mu.bias f4 [2]
-0.021722985 0.21004066
00000000: 67f4 b1bc e614 573e

distribution.mu.weight f4 [2, 128]
-0.11491179 -0.026361648 -0.06300135 -0.012260803 -0.08884039 -0.045754626 0.09819023 0.042927213
0.103814416 -0.01421392 -0.08653087 0.02267451 -0.023572594 0.10234394 0.012602018 0.13105023
0.048942894 -0.015024639 0.028591901 0.011355953 0.03687724 0.056570355 0.06332028 0.103708394
0.03275107 0.12916036 -0.06671656 -0.050949983 0.03652332 0.08350682 0.026783645 -0.097629294
-0.06261118 0.082137205 0.08952291 -0.08005585 0.06952669 0.048596878 0.052578308 0.028077532
-0.013440909 0.2773648 0.055208433 0.08216767 0.095643185 0.011432418 -0.04811214 0.0065894173
0.008617127 0.056993283 -0.20860158 -0.0012403057 -0.07767006 0.01761553 0.02044344 -0.00020583288
-0.1393092 -0.024528477 -0.09239397 0.00066971127 -0.08143314 -0.1219028 -0.14874446 0.018192427
-0.07895735 -0.07975746 -0.017903429 0.0013581186 0.0038748991 0.020832064 0.066552 0.05477213
0.120947964 0.04822282 0.013161477 -0.15248185 0.20206825 0.041730292 0.06402167 0.010071355
0.076868996 -0.026163895 0.06418744 -0.012258584 0.00159263 0.17397587 -0.0052628303 0.009990131
0.26861602 0.020307917 0.03689725 -0.029015712 -0.09887299 0.00671379 0.0644434 0.08084888
-0.024364438 0.17211573 -0.09119004 0.04115822 -0.041096084 0.04761019 -0.038498122 -0.15532653
0.003602961 0.09165254 -0.045276176 0.20227422 0.025217257 0.061332874 -0.004198845 0.0861479
-0.0399625 0.01933612 -0.0010486684 -0.005001571 -0.055615894 0.033924047 0.03390599 0.095696546
-0.009827954 0.038346294 -0.01880109 0.06626168 -0.02137788 0.08945568 -0.026286155 -0.06294576
-0.005387 0.060743008 -0.077240296 -0.103452645 -0.09834422 0.1009761 -0.015524597 -0.015490763
0.116706155 -0.051156685 -0.012915682 0.055396095 0.098532505 -0.08479792 0.07077858 0.2475857
-0.01713179 -0.031821467 -0.009084706 0.038348306 -0.043781783 -0.027959418 0.123156406 0.009646184
0.0068816096 -0.044558898 -0.114075884 -0.20917797 0.029960277 -0.08582283 0.039448325 -0.036431998
-0.09582302 0.023268439 -0.09798638 0.060131732 0.052643847 0.07398136 -0.0470499 -0.020109266
-0.088535115 0.2297533 -0.02432989 0.19973359 0.032680046 0.0966044 -0.0692935 0.021699876
-0.036218982 -0.030586522 0.04750275 -0.04931979 -0.106815785 0.021306135 0.011690464 0.07414493
-0.15911885 0.09410668 -0.056321897 0.011048731 -0.012314509 -0.025724536 -0.01529028 -0.014886282
-0.057326175 -0.04058275 0.037569955 -0.03417989 -0.014350139 -0.067123435 0.08507369 0.04232793
-0.022761937 0.025646485 0.03466983 -0.051689792 0.23229367 -0.021312125 0.044116333 -0.048882205
0.061786164 -0.09764067 0.10525086 0.025411546 -0.049576793 0.10126057 -0.068249136 0.018912395
0.20849538 0.13252258 -0.07350212 0.03680924 -0.1173913 0.01625456 -0.04491402 -0.010593438
0.11021069 0.22326429 0.008270096 0.009798631 -0.1000607 -0.03401056 0.033634003 -0.061942812
0.030202692 -0.075552434 -0.21886843 0.08144563 -0.04422734 -0.01600469 -0.025008557 -0.10410954
-0.059587993 -0.060152315 0.07774164 -0.058150165 -0.038535245 -0.033339024 -0.14985733 0.055134498
0.08625355 0.048073843 0.0073289988 -0.041348938 0.0026260226 -0.004355154 0.060423635 -0.112446174
00000000: df56 ebbd 62f4 d7bc da06 81bd 89e1 48bc
00000010: f3f1 b5bd 3469 3bbd f617 c93d 72d4 2f3d
00000020: a79c d43d 80e1 68bc 1937 b1bd e5bf b93c
00000030: 501b c1bc b399 d13d b278 4e3c 0832 063e
00000040: 5878 483d e729 76bc 9039 ea3c 520e 3a3c
00000050: 970c 173d 51b6 673d 10ae 813d 1165 d43d
00000060: fc25 063d 9d42 043e b1a2 88bd eeb0 50bd
00000070: 7a99 153d a005 ab3d 6069 db3c def1 c7bd
00000080: 4a3a 80bd 8d37 a83d ca57 b73d 52f4 a3bd
00000090: 0264 8e3d 850d 473d 5a5c 573d da02 e63c
000000a0: 4237 5cbc c202 8e3e 3d22 623d 8647 a83d
000000b0: 93e0 c33d 094f 3b3c 3c11 45bd 0aec d73b
000000c0: da2e 0d3c ca71 693d a79b 55be c191 a2ba
000000d0: 7b11 9fbd 724e 903c 0079 a73c d8d4 57b9
000000e0: 12a7 0ebe f2ef c8bc 0d39 bdbd 908f 2f3a
000000f0: 6bc6 a6bd 2da8 f9bd 7850 18be 4908 953c
00000100: 64b4 a1bd e157 a3bd 36aa 92bc e602 b23a
00000110: 05f2 7d3b 01a8 aa3c 6a4c 883d be58 603d
00000120: 91b3 f73d 4b85 453d 3ca3 573c 3424 1cbe
00000130: fbea 4e3e 62ed 2a3d cb1d 833d 5302 253c
00000140: 7e6d 9d3d aa55 d6bc b474 833d 3ad8 48bc
00000150: ccbf d03a bb26 323e d273 acbb a5ad 233c
00000160: 0a88 893e ca5c a63c 9221 173d 5cb2 edbc
00000170: ec7d cabd 5aff db3b e7fa 833d 1994 a53d
00000180: ee97 c7bc 1b3f 303e d8c1 babd 8695 283d
00000190: 5e54 28bd e702 433d 35b0 1dbd eb0d 1fbe
000001a0: a81f 6c3b 54b4 bb3d 8373 39bd f920 4f3e
000001b0: 6c94 ce3c 2e38 7b3d 7796 89bb 4f6e b03d
000001c0: b8af 23bd c866 9e3c 7973 89ba 38e4 a3bb
000001d0: 7ecd 63bd f1f3 0a3d 02e1 0a3d 8dfc c33d
000001e0: 6d05 21bc 0111 1d3d be04 9abc 34b4 873d
000001f0: aa20 afbc 8a34 b73d 1056 d7bc b5e9 80bd
00000200: 6e85 b0bb a9cd 783d 2930 9ebd fbde d3bd
00000210: b268 c9bd 8fcc ce3d e15a 7ebc f8cc 7dbc
00000220: a303 ef3d ac89 51bd 4c9c 53bc 04e7 623d
00000230: 69cb c93d 88aa adbd 5cf4 903d 1b87 7d3e
00000240: f857 8cbc 3a57 02bd 05d8 14bc 1d13 1d3d
00000250: 8754 33bd 260b e5bc 6d39 fc3d 070b 1e3c
00000260: 207f e13b 6483 36bd 9ea0 e9bd c032 56be
00000270: 416f f53c e1c3 afbd 9194 213d b839 15bd
00000280: dc3e c4bd 749d be3c 15ad c8bd b14c 763d
00000290: 13a1 573d 8a83 973d 65b7 40bd 30bc a4bc
000002a0: e651 b5bd 7344 6b3e 7a4f c7bc f686 4c3e
000002b0: 83db 053d 87d8 c53d c0e9 8dbd f0c3 b13c
000002c0: 5b5a 14bd 9690 fabc 3e92 423d 8c03 4abd
000002d0: 3cc2 dabd 348a ae3c 5c89 3f3c 4cd9 973d
000002e0: 0df0 22be 01bb c03d cab1 66bd bd05 353c
000002f0: cbc2 49bc 43bc d2bc 1584 7abc 98e5 73bc
00000300: dace 6abd 193a 26bd f4e2 193d 3600 0cbd
00000310: d81c 6bbc 0378 89bd 1d3b ae3d 0d60 2d3d
00000320: 3e77 babc 9418 d23c f401 0e3d adb8 53bd
00000330: 64de 6d3e c496 aebc 54b3 343d b538 48bd
00000340: 7d13 7d3d d5f7 c7bd c38d d73d e02b d03c
00000350: 0911 4bbd b461 cf3d 34c6 8bbd 2bee 9a3c
00000360: d07f 553e 00b4 073e 4888 96bd 49c5 163d
00000370: da6a f0bd 4828 853c c3f7 37bd 1990 2dbc
00000380: 24b6 e13d 659f 643e 4c7f 073c 708a 203c
00000390: a0ec ccbd a84e 0bbd cfc3 093d bfb7 7dbd
000003a0: a36b f73c 3cbb 9abd 0c1f 60be f7cc a63d
000003b0: ba27 35bd 451c 83bc bfde ccbc 6237 d5bd
000003c0: 8a12 74bd 4662 76bd 0237 9f3d de2e 6ebd
000003d0: 22d7 1dbd 808e 08bd 3374 19be b6d4 613d
000003e0: b4a5 b03d 14e9 443d 1928 f03b 815d 29bd
000003f0: 5919 2c3b aeb5 8ebb c67e 773d 2e4a e6bd

network_body.linear_encoder.seq_layers.0.bias f4 [128]
-0.05106797 -0.05897945 -0.22811335 -0.01623744 -0.0032583587 -0.056903724 -0.2227148 0.012630102
-0.07934849 -0.18181908 -0.12657604 0.12655121 0.0035676295 0.24740702 0.03504365 0.010786694
-0.1426922 -0.19482277 -0.00042657784 -0.1635727 -0.17928347 -0.036834717 -0.04314759 -0.24319853
0.13667282 0.08938979 -0.18879993 -0.07745631 -0.025352778 0.050150365 -0.16663137 0.12727575
-0.054700695 -0.11131212 0.015042628 0.18093733 -0.11764133 -0.19795534 0.082332745 -0.13146664
-0.18177149 0.2398236 -0.16807154 -0.12509274 -0.18105622 0.19860151 -0.081369735 -0.09173605
-0.12451292 -0.15797128 0.24462326 0.056756224 0.06179419 -0.1475625 -0.06265635 -0.042936016
0.091306545 0.06507664 0.02975817 -0.15182728 0.05583085 0.15601401 -0.089548685 -0.13065232
-0.012523158 -0.21238586 -0.17819783 0.021556785 0.047183473 0.11332921 -0.15141542 -0.20761229
-0.20674378 -0.21492445 -0.029332584 0.12853974 -0.19724222 0.015012321 0.21064208 0.21065229
-0.18646048 -0.011478064 0.042117152 -0.105982065 -0.26224244 -0.2104549 0.19778267 0.15988173
-0.12660939 -0.03743023 -0.16977637 0.05285399 -0.0007200316 0.113142915 0.018182462 0.018328406
0.1264407 -0.18786092 -0.119140945 0.0055243494 -0.20587496 -0.13990623 -0.2211185 -0.18201917
-0.22063316 0.19573861 -0.014423718 0.07115821 0.062255133 -0.2217322 -0.15405521 -0.14414863
0.17158258 -0.14355385 0.16744953 -0.11637349 0.17440867 -0.07487305 -0.12566334 -0.2223636
-0.26723433 0.086048946 0.07527009 0.15611744 0.2142607 0.076037854 -0.026777247 0.15406498
00000000: a62c 51bd 7094 71bd 8c96 69be 6104 85bc
00000010: 308a 55bb e113 69bd 590f 64be 7dee 4e3c
00000020: 7681 a2bd c82e 3abe 269d 01be a496 013e
00000030: e4ce 693b 4458 7d3e ee89 0f3d acba 303c
00000040: e71d 12be 9f7f 47be 4fa6 dfb9 9a7f 27be
00000050: 1696 37be 00e0 16bd 87bb 30bd 0909 79be
00000060: f6f3 0b3e ff11 b73d c554 41be 6aa1 9ebd
00000070: a1b0 cfbc 786a 4d3d 6aa1 2abe 9354 023e
00000080: d60d 60bd 9cf7 e3bd 5b75 763c a347 393e
00000090: f0ed f0bd ceb4 4abe 129e a83d 319f 06be
000000a0: 4e22 3abe 5194 753e f21a 2cbe 5018 00be
000000b0: cd66 39be 325e 4b3e 2da5 a6bd 1ce0 bbbd
000000c0: a100 ffbd 39c3 21be 857e 7a3e 3779 683d
000000d0: e81b 7d3d a01a 17be f951 80bd addd 2fbd
000000e0: edfe ba3d e746 853d 68c7 f33c 9c78 1bbe
000000f0: e4ae 643d 23c2 1f3e 4d65 b7bd b9c9 05be
00000100: ef2d 4dbc ae7b 59be 7e79 36be db97 b03c
00000110: 7543 413d 2519 e83d a50c 1bbe 5198 54be
00000120: a4b4 53be 2815 5cbe e34a f0bc ec9f 033e
00000130: ddf9 49be 3df6 753c 8fb2 573e 3cb5 573e
00000140: 7fef 3ebe 7d0e 3cbc 0983 2c3d 200d d9bd
00000150: a444 86be 7d81 57be 8a87 4a3e 09b8 233e
00000160: e4a5 01be 7150 19bd dbd9 2dbe 6d7d 583d
00000170: 81c0 3cba 79b7 e73d 63f3 943c 7425 963c
00000180: ac79 013e 9d5e 40be 2b00 f4bd 9a05 b53b
00000190: e3d0 52be 9443 0fbe e36c 62be 3c63 3abe
000001a0: a9ed 61be b46f 483e 7551 6cbc 65bb 913d
000001b0: 3dff 7e3d c40d 63be a6c0 1dbe b39b 13be
000001c0: 58b3 2f3e c8ff 12be e477 2b3e 3955 eebd
000001d0: 3098 323e 0b57 99bd e4ad 00be 49b3 63be
000001e0: f0d2 88be 6e3a b03d 3427 9a3d 40dd 1f3e
000001f0: 2867 5b3e bcb9 9b3d f55b dbbc 36c3 1d3e

network_body.linear_encoder.seq_layers.0.weight f4 [128, 52]
0.07404469 -0.015558353 -0.055060375 -0.119778074 0.1475588 -0.07755555 0.19575359 0.14432281
0.27691817 -0.22422558 0.17357063 0.19743767 0.069018014 0.044917166 0.014957802 -0.044725653
0.29951647 -0.0902112 0.026437223 0.17371191 0.16895364 -0.2150893 -0.26970226 0.04159785
-0.17178243 0.0072679105 0.19004577 0.048707124 0.14005877 0.041175205 0.1366681 0.07400338
0.053893358 -0.03341312 -0.061689764 0.04999732 -0.19787644 0.17810099 -0.32872358 0.14869303
0.16965567 0.000572205 -0.094495915 -0.16223086 -0.13387154 0.021445407 -0.11660148 -0.2294749
0.11677581 -0.3936463 -0.122991756 -0.008533733 0.10096301 -0.15783408 0.31819886 0.27711868
-0.2674999 0.016855676 -0.009721147 -0.037226073 -0.23985633 0.19098969 0.13822259 -0.3117571
0.11326748 -0.0054491917 0.074100755 -0.08946138 -0.09577883 -0.06317233 -0.12526895 -0.023757434
-0.03369282 -0.18106706 0.1754281 -0.17203175 0.048958663 -0.0801433 -0.08005983 0.1534454
0.10162301 -0.025368989 0.046048198 -0.12350414 0.10021252 -0.057671264 -0.10357075 -0.11000016
0.3744631 -0.17055626 0.058789205 -0.22104919 0.009769813 -0.13580132 -0.048824433 0.022964565
-0.1333015 0.24763925 0.039622877 -0.4456452 -0.27115735 0.08263584 0.1908059 0.16846964
0.1552123 -0.25219056 0.25182185 -0.13762143 0.022209164 -0.21578237 0.20763946 -0.17134656
0.12515534 -0.025546942 0.095422864 -0.06851338 0.15023324 0.21253243 0.074631184 6.878938e-05
-0.14671032 -0.01746734 0.21906596 -0.29789355 -0.08611583 -0.023941772 0.24283792 -0.05322672
-0.0029586926 0.038903017 0.18307894 -0.19264422 0.18543904 -0.043317832 0.22152998 0.1709196
0.18357101 -0.09294375 -0.11901129 -0.0032602842 -0.17054668 0.23801136 0.3587791 0.1923201
-0.13948806 -0.10789351 0.13851474 0.16240484 0.043998625 -0.16694954 0.002585144 0.12840699
-0.042159792 -0.3642438 0.072176434 -0.3422115 -0.05655324 -0.038830407 0.1643985 0.256738
-0.047347724 -0.020083908 0.00019579144 0.2909831 -0.07148716 0.05322818 0.03696423 -0.049932964
-0.11834605 0.0029264186 0.03852149 0.17003578 0.016593069 0.18529084 -0.1366069 -0.2842684
-0.3619438 0.05518295 0.002170302 -0.055451196 0.29508668 -0.12836911 -0.0278414 -0.24093947
-0.059902485 0.1401562 0.04412148 0.027938357 -0.11174366 -0.26367244 0.06667673 -0.30689263
0.12538643 0.0789562 0.0069253664 -0.09329211 0.3934333 0.004962371 -0.119312316 -0.25901604
0.14625762 0.03352663 0.056978047 -0.02352777 -0.1907141 -0.0013842669 -0.017193155 -0.16618657
0.037724324 -0.1464248 -0.28219375 0.27602753 0.075567305 0.1598333 0.12852831 -0.09154607
-0.19607739 0.15566243 -0.15246484 -0.015207179 -0.16532634 0.15026718 0.24194904 -0.032311212
-0.0109071 0.024396045 -0.24111357 -0.1171258 0.05910891 0.08996131 0.026061103 0.053715415
0.11289472 0.099350534 0.042504497 -0.15522562 -0.058993783 0.16767885 0.024331052 0.017006168
0.17471278 0.008258008 0.2394572 -0.6065337 -0.047479514 0.07299918 0.14082849 -0.043616746
0.04614502 -0.0067959675 0.19155051 -0.21872519 -0.06662275 -0.19089158 0.25874725 -0.27693614
00000000: bea4 973d 76e8 7ebc fd86 61bd 354e f5bd
00000010: a719 173e 72d5 9ebd a173 483e 5cc9 133e
00000020: 38c8 8d3e 649b 65be 80bc 313e 1a2d 4a3e
00000030: 5159 8d3d 10fb 373d 9211 753c 3f32 37bd
00000040: 395a 993e a6c0 b8bd e092 d83c 89e1 313e
00000050: 2f02 2d3e 5f40 5cbe 6a16 8abe 8262 2a3d
00000060: bce7 2fbe a727 ee3b 5c9b 423e 1f81 473d
00000070: 916b 0f3e 55a7 283d b9f2 0b3e 168f 973d
00000080: 48bf 5c3d 32dc 08bd 68ae 7cbd fdc9 4c3d
00000090: 1fa0 4abe 1b60 363e 754e a8be fc42 183e
000000a0: 37ba 2d3e 0700 163a 1387 c1bd d91f 26be
000000b0: 9f15 09be 47ae af3c c2cc eebd 78fb 6abe
000000c0: 2828 ef3d 028c c9be 1ae3 fbbd 12d1 0bbc
000000d0: b2c5 ce3d 429f 21be f6ea a23e 80e2 8d3e
000000e0: bff5 88be ea14 8a3c 7245 1fbc 5e7a 18bd
000000f0: e69c 75be cd92 433e 398a 0d3e a09e 9fbe
00000100: c8f8 e73d 228f b2bb 23c2 973d 8737 b7bd
00000110: b127 c4bd 7f60 81bd 8146 00be f39e c2bc
00000120: 7c01 0abd a569 39be 6da3 333e 1729 30be
00000130: e188 483d 2c22 a4bd 68f6 a3bd ca20 1d3e
00000140: ba1f d03d a0d2 cfbc 099d 3c3d bdef fcbd
00000150: 393c cd3d b438 6cbd e71c d4bd c447 e1bd
00000160: a1b9 bf3e 4da6 2ebe f3cc 703d b85a 62be
00000170: 9111 203c 800f 0bbe 21fc 47bd 2f20 bc3c
00000180: 3080 08be 2595 7d3e 994b 223d 9c2b e4be
00000190: 23d5 8abe fb3c a93d 9f62 433e 4e83 2c3e
000001a0: f9ef 1e3e 1f1f 81be cbee 803e a2ec 0cbe
000001b0: feef b53c 0ef6 5cbe 709f 543e 7975 2fbe
000001c0: b928 003e d247 d1bc 106d c33d be50 8cbd
000001d0: bed6 193e 1aa2 593e 3cd8 983d 0443 9038
000001e0: 3b3b 16be ab17 8fbc d452 603e 8185 98be
000001f0: 7f5d b0bd 8921 c4bc 81aa 783e 4304 5abd
00000200: a0e6 41bb c558 1f3d 0c79 3b3e 8744 45be
00000210: bbe3 3d3e 0a6e 31bd c1d8 623e 8c05 2f3e
00000220: 0afa 3b3e 4b59 bebd 31bc f3bd 7eaa 55bb
00000230: caa3 2ebe 40b9 733e e5b1 b73e 8fef 443e
00000240: f5d5 0ebe 46f7 dcbd cfd6 0d3e 744d 263e
00000250: e737 343d d2f4 2abe 856b 293b 1f7d 033e
00000260: bfaf 2cbd 2a7e babe 3dd1 933d 5936 afbe
00000270: 5fa4 67bd a20c 1fbd 1558 283e 2a73 833e
00000280: b0ef 41bd 0287 a4bc 5d4d 4d39 bdfb 943e
00000290: dc67 92bd cb05 5a3d ce67 173d 8286 4cbd
000002a0: 6a5f f2bd 28c9 3f3b b6c8 1d3d dc1d 2e3e
000002b0: 30ee 873c e2bc 3d3e aee2 0bbe a18b 91be
000002c0: b350 b9be 8407 623d a03b 0e3b cb20 63bd
000002d0: 9a15 973e 3173 03be a613 e4bc d6b8 76be
000002e0: 4f5c 75bd 1b85 0f3e bab8 343d fbde e43c
000002f0: dcd9 e4bd 1300 87be cf8d 883d 0821 9dbe
00000300: 4d65 003e cab3 a13d 2fee e23b ef0f bfbd
00000310: 1770 c93e 639b a23b 045a f4bd c09d 84be
00000320: 8fc4 153e 3853 093d d061 693d 4fbd c0bc
00000330: 8f4a 43be 4a70 b5ba a9d8 8cbc d02c 2abe
00000340: d284 1a3d 62f0 15be b37b 90be 7b53 8d3e
00000350: 08c3 9a3d 57ab 233e ed9c 033e 827c bbbd
00000360: 83c8 48be f965 1f3e be1f 1cbe 8827 79bc
00000370: 4f4b 29be a4df 193e 7dc1 773e c358 04bd
00000380: b1b3 32bc 37da c73c 7ae6 76be a7df efbd
00000390: 2f1c 723d a33d b83d 187e d53c b204 5c3d
000003a0: 5935 e73d 4b78 cb3d 3219 2e3d 77f3 1ebe
000003b0: 77a3 71bd 01b4 2b3e ea51 c73c 8550 8b3c
000003c0: e8e7 323e 994c 073c 4534 753e cb45 1bbf
000003d0: e179 42bd 9880 953d 5835 103e 79a7 32bd
000003e0: 8f02 3d3d b5b0 debb d125 443e 7ff9 5fbe
000003f0: 8271 88bd 1579 43be 857a 843e 93ca 8dbe

network_body.linear_encoder.seq_layers.2.bias f4 [128]
-0.022104165 0.17915909 -0.009427072 -0.17945595 0.16894183 0.17220747 -0.051974785 -0.17477243
0.141359 0.055154677 -0.18531224 0.114277095 0.14598109 0.071230635 0.107644625 0.19296868
-0.02571408 -0.19532005 0.062313944 0.07018363 -0.04731864 -0.12547992 0.18307488 -0.033406045
-0.23658937 -0.2141538 0.11688599 -0.21407765 0.078036524 -0.1698199 0.043377787 0.066391654
0.13515039 0.079063505 -0.26978454 0.09912842 -0.017751008 0.14238289 -0.22122279 -0.02300394
-0.2287782 0.16180937 -0.07198047 0.19850536 0.12855458 0.11916571 -0.2151859 0.07705057
-0.12902339 -0.19114925 0.03422232 -0.12098479 -0.12034816 0.119763866 0.017574633 0.16837868
-0.1340146 0.15898372 0.11974698 -0.11012185 0.047595818 -0.17015292 -0.14718324 0.020679975
-0.1405895 -0.09929002 0.06488659 -0.17829138 -0.10465086 -0.21310163 0.0051447 0.0685921
0.012758927 0.039436854 0.1420311 0.101603806 0.20472175 -0.16745132 0.07978456 -0.21056363
0.084128425 -0.19258651 0.07748944 -0.11058412 -0.20434318 0.09295942 -0.22069007 0.0803365
0.16919193 0.15768665 -0.2171204 -0.037008487 -0.22188118 0.02776214 -0.100391485 0.083424665
-0.14611194 0.23090932 -0.108489774 -0.05825543 0.053772755 -0.059486635 -0.07709296 0.0708357
0.116166934 -0.11165683 -0.14103468 0.12863375 -0.23714714 -0.023206064 -0.17623483 -0.17715602
-0.2276673 -0.15433612 0.100224584 -0.20748843 -0.13281986 0.019477582 -0.17960112 0.07152794
0.01999381 0.019126 0.07624599 -0.15584013 0.07276874 -0.16534004 0.094673686 -0.21681333
00000000: cb13 b5bc 7b75 373e 0174 1abc 4dc3 37be
00000010: 16ff 2c3e 2857 303e 83e3 54bd 8bf7 32be
00000020: 6ac0 103e dfe9 613d 7ec2 3dbe 1c0a ea3d
00000030: 117c 153e 5ee1 913d c974 dc3d 9599 453e
00000040: 56a6 d2bc fb01 48be e83c 7f3d 6fbc 8f3d
00000050: 31d1 41bd cf7d 00be fb77 3b3e c7d4 08bd
00000060: 7c44 72be 224b 5bbe ec61 ef3d 2c37 5bbe
00000070: 9dd1 9f3d 45e5 2dbe e8ac 313d 59f8 873d
00000080: dd64 0a3e 0cec a13d 3321 8abe d703 cb3d
00000090: 906a 91bc d2cc 113e 3a88 62be c272 bcbc
000000a0: d544 6abe 5bb1 253e 7f6a 93bd fd44 4b3e
000000b0: d0a3 033e 270d f43d b159 5cbe b0cc 9d3d
000000c0: b51e 04be a1bc 43be b42c 0c3d e0c6 f7bd
000000d0: 1979 f6bd c246 f53d adf8 8f3c 766b 2c3e
000000e0: 203b 09be a1cc 223e e83d f53d 9187 e1bd
000000f0: d5f3 423d 913c 2ebe 34b7 16be 0d69 a93c
00000100: b2f6 0fbe 9158 cbbd 43e3 843d 0492 36be
00000110: 3153 d6bd 5037 5abe df94 a83b 047a 8c3d
00000120: d20a 513c 8a88 213d 9a70 113e a815 d03d
00000130: 94a2 513e 5c78 2bbe 1666 a33d fe9d 57be
00000140: 864b ac3d 6635 45be c9b2 9e3d ed79 e2bd
00000150: 573f 51be 8261 be3d 94fc 61be 7787 a43d
00000160: a640 2d3e 9c78 213e cf54 5ebe 3696 17bd
00000170: d234 63be 6d6d e33c 0d9a cdbd 8dda aa3d
00000180: 5e9e 15be 7e73 6c3e e32f debd 3f9d 6ebd
00000190: d240 5c3d 42a8 73bd eae2 9dbd 4f12 913d
000001a0: eee8 ed3d 56ac e4bd 656b 10be 91b8 033e
000001b0: b3d6 72be a51a bebc e776 34be 6368 35be
000001c0: 9e21 69be 4a0a 1ebe 8c42 cd3d d977 54be
000001d0: ee01 08be 738f 9f3c 5be9 37be 3e7d 923d
000001e0: 0fca a33c 21ae 9c3c dc26 9c3d 8e94 1fbe
000001f0: c707 953d e64e 29be 47e4 c13d 5004 5ebe

network_body.linear_encoder.seq_layers.2.weight f4 [128, 128]
-0.057808023 0.089975975 -0.058839254 -0.13397717 -0.15819485 0.06350894 -0.20347594 -0.074538216
-0.0019604347 -0.22440118 -0.20808478 0.18293646 -0.12947588 0.17631389 0.13896811 -0.24845394
-0.09973024 0.058229953 -0.18942033 0.053297482 -0.12804818 0.07039655 0.054936595 0.020902097
-0.10185041 -0.06320354 0.016077908 0.09554815 -0.17256148 -0.15625066 0.11815497 0.1519963
-0.095698945 -0.14829248 0.011487261 0.06409055 0.0052154353 0.011085704 -0.015996872 -0.01608335
0.030176947 0.2846503 -0.12652403 -0.010671141 -0.0808754 0.10219237 -0.12131447 -0.10052642
-0.07142341 0.04112063 0.07207199 0.03914715 0.26076406 0.15904585 -0.09311748 -0.21492928
0.31274793 0.14010297 -0.1713873 -0.026939027 -0.19977604 0.20671485 0.20556933 0.047225647
-0.022118727 -0.03170291 -0.07659428 0.12803794 -0.05358319 -0.014813983 -0.16428168 -0.14768043
-0.1289586 -0.24549071 -0.09973879 -0.059899457 -0.11155194 -0.13470222 0.057787806 -0.008353748
-0.021723501 0.018797966 -0.043193802 0.05767744 0.034688827 -0.006605858 -0.2358728 -0.37466672
-0.21785288 -0.159953 0.143158 -0.15538934 -0.07589037 -0.09766155 0.23918706 -0.08852832
0.090722375 -0.1382705 0.21815881 -0.19756049 -0.022340786 -0.040836472 0.057174426 -0.012611549
0.051037 -0.0038544335 -0.2398142 -0.06271538 -0.15373641 0.08069397 0.08707131 -0.045257524
-0.057002697 0.1300555 -0.12721589 -0.030102966 -0.01061913 -0.1216599 0.019038698 0.15179859
0.08329341 -0.22993836 -0.107902184 0.039407 -0.16023023 -0.13905013 -0.03440418 0.04390849
-0.013478284 0.006635367 0.12115358 0.008283144 -0.07861324 0.14711104 0.028575892 0.016006583
0.002773528 0.14954591 -0.05605302 0.010206969 -0.055019 0.06938074 0.036976308 0.16004576
-0.029393444 -0.19388774 -0.19154234 -0.095314085 -0.015757486 -0.06713196 0.106547885 -0.0848691
0.010056615 0.032836486 -0.13812242 0.0054052626 -0.05207045 0.11039925 -0.049011238 -0.1227268
0.004668473 -0.10940159 0.0511368 0.15264575 -0.16103436 0.05226892 -0.05616691 -0.23765346
0.03518538 -0.08226553 -0.08655293 0.072114654 0.024572548 0.14535353 -0.2000609 -0.19673972
0.032226495 -0.056595113 0.1600866 -0.11689483 0.091257215 -0.08222072 -0.0529655 -0.08074201
0.008179878 0.23717 -0.09396186 0.014135326 0.00237191 0.0015920461 0.25025013 0.014703898
0.1643216 -0.06441905 0.070046596 0.041925076 0.09270166 -0.05081746 -0.17413363 0.059204355
0.04872861 -0.07907334 0.00049571623 -0.15906931 -0.07552418 0.14957735 0.02105001 0.016747158
0.094265535 -0.092275344 0.11183442 0.06785847 -0.08351619 0.060931742 0.048960168 -0.0907262
-0.114551075 0.01128158 -0.013938557 0.06653988 -0.1290904 -0.022858927 -0.33286807 -0.16514951
0.0019117249 0.0019335445 0.012662641 -0.013930724 0.011329949 0.11511319 -0.09959255 -0.032454893
0.055198148 0.13629052 -0.07159782 -0.04691587 0.06880465 0.026890263 -0.05250685 -0.15166807
-0.041933585 -0.023114635 0.08597212 -0.06503619 0.13807881 0.022684447 0.029514192 -0.048420236
-0.20012702 -0.0806981 -0.24073578 -0.17859761 -0.03927731 0.0707262 -0.06897063 0.06650982
00000000: 1bc8 6cbd 5345 b83d 6e01 71bd 5031 09be
00000010: d5fd 21be fa10 823d ff5b 50be 7ea7 98bd
00000020: a37a 00bb 6cc9 65be 2d14 55be b253 3b3e
00000030: 5395 04be a18b 343e a84d 0e3e b66a 7ebe
00000040: 5e3f ccbd 8882 6e3d 67f7 41be 764e 5a3d
00000050: 101f 03be 112c 903d 3205 613d e03a ab3c
00000060: f396 d0bd dc70 81bd d1b5 833c c0ae c33d
00000070: f5b3 30be 2c00 20be 3cfb f13d eba4 1b3e
00000080: cffd c3bd fcd9 17be 1135 3c3c e841 833d
00000090: 3ee6 aa3b d0a0 353c df0b 83bc 3bc1 83bc
000000a0: a535 f73c afbd 913e 848f 01be 02d6 2ebc
000000b0: 00a2 a5bd 3c4a d13d b973 f8bd cce0 cdbd
000000c0: 7046 92bd 1b6e 283d 7b9a 933d c358 203d
000000d0: de82 853e eadc 223e 61b4 bebd 6c16 5cbe
000000e0: 7f20 a03e 2777 0f3e 2780 2fbe 3caf dcbc
000000f0: 1792 4cbe 0fad 533e c480 523e ae6f 413d
00000100: 5532 b5bc e9da 01bd 76dd 9cbd 611c 033e
00000110: 0c7a 5bbd 59b6 72bc 7539 28be 8a39 17be
00000120: b90d 04be eb61 7bbe da43 ccbd 2259 75bd
00000130: 5875 e4bd 61ef 09be e8b2 6c3d 29de 08bc
00000140: 7cf5 b1bc 31fe 993c fceb 30bd 2e3f 6c3d
00000150: df15 0e3d f475 d8bb a488 71be 51d4 bfbe
00000160: d314 5fbe b8ca 23be 0398 123e 621e 1fbe
00000170: 696c 9bbd c702 c8bd 74ed 743e 564e b5bd
00000180: a7cc b93d c896 0dbe 0665 5f3e 4c4d 4abe
00000190: 0604 b7bc 2544 27bd bb2f 6a3d aca0 4ebc
000001a0: 2c0c 513d aa9a 7cbb db91 75be ec70 80bd
000001b0: 146d 1dbe e142 a53d 7152 b23d f45f 39bd
000001c0: a97b 69bd 452d 053e e244 02be 7f9a f6bc
000001d0: dcfb 2dbc d328 f9bd 0bf7 9b3c 1771 1b3e
000001e0: bc95 aa3d f674 6bbe d2fb dcbd 3c69 213d
000001f0: 6513 24be 2863 0ebe 66eb 0cbd 64d9 333d
00000200: 05d4 5cbc 7e6d d93b 5e1f f83d 06b6 073c
00000210: faff a0bd 47a4 163e fd17 ea3c 3d20 833c
00000220: 14c4 353b 9022 193e da97 65bd 223b 273c
00000230: 9a5b 61bd 7d17 8e3d 7874 173d 09e3 233e
00000240: 85ca f0bc 828a 46be ad23 44be 0834 c3bd
00000250: d815 81bc 7b7c 89bd c735 da3d dacf adbd
00000260: 80c4 243c 8d7f 063d f76f 0dbe a11e b13b
00000270: d347 55bd 0119 e23d 02c0 48bd 3058 fbbd
00000280: fdf9 983b f10d e0bd d274 513d 2b4f 1c3e
00000290: 31e6 24be ef17 563d 460f 66bd 6e5b 73be
000002a0: 8c1e 103d d57a a8bd aa42 b1bd d9b0 933d
000002b0: 5e4c c93c 8ed7 143e c4dc 4cbe 2376 49be
000002c0: eeff 033d 47d0 67bd beed 233e 8e66 efbd
000002d0: 10e5 ba3d 5663 a8bd 5af2 58bd 115c a5bd
000002e0: e504 063c b1dc 723e 136f c0bd db97 673c
000002f0: 0c72 1b3b 34ac d03a c920 803e 9ee8 703c
00000300: ec43 283e 23ee 83bd 9774 8f3d a1b9 2b3d
00000310: 5eda bd3d f825 50bd 1650 32be 4480 723d
00000320: a797 473d 34f1 a1bd f4f2 013a 11e3 22be
00000330: 6cac 9abd ce2a 193e 1271 ac3c 5631 893c
00000340: 4a0e c13d dbfa bcbd 7209 e53d 62f9 8a3d
00000350: 890a abbd 9093 793d 758a 483d a8ce b9bd
00000360: c199 eabd 60d6 383c 8c5e 64bc 1046 883d
00000370: 4630 04be a542 bbbc af6d aabe f41c 29be
00000380: d892 fa3a fd6e fd3a f776 4f3c b13d 64bc
00000390: 40a1 393c 77c0 eb3d 2ef7 cbbd 6cef 04bd
000003a0: 7417 623d be8f 0b3e e1a1 92bd db2a 40bd
000003b0: 74e9 8c3d f848 dc3c 6c11 57bd e04e 1bbe
000003c0: 8dc2 2bbd e75a bdbc 2712 b03d b231 85bd
000003d0: 8864 0d3e bcd4 b93c bfc7 f13c 4c54 46bd
000003e0: 19ee 4cbe 0c45 a5bd 7183 76be 4be2 36be
000003f0: 3fe1 20bd e6d8 903d 7940 8dbd 4d36 883d

network_body.vector_processors.0.normalizer.running_mean f4 [52]
0.025634374 0.97479093 4.2857624e-07 0.2922487 0.021419806 0.97894025 8.571418e-07 0.29420128
0.02841328 0.9718942 5.714202e-07 0.29219443 0.019971332 0.9802057 9.999715e-07 0.2961198
0.0346931 0.9655074 1.4285686e-07 0.29127628 0.021322561 0.97895527 1.1428886e-06 0.29891384
0.044221707 0.9558512 4.2857175e-07 0.28968123 0.024651239 0.9757048 1.0000264e-06 0.3034959
0.047457278 0.952535 7.1427087e-07 0.28837255 0.0349113 0.9650969 4.2857297e-07 0.3085875
0.04877936 0.9511822 2.857171e-07 0.2866369 0.05964718 0.9403243 4.2858034e-07 0.30972108
0.05374822 0.9462277 1.4285686e-07 0.2852754
00000000: 2eff d13c e68b 793f 1217 e634 9fa1 953e
00000010: 9778 af3c d49b 7a3f 5616 6635 8da1 963e
00000020: f8c2 e83c 0fce 783f b263 1935 829a 953e
00000030: eb9a a33c c3ee 7a3f c236 8635 049d 973e
00000040: 5a1a 0e3d 7e2b 773f 3264 1934 2a22 953e
00000050: a7ac ae3c d09c 7a3f 5a65 9935 3c0b 993e
00000060: d221 353d aab2 743f 7416 e634 1951 943e
00000070: 65f1 c93c cac7 793f a538 8635 d163 9b3e
00000080: 9062 423d 55d9 733f 52bc 3f35 91a5 933e
00000090: 27ff 0e3d 9710 773f 9f16 e634 2eff 9d3e
000000a0: decc 473d ad80 733f a964 9934 12c2 923e
000000b0: 9a50 743d 18b9 703f a217 e634 c393 9e3e
000000c0: 1827 5c3d fb3b 723f 3264 1934 9e0f 923e
