results/fifth/Car/Car-4499998.onnx (onnx, 96598 bytes, 9 tensors)

53 f4 [52]
0	0x3e13bbfe	0.14427182
1	0x3e13bf32	0.14428404
2	0x3a7726d0	0.0009428086
3	0x3e4dce0d	0.20098133
4	0x3e0ac611	0.13552119
5	0x3e0ac874	0.1355303
6	0x3aa3799b	0.0012472154
7	0x3e4f5a4e	0.20249292
8	0x3e166ced	0.1468999
9	0x3e1676c8	0.14693749
10	0x3a7726a7	0.0009428062
11	0x3e4dd545	0.20100887
12	0x3e042647	0.12905227
13	0x3e0428d0	0.12906194
14	0x3aa37955	0.0012472073
15	0x3e51e78c	0.20498484
16	0x3e17e269	0.14832462
17	0x3e17e955	0.14835103
18	0x3a2ec33f	0.0006666667
19	0x3e4d24bc	0.20033544
20	0x3e0692fb	0.13142006
21	0x3e0695f7	0.13143145
22	0x3a8a296a	0.0010540907
23	0x3e54c2d0	0.2077744
24	0x3e1ee5d6	0.15517363
25	0x3e1eeded	0.15520449
26	0x3a7726ce	0.00094280846
27	0x3e4bb719	0.19894065
28	0x3e0e593e	0.1390123
29	0x3e0e5c96	0.13902506
30	0x3a5609cf	0.0008164914
31	0x3e588688	0.2114507
32	0x3e216723	0.15762
33	0x3e216ed4	0.15764934
34	0x3a560a28	0.00081649655
35	0x3e4a3528	0.1974684
36	0x3e1ed097	0.15509258
37	0x3e1ed523	0.15510993
38	0x3a560a12	0.0008164953
39	0x3e5cde87	0.21569262
40	0x3e2b5938	0.16733253
41	0x3e2b612c	0.16736287
42	0x3a5609d0	0.00081649143
43	0x3e490abc	0.19633001
44	0x3e44606c	0.19177407
45	0x3e44622c	0.19178075
46	0x3a560a19	0.0008164957
47	0x3e5e7aee	0.21726581
48	0x3e3aa817	0.18228184
49	0x3e3aae50	0.18230557
50	0x3a2ec33f	0.0006666667
51	0x3e49dd93	0.1971343

54 f4 [1, 2]
0	0xbfc480a3	-1.5351757
1	0xbfb9895b	-1.4495043

distribution.mu.bias f4 [2]
0	0xbc8132c5	-0.01577128
1	0x3e49f2cd	0.19721527

distribution.mu.weight f4 [2, 128]
0	0xbdb6346e	-0.08896719
1	0xbce9e1ec	-0.02855011
2	0xbdb86cba	-0.09005113
3	0xbcf425ab	-0.029803118
4	0xbda1bdb0	-0.07897508
5	0xbd4b49b4	-0.049630836
6	0x3dcfef9a	0.10153122
7	0x3d140999	0.036141966
8	0x3da813e3	0.08206918
9	0x3c6ff3cc	0.014645528
10	0xbd92c486	-0.0716639
11	0x3c8083b4	0.015687801
12	0xbd0878b4	-0.033318236
13	0x3d4d40fc	0.050110802
14	0xb9058e4d	-0.0001273688
15	0x3e0399f6	0.128517
16	0x3ce1134a	0.027475018
17	0xbc55f937	-0.013059906
18	0x3c41066d	0.011781317
19	0x3c1c9050	0.009555891
20	0x3d2ca3d0	0.04214841
21	0x3d56c743	0.052436125
22	0x3cab6104	0.020920284
23	0x3de3431c	0.110967845
24	0x3c370587	0.011170751
25	0x3da2a686	0.07941918
26	0xbd34131a	-0.04396353
27	0xbc0d92c2	-0.008640947
28	0x3d0fa513	0.035069536
29	0x3db58123	0.088625215
30	0x3c72a5bd	0.014810023
31	0xbdbd592f	-0.09245526
32	0xbcee9bc0	-0.029127002
33	0x3d2db9cd	0.04241352
34	0x3da74a73	0.08168497
35	0xbd9cd1a5	-0.07657174
36	0x3d501b99	0.05080757
37	0x3d4c49ce	0.049875073
38	0x3cbf04f6	0.023317795
39	0x3bf86e4e	0.0075815087
40	0xbc5cde70	-0.013480768
41	0x3e459acd	0.19297333
42	0x3d3b25ed	0.045690466
43	0x3daaf933	0.08348312
44	0x3da99c3a	0.08281751
45	0x3ae36e2e	0.0017351562
46	0xbd869a55	-0.06572405
47	0xba267910	-0.0006350437
48	0x3bd993a5	0.006639915
49	0x3d23b8c2	0.03997112
50	0xbe463432	-0.19355848
51	0x3ce357a9	0.02775176
52	0xbdc30694	-0.09522739
53	0x3c0c7455	0.008572658
54	0x3c76f3f9	0.015072816
55	0xbc0df455	-0.00866421
56	0xbda0e1e4	-0.07855585
57	0xbd2a144e	-0.04152327
58	0xbda2450b	-0.07923325
59	0xbc40465c	-0.011735525
60	0xbdacfbab	-0.08446439
61	0xbe0bedd2	-0.1366494
62	0xbe09e4d7	-0.13466202
63	0x3d27098d	0.040780593
64	0xbdb89c93	-0.09014239
65	0xbda4b7de	-0.080428824
66	0xbd07e6b0	-0.033178985
67	0xbc552533	-0.013009357
68	0x3c10002a	0.008789102
69	0x3cd182e1	0.025575103
70	0x3d5cf2ef	0.053942617
71	0x3d486af1	0.048930112
72	0x3e0667b3	0.13125496
73	0x3cc0c888	0.02353312
74	0x3c2650f9	0.010151141
75	0xbe075bd1	-0.13218619
76	0x3e4a50b2	0.19757345
77	0x3cd3ca8d	0.02585342
78	0x3d7e4395	0.06207617
79	0xbc33da5b	-0.010977353
80	0x3d8ce077	0.06878751
81	0xbc9973af	-0.01873192
82	0x3d285bac	0.04110305
83	0xbcc38eeb	-0.02387186
84	0x3c4bce1b	0.012439276
85	0x3e20924b	0.15680806
86	0xbca85dea	-0.020552594
87	0x3c932671	0.017962666
88	0x3e2cd437	0.16877829
89	0x3c83aacc	0.016072653
90	0x3cf445dd	0.02981847
91	0xbab39d1b	-0.0013703437
92	0xbdcaf85f	-0.09910654
93	0x3cba8408	0.022768036
94	0x3d90dbd3	0.07073178
95	0x3d200690	0.03906876
96	0xbd1d9c5e	-0.0384792
97	0x3e2f9816	0.1714786
98	0xbd8c27e4	-0.06843546
99	0x3d2a7d01	0.04162312
100	0xbc8159b7	-0.01578985
101	0x3d4f59e6	0.050622843
102	0xbd2a9d35	-0.04165383
103	0xbe127724	-0.14303261
104	0xba6894a7	-0.00088722486
105	0x3dd79739	0.1052689
106	0xbd340730	-0.043952167
107	0x3e43a300	0.19105148
108	0xbc1d6647	-0.009606904
109	0x3d835d4f	0.064142816
110	0x3abd1c8c	0.0014428063
111	0x3d9c5002	0.07632448
112	0xbd1df901	-0.038567547
113	0x3bd56c89	0.0065131825
114	0xbd18001c	-0.03710948
115	0x3c1df730	0.009641454
116	0xbd89b84d	-0.06724606
117	0x3ca2704c	0.019828938
118	0x3c9ab08b	0.01888301
119	0x3d802f8c	0.06259069
120	0xbc514ee8	-0.01277516
121	0x3d66aa2a	0.056314625
122	0x3bacc760	0.005272791
123	0x3d894378	0.06702322
124	0xbd2f7fa0	-0.042846322
125	0x3d7f3afe	0.06231212
126	0xbc973f5d	-0.018462831
127	0xbd957582	-0.072978035
128	0xbcac8c2e	-0.021062937
129	0x3d9fe36f	0.078070514
130	0xbd874a44	-0.06605962
131	0xbdd96a77	-0.1061601
132	0xbd5cd029	-0.053909454
133	0x3dbb2fc3	0.09139969
134	0xbd224faf	-0.039626773
135	0xbd206706	-0.03916075
136	0x3deba3b4	0.11505833
137	0xbcf648d1	-0.030064018
138	0xbd94d6e6	-0.07267551
139	0x3d7cc573	0.06171174
140	0x3de0d298	0.109776676
141	0xbd654d24	-0.05598177
142	0x3d97cf8a	0.07412632
143	0x3e6c61fe	0.23084256
144	0xbce1d019	-0.027565049
145	0xbd192863	-0.03739203
146	0x3c136686	0.008996611
147	0x3d1099b3	0.03530283
148	0xbd2d31c1	-0.042283777
149	0xbd2e965f	-0.042623874
150	0x3e19784e	0.14987299
151	0xbc183bcb	-0.0092915995
152	0x3c2f6059	0.010704123
153	0xbc5238b4	-0.012830902
154	0xbd8b764b	-0.06809672
155	0xbe136201	-0.14392854
156	0x3ceddae5	0.029035041
157	0xbd8df103	-0.06930735
158	0x3cfeba5a	0.031094719
159	0xbbf5a234	-0.0074961428
160	0xbd20cb0e	-0.039256148
161	0x3d662c84	0.056194797
162	0xbdd7ec0b	-0.105430685
163	0x3d42d2e1	0.04756439
164	0x3d042d8b	0.032269996
165	0x3db8cd1a	0.09023495
166	0xbd1fe242	-0.039034136
167	0xbc22912a	-0.009922305
168	0xbde604e4	-0.112314016
169	0x3e606c7f	0.21916388
170	0xbbba4be6	-0.0056853173
171	0x3e37e792	0.17959431
172	0x3d0bee35	0.03416272
173	0x3dde92f0	0.1086787
174	0xbd6ef3cd	-0.058337975
175	0x3c466522	0.012109073
176	0xbc734bf6	-0.0148496535
177	0xbc9c5ed3	-0.019088184
178	0x3c1a3933	0.009413051
179	0xbcd84d2b	-0.026403984
180	0xbda713c9	-0.081580706
181	0xbbb8628b	-0.0056269816
182	0xbbfc7c8b	-0.0077052764
183	0x3d9ef0c3	0.077607654
184	0xbde01f45	-0.10943464
185	0x3dd775c4	0.10520509
186	0xbd5e7b77	-0.054316964
187	0x3b2cb084	0.0026350329
188	0x3c193d22	0.009352954
189	0xbcf895bc	-0.030344836
190	0xbca48162	-0.020081226
191	0xbcb7abc6	-0.022420775
192	0xbd29a03e	-0.041412584
193	0xbc966aee	-0.018361535
194	0x3ce6acb4	0.028158523
195	0xbcfd541d	-0.030923897
196	0x3c6d4b09	0.014483222
197	0xbd7f8410	-0.062381804
198	0x3dae61de	0.085147604
199	0x3d112986	0.03543999
200	0xbc938b13	-0.018010652
201	0x3cc85c1d	0.024457986
202	0x3d87e346	0.06635146
203	0xbd5a5b76	-0.05330988
204	0x3e5cb306	0.21552667
205	0xbd32dd44	-0.043668047
206	0x3d245fbf	0.040130373
207	0xbd0b9837	-0.03408071
208	0x3d414753	0.04718716
209	0xbd89c05d	-0.067261435
210	0x3dcce498	0.10004538
211	0x3b8c6fae	0.004285774
212	0xbd7fc52c	-0.062443897
213	0x3e0805ad	0.13283415
214	0xbd72778b	-0.059196036
215	0x3ca64a02	0.020298962
216	0x3e63d30f	0.22248481
217	0x3e105472	0.14094713
218	0xbd44bf46	-0.048033975
219	0x3c2c3682	0.010511043
220	0xbdb01f8e	-0.085997686
221	0x3c9ae32c	0.018907152
222	0xbd7087ab	-0.058723133
223	0x3c037642	0.0080238
224	0x3da20a46	0.07912116
225	0x3e592e77	0.21209131
226	0xbc9b1703	-0.018931871
227	0xbb08ed08	-0.0020893235
228	0xbd0e1aab	-0.0346934
229	0xbd269d7b	-0.04067753
230	0x3cb250d3	0.021767056
231	0xbd1feddc	-0.0390452
232	0x3d545051	0.05183441
233	0xbdbb8881	-0.091568954
234	0xbe638da8	-0.22222006
235	0x3db2e6fb	0.08735462
236	0xbcfcea3f	-0.030873416
237	0xbc0e12fe	-0.00867152
238	0xbcfbf245	-0.030755172
239	0xbdddf7fe	-0.108383164
240	0xbd339f67	-0.04385319
241	0xbd9b4691	-0.07581819
242	0x3d745725	0.05965342
243	0xbd66c8b2	-0.05634374
244	0xbd304956	-0.04303869
245	0xbc78fc4e	-0.015196873
246	0xbe075093	-0.1321433
247	0x3d45013f	0.04809689
248	0x3d908523	0.07056644
249	0x3d867727	0.06565695
250	0x3d03e849	0.032203946
251	0xbd60575f	-0.054770824
252	0x3c631e84	0.013862256
253	0x3b870de3	0.0041215285
254	0x3d2a9dbd	0.041654337
255	0xbdc89fe5	-0.097961225

network_body.linear_encoder.seq_layers.0.bias f4 [128]
0	0xbd1420ef	-0.03616422
1	0xbd6535e7	-0.05595961
2	0xbe515d07	-0.20445643
3	0xbc8852f2	-0.016641114
4	0xbc8f00da	-0.01745646
5	0x3bbb283d	0.005711584
6	0xbe471a5d	-0.1944365
7	0xbc462db3	-0.0120958565
8	0xbd228b8b	-0.03968386
9	0xbe35816b	-0.1772515
10	0xbde6825e	-0.11255334
11	0x3e092995	0.13394769
12	0x3d0c5a22	0.034265645
13	0x3e773903	0.24142842
14	0x3d913a33	0.07091179
15	0x3d01fb39	0.031733725
16	0xbdf2ed52	-0.118616715
17	0xbe3df42f	-0.1855018
18	0x3c0b4de6	0.008502459
19	0xbde8c68d	-0.113659956
20	0xbe1cbad6	-0.15305647
21	0xbca1a0eb	-0.019730052
22	0xbd6fa767	-0.058509257
23	0xbe755e7f	-0.23961829
24	0x3e18c4fe	0.14918897
25	0x3dcd2bb4	0.10018101
26	0xbe2c5480	-0.16829109
27	0xbda0d989	-0.078539915
28	0xbca6ab96	-0.02034549
29	0x3d864576	0.06556217
30	0xbe158a38	-0.14603508
31	0x3df61af5	0.120168604
32	0xbce146d1	-0.027499588
33	0xbdaee259	-0.08539266
34	0x3d5e134a	0.054217614
35	0x3e3ecd0d	0.18632908
36	0xbdbe8b67	-0.09303933
37	0xbe2b604c	-0.16735953
38	0x3df48519	0.11939449
39	0xbdec632e	-0.115423545
40	0xbe1b14fb	-0.15144722
41	0x3e792481	0.24330331
42	0xbe340dee	-0.17583439
43	0xbd8df5be	-0.06931637
44	0xbe1df6c3	-0.15426163
45	0x3e474841	0.19461156
46	0xbdb240a9	-0.08703739
47	0xbd994e5d	-0.0748565
48	0xbe09c385	-0.13453491
49	0xbe10d6ed	-0.14144488
50	0x3e5f5ed0	0.21813512
51	0x3d5830f7	0.05278107
52	0x3dcc0a69	0.09962923
53	0xbe09c3a2	-0.13453534
54	0xbca100b9	-0.019653665
55	0xbd44e67c	-0.04807137
56	0x3dc8e188	0.09808642
57	0x3dc8c265	0.09802703
58	0x3d5450bd	0.05183481
59	0xbe1010fe	-0.14068982
60	0x3daad575	0.08341495
61	0x3e1be0b1	0.15222432
62	0xbdcf9a6e	-0.10136877
63	0xbde8f7d6	-0.11375396
64	0x3d2ef4dc	0.042713985
65	0xbe5ae3b3	-0.21375923
66	0xbe29aeb4	-0.1657055
67	0x3d170a02	0.03687478
68	0x3da29f00	0.07940483
69	0x3dea5bd7	0.11443298
70	0xbe044f07	-0.12920772
71	0xbe3188e8	-0.17337382
72	0xbe480907	-0.19534694
73	0xbe52914b	-0.20563237
74	0x3c255cf8	0.010092966
75	0x3e047dfb	0.12938683
76	0xbe3168f5	-0.17325194
77	0x3d9f22d7	0.07770317
78	0x3e4ef087	0.20208941
79	0x3e500688	0.20314991
80	0xbe2d3e48	-0.1691829
81	0xbb235677	-0.0024923363
82	0x3d927e81	0.07153035
83	0xbdbc4caf	-0.09194314
84	0xbe6fe390	-0.23426652
85	0xbe2b8c6e	-0.16752788
86	0x3e360414	0.17774993
87	0x3e1f85cb	0.15578382
88	0xbe0e454a	-0.13893619
89	0xba8b6b7e	-0.0010636894
90	0xbe141a87	-0.14463244
91	0x3dc90760	0.0981586
92	0x3c4c8f1a	0.01248529
93	0x3e00440d	0.1252596
94	0x3ca7bd65	0.020476053
95	0x3d51ff62	0.051268943
96	0x3e04c033	0.12963943
97	0xbe469be3	-0.19395404
98	0xbdef75e0	-0.11692405
99	0x3d484cfe	0.04890155
100	0xbe3c7907	-0.18405543
101	0xbe005aa6	-0.1253458
102	0xbe45486f	-0.19265912
103	0xbe274f00	-0.1633873
104	0xbe5e096b	-0.2168328
105	0x3e3f86fd	0.18703838
106	0x3c13be91	0.009017603
107	0x3d90c2b1	0.070683844
108	0x3dc3c622	0.09559275
109	0xbe41e689	-0.18935598
110	0xbe1b6e51	-0.15178801
111	0xbe003163	-0.1251884
112	0x3e1fb219	0.15595283
113	0xbe016bf8	-0.12638843
114	0x3e2910dd	0.16510339
115	0xbdb6b73d	-0.08921669
116	0x3e5102d9	0.20411243
117	0xbd60b543	-0.054860365
118	0xbde166b6	-0.11005919
119	0xbe56513c	-0.20929426
120	0xbe7cf346	-0.24702176
121	0x3db7a428	0.08966857
122	0x3dbeeec9	0.093228884
123	0x3e03b3dd	0.12861581
124	0x3e4ad846	0.19809064
125	0x3dcfd3a6	0.101477906
126	0xbcb66329	-0.02226408
127	0x3e09d5f1	0.13460518

network_body.linear_encoder.seq_layers.0.weight f4 [128, 52]
0	0x3d9840fd	0.074342705
1	0xbc849cfb	-0.016188135
2	0xbd906406	-0.07050328
3	0xbe03f3a8	-0.12885916
4	0x3e362376	0.17786965
5	0xbdddb27a	-0.10825057
6	0x3e38cd69	0.18047108
7	0x3e14d53c	0.14534467
8	0x3e897a8a	0.26851302
9	0xbe5d4dcf	-0.21611713
10	0x3e25dd85	0.16197784
11	0x3e3a6d2b	0.18205707
12	0x3d8e7fb1	0.06957949
13	0x3d33bf31	0.043883506
14	0xbb4ff6a8	-0.0031732712
15	0xbd7ed790	-0.062217295
16	0x3e9d0eca	0.30675346
17	0xbdc38af5	-0.09547988
18	0x3c2f073a	0.010682875
19	0x3e274e84	0.16338545
20	0x3e3627f0	0.17788672
21	0xbe64c2b1	-0.22339894
22	0xbe9944f7	-0.29935429
23	0x3ca9dd96	0.020735543
24	0xbe205016	-0.1565555
25	0xbbc1d062	-0.0059147337
26	0x3e32c969	0.17459644
27	0x3d15aa89	0.036539588
28	0x3e07f68b	0.13277642
29	0x3d3e1488	0.0464063
30	0x3e0e0702	0.13869861
31	0x3d6a5fde	0.057220332
32	0x3d8e7f8a	0.0695792
33	0xbd3c8c3b	-0.04603217
34	0xbd909306	-0.070592925
35	0x3d18c86c	0.037300512
36	0xbe5dfb31	-0.21677853
37	0x3e49960d	0.19686146
38	0xbeae9f5a	-0.3410595
39	0x3df22cd4	0.118249565
40	0x3e2db15e	0.16962191
41	0x3b8cf15b	0.0043012328
42	0xbde15fa2	-0.11004569
43	0xbe2cb286	-0.16864976
44	0xbe1e5033	-0.15460281
45	0x3d2cce8c	0.042189166
46	0xbe0dd325	-0.13850076
47	0xbe66402d	-0.22485419
48	0x3de28fa2	0.11062552
49	0xbec50111	-0.38477376
50	0xbe0e1333	-0.13874511
51	0xbbd0127a	-0.006349859
52	0x3dd062c6	0.101750895
53	0xbe217254	-0.15766269
54	0x3ea160b2	0.31519085
55	0x3e895a1e	0.26826566
56	0xbe8b4272	-0.2719913
57	0x3cb92238	0.022599325
58	0xbc510e6c	-0.012759786
59	0xbd7ed2d2	-0.062212773
60	0xbe83ee73	-0.2576786
61	0x3e5535f4	0.20821363
62	0x3e066a52	0.13126495
63	0xbe99c525	-0.30033222
64	0x3ddb7154	0.10714975
65	0x3aed3d95	0.0018100018
66	0x3d979fe4	0.074035436
67	0xbdbe9e2f	-0.09307515
68	0xbdd40eac	-0.10354361
69	0xbd67551a	-0.056477644
70	0xbe02f2e5	-0.1278797
71	0xbbdd69cf	-0.006756998
72	0xbd26d9ea	-0.040735163
73	0xbe3176a2	-0.17330411
74	0x3e2fd506	0.17171106
75	0xbe2d6b84	-0.16935545
76	0x3c91cf52	0.017799053
77	0xbd505b11	-0.050868098
78	0xbdaa1afa	-0.083059266
79	0x3e498e91	0.19683291
80	0x3dd40978	0.103533685
81	0xbcd83d92	-0.026396547
82	0x3d29046a	0.041263975
83	0xbddc8da3	-0.107692026
84	0x3cc74dc2	0.02432907
85	0x3c7d901d	0.015476254
86	0xbdc17ed2	-0.09448017
87	0xbdd602ef	-0.10449778
88	0x3ebeda91	0.37276128
89	0xbe2c6632	-0.1683586
90	0x3d524a33	0.051340293
91	0xbe4808e8	-0.19534647
92	0x3c6ab3bb	0.014325078
93	0xbe120e9f	-0.1426339
94	0xbd53fe6f	-0.05175632
95	0x3d5ca614	0.053869322
96	0xbe05eff6	-0.13079819
97	0x3e7b04b8	0.24513519
98	0x3d1511ad	0.03639381
99	0xbeda8613	-0.42680416
100	0xbe8982d8	-0.26857638
101	0x3d9eeb09	0.07759673
102	0x3e40b660	0.1881957
103	0x3e555558	0.20833337
104	0x3e353fef	0.1770017
105	0xbe8c2dfd	-0.27378836
106	0x3e6a3cd6	0.2287477
107	0xbdfaee44	-0.12252477
108	0x3d375a86	0.044764064
109	0xbe735ff8	-0.23767078
110	0x3e3cc383	0.18433957
111	0xbe246937	-0.16055761
112	0x3e08b28e	0.13349363
113	0xbd0ccad1	-0.03437311
114	0x3d9d10f7	0.076692514
115	0xbd88ecdf	-0.066858046
116	0x3e3b421c	0.18286937
117	0x3e386c54	0.18010074
118	0x3d5ff6a1	0.054678563
119	0x3c9aa9ff	0.018879889
120	0xbe10f7e1	-0.14157058
121	0xbcb9745b	-0.02263849
122	0x3e497009	0.19671644
123	0xbe9081dd	-0.28224078
124	0xbd85473e	-0.06507729
125	0xbd380e89	-0.044935737
126	0x3e60e706	0.21963128
127	0xbd422be7	-0.04740515
128	0x3c13eef1	0.009029136
129	0x3cde143e	0.027109262
130	0x3e23d871	0.16000535
131	0xbe335fa2	-0.1751695
132	0x3e42755a	0.18990079
133	0xbd4ce18b	-0.050019782
134	0x3e4f4068	0.20239413
135	0x3e0bfd47	0.13670836
136	0x3e31f5e0	0.1737895
137	0xbdab12b4	-0.08353177
138	0xbe0911ab	-0.13385646
139	0x3c8d0efe	0.017219063
140	0xbe37a0e7	-0.17932473
141	0x3e7c721d	0.24652906
142	0x3eaebcdd	0.34128466
143	0x3e17ac7c	0.14811891
144	0xbe29c56a	-0.16579214
145	0xbda4a95a	-0.08040114
146	0x3decd1a8	0.11563426
147	0x3e338933	0.17532806
148	0x3d417011	0.047226015
149	0xbe2e2daa	-0.17009607
150	0xbc982814	-0.018573798
151	0x3e05fb89	0.13084234
152	0xbd84b5ec	-0.06480011
153	0xbeaea0da	-0.34107095
154	0x3d4c14dc	0.04982458
155	0xbeb67958	-0.35639453
156	0xbcfb30c7	-0.030662907
157	0xbd853978	-0.06505102
158	0x3e28c6a1	0.16482021
159	0x3e69f4f3	0.22847347
160	0x3c170fcc	0.009220075
161	0xbd9ce433	-0.07660713
162	0x3a1fb0ab	0.0006091694
163	0x3e7da322	0.24769261
164	0xbd39448c	-0.045231387
165	0x3ce1e89c	0.027576737
166	0x3ceb0159	0.028687166
167	0xbd6199e9	-0.05507842
168	0xbdad4a14	-0.08461395
169	0xbd01c713	-0.031683993
170	0x3ce0e9b7	0.027455194
171	0x3e0abd82	0.13548854
172	0x3c3a0f78	0.011356227
173	0x3e416be1	0.18888809
174	0xbe0b64ff	-0.13612746
175	0xbe85116e	-0.2598986
176	0xbea54c4b	-0.3228477
177	0x3c63a577	0.01389443
178	0x3c095bf7	0.0083837425
179	0xbd67ed77	-0.05662295
180	0x3e944621	0.28959754
181	0xbdff0901	-0.12452889
182	0xbce09d5c	-0.027418785
183	0xbe563c18	-0.20921361
184	0xbce9c59c	-0.02853661
185	0x3de10151	0.10986579
186	0x3d4f13ce	0.050555997
187	0x3ccacf73	0.024757123
188	0xbdecccfb	-0.115625344
189	0xbe850dcc	-0.2598709
190	0x3d2b9ab5	0.041895587
191	0xbea4f706	-0.32219714
192	0x3e1e3518	0.15449941
193	0x3d4cec76	0.050030194
194	0x3c7e127b	0.015507336
195	0xbe06998a	-0.13144508
196	0x3ea6d0e5	0.3258125
197	0x3d8dc013	0.06921401
198	0xbdf37626	-0.118877694
199	0xbe84c898	-0.2593429
200	0x3e1a77da	0.15084782
201	0x3cec9ea4	0.02888424
202	0x3d63fde6	0.05566206
203	0xbd5c7d27	-0.053830292
204	0xbe519f83	-0.20471005
205	0x3c144446	0.009049481
206	0xbc88e8f3	-0.016712641
207	0xbe2635f0	-0.16231513
208	0x3d165a3c	0.036707148
209	0xbe14e953	-0.14542131
210	0xbe89407f	-0.2680702
211	0x3e8a059d	0.26957408
212	0x3e03c466	0.12867889
213	0x3dd87575	0.10569278
214	0x3e121511	0.14265849
215	0xbdb3beda	-0.087766364
216	0xbe23c83f	-0.15994357
217	0x3df6d301	0.120519646
218	0xbe1458a1	-0.14486934
219	0xbcabc56a	-0.020968158
220	0xbe16a072	-0.14709643
221	0x3e070299	0.13184585
222	0x3e83ed2c	0.25766885
223	0xbcfeb91c	-0.031094126
224	0xbc30db4f	-0.010794475
225	0x3cb4e250	0.02208057
226	0xbe687416	-0.22700533
227	0xbdf8d766	-0.12150459
228	0x3d961119	0.0732748
229	0x3d94f1e7	0.07272702
230	0x3d0664eb	0.032811087
231	0x3d64cf23	0.055861603
232	0x3ddea2c7	0.10870891
233	0x3dcf8b08	0.1013394
234	0x3d6813a1	0.056659345
235	0xbde96280	-0.113957405
236	0xbd304ba5	-0.04304089
237	0x3e1cf8c4	0.15329272
238	0x3d36a4d3	0.044590782
239	0x3c804850	0.015659481
240	0x3e0bfec0	0.13671398
241	0x3d33bc40	0.0438807
242	0x3e7d0a0e	0.24710867
243	0xbf12e79b	-0.5738465
244	0xbc9f9812	-0.019481692
245	0x3d3aa9e9	0.045572195
246	0x3e277976	0.16354927
247	0xbd9d8351	-0.07691062
248	0x3cf468c5	0.029835114
249	0x3b85b99f	0.0040809656
250	0x3e529b53	0.20567064
251	0xbe4445a3	-0.1916719
252	0xbd7a25ec	-0.06107132
253	0xbe492319	-0.19642295
254	0x3e8dd72b	0.27703223
255	0xbea9ca25	-0.33162037

network_body.linear_encoder.seq_layers.2.bias f4 [128]
0	0xbcc9a323	-0.024613922
1	0x3e2f31a7	0.17108785
2	0xbc311b6b	-0.01080976
3	0xbe2671cb	-0.16254346
4	0x3e27a10a	0.16370025
5	0x3e2a5641	0.16634466
6	0xbd243553	-0.040089916
7	0xbe32e544	-0.1747027
8	0x3e12a140	0.14319324
9	0x3d7e0c56	0.062023483
10	0xbe3bff5f	-0.18359135
11	0x3de56e38	0.11202663
12	0x3e114117	0.14184986
13	0x3ca01f68	0.019546226
14	0x3df19412	0.1179582
15	0x3e322930	0.17398524
16	0xbc28a187	-0.010292417
17	0xbe4748fc	-0.19461435
18	0x3d81b3b7	0.06333106
19	0x3da1153d	0.07865379
20	0xbcffbaa9	-0.031216936
21	0xbdc76897	-0.09736746
22	0x3e4281ef	0.18994878
23	0xbbfd8b96	-0.007737587
24	0xbe665f6d	-0.2249734
25	0xbe61935f	-0.22028874
26	0x3dd184a4	0.10230377
27	0xbe65cab7	-0.22440611
28	0x3da5dd5c	0.080988616
29	0xbe301f14	-0.17199355
30	0x3ce81928	0.028332308
31	0x3d3c8a81	0.046030525
32	0x3df35522	0.11881472
33	0x3db4dbf9	0.08831019
34	0xbe7717dd	-0.24130197
35	0x3dce7c95	0.10082356
36	0xbc279f4b	-0.0102308495
37	0x3e0ecf32	0.13946226
38	0xbe5e2c94	-0.21696693
39	0xbcdceca7	-0.026968313
40	0xbe4e5377	-0.20149027
41	0x3e165fef	0.14685033
42	0xbda80d69	-0.08205683
43	0x3e3d6770	0.1849649
44	0x3e0a0978	0.13480175
45	0x3e018f62	0.12652352
46	0xbe36e4cb	-0.17860715
47	0x3d8a3470	0.06748283
48	0xbde4b7f5	-0.111678995
49	0xbe4ec331	-0.20191647
50	0x3ca214f1	0.019785376
51	0xbdef3100	-0.11679268
52	0xbde146af	-0.1099981
53	0x3e00de9f	0.12584923
54	0x3c8fbbec	0.017545663
55	0x3e30dae6	0.17271003
56	0xbe04597e	-0.12924764
57	0x3e20649c	0.1566338
58	0x3df006d3	0.117200516
59	0xbdd6bfc7	-0.104857974
60	0x3d1fcdf6	0.03901478
61	0xbe264859	-0.16238536
62	0xbe1811da	-0.1485056
63	0x3d4fd6f7	0.050742116
64	0xbdf3c3c2	-0.11902572
65	0xbdc2ca96	-0.095112965
66	0x3d8df8dd	0.069322325
67	0xbe24a6fd	-0.16079326
68	0xbdc44457	-0.09583347
69	0xbe2c21f3	-0.16809826
70	0x3c14c818	0.009080909
71	0x3d8255fd	0.06364057
72	0x3bf15322	0.0073646465
73	0x3d422054	0.04739411
74	0x3e12e475	0.14344962
75	0x3dc9867e	0.098401055
76	0x3e367e99	0.1782173
77	0xbe28d4da	-0.16487446
78	0x3da95506	0.0826817
79	0xbe460b6a	-0.19340292
80	0x3daaf3bd	0.08347271
81	0xbe413db7	-0.18871199
82	0x3db818f9	0.08989138
83	0xbdf6be7f	-0.12048053
84	0xbe3b989e	-0.18319938
85	0x3dc56ecf	0.09640276
86	0xbe538947	-0.20657836
87	0x3da758e7	0.08171254
88	0x3e2bc9ec	0.16776246
89	0x3e30a3d1	0.17249991
90	0xbe675aeb	-0.22593276
91	0xbd3a8b1c	-0.04554282
92	0xbe3899da	-0.1802744
93	0x3d4f4a5b	0.05060802
94	0xbda1ee0e	-0.079067335
95	0x3dbb7fc0	0.09155226
96	0xbe1bdcca	-0.15220943
97	0x3e5abed8	0.21361864
98	0xbdf59697	-0.11991613
99	0xbd1dfc12	-0.03857047
100	0x3d53bc75	0.0516934
101	0xbd339477	-0.04384276
102	0xbd98a01e	-0.07452415
103	0x3d41697c	0.04721974
104	0x3e000fc6	0.12506017
105	0xbda007dc	-0.07813999
106	0xbde60b33	-0.11232605
107	0x3dea9110	0.1145345
108	0xbe4f228b	-0.20228021
109	0x3bade9be	0.0053074053
110	0xbe23075b	-0.15920775
111	0xbe39bc33	-0.18138199
112	0xbe4e527a	-0.2014865
113	0xbe0ec22c	-0.13941258
114	0x3dcb8391	0.09937204
115	0xbe455b3c	-0.19273084
116	0xbdf31982	-0.118700996
117	0x3cce96dc	0.02521842
118	0xbe3cbc73	-0.18431263
119	0x3d95a128	0.07306129
120	0x3b1051bc	0.0022021374
121	0x3ccb61cd	0.024826908
122	0x3dacada3	0.08431556
123	0xbe25c273	-0.16187458
124	0x3da9933d	0.082800366
125	0xbe2de423	-0.16981559
126	0x3dbee7fc	0.09321591
127	0xbe460b3f	-0.19340228

network_body.linear_encoder.seq_layers.2.weight f4 [128, 128]
0	0xbd4babcb	-0.04972438
1	0x3de568df	0.11201643
2	0xbd0e2879	-0.034706566
3	0xbe14393e	-0.14474961
4	0xbe36edc4	-0.17864138
5	0x3d68fd06	0.056881927
6	0xbe072657	-0.13198219
7	0xbdd39d7f	-0.10332774
8	0xbd2f569e	-0.042807214
9	0xbe6473e9	-0.22309841
10	0xbe0ae9d2	-0.13565758
11	0x3e16e686	0.14736375
12	0xbdd2146f	-0.10257804
13	0x3e21fced	0.1581914
14	0x3dfcbe0b	0.12340935
15	0xbe6d5640	-0.23177433
16	0xbdbe0f18	-0.09280223
17	0x3d7bca16	0.06147202
18	0xbe3070db	-0.17230551
19	0x3c20ea3e	0.009821473
20	0xbde111af	-0.10989701
21	0x3d2c4627	0.04205909
22	0x3c59bace	0.013289167
23	0x39c17d6e	0.0003690528
24	0xbda93613	-0.08262267
25	0xbbfd7393	-0.007734725
26	0x3d192781	0.03739119
27	0x3dae4cf6	0.08510773
28	0xbe0f874a	-0.14016452
29	0xbe1173e9	-0.14204372
30	0x3e0131de	0.12616679
31	0x3dc922a0	0.09821057
32	0xbe0b7c2b	-0.13621585
33	0xbe1c8a12	-0.15287045
34	0x3c81a3d0	0.015825182
35	0x3d7489bb	0.059701663
36	0xbc9b69d3	-0.01897136
37	0x3d04adbf	0.03239226
38	0xbd143977	-0.036187615
39	0xbd1ce91b	-0.038308244
40	0x3d4dac2c	0.050213024
41	0x3e76fb4a	0.24119297
42	0xbe02b307	-0.12763606
43	0xbc97a2dc	-0.018510275
44	0xbcee906d	-0.029121602
45	0x3db143f3	0.086555384
46	0xbde9a08d	-0.11407576
47	0xbdf25125	-0.11831883
48	0xbd3e8208	-0.046510726
49	0x3d4b9dcb	0.04971103
50	0x3d44a80e	0.048011832
51	0x3d1c6628	0.03818336
52	0x3e79ef82	0.24407771
53	0x3e055487	0.13020526
54	0xbe060e2f	-0.13091348
55	0xbe2b8a9c	-0.16752094
56	0x3e9a9344	0.3019048
57	0x3e171e12	0.14757565
58	0xbe1886d2	-0.1489518
59	0x3aab77f1	0.001308201
60	0xbe093526	-0.13399181
61	0x3ddcf45f	0.107887976
62	0x3e160116	0.14648852
63	0x3d806d64	0.062708646
64	0xbd51c8eb	-0.051217
65	0xbbc64697	-0.0060508954
66	0xbd478d5e	-0.048718803
67	0x3e045e37	0.12926565
68	0xbc848af4	-0.01617954
69	0xbd0eb94c	-0.03484468
70	0xbe09ca8b	-0.1345617
71	0xbdacaefc	-0.08431813
72	0xbdefc8be	-0.117082104
73	0xbe32056a	-0.17384878
74	0xbde0336b	-0.10947307
75	0xbd80eadf	-0.06294798
76	0xbde85496	-0.113442585
77	0xbdb0adf3	-0.08626928
78	0x3d89ca9a	0.06728096
79	0xbca1ef1e	-0.01976734
80	0xbc9b59fb	-0.018963804
81	0xbcc2610a	-0.023727912
82	0xbd5b7439	-0.053577635
83	0x3d2146ad	0.039374042
84	0xbbb44439	-0.005501297
85	0xbc3f83f3	-0.011689174
86	0xbe813428	-0.25235105
87	0xbebd1f0f	-0.36937758
88	0xbe72f233	-0.23725204
89	0xbe10e84d	-0.14151116
90	0x3dd12696	0.10212438
91	0xbe20497b	-0.1565303
92	0xbd28165b	-0.041036945
93	0xbdb82d88	-0.089930594
94	0x3e8107f3	0.25201377
95	0xbd839061	-0.064240225
96	0x3df5ebfc	0.12007901
97	0xbe0fcd93	-0.14043264
98	0x3e5b78c1	0.21432783
99	0xbe416b6f	-0.18888639
100	0x3c41fabe	0.011839567
101	0xbd2b91c5	-0.041887064
102	0x3d5dc8ed	0.054146696
103	0x3c039b48	0.008032627
104	0x3d390aa8	0.04517618
105	0xbc864e6b	-0.016394814
106	0xbe8d66b8	-0.2761743
107	0xbda3c577	-0.07996648
108	0xbe096f64	-0.13421398
109	0x3db7a1d6	0.08966415
110	0x3daf9364	0.085730344
111	0xbd2815a1	-0.041036252
112	0xbdbb9e4b	-0.09161051
113	0x3e043045	0.12909038
114	0xbdff5666	-0.12467651
115	0xbd0ea8ac	-0.034828827
116	0x3c991afd	0.018689627
117	0xbdc6f504	-0.09714702
118	0x3ca16128	0.019699648
119	0x3e26bbd3	0.16282587
120	0x3d8dd0f8	0.06924623
121	0xbe497af3	-0.19675808
122	0xbd968d58	-0.07351178
123	0x3cb4744f	0.022028117
124	0xbe2ab555	-0.16670735
125	0xbdae8233	-0.08520927
126	0xbd00bb47	-0.0314286
127	0x3c98bcd2	0.018644724
128	0xbc3ff39c	-0.011715796
129	0x3b82cf90	0.0039920285
130	0x3de154cf	0.11002504
131	0x3ba331c2	0.004980297
132	0xbdc51685	-0.09623436
133	0x3e12dde7	0.14342462
134	0x3d11dc6f	0.035610612
135	0x3c03f7ee	0.0080547165
136	0x3c80eff7	0.015739424
137	0x3dfc932f	0.123327605
138	0xbd284efb	-0.041090947
139	0x3c5c9789	0.013463863
140	0xbce13131	-0.027489277
141	0x3d8e7d57	0.069575004
142	0x3d687be9	0.056758795
143	0x3e1fa75e	0.1559119
144	0xbc95ca3f	-0.018284915
145	0xbe604720	-0.21902132
146	0xbe5a1e06	-0.21300516
147	0xbdcbda48	-0.09953743
148	0xbc0ca932	-0.008585261
149	0xbd969189	-0.073519774
150	0x3da1cb7d	0.079001404
151	0xbd97845c	-0.073982924
152	0x3c324518	0.010880731
153	0x3d0d49ce	0.034494214
154	0xbe144e5e	-0.1448302
155	0x3d1e39d8	0.038629383
156	0xbd13dd6f	-0.036099847
157	0x3deb7455	0.11496798
158	0xbd86525d	-0.06558678
159	0xbde0e523	-0.10981204
160	0xbbe2d813	-0.0069227307
161	0xbde515d2	-0.111858025
162	0x3d934a48	0.071919024
163	0x3e0b083d	0.13577361
164	0xbe148f37	-0.14507757
165	0x3d59c511	0.053166453
166	0xbd01ea55	-0.031717617
167	0xbe6f06a2	-0.23342374
168	0x3d08e423	0.033420693
169	0xbd903a61	-0.07042385
170	0xbdfbb598	-0.12290496
171	0x3d6e4ac4	0.05817677
172	0x3cc7c863	0.024387544
173	0x3e16f539	0.14741983
174	0xbe5e7636	-0.21724781
175	0xbe21dc0f	-0.15806602
176	0x3d1d4cf5	0.03840347
177	0xbd8c5a73	-0.06853189
178	0x3e0f052e	0.1396682
179	0xbe0da85a	-0.13833752
180	0x3de1171a	0.109907344
181	0xbd9e943e	-0.07743119
182	0xbd566059	-0.052337978
183	0xbdd34f1b	-0.103178225
184	0x3cc98f39	0.024604427
185	0x3e80cc07	0.2515566
186	0xbd986938	-0.07441944
187	0xbb8686e2	-0.0041054348
188	0x3be82cb3	0.0070854067
189	0x3c578601	0.013154508
190	0x3e55c451	0.2087567
191	0x39b5d28a	0.00034679874
192	0x3e41fd3e	0.1894426
193	0xbda36f74	-0.07980242
194	0x3d84e994	0.06489864
195	0x3ca76776	0.020435076
196	0x3dcefbbd	0.10106609
197	0xbd7b7f3c	-0.061400637
198	0xbe2f34d9	-0.17110004
199	0x3d3b18bc	0.045677885
200	0x3d0e11ad	0.034684826
201	0xbda12046	-0.07867484
202	0x3c22b215	0.009930153
203	0xbe192b80	-0.14958
204	0xbdc04bcf	-0.09389459
205	0x3e2ee159	0.17078151
206	0x3c8e6253	0.017380869
207	0x3c50f66f	0.012754067
208	0x3db3e391	0.08783639
209	0xbde3d9bd	-0.11125515
210	0x3de59dae	0.11211716
211	0x3d5bc866	0.05365791
212	0xbdd6b009	-0.10482795
213	0x3d797552	0.0609029
214	0x3d440ce0	0.04786384
215	0xbd952613	-0.07282653
216	0xbde51c45	-0.111870326
217	0x3ba8b7df	0.0051488723
218	0x3c018129	0.007904329
219	0x3daa6689	0.08320338
220	0xbdefaa94	-0.11702457
221	0xbc6c87b9	-0.014436656
222	0xbea8740d	-0.3290104
223	0xbe109218	-0.1411823
224	0x3cd4cfb7	0.025977952
225	0xbcd2ec16	-0.02574734
226	0xbc1e42b2	-0.009659456
227	0xbbecc259	-0.0072253165
228	0x3bf68c5e	0.0075240573
229	0x3df28220	0.118412256
230	0xbd9a3a23	-0.0753062
231	0xbd3ac6c6	-0.04559972
232	0x3cc39133	0.023872947
233	0x3e0d5218	0.13800848
234	0xbd917610	-0.07102597
235	0xbd96e224	-0.07367352
236	0x3d8ddadf	0.06926512
237	0x3d185bc2	0.037196882
238	0xbd97c0d0	-0.07409823
239	0xbe265465	-0.16243131
240	0xbd530f96	-0.051528536
241	0xbcae9abf	-0.021314023
242	0x3dc9206d	0.09820638
243	0xbd8e4ab9	-0.06947846
244	0x3e2b3e76	0.16723046
245	0x3d97f19c	0.0741913
246	0x3d2d5739	0.04231951
247	0xbd3f0880	-0.046638966
248	0xbe4f7223	-0.20258383
249	0xbd158bf9	-0.03651044
250	0xbe6a6d5d	-0.22893281
251	0xbe359e18	-0.17736089
252	0xbd009eda	-0.031401493
253	0x3dbc21db	0.09186145
254	0xbd956da4	-0.07296303
255	0x3d5c243f	0.053745504

network_body.vector_processors.0.normalizer.running_mean f4 [52]
0	0x3cae3504	0.021265514
1	0x3f7a9056	0.9787649
2	0x3532f55e	6.6667224e-07
3	0x3e94f2f6	0.29091614
4	0x3c99588a	0.018718977
5	0x3f7b392b	0.98134106
6	0x35b2f4cf	1.3333282e-06
7	0x3e95d083	0.29260644
8	0x3cb4c202	0.022065166
9	0x3f7a5c02	0.9779664
10	0x3532f582	6.666743e-07
11	0x3e94d6aa	0.29070026
12	0x3c8aced7	0.016944332
13	0x3f7bacca	0.9831053
14	0x35b2f4aa	1.333324e-06
15	0x3e972eaf	0.29527804
16	0x3cb85f35	0.022506336
17	0x3f7a4140	0.97755814
18	0x346e9ce3	2.2222552e-07
19	0x3e94a4e3	0.2903205
20	0x3c900a40	0.017583013
21	0x3f7b847a	0.9824902
22	0x356e9d0a	8.889043e-07
23	0x3e98a5f9	0.29814127
24	0x3cca3d97	0.024687571
25	0x3f79b2f2	0.97538674
26	0x3532f4e3	6.6666524e-07
27	0x3e94544e	0.2897057
28	0x3ca17b59	0.019712137
29	0x3f7afb4a	0.98039687
30	0x34ee9d96	4.4445613e-07
31	0x3e9a58db	0.30145916
32	0x3cd0d87c	0.025493853
33	0x3f7979eb	0.9745166
34	0x34ee9d12	4.4445238e-07
35	0x3e940794	0.28912032
36	0x3cca0467	0.024660302
37	0x3f79b1bd	0.9753683
38	0x34ee9d92	4.4445602e-07
39	0x3e9bfd96	0.30466908
40	0x3cec3057	0.028831644
41	0x3f789d34	0.9711487
42	0x34ee9d96	4.4445613e-07
43	0x3e93849c	0.2881211
44	0x3d1ca1a7	0.0382401
45	0x3f7633fd	0.9617308
46	0x34ee9d90	4.4445596e-07
47	0x3e9c45d6	0.3052203
48	0x3d0cf2c8	0.03441122
49	0x3f772da1	0.96554
50	0x346e9ce3	2.2222552e-07
51	0x3e938dae	0.2881903
