results/fifth/Car/Car-499947.pt (torch, 582455 bytes, 40 tensors)

network_body.vector_processors.0.normalizer.running_mean f4 [52]
0	0x3bf47975	0.007460768
1	0x3f7e155c	0.9925134
2	0x36063b51	2.0002083e-06
3	0x3e9aad47	0.30210325
4	0x3c084be6	0.008318877
5	0x3f7ddd93	0.9916622
6	0x36063b62	2.0002121e-06
7	0x3e9bd534	0.304361
8	0x3bf1436d	0.007362774
9	0x3f7e1a33	0.99258727
10	0x36863b5b	4.000421e-06
11	0x3e99ce9d	0.30040446
12	0x3c047633	0.0080848215
13	0x3f7dec67	0.99188846
14	0x36c958ee	6.0006196e-06
15	0x3e9d1e81	0.30687335
16	0x3bea50cb	0.0071507446
17	0x3f7e28c8	0.9928098
18	0x00000000	0.0
19	0x3e9898eb	0.29804167
20	0x3bff7c77	0.00779682
21	0x3f7dffcd	0.99218446
22	0x36063b6a	2.000214e-06
23	0x3e9dfee3	0.30858526
24	0x3bdb4e60	0.0066926926
25	0x3f7e46b5	0.9932664
26	0x36063b5b	2.0002105e-06
27	0x3e97fa6c	0.29683244
28	0x3c06b0d3	0.008220869
29	0x3f7de42e	0.991763
30	0x36063b64	2.0002126e-06
31	0x3e9e7dbe	0.3095531
32	0x3be49cf5	0.0069767185
33	0x3f7e33f3	0.9929802
34	0x00000000	0.0
35	0x3e97cf06	0.29650134
36	0x3c193d3a	0.009352976
37	0x3f7d99a8	0.99062586
38	0x36063b5b	2.0002105e-06
39	0x3e9e9584	0.30973446
40	0x3c0f89ef	0.008760913
41	0x3f7dbe3c	0.991184
42	0x36063b64	2.0002126e-06
43	0x3e97ceda	0.29650003
44	0x3c3c025e	0.011475174
45	0x3f7d0eb7	0.9885058
46	0x36063b57	2.0002096e-06
47	0x3e9e17a2	0.30877405
48	0x3c362d35	0.011119177
49	0x3f7d2440	0.9888344
50	0x00000000	0.0
51	0x3e983caf	0.29733798

network_body.vector_processors.0.normalizer.running_variance f4 [52]
0	0x45677296	3703.1616
1	0x45682fd2	3714.9888
2	0x3fffffed	1.9999977
3	0x46adabe3	22229.943
4	0x4580eb14	4125.385
5	0x458131f9	4134.2466
6	0x3ffffee9	1.9999667
7	0x46b19d18	22734.547
8	0x45646e4d	3654.8938
9	0x4565e8eb	3678.5574
10	0x403fff9c	2.9999762
11	0x46aa2a7f	21781.248
12	0x457aa517	4010.318
13	0x457b7203	4023.1257
14	0x407ffdeb	3.999873
15	0x46b5fc80	23294.25
16	0x455de70f	3550.4412
17	0x455f2267	3570.1501
18	0x3f800000	1.0
19	0x46a4615a	21040.676
20	0x4571c9b5	3868.6067
21	0x4572574c	3877.456
22	0x3fffff80	1.9999847
23	0x46b88155	23616.666
24	0x454fc95d	3324.5852
25	0x45511543	3345.3289
26	0x3fffffde	1.999996
27	0x46a17742	20667.629
28	0x457ed387	4077.2205
29	0x457f514c	4085.081
30	0x3ffffec0	1.9999619
31	0x46ba4d29	23846.58
32	0x45588a79	3464.6545
33	0x4559d5b5	3485.3567
34	0x3f800000	1.0
35	0x46a04da9	20518.83
36	0x4590ca39	4633.278
37	0x459118d2	4643.1025
38	0x3fffffb0	1.9999905
39	0x46bb1c60	23950.188
40	0x4587b4ed	4342.6157
41	0x4588892c	4369.1465
42	0x3ffffec1	1.999962
43	0x46a03618	20507.047
44	0x45b141c9	5672.223
45	0x45b187cb	5680.974
46	0x3fffffc9	1.9999934
47	0x46b9cfee	23783.965
48	0x45abd17b	5498.185
49	0x45ac8573	5520.681
50	0x3f800000	1.0
51	0x46a1d464	20714.195

network_body.linear_encoder.seq_layers.0.weight f4 [128, 52]
0	0x3ccc2e9e	0.024924573
1	0x3cf4560f	0.029826192
2	0xbdd1b296	-0.10239141
3	0xbe0eb15c	-0.13934845
4	0x3e2f7948	0.17136109
5	0xbdd4de84	-0.10394004
6	0x3e076e47	0.13225661
7	0x3dd16e5f	0.1022613
8	0x3e819510	0.25309038
9	0xbe53da16	-0.20688662
10	0x3e07424a	0.13208881
11	0x3e60a7e5	0.21939047
12	0xba860b0f	-0.0010226684
13	0x3de7306e	0.11288534
14	0xbd2cb59a	-0.042165376
15	0xbdaeaabe	-0.0852866
16	0x3e9b9c6c	0.30392778
17	0xbda8aabd	-0.08235691
18	0x3c5b2d0c	0.013377439
19	0x3e466c94	0.19377357
20	0x3e208fd7	0.1567987
21	0xbe51a2a9	-0.20472206
22	0xbeac38bc	-0.33637035
23	0x3c507a72	0.012724506
24	0xbdb52747	-0.08845382
25	0xbd95406e	-0.072876796
26	0x3e0db7e8	0.13839686
27	0x3cc93fee	0.024566617
28	0x3dd1bb82	0.102408424
29	0x3d97eb4d	0.07417927
30	0x3dc72136	0.09723131
31	0x3d32732e	0.043566875
32	0x3c170e2a	0.009219686
33	0x3c803ffb	0.015655508
34	0xbd4742c0	-0.048647642
35	0x3dae38fb	0.08506962
36	0xbd911426	-0.07083921
37	0x3d3fdbfc	0.046840653
38	0xbec418de	-0.38300222
39	0x3dd38c7b	0.10329529
40	0x3e0d139b	0.1377701
41	0x3d026502	0.03183461
42	0xbe1b2621	-0.15151264
43	0xbe184b04	-0.14872366
44	0xbe1519da	-0.14560643
45	0x3cec5576	0.028849345
46	0xbe384c03	-0.17997746
47	0xbe56c370	-0.20972991
48	0x3db138bf	0.086534016
49	0xbeb79cb2	-0.35861737
50	0xbe0b50eb	-0.13605087
51	0xbd29d21d	-0.041460145
52	0x3d871090	0.06594956
53	0xbdf50eec	-0.11965737
54	0x3ea1deff	0.31615445
55	0x3ea33d38	0.31882644
56	0xbe97b707	-0.29631826
57	0x3d48089b	0.04883633
58	0xbbbb936b	-0.0057243607
59	0x3a857b14	0.0010183775
60	0xbe476668	-0.19472659
61	0x3e20e3b7	0.15711866
62	0x3e1602c9	0.146495
63	0xbe564bc5	-0.20927341
64	0xbb6f75fb	-0.0036538828
65	0x3de816c0	0.11332464
66	0x3dc88fdb	0.09793063
67	0xbd4d2e77	-0.05009314
68	0xbd7d9f92	-0.061919756
69	0xbdbd9dfa	-0.09258647
70	0xbe090851	-0.13382079
71	0x3dba1f9f	0.090880625
72	0xbd5ccdb9	-0.05390713
73	0xbe225dcd	-0.15856095
74	0x3e48e84d	0.19619866
75	0xbdefa798	-0.11701888
76	0x3ccecfea	0.025245626
77	0xbd512f67	-0.051070597
78	0xbd8d42a4	-0.06897476
79	0x3e58f763	0.2118812
80	0x3d06ec00	0.03293991
81	0x3d39a626	0.045324467
82	0x3d714d61	0.058911685
83	0xbda1b991	-0.07896722
84	0xbb2ecc9c	-0.002667225
85	0x3d454cd5	0.048168976
86	0xbdcd2559	-0.10016889
87	0xbde6de33	-0.1127285
88	0x3e9f2052	0.31079346
89	0xbdd5b91e	-0.10435699
90	0x3d8d4954	0.06898752
91	0xbde0376b	-0.1094807
92	0x3c4a6eca	0.012355516
93	0xbe11e1a2	-0.14246228
94	0xbd0bb5ec	-0.03410904
95	0x3d783876	0.06060072
96	0xbd83929b	-0.06424447
97	0x3e38ea03	0.18058018
98	0x3d5d594e	0.054040246
99	0xbea42ab6	-0.32063836
100	0xbe763c70	-0.24046493
101	0x3d40f569	0.04710904
102	0x3e3aa0f4	0.18225461
103	0x3e2373d9	0.15962161
104	0x3debf118	0.11520594
105	0xbe5b4f6d	-0.21417017
106	0x3e1c2c92	0.15251377
107	0xbdc02923	-0.09382846
108	0x3d0332c1	0.032030825
109	0xbe68d7c4	-0.22738558
110	0x3d96552a	0.073404625
111	0xbe08c063	-0.1335464
112	0x3da3a139	0.07989735
113	0x3c81eb9f	0.015859423
114	0xbd26abd9	-0.04069123
115	0xbd926126	-0.07147436
116	0x3e33789d	0.17526479
117	0x3e3fb48e	0.1872122
118	0xbd8907fb	-0.06690975
119	0x3d4daa23	0.050211083
120	0xbe20e5fa	-0.15712729
121	0x3bda08da	0.006653887
122	0x3e504e72	0.20342425
123	0xbe9befb2	-0.3045631
124	0xbda6f4d3	-0.08152165
125	0xbcfa4fe7	-0.030555679
126	0x3dc74305	0.0972958
127	0xbc0f5718	-0.008748792
128	0xbd4e42fa	-0.050356843
129	0x3da97e0b	0.08275994
130	0x3d2a4ee0	0.041579127
131	0xbe56019c	-0.20899051
132	0x3e0c877a	0.13723555
133	0x3a2b5356	0.00065355503
134	0x3dac5452	0.0841452
135	0x3e2b63d8	0.16737306
136	0x3ddb73f0	0.10715473
137	0xbcd4ab8e	-0.02596071
138	0xbe08258b	-0.13295572
139	0xbacb010c	-0.0015487983
140	0xbd1b8d31	-0.037976447
141	0x3dd151f3	0.10220709
142	0x3e64848f	0.22316192
143	0x3e2600e6	0.1621128
144	0xbe733a6b	-0.23752753
145	0xbc771ac6	-0.015082067
146	0xbb2b6d86	-0.002615781
147	0x3e388610	0.18019891
148	0x3d1b9d1d	0.03799163
149	0xbe27bd4e	-0.16380808
150	0xbe0b597f	-0.13608359
151	0x3dcfef79	0.10153098
152	0xbe11f4c2	-0.14253524
153	0xbe851c9b	-0.25998387
154	0x3d678d9d	0.056531537
155	0xbeb05182	-0.34437186
156	0x3d256213	0.040376734
157	0xbe0fbdea	-0.1403729
158	0x3e26b6c4	0.16280657
159	0x3e3ffbd5	0.1874841
160	0x3d63648d	0.055515815
161	0xbdfd7a6e	-0.12376867
162	0x3d01de2a	0.031706013
163	0x3e42a852	0.19009522
164	0xbc76a6e3	-0.015054437
165	0x3c9ee82a	0.019397814
166	0x3d09d1d9	0.033647392
167	0xbda946b2	-0.08265437
168	0xbd2681a5	-0.040650982
169	0xbd9e71f3	-0.07736578
170	0x3d46dea9	0.04855219
171	0x3dbe595f	0.0929439
172	0xbd1cbd99	-0.038266752
173	0x3e6e8fca	0.23297039
174	0xbe060088	-0.1308614
175	0xbe014c02	-0.12626651
176	0xbe90de8c	-0.2829479
177	0xbcc7ef9e	-0.02440625
178	0x3c926fd1	0.017875584
179	0xbb8bebdd	-0.0042700605
180	0x3e8e43ea	0.2778619
181	0xbde9e3cf	-0.11420404
182	0xbb92deb6	-0.0044821156
183	0xbc21c41e	-0.009873418
184	0xbd330501	-0.043705944
185	0x3dff1b68	0.12456399
186	0x3d969f39	0.07354588
187	0x3dd14c1f	0.10219597
188	0xbe406625	-0.18788965
189	0xbe39c1cd	-0.18140335
190	0x3d45900f	0.048233088
191	0xbe0a3fed	-0.13500948
192	0x3dfdbd38	0.12389606
193	0x3da1197d	0.0786619
194	0x3d175a19	0.03695116
195	0xbd2e5b8c	-0.042567775
196	0x3e82a205	0.25514236
197	0x3e0e000e	0.13867208
198	0xbdc460d1	-0.09588779
199	0xbdbcfd2c	-0.09227976
200	0x3de25ec2	0.1105323
201	0x3d89c7f5	0.06727592
202	0x3d9cdb1e	0.07658981
203	0x3d1df305	0.03856184
204	0xbdf0c4c6	-0.117562816
205	0xbda00907	-0.07814222
206	0xbc3b8a18	-0.011446498
207	0xbce4cbb8	-0.027929172
208	0x3dc3308a	0.095307425
209	0xbe516904	-0.20450217
210	0xbe7af61e	-0.24507949
211	0x3e988b79	0.2979391
212	0x3e0dec9c	0.1385979
213	0x3dcc2e4b	0.09969767
214	0x3e32461d	0.17409559
215	0xbd2905b2	-0.041265197
216	0xbda37f04	-0.07983211
217	0x3d827f88	0.06371981
218	0xbdeec0bd	-0.11657856
219	0xba99c1ee	-0.0011730769
220	0xbdd04b43	-0.10170605
221	0x3dad091a	0.084490016
222	0x3e8de41f	0.27713105
223	0xbc6e973f	-0.014562427
224	0x3d16b6e7	0.036795523
225	0xbd050a06	-0.032480262
226	0xbe55b0b7	-0.20868193
227	0x3c08d5c8	0.008351751
228	0x3df2b0a6	0.11850099
229	0x3cd1fc31	0.02563295
230	0x3d56f44b	0.05247907
231	0x3dde7130	0.108614326
232	0x3da826ee	0.0821055
233	0x3e03d76f	0.1287515
234	0x3db74de7	0.089504056
235	0x3c188d2e	0.009311004
236	0xbc2fe108	-0.010734804
237	0x3df2547a	0.11832519
238	0x3d962edc	0.073331565
239	0x3d63d21d	0.0556203
240	0x3daebb71	0.08531845
241	0x3dc3500a	0.095367506
242	0x3e860f18	0.2618339
243	0xbef03cac	-0.4692129
244	0xbc8200eb	-0.015869578
245	0x3d14be7e	0.03631448
246	0x3e44f012	0.19232205
247	0xbc9ec69f	-0.01938182
248	0x3d8d4b99	0.06899185
249	0xbd1986c3	-0.037482034
250	0x3e7009b2	0.23441198
251	0xbd8ece7b	-0.06972977
252	0xbc820a62	-0.015874092
253	0xbe7b6d55	-0.24553426
254	0x3e9cee87	0.30650732
255	0xbe8c4ed4	-0.2740389

network_body.linear_encoder.seq_layers.0.bias f4 [128]
0	0x3c69ea2e	0.014277024
1	0xbd9939eb	-0.0748175
2	0xbd8ef313	-0.069799565
3	0xbd78d1f7	-0.060747113
4	0xbd254f72	-0.040358968
5	0x3d8669bd	0.06563137
6	0xbde79498	-0.11307639
7	0x3d3e7adc	0.046503887
8	0x3d2b8f2d	0.04188459
9	0xbdaf6dd0	-0.08565867
10	0xbba1e9c0	-0.0049411952
11	0x3df7e0aa	0.12103398
12	0x3d74d09a	0.05976925
13	0x3e18a95d	0.14908357
14	0x3db4d89c	0.088303775
15	0x3db9e19d	0.090762354
16	0xbce26fa3	-0.027641123
17	0xbde7c776	-0.11317341
18	0x3cca08c8	0.02466239
19	0xbd1d0ad8	-0.03834042
20	0xbd7db016	-0.061935507
21	0x3d9a9d99	0.075495906
22	0xbd7e2758	-0.06204924
23	0xbe0e7636	-0.13912281
24	0x3e0e5348	0.13898957
25	0x3dd9ab02	0.1062832
26	0xbded1dc9	-0.11577947
27	0xbc4ecd19	-0.012622141
28	0x3d5156c2	0.05110813
29	0x3db801de	0.08984731
30	0xbddcdb99	-0.107840724
31	0x3df89bd7	0.12139099
32	0xbccebc5b	-0.0252363
33	0xbd216221	-0.039400224
34	0x3d8d4c42	0.06899311
35	0x3e07bbff	0.13255309
36	0xbc94fae2	-0.018186036
37	0xbddad910	-0.10685933
38	0x3df84a74	0.12123576
39	0xbd9b7321	-0.075903185
40	0xbdc1c60e	-0.09461604
41	0x3e0ef5b8	0.13960922
42	0xbd960ffc	-0.073272675
43	0xbd7676b3	-0.060171794
44	0xbdddb7c0	-0.10826063
45	0x3e211150	0.1572926
46	0xbd22ed5c	-0.039777145
47	0xbd28900f	-0.04115301
48	0x3d08b0b7	0.033371653
49	0xbdec5a37	-0.115406446
50	0x3e305847	0.17221175
51	0x3d13a3af	0.036044773
52	0x3df559cd	0.11980019
53	0xbda99efb	-0.08282276
54	0x3c286966	0.010279035
55	0x3cbef643	0.023310786
56	0x3dcb5969	0.09929163
57	0x3e11fd71	0.14256836
58	0x3dcae06c	0.09906086
59	0xbdbcc363	-0.092169546
60	0x3df442ae	0.11926781
61	0x3dee38da	0.11631937
62	0xbdc290ce	-0.095002756
63	0xbd3f3773	-0.04668374
64	0x3dcbb15f	0.0994594
65	0xbdcd6639	-0.10029263
66	0xbe00048a	-0.12501732
67	0x3c5cc68f	0.013475074
68	0x3de51805	0.11186222
69	0x3e1605e1	0.1465068
70	0xbc59ac07	-0.013285643
71	0xbd761f17	-0.060088243
72	0xbdc6f022	-0.097137704
73	0xbde7bcfe	-0.11315344
74	0x3d89a9c1	0.06721831
75	0x3dc0961b	0.0940363
76	0xbd4f120b	-0.050554316
77	0x3e019966	0.12656173
78	0x3e4726a6	0.19448337
79	0x3e2b361a	0.16719857
80	0xbdb2a3b9	-0.08722634
81	0xbb8691f8	-0.0041067563
82	0x3d939aed	0.07207284
83	0xbdb770bf	-0.089570515
84	0xbdde5332	-0.10855712
85	0xbcc333a9	-0.023828344
86	0x3dad5000	0.084625244
87	0x3e05dc0d	0.13072224
88	0xbd50a754	-0.050940827
89	0x3d9128ea	0.07087882
90	0xbcd3ae7b	-0.025840035
91	0x3dc8325a	0.09775229
92	0x3db886b6	0.09010069
93	0x3df3b763	0.119002126
94	0x3b6c36c1	0.0036043378
95	0x3de40cbf	0.111352436
96	0x3dc89e56	0.09795825
97	0xbda5055c	-0.08057663
98	0xbdcb921e	-0.09939979
99	0x3d40dc0d	0.047084857
100	0xbdbc335d	-0.09189484
101	0xbddd2009	-0.10797126
102	0xbdca502f	-0.09878575
103	0xbdea39a7	-0.114367776
104	0xbde3822d	-0.111088134
105	0x3e30eeaa	0.17278543
106	0x3d1b675e	0.037940376
107	0x3d39eb57	0.045390453
108	0x3d79edfb	0.06101797
109	0xbda582e2	-0.080816045
110	0xbdcfe03f	-0.101501934
111	0xbdd3390a	-0.10313614
112	0x3d4eea68	0.050516516
113	0xbdab5dd1	-0.083675034
114	0x3e11662d	0.14199133
115	0xbd872c01	-0.0660019
116	0x3e1fa3e5	0.15589865
117	0xbd8d773d	-0.069075085
118	0xbdfee8bc	-0.12446734
119	0xbe266aa5	-0.16251619
120	0xbdfef76a	-0.12449534
121	0x3dcef3ab	0.1010507
122	0x3db301c7	0.087405734
123	0x3d66a2fd	0.05630778
124	0x3e122eb3	0.14275627
125	0x3e084b4b	0.13309972
126	0xbcd2af60	-0.025718391
127	0x3df62e93	0.12020602

network_body.linear_encoder.seq_layers.2.weight f4 [128, 128]
0	0x3bbb9e1a	0.0057256343
1	0x3e00527d	0.12531467
2	0x3cf94da3	0.030432528
3	0xbdc2ae49	-0.095058985
4	0xbdadb819	-0.084823795
5	0x3e120ef3	0.14263515
6	0xbdb237cd	-0.087020494
7	0xbd851ed7	-0.06500023
8	0xbdb8c658	-0.09022206
9	0xbd36a949	-0.044595037
10	0xbd24a888	-0.040199786
11	0x3d7085e1	0.058721427
12	0x3b421aba	0.002961798
13	0x3db50b1c	0.088400096
14	0x3d379a9c	0.04482518
15	0xbe487322	-0.1957517
16	0xbcee425d	-0.029084379
17	0x3dc1a6a8	0.09455615
18	0xbdf3a956	-0.11897533
19	0x3da3b0da	0.07992716
20	0xbc443b1f	-0.011976986
21	0xbd602646	-0.054724
22	0x3d38f95c	0.045159683
23	0x3d4e92d3	0.05043299
24	0x3b04fad3	0.0020291104
25	0x3cb40dc6	0.021979224
26	0xbc43f606	-0.011960512
27	0x3e0a5a75	0.13511069
28	0xbdfa3f0d	-0.12219057
29	0xbe18c501	-0.14918901
30	0x3de1e924	0.11030796
31	0x3d8c997d	0.06865213
32	0xbdaaf159	-0.08346815
33	0xbde74a5e	-0.11293481
34	0x3db27237	0.08713191
35	0xbb021e20	-0.0019854382
36	0xbd1bfe2e	-0.0380842
37	0x3d01cf21	0.031691674
38	0xbd7c44ec	-0.061589167
39	0xbc03e072	-0.008049117
40	0x3d5e7107	0.05430701
41	0x3e4bb1c4	0.19892031
42	0x3d3843b4	0.04498644
43	0x3d96111d	0.07327483
44	0xbba844b8	-0.005135145
45	0x3d8f38c6	0.069932505
46	0x3d7c5724	0.06160654
47	0xbdbd3417	-0.09238451
48	0x3d3a2f01	0.045454983
49	0x3d8e96de	0.069623694
50	0xbcc208ce	-0.023685839
51	0x3b90f023	0.004423158
52	0x3e40b755	0.18819936
53	0x3c49ca57	0.012316308
54	0xbd9d0e07	-0.07668691
55	0xbd568c5c	-0.05237995
56	0x3e784c73	0.24247913
57	0x3d8ea032	0.069641486
58	0xbe54db62	-0.20786813
59	0xbcaba2f1	-0.02095172
60	0xbd3a751e	-0.045521848
61	0x3da67ac2	0.08128883
62	0x3d0ebd2e	0.034848385
63	0x3c89d2ef	0.016824214
64	0xbda998ee	-0.08281122
65	0x3de036d4	0.10947958
66	0xbd7f3076	-0.062302075
67	0x3e01b6ea	0.12667432
68	0xbc06b8eb	-0.008222799
69	0xbd91da4b	-0.07121714
70	0xbdd51e63	-0.104061864
71	0xbd5648de	-0.052315585
72	0xbd52f53e	-0.051503412
73	0xbcf5c54f	-0.03000131
74	0xbda73395	-0.08164135
75	0xbc185910	-0.009298578
76	0xbdcbc288	-0.09949213
77	0xbc8d9db2	-0.017287109
78	0x3d6749b4	0.056466773
79	0xbd3b891d	-0.04578506
80	0xbda6cd9b	-0.08144685
81	0xbc83b9df	-0.016079841
82	0xbc6929bc	-0.014231142
83	0xbd42bea5	-0.047545094
84	0x3ce27934	0.027645685
85	0xbd08a9fc	-0.033365235
86	0xbe3893a3	-0.18025069
87	0xbe5b4c4a	-0.2141582
88	0xbe073e62	-0.13207391
89	0xbd003418	-0.03129968
90	0x3dee2d98	0.1162979
91	0xbdbf1e33	-0.09331932
92	0xbc69a77f	-0.014261126
93	0xbe078664	-0.1323486
94	0x3dca1259	0.09866781
95	0xbda70223	-0.081547044
96	0x3d6795a5	0.056539197
97	0xbc437795	-0.011930366
98	0x3e3aca7f	0.18241309
99	0xbd8a968a	-0.06766994
100	0x3d14a5bd	0.036290873
101	0xbd3082d9	-0.043093536
102	0x3db0893e	0.08619927
103	0xbd062cf1	-0.032757703
104	0x3e2d13e4	0.16902119
105	0xbc8b67cb	-0.017017266
106	0xbe83f029	-0.25769165
107	0xbd456b71	-0.048198167
108	0xbd8fb1cd	-0.07016335
109	0x3e03df26	0.12878093
110	0x3d3322a3	0.043734204
111	0xbd50ac62	-0.050945647
112	0xbd281693	-0.041037153
113	0x3d4144d9	0.0471848
114	0xbdd240f3	-0.10266294
115	0x3bd54440	0.00650838
116	0x3d94d801	0.07267762
117	0xbc0756a9	-0.0082604075
118	0x3d0e775e	0.034781806
119	0x3e027ebd	0.1274366
120	0x3de3433b	0.110968076
121	0xbd60fe4b	-0.054930013
122	0xbbda66fc	-0.0066651087
123	0x3d212379	0.03934047
124	0xbdc4d4d9	-0.0961091
125	0xbdf1c508	-0.11805159
126	0x3c33dc97	0.010977886
127	0xbd720550	-0.059087098
128	0x3cb2e54a	0.02183785
129	0xbcdde974	-0.027088858
130	0x3d288837	0.04114553
131	0x3d503bb2	0.05083818
132	0xbc544637	-0.012956194
133	0x3ddb0ab6	0.10695402
134	0x3d8fc161	0.07019306
135	0x3d7299c6	0.05922868
136	0x3d39c2e9	0.045351896
137	0x3e14e5dd	0.14540811
138	0xbd9c5731	-0.07633818
139	0xbcbc53ac	-0.022989117
140	0xbd58e6d4	-0.05295451
141	0x3c2bc248	0.010483332
142	0x3d7e4d30	0.06208533
143	0x3db1d15a	0.08682509
144	0xbc44d84e	-0.012014462
145	0xbe2d74f7	-0.1693915
146	0xbe17d9b0	-0.14829135
147	0xbc011a88	-0.007879861
148	0xbd444bb8	-0.047923774
149	0xbd6d57ad	-0.057944942
150	0x3d92802e	0.071533546
151	0xbd2604bd	-0.040531863
152	0xbd89602d	-0.06707797
153	0x3d73ca69	0.059519205
154	0xbdcc65f3	-0.09980383
155	0x3ddc1166	0.10745506
156	0xbc78f650	-0.015195444
157	0x3c882792	0.016620431
158	0xbd263463	-0.040577304
159	0xbdf9d23b	-0.121983014
160	0xbd8d208f	-0.06890976
161	0xbd58efb5	-0.052962977
162	0x3c8bbbac	0.017057262
163	0x3dd1e432	0.10248603
164	0xbe1d2602	-0.1534653
165	0x3d175af0	0.03695196
166	0xbd78bc12	-0.060726233
167	0xbe2b5b4f	-0.1673405
168	0xbbcec7f5	-0.006310458
169	0xbdfa7490	-0.12229264
170	0xbd857eb0	-0.06518304
171	0x3d351874	0.044212773
172	0xbcfbf9e6	-0.03075881
173	0x3e0591b4	0.13043863
174	0xbde563e2	-0.11200692
175	0xbddcd25a	-0.10782309
176	0x3e003a2f	0.12522195
177	0xbd1e5b6d	-0.03866141
178	0x3df4469e	0.11927532
179	0xbcf5868f	-0.02997139
180	0x3d94945e	0.07254861
181	0xbc0960e6	-0.008384919
182	0xbd953c1d	-0.07286856
183	0xbda10447	-0.07862144
184	0x3d0a96ac	0.0338351
185	0x3e4858e5	0.1956516
186	0xbe089727	-0.1333891
187	0x3d388adc	0.0450543
188	0xbd76bfa0	-0.06024134
189	0x3e135797	0.14388882
190	0x3dd086aa	0.10181935
191	0xbbc5bdd3	-0.0060345917
192	0x3dbae5d3	0.09125867
193	0xbd773dbd	-0.060361613
194	0x3d825c66	0.0636528
195	0xbccc2d44	-0.024923928
196	0x3ddc4b78	0.10756582
197	0xbdc618d3	-0.096727036
198	0xbdf5a484	-0.119942695
199	0x3d38ffa1	0.04516566
200	0xbc191e00	-0.009345531
201	0xbad5198f	-0.0016258227
202	0xbba1b6e1	-0.004935131
203	0xbdd50b34	-0.104025275
204	0xbdb586c1	-0.08863593
205	0x3dc804f8	0.09766573
206	0x3d00da4c	0.031458184
207	0x3c06e2f2	0.008232819
208	0x3cdebc7c	0.027189486
209	0xbe012423	-0.12611441
210	0x3dfcaf49	0.123381205
211	0x3de6023d	0.11230896
212	0xbdfe3b94	-0.124137074
213	0x3d4f20fd	0.05056857
214	0x39adf6ce	0.00033181015
215	0xbd065f62	-0.032805808
216	0xbd3d85bb	-0.046270113
217	0xbd232161	-0.039826754
218	0x3c8d10ab	0.017219862
219	0x3dbcfb9e	0.0922768
220	0xbe3b6cbb	-0.18303196
221	0xbce45030	-0.027870268
222	0xbe8187ba	-0.25298864
223	0xbe124f52	-0.14288071
224	0x3d41357a	0.04717014
225	0xbd064242	-0.032778032
226	0xbd2dce25	-0.042432923
227	0xbcae72c7	-0.021294964
228	0xbd86116d	-0.065462925
229	0x3dfa4f14	0.12222114
230	0xbdf330aa	-0.11874516
231	0xbbb39e12	-0.00548149
232	0xbca164e3	-0.019701427
233	0x3e04e8e1	0.12979461
234	0xbcfc52ba	-0.030801166
235	0xbdcb71d6	-0.09933822
236	0x3d3e46d5	0.04645427
237	0x3d077879	0.033073876
238	0xbcac58b2	-0.021038387
239	0xbdc6c212	-0.09704985
240	0x3a7dddf5	0.0009684258
241	0xbcbc8240	-0.023011327
242	0x3d5b7089	0.05357412
243	0xbde4ef04	-0.11178401
244	0x3e0f3cd5	0.1398805
245	0x3c882f8b	0.016624233
246	0xbb620180	-0.0034485757
247	0x3c5c4a07	0.013445384
248	0xbe2d73f9	-0.16938771
249	0xbe0aee3e	-0.13567445
250	0xbe02e991	-0.12784411
251	0xbdfdf568	-0.12400323
252	0x3d8e98b4	0.069627196
253	0x3d022e33	0.03178234
254	0xbba89b50	-0.005145468
255	0x3cbf03ee	0.023317304

network_body.linear_encoder.seq_layers.2.bias f4 [128]
0	0xbd07e7fe	-0.03318023
1	0x3e08f4e3	0.13374667
2	0xbd3acad6	-0.045603596
3	0xbddfd53c	-0.10929343
4	0x3dd3bf57	0.103392296
5	0x3df70979	0.12062354
6	0x3cf15dfa	0.029463757
7	0xbd1be265	-0.038057704
8	0x3e17ca35	0.1482323
9	0x3da90cde	0.08254407
10	0xbdc9c16a	-0.09851344
11	0x3ddbe762	0.10737492
12	0x3df4de78	0.11956495
13	0x3d69ea2e	0.057108097
14	0x3de244b9	0.11048264
15	0x3e12f51e	0.14351317
16	0x3d517867	0.051140215
17	0xbdbdaec4	-0.092618495
18	0x3de4426c	0.111454815
19	0x3dd35f13	0.10320868
20	0x3d793f41	0.06085134
21	0xbc9f136c	-0.01941844
22	0x3e3c9e63	0.18419795
23	0x3d214695	0.039373953
24	0xbde82f5c	-0.11337158
25	0xbe0189ec	-0.1265027
26	0x3dd37343	0.10324719
27	0xbddeb2a8	-0.1087392
28	0x3e061d93	0.13097219
29	0xbd311067	-0.043228533
30	0x3d73c55b	0.059514385
31	0x3c14e17f	0.009086966
32	0x3e1950a3	0.14972167
33	0x3dc7f49c	0.097634524
34	0xbe019097	-0.12652813
35	0x3d85b69c	0.065289706
36	0x3d34c887	0.04413655
37	0x3e062a59	0.13102092
38	0xbdec13a9	-0.115271874
39	0x3d85ae66	0.065274045
40	0xbde92f81	-0.11386014
41	0x3e080d04	0.13286215
42	0xbbd23d9e	-0.0064160367
43	0x3e20e843	0.15713601
44	0x3e074c5d	0.13212724
45	0x3dc253e1	0.09488655
46	0xbde60d28	-0.11232978
47	0x3dd3b84b	0.103378855
48	0xbd89b8ca	-0.06724699
49	0xbdeb258f	-0.11481773
50	0xbd19e2cd	-0.03756981
51	0xbd58bf5d	-0.052916873
52	0xbd87b17d	-0.0662565
53	0x3dd64bd4	0.10463682
54	0x3dc2fa4b	0.09520396
55	0x3e1e5482	0.15461925
56	0xbe03f417	-0.12886082
57	0x3e018ed5	0.12652142
58	0x3daddef3	0.0848979
59	0xbd6b7923	-0.05748857
60	0x3a990cb5	0.0011676761
61	0xbdf29302	-0.11844446
62	0xbdce7e75	-0.100827135
63	0x3df13fba	0.11779733
64	0xbd513b69	-0.05108205
65	0xbd2de4a3	-0.042454373
66	0x3d503898	0.050835222
67	0xbd3f40aa	-0.046692528
68	0xbd24db5a	-0.040248252
69	0xbd9bddf0	-0.076106906
70	0x3d4a3a97	0.049372282
71	0x3dd703e6	0.104987904
72	0x3d828e03	0.06374743
73	0x3dab3c9c	0.0836117
74	0x3e04732d	0.12934561
75	0x3d6782ff	0.056521412
76	0x3df61e13	0.12017455
77	0xbd72cd6c	-0.059277937
78	0x3dc5ef4f	0.09664785
79	0xbddeb88a	-0.10875042
80	0x3da70827	0.08155852
81	0xbdd1130c	-0.10208711
82	0x3dc4f51f	0.09617066
83	0xbcfa14b2	-0.030527446
84	0xbd5c8beb	-0.053844374
85	0x3da04f61	0.0782764
86	0xbde859f9	-0.11345286
87	0x3de911fb	0.113803826
88	0x3e1f068e	0.15529844
89	0x3e25647a	0.1615161
90	0xbdd08e9f	-0.10183453
91	0x3c08f30a	0.008358726
92	0xbde2c9f7	-0.11073678
93	0x3dc3132c	0.09525141
94	0xbc4045e6	-0.011735415
95	0x3e06a753	0.13149767
96	0xbd95653c	-0.072946995
97	0x3e302816	0.17202792
98	0xbdcba0f1	-0.099428065
99	0x3c9e5f67	0.0193326
100	0x3d6ed788	0.058311015
101	0x3c8cfe4b	0.0172111
102	0xbd269fc4	-0.040679708
103	0xbca1b0f3	-0.019737696
104	0x3e0c986b	0.13730018
105	0x3be892e8	0.0070975907
106	0xbdf24ed1	-0.11831439
107	0x3dd79b62	0.10527684
108	0xbdc6be19	-0.09704227
109	0x3d541e35	0.05178662
110	0xbdb1898d	-0.08668814
111	0xbde5bea9	-0.11218006
112	0xbdcd4f9b	-0.10024949
113	0xbd16f4e7	-0.03685465
114	0x3de40d57	0.11135357
115	0xbdcc1382	-0.09964658
116	0xbd8ae104	-0.067811996
117	0x3da89c97	0.08232992
118	0xbdbbbcc6	-0.09166865
119	0x3dc59a7a	0.09648605
120	0xbcb602b1	-0.02221808
121	0xba8e29b6	-0.0010846171
122	0x3df43ff5	0.11926261
123	0xbd0c5add	-0.03426634
124	0x3d804efa	0.062650636
125	0xbd948697	-0.072522335
126	0x3da8b041	0.08236743
127	0xbddd9b70	-0.10820663

distribution.log_sigma f4 [1, 2]
0	0xbedb9448	-0.42886567
1	0xbedf45f0	-0.43608046

distribution.mu.weight f4 [2, 128]
0	0xbd205e38	-0.039152354
1	0xbc9a9603	-0.01887036
2	0xbd6d1a79	-0.057886574
3	0xbd24d50f	-0.04024225
4	0xbbe8ba63	-0.007102297
5	0xbd22867f	-0.039679047
6	0x3da67ac2	0.08128883
7	0x3d20bf5d	0.039245
8	0x3d643481	0.055714134
9	0x3bb5ed99	0.0055520055
10	0xbd80e106	-0.0629292
11	0xb9ff1e9f	-0.00048660205
12	0xbca598b4	-0.020214416
13	0x3c8e4fd1	0.017372044
14	0xbb817fad	-0.0039519877
15	0x3d96a9ac	0.07356581
16	0x3bfb52d4	0.007669786
17	0xbd656e43	-0.056013357
18	0x3ccc72ee	0.024957146
19	0x3cb95946	0.022625577
20	0x3d53da45	0.05172183
21	0x3d8cdc1f	0.06877922
22	0x3d043099	0.03227291
23	0x3df04d03	0.11733439
24	0xbba615de	-0.0050685247
25	0x3bd17b6e	0.006392888
26	0xbc1d3511	-0.009595172
27	0x3a262c46	0.0006338995
28	0x3d2f222b	0.042757194
29	0x3d733a7d	0.05938195
30	0x3ba2e1da	0.0049707713
31	0xbd1b9323	-0.037982117
32	0xbc5b85f8	-0.01339864
33	0x3cfda218	0.030961081
34	0x3c42301b	0.01185229
35	0xbd032809	-0.032020602
36	0x3d68edde	0.056867473
37	0x3c8343d6	0.016023558
38	0xbcf3a32e	-0.029740896
39	0x3d6c7f4e	0.057738595
40	0xbd3a50d7	-0.04548725
41	0x3da9d6e4	0.0829294
42	0x3d2efb80	0.042720318
43	0x3d023276	0.031786405
44	0x3d1dcf9c	0.03852807
45	0xbc83f9c1	-0.016110303
46	0xbd512e15	-0.051069338
47	0x3cf567d4	0.029956736
48	0xbd4dbc9f	-0.05022871
49	0xbc1f869b	-0.009736682
50	0xbd8c5861	-0.068527944
51	0xbb8128b1	-0.0039416184
52	0xbdc18c9e	-0.09450649
53	0xbaf4f657	-0.0018689138
54	0x3cfcfa4a	0.030881066
55	0xbbfbb211	-0.0076811393
56	0xbd2f35c7	-0.042775895
57	0xbd0665d2	-0.032811947
58	0xba07225a	-0.000515496
59	0xbd28dd26	-0.04122653
60	0xbd5cac3b	-0.05387519
61	0xbda5f061	-0.08102489
62	0xbdc5a5ce	-0.09650765
63	0x3d58d9b0	0.052941978
64	0xbdb056e5	-0.08610324
65	0xbdbc2ad4	-0.09187856
66	0xbd2a10a7	-0.041519787
67	0x3d27e0d1	0.040985886
68	0xbd1e1669	-0.03859559
69	0x3d18de56	0.03732141
70	0x3d9849e3	0.07435968
71	0x3d6fd9ff	0.058557507
72	0x3e019bba	0.12657061
73	0xb9c25a5b	-0.00037069884
74	0x3bbb098e	0.005707926
75	0xbd1dfcd7	-0.038571205
76	0x3db941e5	0.090457715
77	0x3c9cbac9	0.019132035
78	0x3d548dab	0.051892918
79	0xbbc2be06	-0.0059430627
80	0x3b2ecd00	0.0026672482
81	0xbac3cf24	-0.0014939052
82	0x3c7c9e50	0.015418604
83	0xbd00c960	-0.031442046
84	0x3da57cf8	0.080804765
85	0x3d7b6634	0.061376765
86	0xbd752948	-0.059853822
87	0xbb875a57	-0.0041306424
88	0x3d5528f8	0.052041024
89	0x3cd4a7ff	0.025959013
90	0x3d0a13a7	0.03371015
91	0xbc86a9bb	-0.016438356
92	0xbd941ff9	-0.07232661
93	0x3cfd1406	0.030893337
94	0x3d58603d	0.052826155
95	0x3cc2973d	0.023753757
96	0xbcf892d0	-0.030343443
97	0x3d641e55	0.05569299
98	0xbd4d9c92	-0.050198145
99	0x3d6c1dd4	0.057645634
100	0xbc09d50c	-0.008412611
101	0x3d41b671	0.04729313
102	0xbcd306db	-0.025760105
103	0xbdd3a777	-0.10334676
104	0x3b34b5a9	0.0027574098
105	0x3dd0f4cd	0.10202942
106	0xbce58d77	-0.028021557
107	0x3e03e00a	0.12878433
108	0xbd78ba47	-0.060724523
109	0x3d8b2b03	0.06795313
110	0x3c583a3d	0.013197479
111	0x3d13e6fc	0.036108956
112	0xbca8de82	-0.020613912
113	0x3cef2171	0.02919075
114	0xbc6faaa7	-0.014628089
115	0xbc6b2463	-0.014351937
116	0xbc3b46a9	-0.011430421
117	0x3d04362d	0.03227823
118	0x3d3ce377	0.046115365
119	0x3c8f8ce3	0.017523235
120	0xbc753a46	-0.014967507
121	0x3bda3e87	0.006660286
122	0xbbc92ebf	-0.006139606
123	0x3d5b8e2d	0.053602386
124	0xbc2c2415	-0.0105066495
125	0x3cf034e4	0.029322095
126	0xbd01279a	-0.031531908
127	0xbd6a189c	-0.057152376
128	0xbbd03054	-0.0063534174
129	0x3d52b32d	0.051440407
130	0xbc880fee	-0.016609158
131	0xbd87cc7b	-0.066307984
132	0x3c90ebf5	0.017690638
133	0x3da4347e	0.080178246
134	0xbc98c9bc	-0.018650882
135	0xbd3c60ea	-0.045990862
136	0x3dc47336	0.09592287
137	0x3bd8f4d6	0.0066209836
138	0xbdc42edb	-0.095792495
139	0x3da19ad3	0.078908585
140	0x3da90357	0.0825259
141	0xbc0f5ffa	-0.00875091
142	0x3dba00d8	0.09082192
143	0x3e0168b7	0.12637602
144	0x3b875728	0.004130263
145	0xbd8dfec4	-0.06933358
146	0x3d17d7f5	0.037071187
147	0x3d7842f4	0.060610726
148	0x3cae8a9d	0.02130633
149	0xbc812023	-0.015762394
150	0x3df9cf18	0.12197703
151	0xbc0688cb	-0.008211325
152	0xbd25cee4	-0.04048051
153	0xbd11d548	-0.03560379
154	0x3d13a82d	0.036049057
155	0xbd98282e	-0.07429539
156	0x3d488da2	0.048963197
157	0xbd248e36	-0.040174685
158	0xbc0dcc01	-0.008654595
159	0x3c8f3083	0.017479187
160	0x3d5df709	0.05419067
161	0x3bc616df	0.006045207
162	0xbd805557	-0.06266277
163	0x3cf22b19	0.029561566
164	0x3b58cf5d	0.0033082583
165	0x3d8689ec	0.06569275
166	0xbd1916de	-0.037375323
167	0x3b056566	0.0020354628
168	0xbd9d42ba	-0.07678743
169	0x3d8b2f75	0.06796161
170	0xba14a69a	-0.00056705775
171	0x3e0ae20e	0.13562796
172	0x3d6b0eaa	0.05738703
173	0x3d649778	0.055808514
174	0xbd4989e0	-0.049203753
175	0x3c2e8192	0.010651009
176	0xbc5b4ba2	-0.0133847315
177	0xbbecd50e	-0.0072275465
178	0xbd1fd7ca	-0.03902415
179	0xbb054792	-0.0020336849
180	0xbd9943f9	-0.07483668
181	0x3c01cc67	0.0079222685
182	0x3cbe10d9	0.023201393
183	0x3dd5f135	0.10446397
184	0xbd8c2744	-0.06843427
185	0x3ddb4b17	0.107076816
186	0x3c8550e9	0.016273933
187	0x3ae441fa	0.0017414682
188	0x3d0fa7b6	0.03507205
189	0xbd523f84	-0.051330104
190	0xbd4bfe68	-0.049803168
191	0x3d201d0e	0.03909021
192	0xbcc7d665	-0.024394223
193	0xbd1ee770	-0.038794935
194	0x3d1bda89	0.03805021
195	0xbd890b4c	-0.06691608
196	0x3b1481c1	0.0022660347
197	0xbd2210c1	-0.03956676
198	0x3c3260f5	0.010887374
199	0x3d4a75f8	0.04942891
200	0x3b1448db	0.0022626433
201	0x3ccc65d4	0.0249509
202	0x3d82d47c	0.063881844
203	0x3c9bbb40	0.019010186
204	0x3daf5af2	0.08562268
205	0xbc13a80e	-0.009012235
206	0x3d532d31	0.05155677
207	0xbcea2dab	-0.02858623
208	0x3ced13a8	0.028940037
209	0xbc867c1e	-0.016416606
210	0x3d0effa0	0.03491175
211	0x3c1fb797	0.009748361
212	0xbd7267f1	-0.059181157
213	0xbba6cd73	-0.0050904094
214	0xbd87fd1a	-0.06640072
215	0x3d5538eb	0.052056234
216	0x3dc9c942	0.0985284
217	0x3de9f637	0.11423915
218	0xbd91bb35	-0.07115785
219	0xba2207fc	-0.00061809993
220	0xbd607e1b	-0.054807764
221	0x3d624724	0.055243626
222	0xbcda85ce	-0.026675131
223	0x3d6f1398	0.058368295
224	0xbc13e498	-0.009026669
225	0x3dee8122	0.11645724
226	0xbd2d4556	-0.042302452
227	0x3c399b67	0.011328555
228	0x3ce5c816	0.02804951
229	0x3b29eab0	0.0025927238
230	0xb93930b6	-0.00017661121
231	0xbcdd290c	-0.026997112
232	0x3d899611	0.06718076
233	0xbd1a1110	-0.03761393
234	0xbddb6a21	-0.10713602
235	0x3d5e898e	0.0543304
236	0xbd7baa99	-0.06144199
237	0x3d229be9	0.03969947
238	0xbd8e7445	-0.069557704
239	0xbd51fba0	-0.05126536
240	0xbd68ab8b	-0.05680422
241	0xbc38409e	-0.011245875
242	0x3da48da7	0.080348305
243	0xbd3f50e0	-0.046707988
244	0xbcb1fc1a	-0.021726657
245	0x3c22ddcd	0.009940577
246	0xbda58717	-0.08082407
247	0x3d623fad	0.055236507
248	0xbacf134e	-0.00157986
249	0xbc0777d7	-0.008268318
250	0x3d69843c	0.057010874
251	0xbd17e568	-0.037084013
252	0x3d6bf190	0.05760342
253	0xbd84d633	-0.06486168
254	0x3d4a2568	0.04935208
255	0xbd8bf064	-0.0683296

distribution.mu.bias f4 [2]
0	0x3ce312ff	0.027719019
1	0x3dfcfb22	0.12352587

critic.network_body.vector_processors.0.normalizer.running_mean f4 [52]
0	0x3bf47975	0.007460768
1	0x3f7e155c	0.9925134
2	0x36063b51	2.0002083e-06
3	0x3e9aad47	0.30210325
4	0x3c084be6	0.008318877
5	0x3f7ddd93	0.9916622
6	0x36063b62	2.0002121e-06
7	0x3e9bd534	0.304361
8	0x3bf1436d	0.007362774
9	0x3f7e1a33	0.99258727
10	0x36863b5b	4.000421e-06
11	0x3e99ce9d	0.30040446
12	0x3c047633	0.0080848215
13	0x3f7dec67	0.99188846
14	0x36c958ee	6.0006196e-06
15	0x3e9d1e81	0.30687335
16	0x3bea50cb	0.0071507446
17	0x3f7e28c8	0.9928098
18	0x00000000	0.0
19	0x3e9898eb	0.29804167
20	0x3bff7c77	0.00779682
21	0x3f7dffcd	0.99218446
22	0x36063b6a	2.000214e-06
23	0x3e9dfee3	0.30858526
24	0x3bdb4e60	0.0066926926
25	0x3f7e46b5	0.9932664
26	0x36063b5b	2.0002105e-06
27	0x3e97fa6c	0.29683244
28	0x3c06b0d3	0.008220869
29	0x3f7de42e	0.991763
30	0x36063b64	2.0002126e-06
31	0x3e9e7dbe	0.3095531
32	0x3be49cf5	0.0069767185
33	0x3f7e33f3	0.9929802
34	0x00000000	0.0
35	0x3e97cf06	0.29650134
36	0x3c193d3a	0.009352976
37	0x3f7d99a8	0.99062586
38	0x36063b5b	2.0002105e-06
39	0x3e9e9584	0.30973446
40	0x3c0f89ef	0.008760913
41	0x3f7dbe3c	0.991184
42	0x36063b64	2.0002126e-06
43	0x3e97ceda	0.29650003
44	0x3c3c025e	0.011475174
45	0x3f7d0eb7	0.9885058
46	0x36063b57	2.0002096e-06
47	0x3e9e17a2	0.30877405
48	0x3c362d35	0.011119177
49	0x3f7d2440	0.9888344
50	0x00000000	0.0
51	0x3e983caf	0.29733798

critic.network_body.vector_processors.0.normalizer.running_variance f4 [52]
0	0x45677296	3703.1616
1	0x45682fd2	3714.9888
2	0x3fffffed	1.9999977
3	0x46adabe3	22229.943
4	0x4580eb14	4125.385
5	0x458131f9	4134.2466
6	0x3ffffee9	1.9999667
7	0x46b19d18	22734.547
8	0x45646e4d	3654.8938
9	0x4565e8eb	3678.5574
10	0x403fff9c	2.9999762
11	0x46aa2a7f	21781.248
12	0x457aa517	4010.318
13	0x457b7203	4023.1257
14	0x407ffdeb	3.999873
15	0x46b5fc80	23294.25
16	0x455de70f	3550.4412
17	0x455f2267	3570.1501
18	0x3f800000	1.0
19	0x46a4615a	21040.676
20	0x4571c9b5	3868.6067
21	0x4572574c	3877.456
22	0x3fffff80	1.9999847
23	0x46b88155	23616.666
24	0x454fc95d	3324.5852
25	0x45511543	3345.3289
26	0x3fffffde	1.999996
27	0x46a17742	20667.629
28	0x457ed387	4077.2205
29	0x457f514c	4085.081
30	0x3ffffec0	1.9999619
31	0x46ba4d29	23846.58
32	0x45588a79	3464.6545
33	0x4559d5b5	3485.3567
34	0x3f800000	1.0
35	0x46a04da9	20518.83
36	0x4590ca39	4633.278
37	0x459118d2	4643.1025
38	0x3fffffb0	1.9999905
39	0x46bb1c60	23950.188
40	0x4587b4ed	4342.6157
41	0x4588892c	4369.1465
42	0x3ffffec1	1.999962
43	0x46a03618	20507.047
44	0x45b141c9	5672.223
45	0x45b187cb	5680.974
46	0x3fffffc9	1.9999934
47	0x46b9cfee	23783.965
48	0x45abd17b	5498.185
49	0x45ac8573	5520.681
50	0x3f800000	1.0
51	0x46a1d464	20714.195

critic.network_body.linear_encoder.seq_layers.0.weight f4 [128, 52]
0	0x3e302ffd	0.17205806
1	0xbe3c39e2	-0.18381456
2	0xbd374a6d	-0.044748712
3	0xbe93c92b	-0.28864416
4	0xbd45a6ae	-0.04825466
5	0x3b1bcfa3	0.0023774884
6	0xbe28a68d	-0.16469784
7	0x3da23dfe	0.0792198
8	0xbd178c83	-0.036999237
9	0xbe4345e7	-0.19069634
10	0xbcdd9c55	-0.027052084
11	0xbce0e6a6	-0.027453732
12	0xbdb532b9	-0.08847565
13	0xbd6eea0f	-0.058328684
14	0x3e3e3246	0.18573865
15	0xbe180fbf	-0.14849757
16	0x3ae2098f	0.001724528
17	0x3d9d6c4a	0.0768667
18	0x3e1520e1	0.14563324
19	0x3b7e8e01	0.0038841965
20	0x3ed2d25d	0.4117612
21	0xbd19f471	-0.037586633
22	0xbdd05548	-0.10172516
23	0x3e21f1fc	0.15814966
24	0xbc9dd86d	-0.019268239
25	0xbdf47afb	-0.11937519
26	0xbe3f331f	-0.18671845
27	0xbdb5219e	-0.088443026
28	0x3de614bd	0.11234424
29	0xbdb18bf6	-0.086692736
30	0xbdf2e840	-0.118607044
31	0x3d066415	0.03281029
32	0xbc2421df	-0.010017841
33	0xbdd623f3	-0.104560755
34	0x3dd37c4d	0.10326443
35	0xbe68690a	-0.22696319
36	0x3b8b6502	0.0042539844
37	0x3d807f0c	0.06274232
38	0xbda62d51	-0.08114112
39	0x3db6be81	0.089230545
40	0xbc8bd6d7	-0.017070217
41	0xbd830619	-0.063976474
42	0xbe29b4fa	-0.16572943
43	0x3dcfdde3	0.101497434
44	0xbc99f721	-0.018794598
45	0xbd85dfb0	-0.06536806
46	0x3a5555cf	0.00081380917
47	0x3d11c648	0.035589486
48	0x3ebc6b33	0.36800537
49	0xbe2c7c0b	-0.16844194
50	0xbd8982a6	-0.06714372
51	0xbdf8c350	-0.12146628
52	0x3e3f81c7	0.1870185
53	0x3eb7fcf5	0.35935178
54	0xbe68ff66	-0.22753677
55	0x3e1ea5f6	0.15492997
56	0xbbc757f3	-0.0060834824
57	0xbe7f313c	-0.24921125
58	0xbdd86a01	-0.10567094
59	0xbd240de0	-0.040052295
60	0xbdd39a37	-0.103321485
61	0x3c0f504e	0.0087471735
62	0xbe160705	-0.14651115
63	0x3db041dd	0.086063124
64	0xbd87ac0f	-0.066246144
65	0xbe2b266d	-0.16713877
66	0xbda26e46	-0.07931189
67	0x3db1989f	0.08671688
68	0x3d4f3b0e	0.05059343
69	0xbd8cd9ae	-0.068774566
70	0xbe2afbab	-0.16697566
71	0xbab6f408	-0.0013958225
72	0x3dc5df12	0.09661688
73	0x3dce3ec4	0.10070565
74	0x3c9d7dea	0.01922508
75	0xbde73733	-0.11289825
76	0xbc9136cf	-0.01772633
77	0x3e16bc6c	0.14720315
78	0x3e0705ad	0.13185759
79	0x3ddad4e1	0.10685135
80	0x3dedcc38	0.11611217
81	0x3dbdf87b	0.092759095
82	0x3e0fbf63	0.14037852
83	0x3bfab661	0.007651136
84	0x3d28d428	0.041217953
85	0x3defa4ed	0.11701379
86	0x3e9afad1	0.30269483
87	0x3d7023d0	0.058627903
88	0x3a99130b	0.0011678649
89	0x3d76ba5b	0.060236316
90	0xbd712c12	-0.05887992
91	0x3cae2229	0.021256523
92	0xbc807d9b	-0.015684893
93	0xbb7e6e07	-0.0038822906
94	0xbe222e5f	-0.15838002
95	0xbe65c224	-0.2243734
96	0xbdb3e830	-0.087845206
97	0xbde475ad	-0.111552574
98	0x3ccda39d	0.025102431
99	0xbdc69797	-0.09696882
100	0x3e3d9edd	0.18517633
101	0x3db7c836	0.08973734
102	0x3dd06807	0.10176092
103	0x3e877e91	0.2646375
104	0x3d8af036	0.06784098
105	0xbd6f0253	-0.058351826
106	0x3e0d7aaf	0.13816331
107	0x3d1ec3d3	0.03876097
108	0xbe78685c	-0.2425856
109	0xbe1bb94a	-0.15207401
110	0x3b594c09	0.0033156893
111	0x3e988fd3	0.2979723
112	0xbdcb2675	-0.099194445
113	0x3d85160f	0.06498348
114	0xbe415606	-0.18880472
115	0x3cf416cd	0.029796029
116	0x3e03afe4	0.12860066
117	0xbc1d9f83	-0.00962055
118	0x3e228c3c	0.15873808
119	0x3e4c1134	0.19928437
120	0x3e3ab372	0.18232515
121	0xbd8c4d46	-0.06850676
122	0x3b89c0c0	0.004203886
123	0xbe492c18	-0.19645727
124	0x3d286eb6	0.041121207
125	0x3d002eee	0.031294756
126	0x3e8b23b4	0.27175677
127	0xbdfd871a	-0.12379284
128	0x3d87463a	0.066051915
129	0xbd73e5ad	-0.059545208
130	0x3d57bcbe	0.052670233
131	0xbd1d60ae	-0.03842228
132	0x3e4ab028	0.19793761
133	0x3db522e6	0.08844547
134	0x3d6143db	0.054996353
135	0x3d75b1cb	0.05998401
136	0x3d6ed0dc	0.058304653
137	0xbc79b10e	-0.015239967
138	0x3eace841	0.33770946
139	0x3e31ad26	0.17351207
140	0x3e163527	0.14668714
141	0xbd95291d	-0.07283232
142	0x3dc8861f	0.097912066
143	0xbdb18fd5	-0.08670012
144	0x3e0508d7	0.12991653
145	0xbd8b6b7a	-0.06807609
146	0x3ea1977b	0.31560883
147	0x3d6701a1	0.056398038
148	0xba951343	-0.0011373538
149	0xbc304cee	-0.010760529
150	0x3db459ce	0.088061914
151	0x3c9ba1b0	0.018997997
152	0xbdae4190	-0.08508599
153	0xbcab961c	-0.020945601
154	0xbe06c4fa	-0.13161078
155	0x3e497466	0.19673309
156	0xbbc822ea	-0.0061076777
157	0x3e159cba	0.14610568
158	0x3d57025a	0.052492477
159	0xbe0c9c68	-0.13731539
160	0x3a9cd5fd	0.0011965629
161	0x3d5b91cd	0.053605843
162	0x3e7938f6	0.24338135
163	0xbe792eb0	-0.24334216
164	0x3d537e76	0.051634274
165	0xbdb1f75d	-0.08689759
166	0x3d5881dc	0.05285822
167	0xbddb4a10	-0.10707486
168	0xbe109c4d	-0.14122124
169	0x3b97488c	0.0046168026
170	0xbdc56d5b	-0.096399985
171	0xbdf292bd	-0.11844394
172	0x3d75268f	0.059851225
173	0xbe180f4f	-0.1484959
174	0xbe3321e7	-0.17493401
175	0x3e23ff3b	0.16015331
176	0xbd17fcff	-0.03710651
177	0xbc6cf9dd	-0.014463869
178	0x3e5241ea	0.20532957
179	0xbd99a670	-0.075024486
180	0x3cb445a5	0.022005865
181	0xba34bc8a	-0.00068945496
182	0x3c8db5c2	0.017298583
183	0xbe2c268f	-0.16811584
184	0xbe0740ab	-0.13208263
185	0xbd0bc516	-0.034123503
186	0xbdc73591	-0.09727014
187	0xbc84ea92	-0.016225133
188	0xbb3d64d9	-0.0028899221
189	0xbe3f4290	-0.18677735
190	0x3e6bf4d6	0.23042616
191	0x3e9f84f6	0.3115613
192	0x3cd79a96	0.02631883
193	0xbe9358a6	-0.2877857
194	0x3e2eba22	0.17063192
195	0x3e5b1fe2	0.21398881
196	0x3d33e27b	0.04391716
197	0x3e0df5a6	0.13863239
198	0x3e2f8537	0.17140661
199	0xbd4d9974	-0.050195172
200	0xbe259a1f	-0.16172074
201	0xbdfa578d	-0.1222373
202	0x3db2b558	0.08725995
203	0xbdd9b535	-0.106302656
204	0x3d03097f	0.031991478
205	0xba44c775	-0.0007506528
206	0x3d53c660	0.051702857
207	0x3e041829	0.12899841
208	0xbd93df1d	-0.0722029
209	0xbd8259ec	-0.063648075
210	0xbe9ca883	-0.30597314
211	0xbde465b5	-0.111522116
212	0xbdbf10b7	-0.0932936
213	0x3d856410	0.06513226
214	0x3e89d393	0.2691923
215	0x3d86ccc0	0.06582022
216	0xbe5f9d0f	-0.21837257
217	0x3e258093	0.16162328
218	0x3dc296ad	0.095013954
219	0xbe117c56	-0.14207587
220	0xbd828de3	-0.06374719
221	0xbc222c85	-0.00989831
222	0x3c75fbd7	0.015013657
223	0xbd8d0e09	-0.068874426
224	0xbe87d727	-0.26531336
225	0xbe0debe5	-0.13859518
226	0x3dc31bb5	0.09526769
227	0xbe171068	-0.14752352
228	0x3dd5936f	0.10428511
229	0xbe38fe6a	-0.18065801
230	0xbdd23b37	-0.102652006
231	0x3e24680a	0.16055313
232	0xbc08d07f	-0.008350491
233	0xbd87f8e5	-0.0663927
234	0x3e8ec964	0.27888024
235	0xbd59b561	-0.053151492
236	0x3d63783b	0.055534583
237	0xbdef0a55	-0.116718926
238	0xbe389758	-0.18026483
239	0x3d2d7034	0.042343333
240	0x3d8cb2ea	0.06870063
241	0x3da04f28	0.07827598
242	0x3dfba187	0.12286668
243	0x3e850694	0.2598158
244	0xbc84ada4	-0.01619608
245	0x3bb78be5	0.0056013935
246	0x3dd52244	0.10406926
247	0x3c69001e	0.014221219
248	0x3c6aa3e7	0.014321304
249	0x3e660740	0.22463703
250	0xbd83892b	-0.06422647
251	0x3dcb027a	0.09912582
252	0xbb613cd4	-0.0034368532
253	0x3e842f31	0.25817254
254	0xbe84d9b6	-0.2594735
255	0xbd53c753	-0.051703762

critic.network_body.linear_encoder.seq_layers.0.bias f4 [128]
0	0xbba07b3a	-0.0048975023
1	0xbc222bfa	-0.00989818
2	0x3c7acfe1	0.015308351
3	0xbd492d4e	-0.04911547
4	0xbd2bc59f	-0.041936513
5	0xbd4fe7ec	-0.050758287
6	0xbd1f0b24	-0.038828984
7	0xbce8cd09	-0.02841808
8	0xbcb7d834	-0.02244196
9	0xbcb5f992	-0.022213731
10	0xbce182ad	-0.027528131
11	0xbd0716da	-0.032980777
12	0xbc2d8038	-0.010589652
13	0xbd5fdaa7	-0.054651882
14	0xbcac7058	-0.021049663
15	0xbcc7a51d	-0.024370724
16	0xba6a16b4	-0.00089297746
17	0x3a73e3aa	0.0009303639
18	0xbd266904	-0.040627494
19	0xbbd61637	-0.00653341
20	0xbcc371f1	-0.023858042
21	0xbc040728	-0.008058347
22	0xbc66efb3	-0.014095235
23	0xbd9ce8d6	-0.076615974
24	0xbc995a49	-0.01871981
25	0xbd01fb2c	-0.031733677
26	0xbd8e77b5	-0.06956426
27	0xbd283dc3	-0.041074526
28	0xbce2b8ff	-0.027676104
29	0xbd95bdad	-0.073115684
30	0xbbb8570e	-0.005625612
31	0xbce4d2ec	-0.027932607
32	0xbb689d78	-0.003549425
33	0xbd215661	-0.039389018
34	0xbcbbbb66	-0.022916507
35	0xbddb1389	-0.106970854
36	0xbd21b4b0	-0.039478958
37	0xbc69819b	-0.014252092
38	0xbd81f77e	-0.063460335
39	0xbcf00006	-0.029296886
40	0xbbb430b5	-0.0054989704
41	0xbc584141	-0.0131991515
42	0xbb308842	-0.0026936685
43	0xbc989a24	-0.018628187
44	0xbd5f2147	-0.054475095
45	0xbd6258e4	-0.055260554
46	0x3aee6771	0.0018188787
47	0xbce01365	-0.027352998
48	0xbc35bb3a	-0.011092002
49	0xbcf435b6	-0.029810768
50	0xbd8df349	-0.069311686
51	0xbdaafcc3	-0.08348992
52	0x3c1f0df9	0.009707921
53	0xbcd12699	-0.0255311
54	0x3a890ba0	0.0010455735
55	0xbc9073ad	-0.017633284
56	0xbd0fbbca	-0.0350912
57	0xbc9fdb18	-0.019513652
58	0xbd3922ea	-0.045199312
59	0xbd8ef791	-0.06980813
60	0xbc82ed92	-0.015982423
61	0xbd1014b5	-0.035175998
62	0xbd7ed18f	-0.06221157
63	0xbc9a19ff	-0.018811224
64	0xbd0484e1	-0.032353286
65	0xbd3094b6	-0.04311057
66	0xbd3a3e08	-0.045469314
67	0xbd37f0bd	-0.04490732
68	0xbd23206b	-0.039825838
69	0xbd0f126d	-0.03492968
70	0xbbdc51e4	-0.0067236293
71	0xbc7146a9	-0.014726319
72	0xbcba53ae	-0.02274498
73	0xbd8f494c	-0.06996402
74	0xbd2d5f7d	-0.042327393
75	0xb8f6f95e	-0.00011776642
76	0xbb0839fc	-0.0020786515
77	0x3c18cd60	0.009326309
78	0xbcfe3c1e	-0.031034525
79	0xbba340ee	-0.0049821055
80	0xbd0fc8d9	-0.035103653
81	0xbd0c632a	-0.034274258
82	0xbceb3040	-0.02870953
83	0xbcdb7438	-0.026788816
84	0x3c593b87	0.013258821
85	0xbd00033b	-0.03125308
86	0xbd76f828	-0.060295254
87	0xbd046458	-0.032322258
88	0xbb4fea8e	-0.00317255
89	0x3c42ea9a	0.011896754
90	0xb9f2aa01	-0.000462845
91	0xbd68a625	-0.056799073
92	0xbd2bc6ac	-0.041937515
93	0xbc88d6c4	-0.01670397
94	0xbd31f999	-0.043450925
95	0xbc985d3f	-0.01859915
96	0xbc9c651f	-0.019091187
97	0x3b7d2087	0.0038624124
98	0xbd1f8d01	-0.03895283
99	0xbd144e7b	-0.036207657
100	0xbd821d84	-0.06353286
101	0xbd555e00	-0.0520916
102	0xbd8f6b30	-0.07002866
103	0xbc4a7848	-0.012357779
104	0xbc4b7d5e	-0.012420027
105	0xbcdf5f58	-0.027267143
106	0xbcb5ee4c	-0.022208355
107	0xbd6adcbc	-0.057339415
108	0xbcdd1879	-0.026989209
109	0xbd414227	-0.04718223
110	0xbd6bfb15	-0.057612497
111	0xbbca1661	-0.0061672186
112	0xbbc2e738	-0.0059479736
113	0xbc9e87ba	-0.019351829
114	0xbcbdba6a	-0.023160178
115	0x3b0731bc	0.002062901
116	0xbc8c1744	-0.017100938
117	0xbd267084	-0.040634647
118	0xbc937362	-0.017999355
119	0xbb93a3f1	-0.0045056273
120	0xbd21c9ec	-0.03949921
121	0xbde3ddc2	-0.11126281
122	0xbcabb37f	-0.020959614
123	0x3ae5ac9d	0.0017522756
124	0xbbc20cae	-0.0059219217
125	0xbc045396	-0.008076569
126	0xbd6f2683	-0.058386337
127	0xbcb54d1b	-0.022131493

critic.network_body.linear_encoder.seq_layers.2.weight f4 [128, 128]
0	0x3d181c44	0.03713633
1	0x3d5e195d	0.054223407
2	0xbdb7a34e	-0.08966695
3	0x3d0a9e47	0.03384235
4	0xbe84e45b	-0.2595547
5	0xbcf57532	-0.02996311
6	0x3c98a1b3	0.018631792
7	0xbd106eb2	-0.035261817
8	0xbe314cdd	-0.17314477
9	0x3d9992fc	0.07498738
10	0xbdadbc58	-0.08483189
11	0xbe2a1126	-0.16608104
12	0xbbe3e397	-0.006954621
13	0xbcd957dc	-0.026531152
14	0x3d74a5a6	0.059728287
15	0x3da82403	0.08209994
16	0xbda8a45b	-0.08234473
17	0xbca7f0c6	-0.020500552
18	0x3d826ce1	0.06368423
19	0xbc66effb	-0.014095302
20	0xbd89b1b5	-0.06723348
21	0xbd8ad479	-0.06778807
22	0x3b098ee0	0.00209897
23	0x3c97dd0f	0.018538026
24	0xbd1a524e	-0.037676148
25	0xbde7afce	-0.11312829
26	0x3dcfaf95	0.101409115
27	0x3cd16d65	0.025564859
28	0x3c15863f	0.009126245
29	0x3d8370cd	0.064179994
30	0x3d9e5086	0.077302024
31	0xbd3ab7e0	-0.045585513
32	0xbe44419a	-0.1916565
33	0xbc03f774	-0.008054603
34	0xbde6609f	-0.11248898
35	0x3ceed524	0.029154368
36	0x3b7d1c95	0.0038621773
37	0xbd3b452e	-0.04572027
38	0xbdcbbe55	-0.09948412
39	0xbe11d40c	-0.14241046
40	0xbd6ad430	-0.057331264
41	0xbe58f110	-0.21185708
42	0xbd9f3d68	-0.07775384
43	0x3d50ea94	0.05100496
44	0xbd3af8e0	-0.045647502
45	0x3d9f12a2	0.07767226
46	0xbbec9e82	-0.007221044
47	0x3d81fc67	0.0634697
48	0xbd98daa9	-0.07463581
49	0xbd61f5b8	-0.055165976
50	0x3d44a19b	0.04800568
51	0x3d6635d9	0.056203697
52	0x3e0c3a8f	0.13694213
53	0xbe5e6f9e	-0.21722266
54	0xbd81b744	-0.06333783
55	0x3c32d64b	0.010915349
56	0xbc5c4f49	-0.013446637
57	0xbd8175b3	-0.063212775
58	0x3ccecbc9	0.025243657
59	0x3c5014f5	0.012700309
60	0x3dec4a06	0.11537556
61	0x3dff8067	0.12475663
62	0xbaa4e196	-0.0012579437
63	0xbc783a55	-0.015150626
64	0xbd23fa43	-0.04003359
65	0x3d833cfa	0.06408115
66	0x3d900ced	0.070337154
67	0x3c5275b8	0.012845449
68	0x3dd3f7aa	0.103499725
69	0x3de0aa8c	0.10970029
70	0x3e815ffd	0.25268546
71	0x3e434f3e	0.19073197
72	0xbdc2ef3b	-0.09518286
73	0x3cae17e7	0.021251632
74	0xbca1737a	-0.019708384
75	0x3d00fdfe	0.031492226
76	0xbe81ef87	-0.25378057
77	0xbd0b5fed	-0.03402703
78	0xbe3a1472	-0.18171862
79	0x3c953296	0.018212598
80	0xbc8544d9	-0.01626818
81	0x3da2d4c6	0.079507396
82	0x3ad864e3	0.0016509559
83	0x39e847f0	0.00044304086
84	0x3b65cde2	0.0035065343
85	0x3d7b1ac0	0.061304808
86	0xbde9bab1	-0.11412562
87	0x3d327ccf	0.043576058
88	0xbbc040d7	-0.0058671045
89	0xbd5bb6a6	-0.053640984
90	0xbdd89586	-0.10575394
91	0xbda6d4e6	-0.08146076
92	0xbc2e139f	-0.010624795
93	0xbd66b77d	-0.05632733
94	0xbd9ef68a	-0.07761867
95	0xbd58ce4f	-0.052931126
96	0x3d967744	0.07346967
97	0x3e0ccd5b	0.13750212
98	0x3d50748c	0.050892398
99	0xbc2dfd77	-0.010619513
100	0xbe094673	-0.1340578
101	0xbe151c66	-0.14561614
102	0xbcb9b61b	-0.022669842
103	0xbe19290f	-0.14957069
104	0x3d04ec41	0.03245187
105	0xbe6de7cc	-0.23232955
106	0x3cbe3446	0.023218285
107	0xbde26881	-0.11055089
108	0x3d0fd4aa	0.03511492
109	0xbd2c58af	-0.042076763
110	0xbe2a0383	-0.16602902
111	0xbdf20d6b	-0.118189655
112	0x3dbcd819	0.09220905
113	0x3e03593c	0.12827009
114	0x3c8d1df2	0.017226193
115	0xbcda1e98	-0.026625916
116	0x3c9aa290	0.018876344
117	0xbcfdd7b4	-0.030986644
118	0xbd6f2507	-0.05838492
119	0xbc4161f7	-0.011803142
120	0xbdc21eac	-0.094785064
121	0xbc1d1a28	-0.009588756
122	0x3e095fe0	0.1341548
123	0xbd1ec37d	-0.03876065
124	0xbd4f8ee3	-0.050673377
125	0xbd6609b2	-0.05616159
126	0xbcb6935e	-0.022287067
127	0xbe32dc88	-0.17466938
128	0x3d48eb1a	0.049052335
129	0x3de1008e	0.10986434
130	0xbdd4b394	-0.10385814
131	0xbd9ee046	-0.077576205
132	0x3cc4463e	0.023959275
133	0xbd8871f5	-0.066623606
134	0x3b9fc18e	0.0048753684
135	0xbc881484	-0.016611345
136	0xbda016ae	-0.07816826
137	0xbc9ae186	-0.018906366
138	0x3c746562	0.01491675
139	0x3d625334	0.05525513
140	0x3e1f9c08	0.15586865
141	0xbde95f4c	-0.113951296
142	0x3d817dbb	0.06322809
143	0xbd93d759	-0.07218809
144	0x3ddf5fb1	0.109069236
145	0x3df610ed	0.12014947
146	0xbd304b38	-0.043040484
147	0x3c859e76	0.016310912
148	0xbe309f32	-0.17248228
149	0x3e2315e2	0.15926316
150	0x3db6133f	0.0889039
151	0x3ca2202c	0.019790731
152	0xbcad4fd7	-0.021156235
153	0xbd390ebd	-0.04518007
154	0x3d6f85dd	0.05847727
155	0x3dae55d4	0.08512464
156	0x3db2a35a	0.08722563
157	0x3e295f95	0.16540368
158	0xbc8da9b6	-0.017292839
159	0xbcd42866	-0.02589817
160	0x3d59893d	0.053109396
161	0xbddc8afa	-0.10768695
162	0x3e743e53	0.238519
163	0xbca819d5	-0.02052013
164	0x3d8b8687	0.068127684
165	0x3daf57ad	0.08561645
166	0x3c97a867	0.018512918
167	0xbdea5b7b	-0.1144323
168	0x3c55b2ae	0.013043089
169	0xbd1a8e7a	-0.037733532
170	0x3e021b53	0.12705736
171	0x3dc4a3b4	0.096015364
172	0x3e27a738	0.16372383
173	0xbe1bf2ee	-0.15229389
174	0xbdd33d96	-0.10314481
175	0x3be8a5b9	0.007099834
176	0x3d001f85	0.03128006
177	0x3e0846d0	0.13308263
178	0x3daac667	0.083386235
179	0x3daf644a	0.085640505
180	0x3b8af728	0.004240889
181	0x3c102718	0.008798383
182	0x3d9b77dd	0.075912215
183	0x3c053e8a	0.008132586
184	0xbd1fa539	-0.038975928
185	0xbcef6e2b	-0.029227337
186	0xbd41a0bf	-0.04727244
187	0x3dc41420	0.09574151
188	0xbe13fe37	-0.14452444
189	0xbe361bf2	-0.17784098
190	0xbc69e0da	-0.0142748
191	0x3d92b4b7	0.07163375
192	0x3d7ccb9d	0.06171762
193	0x3c70f468	0.0147067085
194	0x3db57849	0.08860833
195	0x3caded43	0.0212313
196	0xbe359a56	-0.17734656
197	0xbd59ea8b	-0.053202193
198	0x3d433ff9	0.04766843
199	0x3c9b27e3	0.018939918
200	0xbdf308b4	-0.11866894
201	0xbd84afad	-0.0647882
202	0x3cd328d1	0.025776299
203	0xbd83d7e3	-0.064376615
204	0xbce25bcc	-0.027631663
205	0xbdb09b70	-0.08623397
206	0xbe04c0e3	-0.12964205
207	0x3ba353eb	0.004984369
208	0xbbf06416	-0.00733615
209	0xbd47ddcb	-0.048795503
210	0xbc46ff1a	-0.012145782
211	0x3cdc91e2	0.026925031
212	0x3d8c8924	0.06862095
213	0x3c20d9bd	0.009817538
214	0x3df11a91	0.11772645
215	0xbd33cb7d	-0.043895233
216	0x3ca76740	0.020434976
217	0xbd042d12	-0.032269545
218	0xbe5f84a8	-0.21827948
219	0x3dd99360	0.10623813
220	0xbc4294d0	-0.0118763
221	0xbc95dd4b	-0.018293997
222	0x3c849908	0.016186252
223	0xbdd1080f	-0.10206615
224	0x3d0aea59	0.033914898
225	0x3bdb3151	0.0066892286
226	0xbce57f63	-0.028014844
227	0xbd9e4285	-0.07727531
228	0xbdef2b14	-0.116781384
229	0x3e4ae237	0.19812857
230	0x3d3a0779	0.045417283
231	0xbd83c1e7	-0.06433468
232	0x3c52e8e5	0.012872909
233	0xbe4abd26	-0.19798717
234	0x3db6d9fd	0.08928297
235	0x3d3079c0	0.04308486
236	0x3dbfcb54	0.09364954
237	0x3cdcfb4b	0.026975295
238	0x3cf172c0	0.029473662
239	0xbd54d201	-0.051958088
240	0x3dc63456	0.09677951
241	0xbddcd592	-0.10782923
242	0x3e00c9e8	0.12577021
243	0xbdbb6fcd	-0.09152184
244	0x3d9a4813	0.07533278
245	0x3d882f10	0.066496015
246	0xbd0fa2c9	-0.035067353
247	0x3d13aa5b	0.036051136
248	0xbc9e1bb2	-0.019300316
249	0x3d9822be	0.074285015
250	0xbddcf320	-0.1078856
251	0x3e083584	0.13301665
252	0x3cfb9fd7	0.030715866
253	0x3e055e18	0.13024175
254	0xbe0d6fb3	-0.13812141
255	0x3d538ff1	0.051650945
