results/fifth/Car/Car-6499995.onnx (onnx, 96598 bytes, 9 tensors)

53 f4 [52]
00000000: 1350 223e c051 223e 83a4 4d3a 71b7 4d3e
00000010: 4a0e 153e 7411 153e fc04 883a 49f3 4e3e
00000020: 4699 293e 5fa0 293e 3bea 653a 5da1 4e3e
00000030: 138f 0f3e 0592 0f3e fe68 913a b2d6 4f3e
00000040: 7f1b 373e ac21 373e 4f69 113a c185 4e3e
00000050: 8abf 133e c1c3 133e 04dc 7b3a bce3 513e
00000060: c518 4b3e ec1e 4b3e 80a4 4d3a f137 4d3e
00000070: d2d7 1d3e d7dc 1d3e e7db 7b3a e29a 563e
00000080: 465f 513e 6064 513e 5eea 653a 5ac6 4b3e
00000090: a621 393e b425 393e 6e17 323a 8ae8 5c3e
000000a0: 4968 553e 8d6d 553e 3717 323a b642 4a3e
000000b0: 14e3 6c3e 11e4 6c3e 7417 323a 8771 603e
000000c0: 21cc 603e bacf 603e 4f69 113a 7611 4a3e
0.15850858 0.15851498 0.00078446436 0.20089509 0.14556232 0.14557439 0.0010377462 0.20209993
0.16562375 0.16565083 0.000877056 0.20178743 0.14019422 0.14020546 0.0011093912 0.20296744
0.17881583 0.17883939 0.0005547003 0.2016821 0.14428535 0.14430143 0.0009607675 0.2049703
0.19833668 0.19836015 0.0007844642 0.20040871 0.1541436 0.15416275 0.0009607658 0.2095752
0.204465 0.20448446 0.000877058 0.19899884 0.18079242 0.18080789 0.00067936524 0.21573082
0.20840563 0.20842572 0.00067936204 0.1975201 0.23133498 0.23133875 0.0006793656 0.21918307
0.21952869 0.21954241 0.0005547003 0.19733223

54 f4 [1, 2]
00000000: 292b e7bf ef96 d5bf
-1.8060046 -1.6686686

distribution.mu.bias f4 [2]
00000000: 8895 9dbc 4e25 533e
-0.019236341 0.206197

distribution.mu.weight f4 [2, 128]
00000000: 88c9 e3bd def6 d6bc db91 80bd caa9 93bc
00000010: 164c afbd 9b74 4bbd 98f0 c43d 6614 3c3d
00000020: 0250 c53d 571a 0bbb 204e a3bd 4f7c ac3c
00000030: eef2 cfbc c728 ab3d 0375 663c 89da 093e
00000040: b6f6 163d b8a4 9fbc f609 ec3c 35b4 6e3c
00000050: f5c1 033d 7a74 633d b0c6 693d cf29 d43d
00000060: 2fc8 913c 6c60 dd3d 2033 7bbd 16c7 01bd
00000070: 1a9e 073d 4ab9 953d 814f d63c 189e bcbd
00000080: ef39 50bd 82ae 883d 1efe ab3d c75c a7bd
00000090: 2731 823d 343f 393d 0d15 283d f5ab a63c
000000a0: ebc6 9fbc 507a 863e b4f0 493d 130b b03d
000000b0: 6a4c bc3d e012 633c c941 2bbd 2d24 9f3c
000000c0: 682a 5f3c 888d 353d 0fbb 51be 1080 8f3b
000000d0: b378 aebd 1d08 ab3c 6d50 d73c 2bd3 e039
000000e0: 7187 00be cbc1 c3bc ecb9 a6bd 6eb8 db3b
000000f0: f88b 9cbd b52c 00be 03e5 14be 8499 523c
00000100: e55b abbd c5c1 a7bd 41fe 8dbc 3572 77bb
00000110: caa0 b53b 93fa cf3c b4c0 7d3d bcd7 513d
00000120: dd8d fc3d 404f 293d 1891 413c a1ac 13be
00000130: 8665 523e b9af 113d f892 703d e0b8 c43b
00000140: b4bc 963d 1409 d4bc cf3f 563d 92a5 b9bb
00000150: 5212 e73a 1722 313e 94d6 82bc 1373 023c
00000160: 79d3 7d3e 930d 863c f315 0b3d 639a 9cbc
00000170: a8ab c0bd 3229 5a3c 97aa 713d 6ac8 843d
00000180: 3e10 b9bc f335 363e a5d7 b1bd e601 1f3d
00000190: dae9 14bd be04 003d 5505 21bd 486d 16be
000001a0: 0e57 b13b f4d8 bc3d 29c0 52bd 5b66 483e
000001b0: eaa1 353c 1041 653d a080 f9b8 5892 8c3d
000001c0: e7ec 0cbd 0288 2a3b 6837 00bb d62f a5ba
000001d0: 5401 67bd fc6f b23c 8561 cd3c ace8 ad3d
000001e0: 214f 5abc 5c17 1b3d 0984 81bc 1c97 6b3d
000001f0: e844 aebc 78ce 9a3d 1f1a b2bc 450e 83bd
00000200: 1753 01bc 2276 853d 0095 91bd 37e2 c4bd
00000210: 6e55 a5bd c7cd cd3d 0b25 a1bc 2ce9 acbc
00000220: b9b5 f03d 10c6 3cbd 7a10 6abb b9b1 713d
00000230: cc43 d03d c45d a0bd d4e3 8c3d 504a 7d3e
00000240: d7c6 b3bc f828 a9bc 327d 02bc dabf 0e3d
00000250: 594e 2fbd c9b9 febc fc10 f03d 23b8 b13b
00000260: ff3e e63b ac4e 34bd 121b c5bd 612b 52be
00000270: 94fa fe3c c66d b0bd 9cfa 343d 2240 ddbc
00000280: 5d90 acbd 4b4e 073d 3693 c3bd e10c 813d
00000290: 3238 403d 4147 a93d 2d36 4bbd d438 8dbc
000002a0: 8c56 aabd 78c5 6b3e a779 92bc e4cb 4e3e
000002b0: 3a1c 243d 9b12 c83d 1c40 78bd 5eb3 b83c
000002c0: 0bd5 ecbc f300 d3bc 28d6 233d a131 2bbd
000002d0: 2791 d3bd 57f5 d23b e522 d83b 601f 983d
000002e0: a867 1cbe a146 c43d f5f9 50bd e1ed bc3c
000002f0: 3b93 acbb 8973 b9bc 075b 3dbc 7450 55bc
00000300: f5a6 49bd 3fa6 1ebd 80a9 173d 7910 01bd
00000310: 81b6 003a 40ee 8fbd c774 a93d 6428 313d
00000320: cd5d 93bc 5fe7 013d cf88 163d 6ded 59bd
00000330: 4017 6c3e 54e2 05bd a816 2c3d 1752 21bd
00000340: 9f7e 653d 4da7 c1bd 18d0 dd3d c71c 953c
00000350: d9aa 3fbd b346 dc3d c6f0 82bd 5665 513c
00000360: a415 5c3e 8837 093e 8266 85bd 17ba 0a3d
00000370: 6600 d4bd a183 3e3c 7d0e 38bd eb4b 2dbc
00000380: 01ba cd3d 2f43 663e c18a 1439 753a 403c
00000390: 17fc bdbd 8d01 0fbd 602c 0b3d 9413 80bd
000003a0: 15ad 183d a888 9ebd d53a 5cbe 8a9b a73d
000003b0: 2519 26bd cc35 29bc f562 ccbc 25df d6bd
000003c0: 3538 62bd 1266 7ebd 9737 953d db5d 89bd
000003d0: 91d9 0cbd ef01 f3bc 697a 16be 5e22 703d
000003e0: 456b b83d b030 643d cf8f ba3c 7a9b 37bd
000003f0: 0b2f 8f3b 3df9 13bc 83e4 653d 2a05 d6bd
-0.111224234 -0.026240762 -0.0627782 -0.018025298 -0.08559434 -0.04967175 0.09616202 0.04591789
0.09634401 -0.0021225417 -0.079738855 0.021055369 -0.025384393 0.08357387 0.014065984 0.13462271
0.036856376 -0.019487724 0.028813343 0.014569332 0.032167394 0.055531003 0.05707425 0.10359537
0.01779565 0.10809407 -0.061328053 -0.031684004 0.03310976 0.07310732 0.026160957 -0.092098415
-0.0508365 0.0667391 0.083980784 -0.08171993 0.06357031 0.04522629 0.0410357 0.020345667
-0.019504031 0.26265192 0.049301818 0.08595862 0.09194262 0.013859481 -0.041810784 0.01942643
0.01362095 0.044324428 -0.20481513 0.00437928 -0.08519115 0.020877892 0.026283467 0.00042881942
-0.12551667 -0.023896119 -0.081409305 0.0067053353 -0.076438844 -0.12517054 -0.14540486 0.012853984
-0.08367137 -0.081912555 -0.017333152 -0.0037757282 0.005542849 0.025388038 0.061951354 0.05123113
0.12331746 0.041335344 0.011814378 -0.14421321 0.2054654 0.035567973 0.05873391 0.006003484
0.07360211 -0.025883235 0.052306946 -0.0056654895 0.0017629361 0.1729816 -0.01597146 0.007962006
0.24787702 0.016363895 0.03395648 -0.019116586 -0.09407741 0.013315486 0.059000578 0.064835384
-0.022590753 0.17794017 -0.08683709 0.03882017 -0.03635583 0.031254523 -0.039311726 -0.14690125
0.005411989 0.09221068 -0.05145279 0.19570296 0.011085967 0.05597025 -0.000118972035 0.0686385
-0.034405615 0.0026021008 -0.0019564275 -0.0012602757 -0.05639775 0.021781914 0.025070915 0.08491644
-0.01332453 0.037864074 -0.01581003 0.057517156 -0.021273091 0.07558912 -0.021740971 -0.06399206
-0.007893345 0.06516673 -0.071084976 -0.096134596 -0.08072935 0.100490145 -0.019670984 -0.021107279
0.11753411 -0.046087325 -0.0035715387 0.05900738 0.10169181 -0.078303844 0.06879392 0.24735379
-0.0219454 -0.020649418 -0.007964419 0.034850933 -0.042799328 -0.031094449 0.117219895 0.005423562
0.0070265527 -0.04402034 -0.09624304 -0.2052436 0.031125344 -0.086146876 0.044184312 -0.02700812
-0.084259726 0.03303365 -0.09549563 0.063012846 0.046928592 0.08265544 -0.049612213 -0.017239012
-0.08317289 0.23024547 -0.017880274 0.20194966 0.04006598 0.09769174 -0.060608014 0.022546466
-0.02891018 -0.025757289 0.039999157 -0.041795377 -0.1033042 0.006437938 0.0065959566 0.07427859
-0.15273917 0.09583784 -0.051019628 0.023062648 -0.0052665747 -0.0226381 -0.011557347 -0.01301967
-0.04923149 -0.038732763 0.037026882 -0.03150985 0.00049100077 -0.070278645 0.08274227 0.04325141
-0.017989064 0.031714793 0.036751565 -0.053204942 0.23055744 -0.032686546 0.042013794 -0.039384928
0.05602896 -0.09455738 0.10830706 0.018202199 -0.046793792 0.10755672 -0.0639358 0.012780508
0.2149263 0.1340009 -0.065136924 0.033868875 -0.103516385 0.011628062 -0.044935692 -0.010577182
0.10045243 0.22486566 0.0001416607 0.011732687 -0.09276598 -0.03491359 0.033977866 -0.06253734
0.03727444 -0.07740909 -0.21506818 0.081839636 -0.040551323 -0.010327768 -0.02494953 -0.1049178
-0.055229384 -0.06210906 0.072859935 -0.06707355 -0.034387175 -0.029664008 -0.14695133 0.058626525
0.09004835 0.055710495 0.022773651 -0.04482601 0.0043696216 -0.009031591 0.05612613 -0.10450204

network_body.linear_encoder.seq_layers.0.bias f4 [128]
00000000: 6e6a 43bd 085b 82bd bc07 60be 9a9d 81bc
00000010: ba30 c5ba d6a0 40bd 4a56 5abe caed 2b3c
00000020: 5156 94bd eada 30be 8da2 f0bd 5192 023e
00000030: affd 6b3c 0196 773e 9c69 143d 99eb 743c
00000040: eaac 0ebe 337c 3cbe 145d a63a 95f1 1dbe
00000050: dd59 2abe 3304 0abd 9653 3ebd a9cc 76be
00000060: 63b9 0d3e 9d8b bd3d 421c 38be bcb0 9abd
00000070: b3d2 c5bc 2c07 3f3d 99d4 25be 5082 fa3d
00000080: 9f4e 48bd c244 d5bd 56a5 963c bb0a 373e
00000090: ded6 eabd a98f 41be 5e4d b73d 32db 0abe
000000a0: a483 33be 1d51 753e a362 26be 21d8 eebd
000000b0: 8499 32be e3d9 483e c6d1 9dbd 4902 c0bd
000000c0: 21f1 f2bd 703c 1abe 2153 743e b31d 583d
000000d0: ea52 793d 7aeb 15be 95ef 57bd e8f3 23bd
000000e0: 1fc2 bb3d faa4 803d b235 113d dbcd 17be
000000f0: 31af 773d 293b 193e e45a c2bd 7701 02be
00000100: 2c82 50bc fe10 55be 09f6 2fbe 4061 b53c
00000110: 9f3a 573d cc51 de3d e074 0cbe 5cab 4dbe
00000120: 1d85 4fbe 4e3e 56be 3a7d 4fbc e834 063e
00000130: fc04 48be 5ecb 053d 0db0 543e 6355 563e
00000140: 4ca2 3ebe c03f 36bc e1a3 503d 1a46 d4bd
00000150: bce6 83be 64b5 50be 5674 473e 6ea0 273e
00000160: b92d 03be 1bc6 e5bc cc15 2abe f908 813d
00000170: c5b0 923b e2f6 e33d cc25 993c 435a c33c
00000180: 7c3b 023e fe37 3bbe 2c78 f7bd a2fb 883c
00000190: 8a32 4dbe 0378 0dbe 8308 60be 7ca5 31be
000001a0: 202e 61be 8c8d 453e c77f 5abc 211d 7d3d
000001b0: e98e 923d c61e 5ebe 99c8 20be f3a9 0bbe
000001c0: 49cd 253e 5c97 0bbe 1207 293e 4a87 e3bd
000001d0: 75cb 393e aec1 8fbd ae27 02be ac1d 5fbe
000001e0: 3668 86be fe54 b73d 15f3 9d3d fec1 183e
000001f0: 0025 593e 0420 a23d 1878 b3bc 6397 173e
-0.04770892 -0.06365019 -0.2187795 -0.01582222 -0.0015044429 -0.047028385 -0.21321979 0.010493705
-0.07243026 -0.17271009 -0.11749754 0.12751128 0.014403745 0.24178316 0.03623353 0.014948749
-0.13933149 -0.18406753 0.0012692534 -0.15424187 -0.16635843 -0.03369541 -0.046466433 -0.24101509
0.1384025 0.09255145 -0.1797953 -0.07553241 -0.02414832 0.0466377 -0.16194381 0.122318864
-0.048903104 -0.10413505 0.018389385 0.17875187 -0.11466764 -0.18902458 0.089503035 -0.13560179
-0.17530686 0.23956724 -0.16248564 -0.11662317 -0.17441374 0.19614367 -0.07706027 -0.09375436
-0.11862398 -0.15062118 0.23859836 0.0527627 0.06087009 -0.14640608 -0.052718718 -0.04002753
0.09167885 0.06281467 0.0354516 -0.14824621 0.06046981 0.14963974 -0.09489992 -0.12695871
-0.012726348 -0.20807263 -0.17183699 0.022141099 0.05254614 0.10855445 -0.1371646 -0.200849
-0.20265622 -0.20922205 -0.012664134 0.1310612 -0.19533151 0.03266465 0.20770283 0.2093101
-0.18616599 -0.011123598 0.050937537 -0.10364933 -0.25761974 -0.20381695 0.19477972 0.16369793
-0.1281041 -0.028048566 -0.16609877 0.063005395 0.004476639 0.111310735 0.01869478 0.023846751
0.12718004 -0.18283078 -0.12083468 0.01672155 -0.2003881 -0.13815312 -0.21878247 -0.17348284
-0.21990252 0.19292277 -0.013336129 0.061795358 0.07156164 -0.21691427 -0.15701522 -0.13639049
0.16191591 -0.13631958 0.16506603 -0.11109789 0.18144019 -0.07019363 -0.12710449 -0.21788663
-0.26251382 0.08951758 0.0771238 0.14917752 0.2120552 0.07916263 -0.021907851 0.14803843

network_body.linear_encoder.seq_layers.0.weight f4 [128, 52]
00000000: e560 913d 19ca 4cbc b837 6fbd f8ff edbd
00000010: 449c 203e 7be8 b1bd ff06 453e d7be 1b3e
00000020: bfa6 8d3e bb63 65be 0250 2e3e 89f1 503e
00000030: 6a82 8a3d e36e 3d3d ca46 3e3c a580 2fbd
00000040: 6b75 9a3e 0b2e bdbd c23c bd3c c328 3b3e
00000050: 032a 2a3e 4059 59be 416b 8dbe 4802 3e3d
00000060: 294f 33be f285 2d3c 262f 3f3e 83e7 523d
00000070: ee60 063e 27bb 443d 9abe 0e3e b8d5 913d
00000080: 72a6 2c3d dabb b1bc 0d5f 78bd d31a 553d
00000090: 3de9 4cbe 4da6 383e 525f a8be 3fd2 103e
000000a0: 12a9 2f3e c34d acba 8b5e c8bd f80c 28be
000000b0: cc34 0cbe f812 c93c ce52 01be 8a01 6cbe
000000c0: f308 dd3d 3704 c5be 435c 01be b547 b7bb
000000d0: b6d6 cd3d 5016 21be c04c a53e 058a 8e3e
000000e0: 7c1d 8abe 7850 9d3c 2509 a6bb c5f3 18bd
000000f0: 4d48 6bbe a438 393e 294e 123e 4c35 9dbe
00000100: 0a54 d83d 4188 0e3b 1e4a a13d 73ab afbd
00000110: 1680 c6bd 0102 7ebd ed06 f7bd f6ed 94bc
00000120: d15b 29bd 75aa 31be d2f1 393e 329a 28be
00000130: b786 453d c99e a2bd fb6e 9abd c310 243e
00000140: adb4 c13d f8e2 96bc 4d75 4e3d 08c6 e7bd
00000150: 3adc c63d 8c7b 5fbd adee c8bd 43e0 d5bd
00000160: 8c6d c03e 33fa 2fbe a75a 713d ea96 51be
00000170: d474 21bc 11f4 edbd 01ee 34bd 9f86 fd3c
00000180: 796c 03be 9581 783e 2822 343d be18 dabe
00000190: 17a6 8dbe 757f b43d 9f25 483e 5d28 323e
000001a0: 1460 263e ffdc 84be 1a59 783e 4ad9 12be
000001b0: 36f6 a43c 5ee9 5abe da19 4b3e f6f5 33be
000001c0: 8831 003e 19aa d2bc 1563 b03d b5b4 8abd
000001d0: 61ea 253e 227a 4d3e efcc 853d 6213 92bb
000001e0: ae30 18be 144f 7fbc efd1 563e 9e79 95be
000001f0: adeb a3bd 1165 fabc 64b8 743e 434a 7bbd
00000200: b5c0 0cbc 3366 363d bbf4 313e 0595 42be
00000210: 2d25 453e e908 5bbd d60b 613e 2b27 213e
00000220: 06e5 353e 112c b2bd 2533 06be fdb0 a8bb
00000230: f136 32be 7be1 763e d0b1 b53e fc5e 3e3e
00000240: 93f3 1abe 17bb c4bd 3e53 043e db61 253e
00000250: 904f 3f3d 89ad 2dbe 4e5b a3bb 4a70 fc3d
00000260: ded5 2fbd d418 babe f3ce 803d 2f26 b0be
00000270: 6384 2fbd a366 57bd 7beb 273e f8fa 773e
00000280: cb4d 0cbd 5b3d 08bd beb3 65b9 dc0f 8b3e
00000290: d2f9 7ebd 80e9 333d a8b4 153d 418c 9cbd
000002a0: 0f8d f8bd 99b0 b93b be15 1c3d de43 223e
000002b0: 5d73 723c 6293 3f3e 714f 0cbe 3bb5 98be
000002c0: 13d7 b6be ac32 503d 7f1c 8eb8 81d6 75bd
000002d0: 605d 973e a402 04be 1979 e7bc 77a2 7ebe
000002e0: cbed 49bd 5447 063e 8f4b 143d f036 f53c
000002f0: cfcc e8bd 8302 86be b6cb 823d 7e48 a1be
00000300: 49e7 083e b1a6 903d d829 703c ec72 c8bd
00000310: 9483 c63e 8fca 2e3c a233 f5bd 78b3 84be
00000320: 1e51 1c3e a03c dd3c 1384 603d 1b01 d7bc
00000330: b883 42be 6b6d 0cbb 2a3e 90bc 4600 22be
00000340: 8b83 043d bd70 10be 2161 91be 8a12 8b3e
00000350: 47a9 ab3d bc3d 1b3e 74d2 013e d83e bdbd
00000360: fb37 49be 298d 203e 22ea 1dbe 0c9d 00bd
00000370: 0066 2fbe e52d 203e 0bf7 753e 1c39 f4bc
00000380: 2899 b1bc 402d 103d 24b0 78be 75e4 04be
00000390: 490f 653d 0ffa bd3d 44e8 b23c f55e 723d
000003a0: bd92 d43d 0b1d de3d d6ef 263d 25d9 19be
000003b0: f25e 89bd a5ee 343e 008e 953c f4a2 cf3c
000003c0: e61b 2a3e 3a03 8a3c 553b 733e 9cd2 19bf
000003d0: c887 53bd 66a6 9d3d b839 173e 08c3 2abd
000003e0: e989 2a3d aff4 15bb 915b 423e b857 58be
000003f0: 6982 83bd 3a4d 46be 09b7 853e 23ac 90be
0.07098559 -0.012499356 -0.058402747 -0.11621088 0.1568461 -0.0868692 0.1924095 0.15209518
0.2766628 -0.22401325 0.17022708 0.20404638 0.06763156 0.046248328 0.011613557 -0.042847294
0.30167708 -0.092372976 0.02310026 0.18277268 0.16617589 -0.21225452 -0.2762089 0.046388894
-0.17510666 0.010591017 0.1867033 0.051490318 0.13122913 0.048030045 0.13939896 0.07120842
0.042150922 -0.02169602 -0.060637522 0.052027535 -0.20010848 0.18032189 -0.32885224 0.14142703
0.17154339 -0.0013145733 -0.09783658 -0.16411197 -0.13692015 0.024545178 -0.12629244 -0.23047462
0.107927226 -0.38479778 -0.12632851 -0.005593265 0.100507185 -0.15731168 0.32285118 0.27839676
-0.2697562 0.01920341 -0.005067008 -0.03734185 -0.229768 0.18088013 0.14287628 -0.30704725
0.10562904 0.0021748694 0.07875465 -0.08577623 -0.09692399 -0.06201363 -0.12061868 -0.018179875
-0.04134733 -0.1735018 0.18158653 -0.16465071 0.048224177 -0.07940442 -0.07540699 0.16022019
0.09458289 -0.018418774 0.050404835 -0.11317068 0.09709974 -0.054561183 -0.09811149 -0.10443165
0.37583578 -0.17185287 0.058924343 -0.20467725 -0.009854514 -0.116188176 -0.04417229 0.030947981
-0.12834348 0.24268182 0.043977886 -0.42597002 -0.2766578 0.08813373 0.19545601 0.1739821
0.16247588 -0.25949857 0.2425274 -0.14340702 0.020136934 -0.21378085 0.1983408 -0.17574295
0.12518895 -0.025715875 0.086126484 -0.067727484 0.1620269 0.20066121 0.065332286 -0.004457877
-0.1486232 -0.015582819 0.20978521 -0.2919435 -0.08003936 -0.03056577 0.23898464 -0.06135012
-0.008590867 0.04453106 0.17378514 -0.19002159 0.19252463 -0.053475294 0.21977171 0.15737598
0.17763147 -0.08699811 -0.13105448 -0.005148052 -0.17403771 0.24109451 0.35487223 0.18590921
-0.15131979 -0.09605997 0.1292238 0.1615061 0.046706736 -0.1696073 -0.0049852496 0.12326105
-0.04292857 -0.36347067 0.062894724 -0.34404132 -0.042850863 -0.052588116 0.16398422 0.2421683
-0.034253877 -0.033261638 -0.00021906101 0.27160537 -0.062249966 0.043923855 0.03654924 -0.07643939
-0.1213628 0.005666804 0.038106672 0.15846202 0.014798013 0.18708566 -0.1370218 -0.29825768
-0.35710964 0.050829574 -6.7763955e-05 -0.06001902 0.29563427 -0.12891632 -0.028255986 -0.24866663
-0.049299043 0.13113147 0.03620487 0.029933423 -0.11367189 -0.2617379 0.06386511 -0.3150062
0.13369478 0.07063044 0.014658414 -0.097875446 0.3877226 0.010668411 -0.11972739 -0.25918174
0.15265319 0.027006447 0.054813456 -0.026245644 -0.18995559 -0.0021427523 -0.017607767 -0.15820417
0.03235201 -0.14105506 -0.28394416 0.27162582 0.083818965 0.15160269 0.12677938 -0.09240502
-0.19650261 0.15678848 -0.15421346 -0.03139977 -0.17128754 0.15642507 0.2402002 -0.029812388
-0.021679476 0.035199404 -0.24285942 -0.12977774 0.05592278 0.092762105 0.021839269 0.05917259
0.103795506 0.10845383 0.04075607 -0.1502424 -0.067075625 0.1766916 0.018256187 0.025346257
0.16612205 0.016847242 0.23753102 -0.6008699 -0.051643163 0.076977536 0.14768112 -0.041689903
0.041635428 -0.0022881438 0.18980242 -0.21127212 -0.06421358 -0.19365397 0.26116207 -0.2825633

network_body.linear_encoder.seq_layers.2.bias f4 [128]
00000000: 2776 debc 942e 363e a773 55bc 0f70 36be
00000010: 3a7d 273e 4314 2b3e af74 42bd 402c 32be
00000020: f0f8 0f3e 33db 6a3d d3df 40be 95e2 ed3d
00000030: c15f 133e 7d26 833d 8923 e03d d25f 423e
00000040: 5a6f bdbc 7090 46be eabb 903d 2e48 913d
00000050: c4d8 30bd 457e ecbd d6e1 393e b7f9 b9bc
00000060: 47fa 76be f14d 5cbe efb8 e23d 3ebb 54be
00000070: 13cf a03d 03b2 32be 9323 313d d47e 6a3d
00000080: aae8 053e cc2a 9b3d 4ec8 87be 536e c03d
00000090: c51e aebc 9801 143e 4150 62be 725b a0bc
000000a0: d64b 6ebe 91db 1d3e 5bbe 9cbd 4e8b 483e
000000b0: 2ae4 073e c558 f33d ec4b 5abe 0b1e a33d
000000c0: 4c7c fcbd b117 46be b168 fe3c db71 f3bd
000000d0: 5125 f4bd f8e3 f83d 442e a13c 4ccd 2a3e
000000e0: f1d1 02be 058c 1f3e 5e11 ee3d ac3a ddbd
000000f0: cce3 2b3d b0f1 2dbe a000 1cbe b951 c43c
00000100: 2abd 0abe 8fa6 cdbd 6333 7e3d b8ba 30be
00000110: 2faa d7bd 558b 4fbe 5a06 ea3a c273 883d
00000120: 1955 593c 6190 343d afb1 143e 1e1c c83d
00000130: 440d 4d3e d6a5 2bbe 1f23 9a3d 1319 59be
00000140: 8c5e af3d e6b5 3fbe 511c 9d3d 3f20 f3bd
00000150: ba57 4ebe 85db bc3d 5184 5ebe 51bf a53d
00000160: 273f 293e 0a4c 243e 510b 5cbe 02e8 2dbd
00000170: 5497 59be df16 043d b148 c1bd a8d6 a83d
00000180: bc83 1bbe 3f5d 6c3e 1586 e8bd 974b 5cbd
00000190: 8eb0 643d 70fc 6dbd f154 abbd a09b 793d
000001a0: 1f6c f23d 5c71 d1bd 0ff7 0cbe 7058 f43d
000001b0: d8b7 6fbe c8d6 80bc ddf3 30be 5141 38be
000001c0: 9c23 64be 6f1d 1bbe 5770 cb3d d66f 50be
000001d0: 503d 07be 9d13 bd3c 3b50 2fbe 36d3 893d
000001e0: ade7 8b3c 87eb b33c 2336 9e3d bcdc 22be
000001f0: ccbc 913d 0b8b 2dbe 125a b93d 2a17 58be
-0.027155949 0.17791206 -0.013028062 -0.17816184 0.16356364 0.16706948 -0.04747456 -0.17399693
0.14059806 0.05733795 -0.18835382 0.11615483 0.14391996 0.064038254 0.10944278 0.18981865
-0.023124386 -0.19391036 0.07067092 0.07093845 -0.043175474 -0.115475215 0.18152556 -0.022702081
-0.2411891 -0.21514107 0.110704295 -0.20774552 0.07851996 -0.17450719 0.043246817 0.05724986
0.13077036 0.07576522 -0.26520008 0.09396043 -0.021254906 0.14453733 -0.22100927 -0.019574855
-0.23271117 0.15415789 -0.07653495 0.1958439 0.13270631 0.11882166 -0.21318024 0.079647146
-0.12328395 -0.19344975 0.03105578 -0.118869506 -0.1192118 0.121528566 0.019675381 0.16679877
-0.12775399 0.15580757 0.11624406 -0.108022064 0.04196529 -0.16986728 -0.15234613 0.02396475
-0.13548723 -0.10041534 0.062060725 -0.17258728 -0.10530507 -0.20267995 0.0017854676 0.06662704
0.013264918 0.044083003 0.14520906 0.09770988 0.20024592 -0.1676248 0.0752623 -0.21200971
0.08562955 -0.18721732 0.076714166 -0.11871385 -0.20150653 0.092215575 -0.21730162 0.08093131
0.16527997 0.16044632 -0.21488692 -0.042457588 -0.21249133 0.032248374 -0.09437693 0.082440674
-0.15186971 0.23082446 -0.11353699 -0.053783026 0.05583244 -0.05810207 -0.08365811 0.06093943
0.11837029 -0.102267 -0.1376612 0.119309306 -0.23409975 -0.015727416 -0.17280526 -0.17993666
-0.22279209 -0.15147947 0.099335365 -0.20355162 -0.13206983 0.023080641 -0.17120449 0.067297384
0.017078245 0.021962894 0.077251695 -0.15904516 0.07116088 -0.16947572 0.09050383 -0.21102586

network_body.linear_encoder.seq_layers.2.weight f4 [128, 128]
00000000: a616 6dbd 43f6 be3d 3e7f 40bd a185 0fbe
00000010: bddf 2abe f3ec 883d 4e04 42be 60d7 b3bd
00000020: e18c a1bb edfd 61be 06fa 44be 3b6e 2f3e
00000030: 82fd f6bd ca2e 2f3e aea8 133e daac 7dbe
00000040: 36b2 c0bd ec3c 7a3d 9882 38be 81c8 443d
00000050: 1e3c f2bd bbf6 863d 45df 3d3d 4e3f 943c
00000060: 4c65 cabd 521a 4cbd bfbd c23c e518 c23d
00000070: 78ed 2cbe e561 17be 0e46 f93d 8cf7 123e
00000080: e761 cbbd 1b4b 19be dd7f 793c b9cf 733d
00000090: 7afa fd39 adef 9a3c 2353 49bc cd82 a9bc
000000a0: e1fc 043d b32c 8f3e e008 03be 1602 eebb
000000b0: 0433 8bbd c6bc c63d 84b3 fdbd 10c4 d7bd
000000c0: d32c a1bd 151b 303d 61d4 8c3d a3b5 033d
000000d0: db45 863e 6453 2b3e 1ab7 c6bd 9eaf 54be
000000e0: c321 9e3e db8c 133e 0035 29be 3854 bbbc
000000f0: e088 40be 0933 3f3e 36b8 4b3e ab71 553d
00000100: c2cb a8bc 0ae8 ffbc 70d6 88bd da64 023e
00000110: 2771 49bd 6ec7 91bc 6228 21be c653 06be
00000120: 4700 09be c0ba 6cbe 9823 cfbd 0014 85bd
00000130: e090 dbbd 9aa6 fabd 49cc 683d d3d8 41bc
00000140: 0853 b1bc 69ff 4d3c fc7d 1cbd eb1a 613d
00000150: 0ade f53c 3bbe 93bb 16e6 73be 9dd0 bfbe
00000160: a371 64be 1ce0 19be 41e5 0c3e baed 1dbe
00000170: 4f2f 8dbd be57 c6bd a103 743e 30bd afbd
00000180: 4581 c83d 47e3 0ebe 218f 633e 8dad 42be
00000190: e040 abbc d5a8 1ebd 3265 663d b705 ddbb
000001a0: 4f0a 583d aeb7 bfbb 21b4 77be 5ceb 8cbd
000001b0: e5d1 1abe 728f ad3d fd13 ba3d 3a02 34bd
000001c0: 595e 8dbd b72d 0d3e 82cf 03be dcf8 01bd
000001d0: 96ce e9bb 710f e0bd 51a8 c33c 06a0 263e
000001e0: 9460 a13d 9445 64be c33c bfbd 7657 073d
000001f0: 4d6d 2ebe 7ea2 01be 2903 1abd 2d16 243d
00000200: 4501 8dbc 018b 103c 48ac f63d a7bb c53c
00000210: 23bf 93bd 3d00 1b3e 09e6 003d ff9b f43b
00000220: c918 853b 1596 173e 7ff5 65bd 0047 193c
00000230: 5829 57bd 3f53 9a3d e827 113d c4cb 263e
00000240: ef0a 1fbd 6b4e 4cbe fbaf 3dbe fcae bfbd
00000250: 9f36 d6bb bb97 82bd 0ecc d93d 0dc4 9dbd
00000260: ef26 623c 2d9e 303d 921f 0bbe 4be1 d63b
00000270: 498e 5ebd 86de fd3d 9039 51bd 3df1 f9bd
00000280: 6ef3 673c e15f e8bd 89fd 733d 554b 223e
00000290: ea8a 25be bae7 6a3d d962 53bd 9f00 62be
000002a0: 94d2 fc3c f692 a0bd 219e b5bd e98f a43d
000002b0: c6d6 da3c 3001 143e 5e23 4bbe cf0d 39be
000002c0: b346 a43c 8bea 71bd 00e3 243e 179c f9bd
000002d0: ab8a c83d 7646 9ebd 506c 3cbd 059c babd
000002e0: 901f 433c 4712 753e db0c c7bd 02c2 593c
000002f0: 7ed7 21b8 c25d a43b 0af9 7f3e 5f11 383c
00000300: 240d 273e d06e 8abd e7ae 9e3d a5c0 343d
00000310: 4096 c03d 7300 54bd fabd 3bbe c769 813d
00000320: ab61 473d e6c2 a8bd 1eec 0ebb cc3d 1fbe
00000330: 56a8 acbd 90c4 1a3e e678 873c a7df 843c
00000340: b0fe cf3d 8810 b1bd 0804 ec3d c587 9a3d
00000350: ee0f 9ebd e028 683d 29d8 573d b300 c2bd
00000360: 6319 e1bd b481 c23b fba1 debb 9873 883d
00000370: c8eb 05be adc1 e1bc e58f a4be 714f 2bbe
00000380: c6bb 763c 7b1c 50bb 88ea 943c cb20 07bc
00000390: e0c8 523c 2895 fb3d a9c9 b4bd b166 0abd
000003a0: 673b 753d e9d7 0c3e 9a95 7fbd e75b 1bbd
000003b0: b5c9 993d 6693 d13c f962 67bd 7879 1cbe
000003c0: 0a38 24bd dbf5 b7bc 252f af3d cb24 78bd
000003d0: 1f45 0f3e ec91 ff3c a9b6 f93c 3037 54bd
000003e0: 106f 4dbe 2eb4 aabd 63d2 79be c8be 31be
000003f0: 9099 2fbd 54b0 8d3d 853d 8cbd 13ba 843d
-0.057882927 0.093243144 -0.046996348 -0.14015819 -0.16686912 0.066858195 -0.18946955 -0.08781314
-0.004930124 -0.22069521 -0.19236001 0.17131893 -0.120600715 0.17107692 0.14419815 -0.24772969
-0.09408991 0.061093256 -0.18018568 0.048042778 -0.11827873 0.06590029 0.046355505 0.018096592
-0.09882602 -0.04982979 0.023772119 0.094774045 -0.16887462 -0.14783438 0.12171565 0.14352244
-0.09930783 -0.14970057 0.015228239 0.05952427 0.0004844254 0.018913114 -0.012287888 -0.020692253
0.032467727 0.2796379 -0.12796354 -0.0072634323 -0.0679684 0.097039744 -0.123877555 -0.10535443
-0.07869878 0.042994577 0.068764456 0.032155644 0.2622517 0.1673103 -0.097028926 -0.20770118
0.30885133 0.14409201 -0.16524124 -0.022867307 -0.18802214 0.18671812 0.1989449 0.052110355
-0.020604972 -0.031238575 -0.06681526 0.12733784 -0.049180176 -0.01779529 -0.15738061 -0.13117895
-0.13379012 -0.23118114 -0.10114211 -0.06497955 -0.10720992 -0.12238808 0.056835447 -0.01183148
-0.021646038 0.012573102 -0.038206086 0.05495731 0.030013103 -0.004508761 -0.2381824 -0.37463847
-0.22308974 -0.15026897 0.13759328 -0.15422717 -0.06893789 -0.09684704 0.2382951 -0.085810065
0.09790281 -0.13953887 0.22222568 -0.19011517 -0.020904958 -0.03873523 0.05624885 -0.006745066
0.052744206 -0.0058507537 -0.24189807 -0.06880829 -0.15119131 0.08474626 0.09085844 -0.043947436
-0.06902761 0.1378697 -0.12872127 -0.03173147 -0.0071352227 -0.10940445 0.02388397 0.16271982
0.07879749 -0.22292167 -0.09337761 0.033042394 -0.17033882 -0.12659642 -0.03760067 0.04006021
-0.01721252 0.008822204 0.12044579 0.024137331 -0.07214191 0.1513681 0.03146938 0.0074648852
0.0040617925 0.14803346 -0.056142326 0.009355307 -0.052529663 0.07535409 0.03543845 0.16288668
-0.038828786 -0.19951789 -0.18524162 -0.093595475 -0.006537273 -0.063765965 0.106346235 -0.07703409
0.013803228 0.0431196 -0.13586262 0.0065576187 -0.054334912 0.123959586 -0.051080287 -0.12204216
0.014157159 -0.113464125 0.05956796 0.1584905 -0.16166273 0.057349898 -0.05160794 -0.2207055
0.03086213 -0.078405306 -0.08868051 0.08035261 0.02671374 0.14453578 -0.1983771 -0.18071674
0.020053243 -0.05906157 0.16102219 -0.12187975 0.09792074 -0.07728283 -0.046001732 -0.091117896
0.011909381 0.23932754 -0.09719249 0.013290884 -3.8586084e-05 0.0050160596 0.24997345 0.01123461
0.16313607 -0.06759417 0.07748204 0.044129033 0.09403658 -0.05175824 -0.18334189 0.063190036
0.048677128 -0.08240299 -0.0021808217 -0.15550917 -0.08430545 0.15114045 0.016537141 0.016219927
0.10156 -0.08645731 0.115242064 0.07545427 -0.07717882 0.056679606 0.05269638 -0.094727896
-0.1099117 0.005935872 -0.006794212 0.06662673 -0.13078225 -0.027558172 -0.32141033 -0.16729523
0.015059417 -0.0031755257 0.01817824 -0.008247565 0.012865275 0.12284309 -0.08827526 -0.03378934
0.059871104 0.13754238 -0.06239853 -0.03792944 0.07509176 0.02558298 -0.056490872 -0.15280712
-0.040092506 -0.0224561 0.08553914 -0.060581964 0.13991211 0.03119751 0.030482607 -0.051810443
-0.20061898 -0.08335148 -0.24396662 -0.17357934 -0.042871058 0.069183975 -0.068476714 0.06480803

network_body.vector_processors.0.normalizer.running_mean f4 [52]
00000000: 8354 d33c 7a7a 793f 9ac8 f734 3b55 953e
00000010: 6a6f b13c b58c 7a3f d0c7 7735 b94f 963e
00000020: 263f e73c fed4 783f 0031 2535 6c4f 953e
00000030: 7759 a43c 00ed 7a3f 5d88 9035 815f 973e
00000040: 296a 073d f893 773f 8931 2534 41fa 943e
00000050: 7a47 ae3c b7a0 7a3f 297e 4e35 3cc2 983e
00000060: e4fe 273d a683 753f f0c7 f734 1250 943e
00000070: 5394 c73c 8fd7 793f d77e 4e35 1004 9b3e
00000080: 890e 333d eecd 743f a930 2535 37be 933e
00000090: 0c87 0a3d 0b57 773f 0332 a534 f47f 9d3e
000000a0: bf5f 3a3d 4357 743f 0632 a534 94f1 923e
000000b0: cf64 683d 8877 713f 0132 a534 e90c 9e3e
000000c0: ccf2 4f3d 61fe 723f 8931 2534 cc62 923e
0.025797134 0.9745251 4.6153292e-07 0.29166588 0.021659572 0.9787095 9.2305436e-07 0.293577
0.028228354 0.972 6.1538594e-07 0.29162157 0.020062191 0.98017883 1.0768523e-06 0.2956505
0.033060227 0.9671016 1.5384843e-07 0.2909718 0.021274317 0.9790148 7.692457e-07 0.2983569
0.041014567 0.95904005 4.615281e-07 0.2896734 0.024362719 0.9759454 7.6925556e-07 0.30276537
0.043715034 0.95626724 6.15381e-07 0.2885606 0.033820197 0.9661719 3.0770033e-07 0.30761683
0.045501467 0.9544565 3.0770042e-07 0.28699934 0.056736764 0.94323015 3.0770028e-07 0.30869225
0.05076866 0.949194 1.5384843e-07 0.28591
