results/fifth/Car/Car-5999991.onnx (onnx, 96598 bytes, 9 tensors)

53 f4 [52]
000000 3a 98 21 3e 00 9c 21 3e 2a 0a 56 3a 44 95 4d 3e
       0.15780726 0.15782166 0.0008164967 0.20076472
000010 4b 65 14 3e 1e 68 14 3e d7 92 8d 3a 47 e5 4e 3e
       0.14491765 0.14492843 0.0010801208 0.2020465
000020 80 08 28 3e 8e 11 28 3e 9c 4d 6f 3a 25 55 4e 3e
       0.16409492 0.16412947 0.0009128691 0.20149668
000030 8c 7d 0e 3e 6c 81 0e 3e 03 59 97 3a 91 17 50 3e
       0.1391508 0.13916558 0.0011546913 0.2032149
000040 f7 61 32 3e f1 67 32 3e 58 59 17 3a ea 49 4e 3e
       0.17420183 0.17422463 0.0005773506 0.20145383
000050 97 73 12 3e 62 78 12 3e 65 12 83 3a 37 39 52 3e
       0.14301907 0.14303735 0.0009999989 0.20529638
000060 1c 55 43 3e a8 5b 43 3e 27 0a 56 3a 41 05 4d 3e
       0.19075435 0.19077933 0.0008164965 0.20021535
000070 b4 f5 1b 3e 7d fa 1b 3e 56 12 83 3a 4a c0 56 3e
       0.15230447 0.15232272 0.0009999971 0.2097179
000080 bd 23 48 3e 70 29 48 3e c0 4d 6f 3a bb 98 4b 3e
       0.19544883 0.19547057 0.0009128712 0.19882481
000090 99 1f 35 3e f0 23 35 3e 16 5d 39 3a 5e bb 5c 3e
       0.17687835 0.1768949 0.0007071061 0.2155585
0000a0 72 37 4d 3e 1c 3d 4d 3e dc 5c 39 3a 3b 18 4a 3e
       0.20040682 0.20042843 0.0007071027 0.19735806
0000b0 be e6 65 3e f7 e7 65 3e 1c 5d 39 3a 36 f2 5f 3e
       0.22451302 0.22451769 0.00070710643 0.2186974
0000c0 f5 c3 59 3e e0 c7 59 3e 58 59 17 3a 7f 17 4a 3e
       0.21266158 0.21267653 0.0005773506 0.19735526

54 f4 [1, 2]
000000 6f ea db bf 7c 53 d1 bf
       -1.7180918 -1.6353602

distribution.mu.bias f4 [2]
000000 78 40 7f bc ed 32 52 3e
       -0.015579335 0.20527239

distribution.mu.weight f4 [2, 128]
000000 5b 22 e2 bd 33 c7 dd bc b3 87 90 bd 89 e5 59 bc
       -0.11041709 -0.027072525 -0.070571326 -0.013299354
000010 50 bd b1 bd 5f 56 51 bd b0 17 c5 3d b2 b6 22 3d
       -0.086786866 -0.05110776 0.09623659 0.039725013
000020 42 8e cd 3d af 94 93 3c d9 b4 a6 bd 43 25 c6 3c
       0.10036899 0.018015234 -0.08139963 0.02418769
000030 51 80 c9 bc de 3d a3 3d 4f 52 70 3c 43 52 0d 3e
       -0.024597319 0.079707846 0.014668061 0.13800912
000040 e3 45 19 3d 82 20 91 bc 6b 4d 1d 3d 67 cf 7c 3c
       0.037420165 -0.017715696 0.03840391 0.015430308
000050 bd 1b f8 3c 56 cd 4f 3d a3 22 5d 3d 51 fc d2 3d
       0.030286664 0.050732933 0.05398811 0.10302032
000060 a5 78 50 3c f3 1d ca 3d ca 9f 8b bd b5 b8 a8 bc
       0.012724076 0.098689936 -0.06817587 -0.020595888
000070 a1 d2 04 3d a8 bc 7a 3d 7d b6 c4 3c 68 3b c7 bd
       0.032427434 0.061215073 0.024012798 -0.09728128
000080 a4 eb 56 bd 70 58 59 3d f9 41 a9 3d 3a 06 ad bd
       -0.05247082 0.053062856 0.082645364 -0.08448453
000090 4d b3 50 3d 12 97 2b 3d 86 6e 26 3d 15 85 84 3c
       0.050952245 0.04189212 0.040632747 0.01617674
0000a0 72 41 a1 bc a1 e5 81 3e 7c 8e 30 3d 93 2c a5 3d
       -0.019684527 0.25370505 0.043104634 0.080651425
0000b0 c9 b6 b0 3d e5 f9 0a 3c e3 df 22 bd 0a 50 cb 3b
       0.086286135 0.008482431 -0.039764296 0.0062046098
0000c0 da e7 ac 3c 64 1f 1a 3d 61 51 52 be 37 ed b4 ba
       0.02110665 0.037627593 -0.20538856 -0.0013803606
0000d0 13 78 ae bd cf 14 64 3c 7e d3 b1 3c eb 56 9e 3b
       -0.08518996 0.013920977 0.021707293 0.004832139
0000e0 c8 d7 e4 bd 9e f4 c8 bc 09 c4 a6 bd e4 5d a0 bb
       -0.111739695 -0.024530705 -0.081428595 -0.004894005
0000f0 3f dd aa bd bd f4 04 be 69 de 13 be 2c 17 8a 3c
       -0.083429806 -0.12983985 -0.14440311 0.016856752
000100 00 06 9e bd f0 b0 a5 bd 00 a6 88 bc ca c1 d0 bb
       -0.07715988 -0.08090389 -0.016680717 -0.0063707577
000110 f1 f7 e3 3b f9 3b f0 3c a9 3c 5f 3d ec 1e 3c 3d
       0.006957047 0.029325472 0.05450121 0.045927927
000120 b3 df f8 3d 86 9b 06 3d 3a 1e 88 3c c4 1c 18 be
       0.12152042 0.032863162 0.016615976 -0.14854723
000130 b1 14 51 3e d6 65 39 3d 02 f2 69 3d e4 a2 ef 3b
       0.2041805 0.045263134 0.057115562 0.0073131192
000140 69 22 86 3d 07 7c 8d bc 81 72 2a 3d d9 f3 24 bb
       0.06549532 -0.017271055 0.041613106 -0.0025169759
000150 f3 e4 89 3b 20 7b 29 3e 91 1e 87 bc 8d b6 5a 3a
       0.004208201 0.16550875 -0.016494067 0.0008343242
000160 29 51 71 3e 17 a1 d7 3c 0d 0a 3c 3d 0f 5a ad bc
       0.23566116 0.02632193 0.045908023 -0.021161107
000170 bd af b7 bd 25 a7 47 3c c0 9e 82 3d 69 56 5a 3d
       -0.08969066 0.012185846 0.063779354 0.053305063
000180 f3 e2 7a bc 0f ed 35 3e f4 ec bd bd 39 37 00 3d
       -0.015312898 0.17766212 -0.09273711 0.031302664
000190 e5 d3 db bc d0 de 12 3d 53 d7 49 bd 46 a2 16 be
       -0.026834438 0.03585702 -0.049277615 -0.1471034
0001a0 1c 8d 12 3c a3 31 be 3d bb 2c 37 bd a3 de 3e 3e
       0.008944776 0.09286811 -0.044720393 0.18639617
0001b0 46 7f ba 3b 00 13 87 3d 73 7d 64 3b 42 70 88 3d
       0.0056914417 0.06595421 0.0034864813 0.066620365
0001c0 22 8b e7 bc e2 c6 de b9 ab 0d 06 3b 00 d7 2c 3c
       -0.028264586 -0.0004249132 0.0020454924 0.010549307
0001d0 ea 1f 83 bd 9c 49 90 3c 31 a6 af 3c 86 64 9d 3d
       -0.064025715 0.017613225 0.02144155 0.07685189
0001e0 29 28 19 bc 5a 0b b5 3c ad 98 9e bb 76 da 51 3d
       -0.009347954 0.02210014 -0.0048399777 0.05123373
0001f0 87 f7 e3 bc 9d e2 93 3d e8 08 aa bc 07 eb 71 bd
       -0.027827991 0.072209574 -0.0207562 -0.05906203
000200 46 1a 64 bb b9 c4 88 3d 9e 2e a1 bd 37 c3 d8 bd
       -0.00348057 0.06678147 -0.0787022 -0.10584109
000210 fa ac 94 bd 74 f1 c2 3d 37 7b d3 bc 4d dc f0 bc
       -0.07259555 0.0951871 -0.02581559 -0.029401923
000220 f3 72 ed 3d e8 60 03 bd c3 f8 9c bc c1 ba 7d 3d
       0.115941904 -0.03207484 -0.019161588 0.06194568
000230 dc 5c cd 3d 00 87 9b bd cc fd 8f 3d e0 0b 78 3e
       0.10027477 -0.075941086 0.0703083 0.2422328
000240 c3 0f ff bc 41 c0 aa bc 75 f0 72 bc 63 d2 13 3d
       -0.031135445 -0.020843627 -0.014827837 0.036089312
000250 64 0c 26 bd 95 53 14 bd 20 d9 e9 3d 8f 10 09 3b
       -0.04053916 -0.036212523 0.114183664 0.002091441
000260 58 ad 19 3b 9d d2 1f bd 0f 47 b1 bd 6d 47 47 be
       0.0023449268 -0.039019216 -0.086561315 -0.1946084
000270 32 95 ff 3c cf 7c a6 bd ff 81 f7 3c 42 84 c2 bc
       0.031199072 -0.08129274 0.030213354 -0.023744706
000280 09 e9 8e bd 34 4f 02 3d df 92 c8 bd 33 34 78 3d
       -0.06978042 0.031813815 -0.097936384 0.060596656
000290 e2 42 5c 3d fc 0b a7 3d c3 12 5d bd 8c d2 8f bc
       0.053774722 0.08156583 -0.05397297 -0.017556451
0002a0 42 a0 ba bd 40 b2 62 3e a6 b4 5a bc da 15 4a 3e
       -0.09112598 0.2213831 -0.013348734 0.19734898
0002b0 de 6b 0f 3d 16 f9 dc 3d c1 eb 8e bd 48 0d bf 3c
       0.03501498 0.10789697 -0.0697856 0.023321763
0002c0 ee c8 a5 bc 6b e5 b7 bc 6c da 0b 3d 3d be f9 bc
       -0.020237412 -0.022448262 0.03414385 -0.03048622
0002d0 63 f8 ce bd 42 a4 2a ba 71 9d 6f 3b 8c 74 9b 3d
       -0.1010597 -0.00065094617 0.0036562348 0.07590589
0002e0 e9 21 18 be 7d 3a c2 3d a5 c1 10 bd 34 8f af 3c
       -0.14856686 0.09483812 -0.035340924 0.02143059
0002f0 b4 24 25 bb f6 d2 c6 bc 76 f1 23 bc cc dc 66 bc
       -0.0025198879 -0.024270516 -0.010006299 -0.014090728
000300 a3 53 64 bd dc e4 05 bd ed 97 0b 3d 77 b4 d0 bc
       -0.055743825 -0.03268896 0.034080435 -0.025476677
000310 92 79 3a 3b 88 e5 8c bd c7 8d b1 3d 3f d6 24 3d
       0.002845381 -0.06879717 0.0866962 0.040243383
000320 49 3f b0 bc f2 d9 e7 3c 5b 6c 1f 3d aa 5d 2a bd
       -0.021514552 0.028302167 0.038921695 -0.04159323
000330 44 ba 69 3e 98 15 1d bd 80 8d 2a 3d f8 9a 3b bd
       0.22824961 -0.03835067 0.04163885 -0.045802087
000340 1b 78 5c 3d 0b f1 b1 bd 27 2a e1 3d 62 fc 6c 3c
       0.05382548 -0.086885534 0.10994368 0.01446447
000350 7d e9 55 bd d0 5c f1 3d 1a fc 9b bd a0 8f 26 3c
       -0.052224625 0.11785281 -0.07616444 0.010166079
000360 8a 0f 57 3e f4 c4 02 3e 4c be 75 bd e2 59 b8 3c
       0.21002021 0.12770444 -0.059995934 0.022503797
000370 a2 f7 df bd c4 90 ae 3c 0e 35 57 bd 9c 69 ac bb
       -0.10935904 0.021309264 -0.05254083 -0.005261613
000380 2b 93 ca 3d c0 45 66 3e c4 ab e8 b9 4a 51 31 3c
       0.09891351 0.22487545 -0.00044378464 0.0108226035
000390 f1 2c 96 bd 98 e5 14 bd af 9e 09 3d 27 ec 6b bd
       -0.07332791 -0.03635177 0.033598598 -0.05759826
0003a0 0f 84 04 3d 61 c7 be bd 04 d2 6a be 2f 29 bb 3d
       0.032352503 -0.09315372 -0.22931677 0.091387145
0003b0 1e 16 1d bd b9 ef a8 38 20 97 e4 bc 10 be e5 bd
       -0.03835117 8.055516e-05 -0.027904093 -0.11217892
0003c0 17 63 6c bd cc 50 8e bd b6 25 89 3d 57 b7 87 bd
       -0.057711687 -0.069490045 0.06696646 -0.06626766
0003d0 35 50 18 bd 3b 1a 0c bd 5d 6c 10 be 4c 21 73 3d
       -0.037185866 -0.034204703 -0.14103837 0.059357926
0003e0 0f 08 a2 3d 91 13 76 3d 9a c7 eb 3c b4 ca 31 bd
       0.07911693 0.060077254 0.0287817 -0.043406203
0003f0 a2 26 01 3c 97 24 aa bb 85 a0 5f 3d 45 35 e3 bd
       0.007882746 -0.00519235 0.054596443 -0.11094145

network_body.linear_encoder.seq_layers.0.bias f4 [128]
000000 2d 8d 35 bd 9d 16 77 bd 2e 7f 59 be 95 3c 63 bc
       -0.04432409 -0.0603243 -0.21239921 -0.013869424
000010 9e 85 11 bb 4b 12 1e bd 6b 17 5a be 81 9c 4c 3b
       -0.0022204886 -0.038591664 -0.21297996 0.0031221213
000020 08 5d 86 bd 9d 5d 31 be c9 9d e6 bd 6e ac 00 3e
       -0.06560713 -0.17320867 -0.11260564 0.12565777
000030 4f e5 93 3c 2d 11 76 3e d2 53 2a 3d fc b8 98 3c
       0.018053679 0.2402999 0.041583844 0.018642895
000040 86 71 0d be b8 4f 40 be 1b cc 16 3a 1e 7f 15 be
       -0.13812837 -0.1878041 0.000575246 -0.14599273
000050 9c 22 29 be ca 40 f8 bc 95 d9 3b bd 6f 53 75 be
       -0.16517109 -0.030304331 -0.0458618 -0.23957609
000060 05 37 13 3e e4 46 bd 3d 92 bf 37 be 78 bf 97 bd
       0.14376457 0.09242037 -0.17944172 -0.07409567
000070 ab f0 9a bc 11 2c 4b 3d 55 f3 26 be 44 9d fa 3d
       -0.018913588 0.049602572 -0.16303761 0.12237027
000080 39 9d 23 bd 9b 40 cb bd db 7b 02 3d 6c 23 36 3e
       -0.03994486 -0.09924432 0.0318564 0.1778695
000090 2a 6a d9 bd 4a 2f 44 be ea a8 c2 3d 76 b5 07 be
       -0.10615952 -0.19158664 0.09504874 -0.13252816
0000a0 ac 6b 2d be 72 48 75 3e f5 a5 28 be 21 b2 dc bd
       -0.16935605 0.23953417 -0.16469558 -0.10776163
0000b0 5c 87 30 be 31 d5 48 3e 8e de a0 bd a4 8b b6 bd
       -0.17239136 0.19612576 -0.07854949 -0.08913353
0000c0 0c 96 f7 bd 6c fd 19 be 36 bd 6e 3e 94 55 59 3d
       -0.12089166 -0.15038079 0.23314366 0.05306013
0000d0 76 07 91 3d 1f e7 15 be af 45 2c bd 35 af 21 bd
       0.07081501 -0.14638947 -0.042058643 -0.03947373
0000e0 ba 23 be 3d c3 7d 8c 3d ab 74 3a 3d 8b 69 18 be
       0.09284158 0.06859925 0.04552142 -0.14884011
0000f0 4b e7 83 3d 6d 2c 1c 3e ce 07 bf bd 6b 36 04 be
       0.064406 0.15251322 -0.093276605 -0.12911384
000100 84 c1 b1 bb ea 3a 55 be f2 79 31 be e1 49 d5 3c
       -0.00542468 -0.20823255 -0.17331675 0.026036205
000110 aa d1 62 3d cd 22 da 3d 28 49 12 be 70 91 4b be
       0.055375732 0.10651169 -0.1428572 -0.19879699
000120 2c d5 4a be a1 f0 57 be 95 4d cc bb 72 de 04 3e
       -0.19807881 -0.21087886 -0.0062348344 0.12975481
000130 8d 2a 3e be 01 16 4d 3d c6 b6 52 3e 30 81 55 3e
       -0.1857092 0.050069813 0.20577535 0.20850062
000140 45 43 37 be 7b f4 42 bc 81 41 69 3d 5a d2 cd bd
       -0.17896755 -0.011899109 0.056947235 -0.10049887
000150 c8 95 80 be 10 ff 49 be 6f fd 44 3e f5 19 28 3e
       -0.25114274 -0.19726205 0.19237302 0.16416152
000160 a2 10 01 be 3a 15 95 bc 5f 1a 24 be 8d da 90 3d
       -0.12604001 -0.018198598 -0.16025685 0.07072935
000170 f3 7f 9f 3b 7b ca e9 3d 45 b9 97 3c 2b 8e 01 3d
       0.0048675477 0.11415573 0.01852096 0.031629723
000180 01 58 05 3e 6e 3e 3e be 31 47 f4 bd cc 3f dd 3c
       0.13021852 -0.18578503 -0.11927641 0.02700796
000190 c9 a9 49 be 75 c1 06 be 49 fd 58 be bf 9a 31 be
       -0.19693674 -0.13159736 -0.2119037 -0.17344187
0001a0 22 8e 64 be dd 4e 41 3e 40 78 16 bc 35 2f 89 3d
       -0.22319844 0.1887774 -0.009183943 0.06698457
0001b0 e4 18 a8 3d 75 7a 58 be e8 ac 1f be 9e 77 0b be
       0.082078725 -0.21140464 -0.15593302 -0.13619849
0001c0 aa 87 20 3e 54 3b 0c be 9c a7 28 3e cb 51 d9 bd
       0.15676752 -0.13694507 0.16470188 -0.10611304
0001d0 38 0c 3c 3e c8 b9 89 bd e9 31 fa bd e8 cb 5d be
       0.18364036 -0.06724888 -0.12216551 -0.21659815
0001e0 ca b6 83 be 57 8a c1 3d 70 81 aa 3d 01 94 13 3e
       -0.25725394 0.09450214 0.083254695 0.14411928
0001f0 dd 21 57 3e 5a bf b4 3d 40 f6 c2 bc ea 51 14 3e
       0.21009012 0.0882556 -0.023799062 0.14484373

network_body.linear_encoder.seq_layers.0.weight f4 [128, 52]
000000 28 f8 a3 3d d2 c2 b0 bc bd 04 7d bd db 4d f3 bd
       0.080063164 -0.021577273 -0.061772097 -0.11880084
000010 55 13 2d 3e 19 b6 ca bd 79 93 41 3e 59 be 22 3e
       0.16901906 -0.098980136 0.18903913 0.15892924
000020 b1 a8 8d 3e c5 74 65 be 8d dc 2a 3e c1 01 54 3e
       0.27667764 -0.22407825 0.16685696 0.20703794
000030 4d 8b 90 3d 08 5b 31 3d d3 16 07 3c 2d 47 36 bd
       0.070578195 0.043299705 0.008245188 -0.044501472
000040 c5 5a 9c 3e b5 bf c2 bd c0 ac a1 3c df 70 3f 3e
       0.30538002 -0.095092215 0.019735694 0.186954
000050 f8 4f 30 3e b2 7f 5f be 2e 25 8f be e3 c9 17 3d
       0.17218006 -0.21826056 -0.27958053 0.03705777
000060 85 b3 32 be ac 63 35 3c d4 bb 3b 3e a6 dc 39 3d
       -0.17451294 0.011071127 0.1833337 0.045376442
000070 99 f7 04 3e 5f 56 4a 3d ea ad 0b 3e 0a 90 81 3d
       0.12985076 0.049398776 0.13640562 0.063263014
000080 7d 42 54 3d 7a 19 f8 bc 15 52 81 bd 88 89 4b 3d
       0.05182122 -0.030285586 -0.06314484 0.049691707
000090 3f 02 40 be 6f bd 2b 3e b0 18 aa be d0 66 f7 3d
       -0.18750857 0.16771482 -0.3322196 0.12080157
0000a0 71 0d 39 3e 63 5c 18 bc 7a 44 cf bd 9d 4c 2a be
       0.18071534 -0.00929937 -0.10120483 -0.16630788
0000b0 13 22 02 be 57 f7 70 3c 87 c5 04 be 3c a9 76 be
       -0.12708311 0.014707408 -0.12965976 -0.24087995
0000c0 e0 14 d3 3d e3 1b c2 be f9 cd 04 be 5d e1 cf bb
       0.10306716 -0.379119 -0.12969197 -0.006344004
0000d0 3e 97 ca 3d 07 79 1f be 46 9a a3 3e 7f d4 90 3e
       0.098921284 -0.15573512 0.3195364 0.28287122
0000e0 26 5c 8e be 08 33 e1 3c d7 53 09 bc 10 99 29 bd
       -0.2780468 0.027490154 -0.008381805 -0.041405737
0000f0 95 22 72 be 51 16 40 3e 25 e9 0e 3e 6e 07 9a be
       -0.23646004 0.18758513 0.13956125 -0.30083793
000100 08 95 ca 3d ff 55 11 3c f3 7f 9a 3d 06 69 b2 bd
       0.09891707 0.008870601 0.075439356 -0.08711438
000110 9b b0 be bd 42 43 88 bd 37 cf fd bd 69 e1 79 bc
       -0.093110286 -0.066534534 -0.12393039 -0.015251496
000120 f2 74 3e bd 6b 69 2c be b4 8c 36 3e 8e 25 27 be
       -0.046498246 -0.16837089 0.17827111 -0.1632292
000130 7e 04 14 3d d7 a6 8b bd 94 38 a1 bd 8b 8f 2b 3e
       0.036137097 -0.068189315 -0.078721195 0.16753976
000140 90 6e d5 3d 3e 88 e6 bc a6 e1 40 3d 51 3c e1 bd
       0.10421479 -0.028141137 0.047090195 -0.109978326
000150 d8 ff aa 3d 67 df 2a bd d0 cd cf bd 5c c6 d3 bd
       0.083495796 -0.04171696 -0.101466775 -0.103405684
000160 cc f1 c1 3e 85 0c 33 be 1d c8 63 3d 5f 93 4c be
       0.3787979 -0.17485245 0.055610765 -0.19978093
000170 06 a1 f8 bb 77 09 f4 bd 8b 80 42 bd 88 53 0a 3d
       -0.007587555 -0.11915868 -0.04748587 0.033771068
000180 5f 92 06 be 77 a7 7b 3e 9e 8f 26 3d 94 85 da be
       -0.13141774 0.24575602 0.040664308 -0.42680037
000190 fd 82 8d be 68 5f b2 3d 89 c1 44 3e 65 85 3b 3e
       -0.27639 0.087096035 0.19214453 0.18312605
0001a0 38 ce 34 3e f7 15 8c be 08 d8 71 3e bb 87 0c be
       0.17656791 -0.27360508 0.23617566 -0.13723652
0001b0 a1 87 22 3d c0 92 6e be c1 97 44 3e 9b 56 27 be
       0.039680127 -0.23298168 0.19198515 -0.16341631
0001c0 05 87 08 3e f2 c1 0a bd e1 5f a3 3d 23 7d 75 bd
       0.13332756 -0.033876367 0.07977272 -0.059933793
0001d0 b1 a3 2b 3e 92 bb 47 3e 06 91 71 3d 12 05 5c 3c
       0.16761662 0.19505146 0.058976196 0.013428943
0001e0 8e 86 0c be b8 3e da bc 4a 53 50 3e 89 57 8e be
       -0.13723204 -0.026641235 0.20344272 -0.2780116
0001f0 18 b3 9b bd 31 be 0d bd a4 36 6e 3e 6b 8b 3a bd
       -0.07602519 -0.03460521 0.23263031 -0.045543116
000200 89 38 1a bc 82 63 3b 3d a7 73 2b 3e 4c be 3b be
       -0.009412893 0.045749195 0.16743337 -0.18334311
000210 11 7c 37 3e a8 a4 24 bd 74 3e 5a 3e 76 f4 1b 3e
       0.17918421 -0.04019609 0.21312886 0.15229973
000220 5e 46 34 3e c4 13 ae bd 9d bd 0c be 21 b9 ae bb
       0.17604968 -0.08499864 -0.13744207 -0.0053321277
000230 50 69 29 be be 04 6e 3e 8a 71 b2 3e eb 63 33 3e
       -0.1654408 0.23243997 0.34852248 0.17518584
000240 62 2f 1c be ab 77 c1 bd 4f a5 fb 3d 17 89 27 3e
       -0.1525245 -0.09446653 0.122873895 0.1636089
000250 7b 96 47 3d 9b be 2f be ed b6 39 bc e5 f8 fe 3d
       0.048727494 -0.17162554 -0.011335117 0.124498166
000260 78 80 55 bd 03 4a b5 be a6 a2 67 3d d6 ed b2 be
       -0.05212447 -0.3540803 0.056551598 -0.3494708
000270 c2 f2 42 bd 92 08 44 bd 6f ed 25 3e e2 45 7a 3e
       -0.047594793 -0.047859736 0.16203855 0.2444072
000280 ce 57 a1 bc c0 6a 41 bd 1e e2 0d bb d2 50 84 3e
       -0.019695189 -0.047220945 -0.002164967 0.2584291
000290 37 35 82 bd 2c 9f 39 3d ac bc 0d 3d fd b9 91 bd
       -0.06357806 0.045317814 0.03460376 -0.071155526
0002a0 34 2b f4 bd c7 2b 67 3b ae 51 12 3d 53 73 16 3e
       -0.11922303 0.0035273896 0.035722427 0.1469243
0002b0 c0 4c bc 3a 19 63 4c 3e 76 4c 0e be 3f 46 91 be
       0.0014366135 0.19959678 -0.13896355 -0.28373906
0002c0 90 e4 b6 be 19 a9 50 3d 1c f5 03 bb f2 c7 8d bd
       -0.35721254 0.050942514 -0.002013511 -0.06922902
0002d0 b1 29 96 3e 24 58 02 be 1f 68 f7 bc 65 40 73 be
       0.29328683 -0.12728935 -0.030201016 -0.23755033
0002e0 a9 f0 7a bd 2b a4 12 3e d7 c4 0b 3d 71 1e f1 3c
       -0.061264668 0.14320438 0.034123268 0.02943346
0002f0 2e 41 e3 bd 91 c2 87 be f8 0f 6a 3d 3f 5f a0 be
       -0.110964164 -0.2651563 0.057144135 -0.31322667
000300 fb 9c 05 3e 1b 4a 97 3d 73 4f 50 3c a6 a4 cc bd
       0.13048165 0.07387181 0.012714255 -0.09992342
000310 fe 5e bc 3e fe a0 f5 3c d0 2e f9 bd 9f e3 80 be
       0.36791223 0.029983994 -0.12167132 -0.2517366
000320 77 8e 1b 3e 4a 55 e3 3c 5a 8d 58 3d 10 54 e9 bc
       0.15191065 0.02775063 0.05286918 -0.028482467
000330 1c 63 53 be 71 b3 61 3c a5 26 a0 bc fa 98 1e be
       -0.20643276 0.013775692 -0.019549677 -0.15488043
000340 42 72 ba 3c e9 99 06 be 01 04 91 be c0 c6 8c 3e
       0.02275956 -0.1314465 -0.28323367 0.27495384
000350 85 ca 9e 3d df 05 21 3e 2f 8d 02 3e d2 8f bc bd
       0.07753471 0.15724896 0.1274917 -0.09207119
000360 67 eb 38 be 40 9b 10 3e a9 2f 1d be b7 22 02 bd
       -0.18058549 0.14121723 -0.15350212 -0.031771388
000370 62 53 30 be ac 20 21 3e ac b1 76 3e e5 16 04 bd
       -0.17219308 0.1573512 0.24091214 -0.032248396
000380 e8 21 bd bc 51 49 12 3d 1e f6 77 be 64 54 07 be
       -0.023087457 0.03571445 -0.2421498 -0.13215786
000390 e6 2e 70 3d 4f 66 b8 3d d1 bc b8 3c 5b 20 6a 3d
       0.058638476 0.09003889 0.022550972 0.057159763
0003a0 4c 28 c1 3d 51 de ef 3d c8 d9 29 3d bd 2a 12 be
       0.09431514 0.11712325 0.041467458 -0.14274116
0003b0 9d 3d 5b bd cb 5d 26 3e 5d 60 9b 3c 12 8f c4 3c
       -0.053525556 0.16246717 0.018966848 0.023994002
0003c0 21 66 2d 3e e3 75 53 3c ba f5 73 3e 8b 28 19 bf
       0.1693349 0.012906524 0.23824206 -0.5982749
0003d0 2f 49 37 bd d2 9b 8e 3d f9 f3 17 3e ca 2e 37 bd
       -0.044747528 0.06963314 0.14839162 -0.044722356
0003e0 40 90 44 3d be 8f 1b bc d0 15 43 3e c7 d1 50 be
       0.04798913 -0.00949472 0.1905129 -0.20392524
0003f0 47 2f 92 bd 46 f7 3e be 21 14 86 3e 8f 2c 96 be
       -0.07137924 -0.18649015 0.26187232 -0.2933087

network_body.linear_encoder.seq_layers.2.bias f4 [128]
000000 e2 5f d9 bc 21 b5 36 3e d2 8a 4b bc 55 03 2f be
       -0.026534978 0.17842533 -0.012423234 -0.17091115
000010 70 09 25 3e 0d ff 2a 3e c7 bd 34 bd f1 c3 2c be
       0.16116881 0.16698857 -0.0441263 -0.1687162
000020 ce b7 13 3e e6 95 60 3d 31 bc 40 be c2 8d ef 3d
       0.14425585 0.054830454 -0.1882179 0.1169696
000030 80 68 11 3e 18 3e 7d 3d 97 bd e6 3d f2 d7 3d 3e
       0.1420002 0.061826795 0.1126663 0.18539408
000040 26 41 8f bc 52 a2 48 be 2c e1 99 3d 6a af 98 3d
       -0.01748712 -0.1959317 0.07513651 0.074553326
000050 f1 04 33 bd 96 31 e6 bd 14 f5 38 3e 0f 6c 64 bc
       -0.043705884 -0.112399265 0.1806224 -0.013941779
000060 70 9a 73 be 7f 79 5c be 9d 35 e3 3d fc 23 5e be
       -0.23789382 -0.21530722 0.1109421 -0.21693414
000070 2c a3 aa 3d 42 71 39 be 1c 1e 18 3d d4 0a 60 3d
       0.08331904 -0.1810961 0.03713809 0.054697827
000080 1f dc fd 3d c2 9d a7 3d c3 92 83 be b3 a9 be 3d
       0.123955004 0.08184387 -0.25697908 0.09309711
000090 dc fe 67 bc d8 95 15 3e 12 17 5c be 7b 73 be bc
       -0.014159884 0.14607942 -0.21493176 -0.023248425
0000a0 5c 66 68 be b8 32 1c 3e f3 bd b4 bd e7 05 43 3e
       -0.22695297 0.15253723 -0.088252924 0.1904522
0000b0 3c 85 06 3e 91 2f ff 3d 23 22 58 be 41 4e 9c 3d
       0.13136762 0.124602444 -0.21106772 0.07632113
0000c0 dc 78 f5 bd f0 ee 49 be 64 92 ef 3c 99 54 fb bd
       -0.11985943 -0.19720054 0.02924461 -0.12271995
0000d0 e0 a9 f6 bd 51 6d fa 3d 58 d8 9b 3c 01 3d 2d 3e
       -0.1204412 0.12227882 0.01902406 0.16917802
0000e0 ed 29 ff bd ca fb 1f 3e d3 7d e5 3d 53 6e da bd
       -0.124591686 0.15623394 0.1120564 -0.10665574
0000f0 78 04 30 3d 95 f1 28 be 68 15 1d be af 1a f9 3c
       0.04297301 -0.16498406 -0.15340197 0.030408232
000100 d8 2e 0a be 93 98 d2 bd 55 8e 80 3d 94 97 3c be
       -0.13494432 -0.102830075 0.06277148 -0.18417197
000110 e8 ee cc bd c9 04 3d be 1f b9 d8 3b e1 d8 86 3d
       -0.10006505 -0.18458857 0.006613865 0.06584335
000120 ed bb 27 3c ea d8 33 3d 36 05 18 3e c1 e5 c5 3d
       0.010237676 0.043908037 0.14845738 0.09662963
000130 6d db 48 3e 40 05 24 be 5a 6e a0 3d 02 4d 50 be
       0.19614954 -0.16017628 0.07833548 -0.20341876
000140 aa 31 b0 3d 27 24 45 be 32 3a a5 3d a2 08 f0 bd
       0.08603223 -0.19252072 0.080677405 -0.117203966
000150 8b d0 48 be cb eb c3 3d b1 cd 57 be 06 8a a9 3d
       -0.19610803 0.09566458 -0.21074559 0.08278279
000160 08 12 2b 3e 47 cb 25 3e 84 33 5b be 48 8b 39 bd
       0.16706097 0.16190825 -0.2140637 -0.045298845
000170 e2 5f 55 be 8a 60 24 3d f7 73 b7 bd 53 d1 a8 3d
       -0.20837358 0.04013113 -0.089576654 0.082430504
000180 8e 15 1d be 8f 52 69 3e 88 de e5 bd 42 a8 4a bd
       -0.15340254 0.227854 -0.11224085 -0.04947687
000190 17 bc 47 3d 03 e8 5c bd f6 bb a8 bd 99 fd 61 3d
       0.04876336 -0.0539322 -0.08238976 0.05517349
0001a0 80 f0 f0 3d a6 4d b6 bd fd ed f9 bd 61 e5 f5 3d
       0.11764622 -0.08901529 -0.12203596 0.12006641
0001b0 2d 1b 6a be 06 38 8d bb c6 dd 28 be 73 ca 36 be
       -0.22861929 -0.004309657 -0.1649085 -0.17850666
0001c0 10 62 61 be 3d be 13 be 19 56 c6 3d 14 f3 4a be
       -0.22010064 -0.14428039 0.096843906 -0.1981929
0001d0 21 4e 06 be 12 d6 d1 3c 63 43 32 be fb a8 94 3d
       -0.13115741 0.025614772 -0.17408518 0.07258793
0001e0 8a 99 63 3c d1 94 aa 3c af 0d 9f 3d 7e a9 23 be
       0.013891587 0.020822914 0.07766282 -0.15982625
0001f0 e0 02 9b 3d 58 b5 2a be b8 37 ba 3d ae 2a 54 be
       0.07568908 -0.1667074 0.09092659 -0.20719406

network_body.linear_encoder.seq_layers.2.weight f4 [128, 128]
000000 b1 c3 64 bd 2e 8a cf 3d f5 a7 61 bd 4a c5 06 be
       -0.05585069 0.101337776 -0.055091817 -0.13161197
000010 4f b7 29 be bc 3b 8b 3d e9 f0 38 be 72 6b c4 bd
       -0.16573833 0.06798503 -0.1806065 -0.09590806
000020 15 82 b1 bc 61 f5 67 be 85 b8 3e be 84 6d 21 3e
       -0.021668473 -0.22652198 -0.18625076 0.15764433
000030 2c ad f2 bd 3a 56 31 3e f9 80 18 3e d9 54 7f be
       -0.11849436 0.17318049 0.14892949 -0.2493471
000040 10 57 be bd b8 b7 7d 3d fe da 29 be aa 5c 3b 3d
       -0.092939496 0.061942786 -0.16587445 0.04574267
000050 8b 5c e4 bd d3 82 73 3d fe 12 45 3d ee 4b a3 3c
       -0.11150464 0.059450936 0.048113815 0.019933667
000060 56 34 be bd 1e d3 2a bd 0f 1a e5 3c 00 36 c3 3d
       -0.09287326 -0.041705243 0.027966527 0.09531784
000070 ad ab 2f be aa b5 0a be f8 d0 fe 3d bb a7 10 3e
       -0.17155333 -0.13545862 0.124422014 0.14126484
000080 06 76 cb bd 95 0f 2d be 3f 1d 6c 3c c8 29 7e 3d
       -0.099346206 -0.16900475 0.01441127 0.062051564
000090 17 72 db bb c8 af b7 3c 9d 18 45 bc 3c 56 93 bc
       -0.00669695 0.022422686 -0.012029794 -0.017985456
0000a0 e6 96 b9 3c b5 bf 8b 3e 32 e0 06 be a4 cf 01 ba
       0.022654962 0.27294698 -0.13171461 -0.00049519003
0000b0 ae 46 6b bd 24 17 cb 3d b1 e0 03 be 35 97 d3 bd
       -0.057440452 0.09916523 -0.12878682 -0.10331575
0000c0 1f 57 87 bd 71 80 38 3d c3 ab 93 3d 51 c8 08 3d
       -0.06608414 0.045044366 0.07210495 0.03339416
0000d0 3e 69 85 3e 03 77 12 3e 03 85 c3 bd 71 fa 55 be
       0.26056856 0.14303212 -0.09546854 -0.20896317
0000e0 6c 84 a0 3e d5 bf 17 3e a8 35 28 be e3 a6 9c bc
       0.3135103 0.14819272 -0.16426718 -0.019122547
0000f0 53 5e 3c be e7 d3 26 3e ed 39 45 3e 72 24 5d 3d
       -0.18395357 0.16291772 0.19260378 0.053989835
000100 3e 33 05 bd 79 cc 08 bd 94 68 81 bd de 8a 09 3e
       -0.03251957 -0.033398125 -0.06318775 0.1343188
000110 56 57 41 bd ed 10 de bc e3 ce 16 be c0 99 02 be
       -0.04720243 -0.02710768 -0.14727359 -0.12753963
000120 88 b5 18 be 75 95 67 be 34 86 e1 bd 6e 08 81 bd
       -0.14912999 -0.22615607 -0.11011925 -0.06300436
000130 9d 6c d7 bd c9 13 fe bd a4 6c 62 3d b7 4a 7c bc
       -0.10518763 -0.124061175 0.05527939 -0.015398673
000140 52 66 c2 bc a3 98 be 3c 10 74 0c bd ee 6d 5e 3d
       -0.02373043 0.023266142 -0.034290373 0.054304056
000150 a3 c7 f3 3c 4c b7 87 bc 02 37 5f be 11 af c1 be
       0.02975828 -0.016566895 -0.21798328 -0.37828878
000160 22 b2 64 be ba 2c 18 be ef 6c 06 3e fb 39 26 be
       -0.22333577 -0.14860812 0.13127492 -0.16233055
000170 f7 7e 85 bd 47 c6 ca bd 35 cd 73 3e b7 5f b3 bd
       -0.06518357 -0.099011 0.23808749 -0.087584905
000180 ea c5 cc 3d 69 fb 16 be 3c 34 64 3e ba 76 3f be
       0.099986866 -0.14744343 0.22285551 -0.18697634
000190 3e 3a b1 bc 2c 7d 15 bd 02 cb 62 3d 50 36 6e ba
       -0.021634217 -0.036496326 0.055369385 -0.00090870727
0001a0 56 6b 72 3d 39 9a 05 bc 06 30 74 be 19 6f 6f bd
       0.059184395 -0.008154445 -0.23846444 -0.05845556
0001b0 b3 52 13 be 0c 41 af 3d 60 68 bd 3d d8 59 2f bd
       -0.14387016 0.085573286 0.092484236 -0.04281029
0001c0 cf 38 96 bd 31 e9 0b 3e 6a 53 f4 bd ce 9d 15 bd
       -0.07335054 0.13663174 -0.119299725 -0.036527447
0001d0 12 25 37 3a 9b 4b d1 bd 19 3e c7 3c 76 8a 27 3e
       0.000698642 -0.10219499 0.024321603 0.16361412
0001e0 58 8a 9d 3d 83 f1 5c be 07 d3 be bd 52 ed 36 3d
       0.076924026 -0.21576504 -0.09317594 0.04465992
0001f0 48 dc 29 be 94 43 04 be 0e 5f 1e bd 54 51 24 3d
       -0.16587937 -0.12916404 -0.03866487 0.040116623
000200 5d d5 9a bb 92 77 21 3c 8c 7b 01 3e 53 f1 af 3c
       -0.004725142 0.009855168 0.12644786 0.021477377
000210 41 5b 91 bd 04 b9 12 3e d7 96 06 3d 80 ad 6f 3c
       -0.070974834 0.1432839 0.032858696 0.014628768
000220 b5 2b f8 bb c8 08 0f 3e fd be 21 bd 6b 9a 45 3c
       -0.0075735697 0.13968194 -0.03948878 0.012060742
000230 66 22 4a bd 0c e4 a5 3d f6 8c 31 3d dc f9 31 3e
       -0.04934921 0.08100137 0.04334732 0.1738047
000240 4d 20 12 bd 74 ca 4c be 9c 00 46 be a9 19 b1 bd
       -0.035675336 -0.19999105 -0.1933617 -0.086474724
000250 d9 e2 4c 3b 44 f2 4e bd 96 b3 cf 3d 3d 85 85 bd
       0.0031263141 -0.05052401 0.10141675 -0.06519554
000260 16 aa d1 3c fc d7 3b 3d 0d 20 13 be 24 7c 29 3c
       0.025593799 0.045860276 -0.14367695 0.010344539
000270 d8 66 13 bd 70 18 14 3e 74 a0 58 bd 85 15 e9 bd
       -0.03598675 0.14462447 -0.052887395 -0.11381058
000280 c8 c4 24 3c 7e a7 e1 bd 53 16 7a 3d be e4 1f 3e
       0.010056682 -0.11018275 0.061056446 0.15614602
000290 49 44 0d be a6 2f 4c 3d 55 2e 4e bd fd 21 5f be
       -0.1379558 0.04985013 -0.050337154 -0.21790309
0002a0 7c 57 42 3d f4 19 a2 bd 7c 06 c7 bd 18 f5 91 3d
       0.047446713 -0.079151064 -0.09718034 0.07126826
0002b0 9b 32 ca 3c 65 c7 0e 3e 81 ba 4a be b7 d9 32 be
       0.024682334 0.1394325 -0.19797708 -0.17465864
0002c0 38 17 c1 3c 01 b4 68 bd 5b f2 1e 3e 9f e6 ef bd
       0.023570642 -0.05681229 0.15522139 -0.11713909
0002d0 73 cb e2 3d 6e 18 8b bd a1 54 52 bd 6a 48 ae bd
       0.11073961 -0.06791769 -0.05135024 -0.08509906
0002e0 54 b4 c9 3c 22 a4 7e 3e c6 66 a2 bd d9 49 f0 3b
       0.02462212 0.24867299 -0.07929759 0.007333022
0002f0 f6 31 bb 3b 13 96 c1 3b 5c 29 81 3e 6a b6 c4 3c
       0.005712743 0.005907783 0.25226867 0.024012763
000300 ee db 32 3e 61 f3 a1 bd b7 5b b9 3d 2c d0 19 3d
       0.17466709 -0.07907749 0.09050696 0.037552044
000310 ee 72 c8 3d 0b fb 77 bd a6 8e 40 be db c1 83 3d
       0.09787546 -0.060542148 -0.18804416 0.06433459
000320 d4 12 40 3d ac ef b3 bd 9c d8 d7 3a e7 28 20 be
       0.046892956 -0.08785948 0.0016467753 -0.15640603
000330 54 53 98 bd 5b e4 25 3e 97 e6 83 3c fd 64 2f 3c
       -0.074377686 0.16200392 0.016101165 0.01070523
000340 ec 9b e1 3d d8 d9 b3 bd 82 b6 f0 3d 81 ec a2 3d
       0.11016068 -0.08781785 0.117535606 0.07955266
000350 4d 7f b0 bd bd 3e 8a 3d 5a bd 58 3d 5b 15 b7 bd
       -0.08618031 0.06750248 0.052914955 -0.0893962
000360 b8 39 e0 bd 45 3e 6b 3c db 7c 5a 3b a9 e1 89 3d
       -0.10948509 0.014358108 0.003333858 0.067324944
000370 54 5b e4 bd 5e 53 de bc 43 f8 a0 be 85 0b 26 be
       -0.11150232 -0.027139362 -0.3143941 -0.16215332
000380 28 06 a8 3c 4a d3 fc bb ae 5d 16 3c 23 4f 2c bc
       0.020510748 -0.0077156173 0.009177608 -0.010516915
000390 93 47 91 3c a1 93 04 3e 57 e7 ae bd 3a 1e 16 bd
       0.017734325 0.12946941 -0.08540218 -0.03664992
0003a0 20 d6 6b 3d 4d 89 05 3e 2c a5 69 bd 18 12 17 bd
       0.057577252 0.13040657 -0.057042286 -0.03688249
0003b0 0d e1 98 3d 31 d6 27 3d fb 23 56 bd 06 8d 1e be
       0.074648 0.040975753 -0.052280407 -0.15483484
0003c0 40 e8 2a bd 83 0b 79 bc 74 04 be 3d c6 eb 94 bd
       -0.041725397 -0.0152004985 0.09278193 -0.07271533
0003d0 e2 e3 10 3e 48 fb 0d 3d 30 f1 ee 3c cb 26 37 bd
       0.1414943 0.03466347 0.029167742 -0.04471473
0003e0 c6 1d 47 be 00 b7 76 bd 76 9f 70 be ec 40 2b be
       -0.19444951 -0.060233116 -0.2349833 -0.16723984
0003f0 ee 0b 31 bd 81 fe a1 3d 8c 14 90 bd e6 29 6b 3d
       -0.043224268 0.07909871 -0.07035169 0.057413004

network_body.vector_processors.0.normalizer.running_mean f4 [52]
000000 6c 61 d1 3c 33 87 79 3f 17 37 06 35 5d 20 95 3e
       0.02555915 0.9747192 4.9999056e-07 0.29126254
000010 8b cf af 3c b7 97 7a 3f aa 36 86 35 56 18 96 3e
       0.021461269 0.9788775 9.999687e-07 0.29315442
000020 a9 de e2 3c 4f f5 78 3f 2f f5 32 35 03 17 95 3e
       0.027694063 0.9724931 6.6666956e-07 0.2911912
000030 81 e0 a1 3c 40 01 7b 3f 34 95 9c 35 39 3a 97 3e
       0.019760372 0.9804878 1.166633e-06 0.29536608
000040 c1 4c 00 3d 37 05 78 3f c7 f5 32 34 b1 d9 94 3e
       0.0313232 0.9688296 1.6666955e-07 0.29072335
000050 a6 2b ab 3c e5 b8 7a 3f bb b1 5f 35 cd 99 98 3e
       0.020894837 0.97938377 8.3332606e-07 0.2980484
000060 70 e1 1a 3d 5d 57 76 3f bc 36 06 35 6a 4a 94 3e
       0.03781265 0.96227056 4.999854e-07 0.28963023
000070 af aa c2 3c bd fc 79 3f 7c b2 5f 35 a0 be 9a 3e
       0.023763029 0.97651273 8.33337e-07 0.3022356
000080 75 f1 22 3d 68 d1 75 3f d2 f4 32 35 84 cb 93 3e
       0.039781053 0.96022654 6.666643e-07 0.28866208
000090 2f 63 04 3d a2 bb 77 3f 4e f6 b2 34 74 14 9d 3e
       0.03232115 0.9677068 3.3334294e-07 0.30679667
0000a0 db b3 2b 3d b1 41 75 3f 51 f6 b2 34 a3 0b 93 3e
       0.04191957 0.9580336 3.3334302e-07 0.28719816
0000b0 88 16 5a 3d 6b 5d 72 3f 4c f6 b2 34 f3 9d 9d 3e
       0.053244144 0.94673795 3.3334288e-07 0.30784568
0000c0 26 78 42 3d 46 d4 73 3f c7 f5 32 34 42 9c 92 3e
       0.047477864 0.9524578 1.6666955e-07 0.2863484
