results/fifth/Car/Car-2499989.pt (torch, 582455 bytes, 40 tensors)

network_body.vector_processors.0.normalizer.running_mean f4 [52]
00000000: 4b98 b03b fd96 7e3f 6ec0 d634 308e 973e
00000010: 0659 b63b 9087 7e3f 85c0 d634 e347 983e
00000020: 0301 a33b 55b6 7e3f 7dc0 5635 7321 973e
00000030: 5252 b63b 1e88 7e3f e60f a135 aa99 993e
00000040: f530 9a3b e2cd 7e3f 0000 0000 1e7d 963e
00000050: b113 c93b b169 7e3f 94c0 d634 dad6 9a3e
00000060: 32f8 9d3b f8c8 7e3f 7dc0 d634 76c1 953e
00000070: fe3a df3b 6940 7e3f 88c0 d634 65bd 9b3e
00000080: a3f7 ab3b 37a8 7e3f 0000 0000 ce20 953e
00000090: 7541 fe3b bc05 7e3f 7dc0 d634 0270 9c3e
000000a0: c218 dc3b f945 7e3f 88c0 d634 2f96 943e
000000b0: 89f2 263c 3662 7d3f 79c0 d634 345c 9c3e
000000c0: 2a74 173c 389e 7d3f 0000 0000 aa53 953e
0.0053892485 0.9944914 4.0000617e-07 0.29600668 0.0055648116 0.994256 4.0000683e-07 0.29742345
0.004974486 0.99496967 8.000132e-07 0.29517707 0.0055640126 0.9942645 1.2000062e-06 0.3000005
0.004705543 0.995329 0.0 0.29392332 0.0061363806 0.9938002 4.0000725e-07 0.30242044
0.004820847 0.99525404 4.000066e-07 0.2924916 0.0068124523 0.9931703 4.000069e-07 0.30417934
0.0052480265 0.99475425 0.0 0.2912659 0.007759268 0.992275 4.000066e-07 0.30554205
0.0067168185 0.9932552 4.000069e-07 0.2902083 0.010189661 0.98977983 4.0000648e-07 0.30539095
0.009244004 0.9906955 0.0 0.29165393

network_body.vector_processors.0.normalizer.running_variance f4 [52]
00000000: bc68 5146 ca9d 5146 edff ff3f a7e1 d247
00000010: 2c2f 5846 054e 5846 e9fe ff3f 2686 d547
00000020: 3659 4146 e2fa 4146 9cff 3f40 f0ea d047
00000030: 6229 5846 1c60 5846 ebfd 7f40 5a48 db47
00000040: 2bf0 3646 0164 3746 0000 803f a145 cc47
00000050: 3841 6e46 c96b 6e46 80ff ff3f b630 e147
00000060: 3066 3b46 16dc 3b46 deff ff3f c914 c647
00000070: 9726 8446 0737 8446 c0fe ff3f 84de e547
00000080: 01ec 4b46 f066 4c46 0000 803f ea4d c047
00000090: 0163 9646 0e7d 9646 b0ff ff3f b863 e947
000000a0: 364f 8246 1c99 8246 c1fe ff3f af7f bc47
000000b0: b1fd c446 5512 c546 c9ff ff3f d513 e847
000000c0: 92e4 b246 a026 b346 0000 803f a2bc c047
13402.184 13415.447 1.9999977 107971.305 13835.793 13843.505 1.9999667 109324.3
12374.303 12414.721 2.9999762 106965.875 13834.346 13848.027 3.999873 112272.7
11708.042 11737.001 1.0 104587.26 15248.305 15258.946 1.9999847 115297.42
11993.547 12023.021 1.999996 101417.57 16915.295 16923.514 1.9999619 117693.03
13051.001 13081.734 1.0 98459.83 19249.502 19262.527 1.9999905 119495.44
16679.605 16716.555 1.999962 96511.37 25214.846 25225.166 1.9999934 118823.664
22898.285 22931.312 1.0 98681.266

network_body.linear_encoder.seq_layers.0.weight f4 [128, 52]
00000000: de64 e23d d67b 62bd 7580 53bd 57b1 37be
00000010: 1b62 583e a739 13be 65fb 3f3e 5b43 ce3d
00000020: 6a99 8d3e ff75 68be 6e04 343e a233 263e
00000030: 484d 813d 3a9e 453d d77d 573c cef5 9dbd
00000040: 76de 9f3e 22f5 d2bd 0c2d 5b3c 9a3f 113e
00000050: 5d99 4f3e e919 80be 2bf3 8fbe 619b ac3b
00000060: db6f 18be fb00 9ebc 37c9 413e 88df c63c
00000070: cf7e 1a3e d1d2 cf3c cd1b 1c3e 1e9f 713d
00000080: 60a8 cd3c 3d3c 10bc c042 47bd 5b10 9b3d
00000090: 65c4 22be f633 0a3e d794 a7be 0af1 ff3d
000000a0: 0db6 1a3e 651d 833c a636 c5bd e979 2bbe
000000b0: 822b 21be e27e 253d bc7c ffbd 2beb 6ebe
000000c0: 5e56 9e3d 2246 b6be eb50 0bbe 4dbd 143b
000000d0: c4c8 d53d aadd 21be f6f9 a03e 49cd a43e
000000e0: 5661 9cbe f39a 693d 0cca 3abc 74b4 82bc
000000f0: 6dc5 90be 3091 713e 183e 123e 6a68 78be
00000100: d82e 963d 71b7 133d 3cf1 bc3d 30bf 86bd
00000110: f151 f9bd 98f6 12bd 5108 09be 6832 0c3d
00000120: 99d8 93bd 738c 10be f117 433e d5dd 0cbe
00000130: fcab 8ebb 9a76 c3bc 313c 95bd 6752 493e
00000140: d5f9 a93d d3db 99bb 050b 5a3d e787 b1bd
00000150: bc3c f23c c692 5a3c 5925 cdbd 8335 fdbd
00000160: bdbf c03e 768a 2dbe 88a8 813d 1eca 0dbe
00000170: 40b3 bb3c 08b9 18be d5f7 22bd e38b 363d
00000180: 36e9 e1bd 88f4 683e 4318 463d 25bf bcbe
00000190: 56d3 62be 2387 063d f4a0 3a3e c09a 463e
000001a0: d92b 4a3e 0fb6 97be b60c 623e e859 04be
000001b0: 1374 633d 4160 80be 854c 313e 1f1f 1cbe
000001c0: fc61 393e 0318 abbd 5606 6e3d 8aff 9bbd
000001d0: b69d 313e f26d 403e a25a 073d 2074 103d
000001e0: e3fb 01be 4e45 1ebd 724e 503e e628 8fbe
000001f0: 1cb3 10bd e3b7 9cbd e3c6 493e 76e8 32bd
00000200: ebf7 20ba 7881 eb3c a0bf 103e 289d 35be
00000210: 1345 563e 5b30 92bd 744f 3c3e dbd9 dc3d
00000220: 6897 fb3d 88e6 22bd 8b25 08be 914b e83c
00000230: 7af9 07be 6428 493e 7544 a53e e913 f63d
00000240: c06b 41be 4674 85bd 0bf0 c63d ff1b 3a3e
00000250: 70a9 e03c de98 1dbe e5d6 17bd 2325 a43d
00000260: bff8 b6bd 7ef3 a4be 9d8d 673d b03b b1be
00000270: 2d2f 353c bd34 debd c775 323e fa3a 443e
00000280: edcf 063c 9892 9cbd 851e 713c 8ef4 6b3e
00000290: 3e59 a8bd 4ec0 843d 5e5f 0f3d 9215 64bd
000002a0: e148 12be b80d d33c dab6 003d c3f2 ea3d
000002b0: 013d 0e3d 408d 293e 8800 06be f90f 29be
000002c0: b982 b2be c6c5 1d3d 8c3f 093a dc29 36bc
000002d0: 7486 933e 1469 f7bd 8987 b0bc bdea c9bd
000002e0: 26d7 1fbd c59b f63d 7629 663d 0fb2 c33d
000002f0: 6046 18be e577 63be 0f90 453d 9cc7 76be
00000300: eef0 243e 864e 323d 7d34 ad3c 39c1 6ebd
00000310: 821d 9d3e 507d bd3d fcea e7bd 11c7 23be
00000320: a15d 0e3e 3579 263d a513 7b3d f742 203d
00000330: 9237 ecbd 3ad0 9cbd 188a 3bbc 273f 40bd
00000340: 14b9 8a3d 622e 34be febb 6cbe 6f2b a03e
00000350: e7e1 0b3e c36d cd3d a41d 3a3e 98a2 0cbd
00000360: 8df8 14be 0042 d83d 91e7 dcbd ec3f ed3c
00000370: b6e3 19be f913 073e b5cb 913e 155a e73c
00000380: 619f 80bc 31e2 dc3c b7b0 55be e036 14bc
00000390: ac51 5d3d 6767 b93d f954 763d 02cd 123e
000003a0: 1c64 0f3e 9f2a 923d 6d29 c63d 4aa9 a2bb
000003b0: 5a03 8fbd 6c06 363e 23e0 a53d 059b df3d
000003c0: 6700 133e 7c8b 2a3d 180f 863e b2eb f9be
000003d0: 7d36 d8bc 3eeb 4e3d 53c0 4c3e db97 803b
000003e0: 5923 cd3c 039f 853c 37e2 773e 4524 c8bd
000003f0: 9e27 21bd 0119 60be f47a a03e 8b66 81be
0.11054395 -0.05529388 -0.051636178 -0.17938744 0.21131174 -0.14377461 0.18748243 0.10071441
0.27656108 -0.22701262 0.17579815 0.16230634 0.06313568 0.0482466 0.013152561 -0.07712899
0.31224412 -0.103006616 0.013377439 0.14184418 0.20273347 -0.25019768 -0.2811521 0.005267546
-0.1488642 -0.019287577 0.18924414 0.02427651 0.15087436 0.02536908 0.1524498 0.058989637
0.025104702 -0.008803424 -0.048647642 0.07571479 -0.15895231 0.13496384 -0.32730743 0.124971464
0.1510851 0.016005227 -0.09629564 -0.16745724 -0.15739253 0.040404208 -0.12474963 -0.23331897
0.07731317 -0.35600382 -0.13605087 0.002269584 0.10438684 -0.15807214 0.31440705 0.3218787
-0.3054301 0.057032537 -0.011400711 -0.015955187 -0.28275624 0.23590541 0.142815 -0.24258581
0.073331535 0.036063615 0.09225699 -0.06579435 -0.12173832 -0.0358797 -0.13382079 0.03422776
-0.07219047 -0.14116077 0.19052102 -0.13756497 -0.004353998 -0.023860265 -0.07286871 0.1966034
0.08299605 -0.0046953945 0.053233165 -0.086684994 0.029569976 0.013340658 -0.10016889 -0.12363722
0.37646285 -0.1694735 0.06330973 -0.13846633 0.022912621 -0.14914334 -0.039787132 0.044567
-0.110308096 0.22749531 0.04836298 -0.36864582 -0.22150931 0.03284372 0.18225461 0.1939497
0.19743289 -0.29631087 0.22075161 -0.12924922 0.05553062 -0.25073436 0.17314346 -0.15246247
0.18103784 -0.08354189 0.05811151 -0.076170996 0.17345318 0.18791941 0.03304542 0.035266995
-0.12693743 -0.038640313 0.20342425 -0.2796089 -0.035327062 -0.07652261 0.19704776 -0.043678723
-0.0006140458 0.028748259 0.14135599 -0.17735732 0.20924787 -0.07138129 0.18389684 0.1078374
0.12284738 -0.039770633 -0.13295572 0.028356345 -0.13278762 0.19644314 0.3227879 0.12015516
-0.1888876 -0.06516318 0.09713753 0.18174742 0.027424544 -0.15390345 -0.037070174 0.08014896
-0.08934163 -0.3221702 0.056531537 -0.3461585 0.011058611 -0.10849903 0.17427741 0.19163123
0.008228284 -0.07645148 0.014716749 0.23042509 -0.082201466 0.06481992 0.03500306 -0.055684634
-0.14285614 0.025763378 0.03142438 0.114720844 0.034726147 0.16557789 -0.1308614 -0.1651
-0.34865358 0.03851869 0.00052356045 -0.0111183785 0.28813517 -0.12080589 -0.021549003 -0.09859226
-0.03902354 0.120414294 0.056191884 0.09555446 -0.14870596 -0.22213705 0.048233088 -0.24099582
0.16107532 0.043531917 0.021143192 -0.05828974 0.30686575 0.09252417 -0.113241166 -0.15993907
0.13902904 0.040642936 0.06129803 0.039126363 -0.11534037 -0.076569036 -0.011446498 -0.046935227
0.06773582 -0.17595819 -0.23118588 0.31283137 0.13660394 0.10030701 0.1817537 -0.03433475
-0.1454794 0.105594635 -0.10786355 0.028961144 -0.15028271 0.13191213 0.2847573 0.028241197
-0.015700998 0.026963325 -0.20868193 -0.009046286 0.054032966 0.090529256 0.06013963 0.14336017
0.14003032 0.071370356 0.0967587 -0.0049640285 -0.06983061 0.17775887 0.08099391 0.109182395
0.14355622 0.04163693 0.2618339 -0.48812634 -0.02639317 0.050517313 0.19995241 0.0039243526
0.02504127 0.016311174 0.24207388 -0.09772543 -0.039344423 -0.21884538 0.31343806 -0.25273547

network_body.linear_encoder.seq_layers.0.bias f4 [128]
00000000: b770 2cbd c0a9 8dbd 782b 30be 4056 2cbd
00000010: dd54 44bd 53b0 a33d 983e 1fbe a7dc babc
00000020: e7c1 26bc 6702 1abe c7fe ccbd 83b5 e03d
00000030: a410 393d eef0 6d3e f0f4 e13d 21c1 733d
00000040: 11e6 82bd b5f7 4bbe 6b15 a5bb b6cb dabd
00000050: 7c07 1bbe 208e 05bd bf84 c5bd fe14 64be
00000060: 4f69 233e 1d17 053e 1a2c 30be 9229 c8bd
00000070: 67a0 34bc c920 a33d 6372 29be d667 243e
00000080: 9eb7 24bd 8c3b e0bd 6bf7 d03d 31b5 4f3e
00000090: 2596 b1bd 30ea 18be 7a1e 323e 5d86 d1bd
000000a0: b0fe 1cbe 3b8b 793e 51a1 0ebe b9a1 56bc
000000b0: cd75 28be 7771 5c3e 4dbd cbbd b8f0 8dbd
000000c0: 9871 dbbd 54ba 22be fd11 5a3e 04cc b73b
000000d0: 1ec9 1e3e ad1e 1abe 0443 fdbb d355 61bd
000000e0: d6a2 9d3d 5fcc 1a3e 7a04 653d 2561 06be
000000f0: f929 f23d 94c4 183e 77b1 0cbe 19df fabd
00000100: 7c5f d03d d3df 2abe 6e11 22be 41f5 703d
00000110: c3c1 fd3d 9793 1a3e 56fc b5bd bbcf 18be
00000120: d080 33be ffe8 3fbe 12e4 aa3c 84ae f33d
00000130: b4e2 2bbe 0167 ec3d ba9f 603e 9179 5d3e
00000140: 43e1 0ebe f0f0 ee3b 46d5 a13d 0bf0 febd
00000150: 2a44 56be 3086 02be 3e42 273e 78cf 023e
00000160: 7ff8 e2bd c590 5d3c c929 babd a1a8 013e
00000170: 667b 1f3d 58d6 073e 99d3 1dbc 11a7 c63d
00000180: 4702 043e cb60 1dbe 7d35 ffbd e751 7b3d
00000190: dc8f 32be 16e7 07be 186a 30be 0d91 30be
000001a0: 10ec 51be 6ac3 5e3e a7b3 ca3c fc64 133d
000001b0: 6df3 fa3d f0bb 2dbe 2754 27be 6e90 15be
000001c0: 4c46 0a3e c5e1 05be 405f 3a3e 9d33 d8bd
000001d0: b68f 733e 8f4e 9cbb 1ac2 0ebe 3747 70be
000001e0: 6d8e 59be efa7 993d 5ec8 a13d a165 063e
000001f0: fcf0 2a3e a365 fa3d 1200 0abd 5ac9 173e
-0.04209968 -0.06917143 -0.17204082 -0.042074442 -0.047932494 0.079926156 -0.15551221 -0.022810293
-0.010178066 -0.15039979 -0.100095324 0.109721206 0.045181885 0.23236439 0.11033046 0.059510354
-0.06391538 -0.19918711 -0.0050379536 -0.10683386 -0.15139574 -0.032606244 -0.0964446 -0.22273633
0.15958141 0.12997098 -0.17204323 -0.09773554 -0.011024571 0.07965238 -0.16547541 0.16055235
-0.040214173 -0.10948858 0.10203441 0.20283963 -0.08671216 -0.14933085 0.17394438 -0.10230706
-0.1533153 0.24369518 -0.13928725 -0.013100081 -0.16451187 0.21527658 -0.09948216 -0.06930679
-0.10715026 -0.15891391 0.21295924 0.0056090374 0.15506408 -0.15050764 -0.007728936 -0.05501349
0.07697074 0.15117024 0.055912472 -0.13122995 0.11824412 0.14918739 -0.13739572 -0.12249584
0.10174462 -0.16686945 -0.15826961 0.058827642 0.12390473 0.15095364 -0.0888602 -0.14922993
-0.17529607 -0.18741225 0.020860706 0.118985206 -0.16785699 0.11543084 0.21935931 0.21628405
-0.13953118 0.0072919056 0.07902007 -0.12448128 -0.2092444 -0.12746501 0.16333863 0.12774456
-0.11082553 0.013523285 -0.09090001 0.12661983 0.03893604 0.1326536 -0.009632968 0.09699834
0.12891494 -0.15368955 -0.12461374 0.061357405 -0.1743769 -0.13271746 -0.17227972 -0.17242832
-0.20500207 0.21754232 0.024743868 0.035984978 0.12253461 -0.16966224 -0.16340695 -0.14605877
0.13503379 -0.13074405 0.18200397 -0.105567195 0.2378529 -0.004770107 -0.13941231 -0.23464666
-0.21245737 0.07502734 0.07899545 0.13124706 0.1669349 0.12226417 -0.033691473 0.14822903

network_body.linear_encoder.seq_layers.2.weight f4 [128, 128]
00000000: c688 103b 9ad0 e53d d865 053d af53 dcbd
00000010: 455a c4bd 26a1 b93d bfcc cdbd 5bc7 92bd
00000020: d14a a9bd a351 e0bd c866 65bc 3626 eb3d
00000030: 4e31 aabd bd6e 123e bc36 d13d 2579 67be
00000040: 6570 36bd 06df 943d 9a86 23be 7417 723d
00000050: dc72 7bbc 6776 0dbc dfc1 143d efa8 ad3c
00000060: 9f11 e4bc 894a 3d3d 83ad 823c 67b7 c63d
00000070: 9c28 cbbd fbb5 d1bd b250 ef3d 229c ca3d
00000080: ab45 c8bd 7963 16be 3741 853d e45d f33c
00000090: 9496 21bd 63f2 123d 9e2f 23bd 0199 a7bc
000000a0: efdd 3f3d 3760 5e3e ac33 2abd f6c2 213d
000000b0: 6b2d efbc 1a1c b83d 9e13 c2bb 1c1c c3bd
000000c0: b47e 413c 1f7e 573d aeb1 fa3b d351 9ebc
000000d0: 4252 673e 50e3 383d 2a02 bcbd 1fc4 e6bd
000000e0: 2347 8c3e cdf6 013e 8510 2cbe 785f 1d3b
000000f0: 9e5a aabd f118 833d a417 c73d 84b7 593d
00000100: 65c0 14bd df96 8b3d 12d0 13bd 4390 0c3e
00000110: 45cd e83a fe29 a9bd 8ca3 20be 7332 3ebd
00000120: 6a13 2dbd abd1 d0bd bc56 e5bd 2eee 7ebc
00000130: 13b6 e2bd 7d0b 6cbc 3ad8 843d 98d1 06bd
00000140: 4368 00bd c0dd 3b3c 7ac2 0abd 38f5 95bc
00000150: 4c65 ab3c 60bd 66bc 1a9a 59be 76b2 a1be
00000160: 1219 32be 7c4d d1bd 4ea3 ca3d b00a 17be
00000170: f00b 8bbc 4ea2 03be 89a5 353e 3986 90bd
00000180: 0a5e c03d 264f 80bd 523e 543e 27c6 f0bd
00000190: 59b0 373d 4f16 58bd 869b b33d 843d aebc
000001a0: 9cc0 073e d7eb 8dbc ad37 75be b2ed 20bd
000001b0: 5cfa cdbd 507f 043e a4d8 383d a1ac 33bd
000001c0: 7687 23bd 1644 d53d 90dd dabd 87d5 36bd
000001d0: d990 203d 85d4 3dbd 0051 b93c d810 f73d
000001e0: c0f4 c33d 5bf4 22be 3e80 7abd fb9a 963d
000001f0: 65d6 14be 1b57 babd 4076 95bc 9917 1dbd
00000200: 7204 56bc 0cd3 d8ba 620f a13d a85f 28bb
00000210: 75ac 9dbd e93a 013e 8070 233d 68aa 6d3d
00000220: f108 023d 4b1c 0a3e f9c4 e0bd 2d3d 1f3c
00000230: 9854 96bd 561e 6d3d 963d 953d 0da5 163e
00000240: 74d8 b3bb e1df 37be f8be 5cbe 1135 acbd
00000250: 77a8 3abd 7425 abbd bb5b b83d 0d99 35bd
00000260: 463e 76bc 6ce7 3a3d 4b58 d9bd bfb0 ca3c
00000270: 7758 17bd 0b69 9a3d 00c5 26bd ed03 c8bd
00000280: 910c 25bd 5ff1 9abd aeaf 6a3d f2e8 153e
00000290: e2f4 3fbe dcbf 613d 6aa0 4bbd c6bf 3ebe
000002a0: c7d9 9ebb d9fc aebd 1541 ddbd 2809 253d
000002b0: 6d4e 92bc 9476 1f3e 8f05 1bbe 049f 11be
000002c0: e292 c03d 854c 8dbd 5254 083e 7414 edbd
000002d0: c7ed df3d cae6 1dbd 4317 a2bd 86de 97bd
000002e0: e167 3a3d 8c81 673e 5662 01be dd3a fd3c
000002f0: 7f73 0dbd 87ec 8e3d 9fa1 393e 2f6e 1f3c
00000300: 86f2 273e 370b c5bd 08dc 893d 0d9c 0e3c
00000310: dd05 053e 70a7 85bd c193 3fbe a9a7 063d
00000320: 913b 0b3c d214 66bd 4237 663b 44b2 dbbd
00000330: 4046 f0bd 56ef 083e 0d7b 123d 0a70 bc3c
00000340: 5966 2a3d b4fb f1bd 25a4 dc3d c55a 603d
00000350: 3bff e7bd 5381 403d 5bec c73c 3cbd efbc
00000360: 2b52 d9bd 5015 03bd 428a 7c3c 2c92 ad3d
00000370: 64ac 42be 6b28 27bc c028 a6be 2459 2cbe
00000380: 75f9 bf3c 6b41 bebc 910f ab3a be0e 1fbd
00000390: f3e4 92bd cf11 b93d 17c4 b3bd 0589 6dbc
000003a0: 163e 13bd c89c 193e 9e4c c6bc a245 ddbd
000003b0: 600e 853d 5c9d 963c 9495 86bd d746 0ebe
000003c0: f8ae e7bb 5192 91bc f72b 8a3d 0d85 aabd
000003d0: 08f5 143e 1b27 063d 59d7 1b3d 3414 e4bc
000003e0: 4868 26be 7b94 b8bd 0971 4ebe aea4 2bbe
000003f0: e7b2 163d b278 843d 5ec8 84bd 8f7e 883d
0.002205418 0.11221428 0.03256783 -0.10758149 -0.0958753 0.0906394 -0.10048818 -0.0716693
-0.08266223 -0.10953071 -0.014001556 0.114818975 -0.083101854 0.14300056 0.10215518 -0.22604807
-0.04454078 0.07269101 -0.15969315 0.059104398 -0.015347209 -0.008634186 0.036317702 0.021198718
-0.027840434 0.04621366 0.015951877 0.0970295 -0.09919855 -0.10239788 0.11685313 0.09893061
-0.09778913 -0.14686383 0.06506579 0.029707856 -0.039450243 0.03587569 -0.039840333 -0.0204587
0.04684251 0.2171639 -0.041553184 0.03949257 -0.029196462 0.08989735 -0.0059227487 -0.09526846
0.011809994 0.052610513 0.0076505756 -0.019326126 0.22589973 0.045138657 -0.091801 -0.11267876
0.27398023 0.12691803 -0.16803177 0.0024013203 -0.08318065 0.064012416 0.09721306 0.05315353
-0.036316294 0.06815886 -0.036087103 0.13726906 0.001776137 -0.082599625 -0.15687388 -0.04643483
-0.042254843 -0.10196241 -0.11198184 -0.015559716 -0.11069884 -0.014407036 0.064865544 -0.032914728
-0.03134943 0.011466444 -0.033876874 -0.018305406 0.020922326 -0.014083236 -0.21250191 -0.31581467
-0.17392376 -0.10219857 0.09894429 -0.1475017 -0.016973466 -0.12854883 0.17738928 -0.07056851
0.093929365 -0.06265096 0.20726898 -0.117565446 0.044845913 -0.05275565 0.08769898 -0.021269567
0.13257068 -0.017324371 -0.2394702 -0.039289184 -0.10057518 0.12939191 0.04512848 -0.043865804
-0.039924107 0.10413377 -0.10686791 -0.04463723 0.039200637 -0.046345253 0.022621632 0.120637596
0.09568167 -0.15913527 -0.061157458 0.07353779 -0.1453491 -0.09098645 -0.018244863 -0.038352583
-0.013062583 -0.0016542389 0.07864262 -0.0025691781 -0.07698909 0.12620129 0.03990221 0.05802384
0.03174681 0.13487355 -0.109750696 0.009719175 -0.07340354 0.05789026 0.07287137 0.147114
-0.0054884497 -0.17956497 -0.21557224 -0.08408559 -0.045570817 -0.08356753 0.09001871 -0.044335414
-0.015029496 0.045630857 -0.10612544 0.024742482 -0.0369496 0.075395666 -0.040715218 -0.09766374
-0.040295187 -0.07565569 0.057296447 0.14639643 -0.18745759 0.055114612 -0.04971353 -0.18627843
-0.0048477384 -0.085443206 -0.10803429 0.040291935 -0.017859662 0.15572578 -0.15138839 -0.14220816
0.09403016 -0.068993606 0.13313416 -0.11576167 0.10934024 -0.038550176 -0.07914593 -0.0741549
0.045509223 0.22608012 -0.12635168 0.030911857 -0.034533974 0.06978708 0.1812806 0.00973086
0.16401109 -0.0962128 0.06731421 0.008704198 0.12990518 -0.06526077 -0.18708707 0.032874737
0.008498088 -0.0561722 0.003512815 -0.10727361 -0.11732149 0.1337255 0.03576188 0.023002643
0.041601513 -0.11815587 0.107734956 0.054774065 -0.11327978 0.046998333 0.024404695 -0.029265039
-0.106113754 -0.032002747 0.015413823 0.08475146 -0.19011074 -0.0102025075 -0.32452965 -0.1683088
0.02343438 -0.023224553 0.0013050904 -0.03883242 -0.07172575 0.090366 -0.087776355 -0.014498
-0.03594788 0.15001214 -0.024206456 -0.10804297 0.064968824 0.018385582 -0.065714985 -0.13894211
-0.0070704184 -0.017769964 0.06746667 -0.08326159 0.14546597 0.032752138 0.03804717 -0.027841665
-0.16250718 -0.090126954 -0.20160307 -0.16762039 0.03679171 0.06468333 -0.064835295 0.06664764

network_body.linear_encoder.seq_layers.2.bias f4 [128]
00000000: 7c06 c3bc 62de 453e 6451 c7bc c24a 1dbe
00000010: 9d83 123e c4c3 343e 3358 05bd 94ee 10be
00000020: e820 383e c727 243d b54c 20be a6e8 143e
00000030: db5f 473e 39bf 763d d445 203e 3c12 363e
00000040: fdc0 9fb9 cf3f 2bbe f624 aa3d bf1e ed3d
00000050: d912 87bc 0799 d3bd 431b 6c3e 0361 01bc
00000060: 6c5b 55be b988 4cbe 7540 d43d 8a2c 7cbe
00000070: ef22 f23d 55af 1abe 6bc3 673d 6706 443d
00000080: 060f dd3d 5b40 e43d 8b2b 5ebe d013 cd3d
00000090: 2165 603c e88b 253e 3772 44be 929d f8bb
000000a0: 5216 3cbe 025a 1d3e c126 a2bd ce98 423e
000000b0: 52d9 fc3d b997 123e c262 2cbe 4bea 9c3d
000000c0: bef6 d8bd 1640 4abe 1434 a2bc c0b0 b1bd
000000d0: 4c9f dcbd 312e 033e 0c93 cd3c a4dd 5b3e
000000e0: d08a 38be 6b1c 483e 0609 cc3d 1a7e b6bd
000000f0: 42e4 523d faa4 23be 6746 07be b9d4 9b3d
00000100: 4fb6 b9bd cff1 94bd 87c6 bd3d 3a30 28be
00000110: eff6 a9bd 1987 28be b157 063d d35c bd3d
00000120: cc43 5c3b 8794 8c3d 5f7b 3c3e 072b a13d
00000130: 1e24 183e c13a 18be ab76 c73d a5ec 34be
00000140: 72fb c83d 934f 43be 6f51 e83d 55b9 d7bd
00000150: 3074 17be 293b 873d fa58 36be c6d8 f33d
00000160: 11e6 303e b3bb 583e 21c2 4ebe 89e7 43bd
00000170: dae5 20be 07aa b83d 8946 c6bd 62ee dc3d
00000180: d8a2 09be 480d 483e f2f5 14be a830 cfbc
00000190: e884 443d 2e17 3ebd 55ab 8fbd c2ac bb3c
000001a0: d95f 343e 970d 51bd 45e1 21be 75b7 d23d
000001b0: 050f 27be 3106 73bb 4a6e 3abe efd9 22be
000001c0: 180b 42be 5e2f efbd 0182 003e 484a 31be
000001d0: 3a70 05be 88d3 063d c076 39be 4e59 b03d
000001e0: 9ee4 123d f1e2 d43c 22c1 113e b41b 2abe
000001f0: 2df0 d93d d401 1ebe 9aab 003e 707f 32be
-0.023806803 0.19323114 -0.024330802 -0.15360549 0.14308019 0.17652804 -0.032554816 -0.1415351
0.17981303 0.040076997 -0.15654261 0.14541873 0.1947016 0.060240958 0.15651637 0.17780393
-0.0003047063 -0.1672356 0.08307831 0.1157813 -0.01648848 -0.10331922 0.23057275 -0.007896665
-0.20835656 -0.1997403 0.10363857 -0.24626365 0.11823069 -0.15105946 0.05658285 0.04785767
0.10793881 0.11145087 -0.21696298 0.100135446 0.013695986 0.16166651 -0.19184195 -0.007587143
-0.1836789 0.15366367 -0.07917548 0.19003603 0.12346138 0.1431569 -0.16834548 0.07661875
-0.10593937 -0.1975101 -0.019800223 -0.086762905 -0.10772571 0.1281059 0.025094531 0.21471268
-0.18021703 0.1954209 0.099626586 -0.08910771 0.051487215 -0.15980902 -0.1321045 0.07608933
-0.09067976 -0.07272684 0.09266382 -0.16424647 -0.08299052 -0.16457786 0.032798473 0.092462204
0.0033609746 0.06864267 0.18406437 0.07869535 0.14857528 -0.14866163 0.09739431 -0.17668398
0.098135844 -0.19073324 0.11343657 -0.10533396 -0.14790416 0.06603081 -0.1780738 0.119065806
0.17275263 0.21165352 -0.20191242 -0.04782823 -0.15712681 0.09016805 -0.09681422 0.107876554
-0.13441026 0.19536316 -0.14546946 -0.025291756 0.04797831 -0.046408825 -0.07015101 0.022909526
0.17614688 -0.05103835 -0.1580859 0.10288898 -0.16314323 -0.0037082548 -0.18206134 -0.15903448
-0.18949544 -0.116789564 0.12549593 -0.17313492 -0.13031092 0.032916576 -0.18111706 0.086107835
0.035862558 0.02598712 0.1423383 -0.1661213 0.10641513 -0.15430385 0.12565461 -0.17431426

distribution.log_sigma f4 [1, 2]
00000000: 2ecd 82bf e1ce 81bf
-1.0218866 -1.014126

distribution.mu.weight f4 [2, 128]
00000000: 28bd e0bc bb70 0abd fed5 c9bd 93d8 f7bb
00000010: 7bee f9bb fd1f 48bd 8ffe ee3d a5c0 603d
00000020: 67fe 8b3d 7c58 03bb d5da 37bd 521a 09bc
00000030: fdb7 abbc c37e 513d b1ce a93b 75f1 663d
00000040: b38b 303d ec1b 9cbc 0fb3 b33c 6f64 b93c
00000050: e62d c43d 6957 c23d 1dc9 753c c1b0 083e
00000060: c4a0 4d3c 83d6 193d 8630 623c 8efc 80bc
00000070: 9e7f 2e3d 7348 b73d 8043 b3bc 4803 adbd
00000080: f632 c6bb 17bb 5e3c 4d66 973d 34b7 51bd
00000090: 0741 503d 5d64 013d 1912 97ba a3e7 6f3d
000000a0: 82e3 9abb b6c5 ba3d 3548 9d3d 7523 b53c
000000b0: 69ea 9f3d e4f6 cd3b bf15 2bbd 5816 10bc
000000c0: 2d95 5e3b b84e 9f3c a768 01be 26a8 383d
000000d0: 74fd a2bd 5b0c 75bc 97c8 a43c 2d8c 3f3b
000000e0: 9ba7 7abd 3362 20bd 144d 5fbc e242 48bd
000000f0: bb57 8cbd a0c9 93bd 1d1f cdbd 63da c23d
00000100: d466 b2bd ed48 9dbd 2e34 e4bc 5d37 aa3b
00000110: de4d 18bb d1ee 183d 1805 6d3d 5c06 8e3d
00000120: b253 343e a695 f53c 43d0 b3bb 0c73 52bd
00000130: 948e f53d 8010 b73c 47b0 8a3d 73f9 e23c
00000140: f289 a53b b821 253c ed29 863a c0d0 34bc
00000150: ec92 893d 1059 cd3d 3d08 47bc d195 d53a
00000160: 597f 883d 7f91 38bc a4dc 4a3d 4995 0c3a
00000170: 1183 64bd 8008 373d beef c43d 3ee8 6f3d
00000180: 42c4 42bd cd8b 9b3d 0d04 c0bb d33a 9d3d
00000190: 591b 18bc a107 cf3d 2cda b9bb c3f2 10be
000001a0: 514b 293a b655 2b3e 1885 08bd 238c 463e
000001b0: f847 ddbc d18a d43d fd77 373c 6e74 f73d
000001c0: f568 183b 7f75 7e3d 92dc ddbc bbb4 363c
000001d0: 4839 b3bb 9e76 503d f358 8a3d 02a6 4c3d
000001e0: eea5 4ebd a06d dd3b e266 413c 360c 8c3d
000001f0: 0b83 18bd 7ceb 383d ae63 3ebc 7977 57bd
00000200: 7097 343c 7c95 a33d 78af febc e346 efbd
00000210: 6e1a 7b3b 1912 be3d 2be8 88bc 1c59 84bd
00000220: 501c bb3d d108 c63b 44ca f3bd 50a4 8c3d
00000230: 82ef da3d 2cc1 2bbd ea30 9b3d cb14 453e
00000240: beac 483b b969 bcbd 3f35 d33b ba3c 753d
00000250: c784 44bc d651 e9bc d9ab 0b3e 68dd 0d3c
00000260: 58ba 22bd 4b72 9cbd 9ef3 3dbb b078 0fbe
00000270: 5447 6a3d 57ad 95bd 3bcf 903c bba5 7abb
00000280: 40f6 0eba 3280 393d 5c5e c9bd 53b5 d23c
00000290: b3bc 043d a536 b63d 0e95 67bd 11ad ab3b
000002a0: c2e1 09be 75b7 e93d a0e2 ab3c af0c 1d3e
000002b0: 56c9 343d f95f a03d 6968 97bd 69ea b4ba
000002c0: ff41 e93a 5bb0 55bd c6af 433c 7600 10bd
000002d0: 127b a8bd b94a dc3c d186 65ba 387f ca3d
000002e0: e341 ebbd a17c dc3d 2730 02bb 1ac3 f73b
000002f0: db24 ea3c 2bbd 3cbd 6432 1cbd efd0 2dbb
00000300: a714 2fbd a5d2 abbc e9c5 353d fbb1 41bd
00000310: 00c7 1d3c 6e5a 39bd 5f62 793d 3d55 513d
00000320: b856 1b3c 281e a73b 4449 a83d c273 2cbc
00000330: 2034 323e e83e 10bd aced 793d 5664 65bd
00000340: 9812 9c3c f3a9 e7bc ac94 6c3d dd94 18bc
00000350: f746 73bd eb5b c03d cbc0 95bd 223d 0f3d
00000360: 1bb7 023e f561 103e d598 9fbd dd9a b83b
00000370: dac3 8fbd f1ef 2f3d a2ed 18bd 1655 d43c
00000380: 61f2 303d ab9a 2b3e 18cf 36bb f12a 863c
00000390: 2133 603c 2413 89bc b80a 263b f840 e5bc
000003a0: 05ee 573d d518 72bd 03eb 4abe 72e3 de3d
000003b0: 4b5b 64bd e304 8e3c 9474 23bd fdac a4bd
000003c0: 934f 41bd 4dc8 49bd ba36 383d 19f4 80bd
000003d0: cf11 15bc a44d dab9 edf9 fbbd 630a 3e3d
000003e0: 080a 683d 44e6 823c e695 6f3d 979d 8cbd
000003f0: 691f d23c 30dd 74bd 4671 213d 2455 b2bd
-0.027433947 -0.033798914 -0.09855269 -0.0075636595 -0.007627306 -0.04885863 0.11669647 0.05487122
0.06835633 -0.0020041754 -0.04488643 -0.008368092 -0.020961756 0.05114628 0.0051821102 0.056382615
0.043101978 -0.019056283 0.021935968 0.022630898 0.09579067 0.094893284 0.015001562 0.13348676
0.012550537 0.03755809 0.013805514 -0.015745427 0.042602174 0.089493655 -0.021882772 -0.084478915
-0.0060485555 0.01359441 0.07392559 -0.051200107 0.050843265 0.031589855 -0.0011525779 0.058570515
-0.004726828 0.091197416 0.07679788 0.022111634 0.07808382 0.006285535 -0.041768786 -0.00879439
0.0033963427 0.019446716 -0.12637578 0.045082234 -0.079584986 -0.014956559 0.02011518 0.0029227838
-0.061194997 -0.03915615 -0.013629217 -0.04889191 -0.06852671 -0.07216191 -0.100157 0.0951431
-0.08711019 -0.07679925 -0.027856912 0.005194588 -0.0023239772 0.037337128 0.057866186 0.06934807
0.17610052 0.029978584 -0.005487473 -0.05137925 0.11990085 0.022346735 0.067719035 0.027706837
0.0050518448 0.01007884 0.0010235884 -0.011036098 0.06717476 0.10026753 -0.01214796 0.0016295259
0.06664915 -0.011265158 0.049526826 0.00053628214 -0.055789057 0.04468584 0.0961604 0.058571093
-0.047550447 0.07595024 -0.005859858 0.076772355 -0.009283864 0.10108877 -0.00567176 -0.14155106
0.00064580614 0.16731915 -0.033330053 0.19389395 -0.027011856 0.1037804 0.011198041 0.12082754
0.0023255919 0.06212377 -0.027082715 0.011151488 -0.005469475 0.050894372 0.06755247 0.049963005
-0.05045121 0.006757453 0.011804314 0.068382666 -0.037234347 0.04514645 -0.011620445 -0.052604172
0.011022434 0.07987496 -0.03108953 -0.116834424 0.0038315314 0.092807956 -0.016712269 -0.06462309
0.091362596 0.0060435315 -0.119038135 0.068672776 0.10690214 -0.04193227 0.07577689 0.19246213
0.003062054 -0.091998525 0.0064455564 0.059872366 -0.011994547 -0.028481405 0.13639773 0.008658744
-0.039728492 -0.07638987 -0.0028984318 -0.14010882 0.05719693 -0.073084526 0.01767694 -0.0038245756
-0.0005453564 0.045288272 -0.09832451 0.025721228 0.03240652 0.08897141 -0.056538634 0.005239137
-0.13465026 0.11411945 0.020982087 0.1533687 0.04413732 0.07830805 -0.073929615 -0.001380277
0.0017796158 -0.05217014 0.011943763 -0.03515669 -0.08226599 0.0268911 -0.0008755746 0.09887546
-0.11487176 0.107659586 -0.0019865127 0.0075610997 0.028582027 -0.046078842 -0.038133994 -0.002652224
-0.042744305 -0.020974467 0.044378195 -0.047288876 0.009629965 -0.045252256 0.06088483 0.05110668
0.009481125 0.0051000305 0.08217099 -0.010525646 0.17402697 -0.035216242 0.061017677 -0.05600389
0.019051835 -0.02827928 0.057758972 -0.0093128355 -0.05939385 0.09392532 -0.07312163 0.03497041
0.12765162 0.14099868 -0.07792822 0.0056336955 -0.070197776 0.042953435 -0.037336 0.025919478
0.0431999 0.1675822 -0.0027894434 0.016377898 0.013684065 -0.01673276 0.0025335979 -0.027985081
0.052717227 -0.059105713 -0.19816212 0.108832255 -0.055751126 0.017336315 -0.0399061 -0.080408074
-0.04719503 -0.049263287 0.044974066 -0.06296558 -0.009098484 -0.00041638047 -0.12303529 0.046396624
0.05665019 0.01597894 0.058492564 -0.068659954 0.025649743 -0.059781253 0.039414667 -0.087076455

distribution.mu.bias f4 [2]
00000000: cacf 45bc 0b07 513e
-0.012073467 0.20412843

critic.network_body.vector_processors.0.normalizer.running_mean f4 [52]
00000000: 4b98 b03b fd96 7e3f 6ec0 d634 308e 973e
00000010: 0659 b63b 9087 7e3f 85c0 d634 e347 983e
00000020: 0301 a33b 55b6 7e3f 7dc0 5635 7321 973e
00000030: 5252 b63b 1e88 7e3f e60f a135 aa99 993e
00000040: f530 9a3b e2cd 7e3f 0000 0000 1e7d 963e
00000050: b113 c93b b169 7e3f 94c0 d634 dad6 9a3e
00000060: 32f8 9d3b f8c8 7e3f 7dc0 d634 76c1 953e
00000070: fe3a df3b 6940 7e3f 88c0 d634 65bd 9b3e
00000080: a3f7 ab3b 37a8 7e3f 0000 0000 ce20 953e
00000090: 7541 fe3b bc05 7e3f 7dc0 d634 0270 9c3e
000000a0: c218 dc3b f945 7e3f 88c0 d634 2f96 943e
000000b0: 89f2 263c 3662 7d3f 79c0 d634 345c 9c3e
000000c0: 2a74 173c 389e 7d3f 0000 0000 aa53 953e
0.0053892485 0.9944914 4.0000617e-07 0.29600668 0.0055648116 0.994256 4.0000683e-07 0.29742345
0.004974486 0.99496967 8.000132e-07 0.29517707 0.0055640126 0.9942645 1.2000062e-06 0.3000005
0.004705543 0.995329 0.0 0.29392332 0.0061363806 0.9938002 4.0000725e-07 0.30242044
0.004820847 0.99525404 4.000066e-07 0.2924916 0.0068124523 0.9931703 4.000069e-07 0.30417934
0.0052480265 0.99475425 0.0 0.2912659 0.007759268 0.992275 4.000066e-07 0.30554205
0.0067168185 0.9932552 4.000069e-07 0.2902083 0.010189661 0.98977983 4.0000648e-07 0.30539095
0.009244004 0.9906955 0.0 0.29165393

critic.network_body.vector_processors.0.normalizer.running_variance f4 [52]
00000000: bc68 5146 ca9d 5146 edff ff3f a7e1 d247
00000010: 2c2f 5846 054e 5846 e9fe ff3f 2686 d547
00000020: 3659 4146 e2fa 4146 9cff 3f40 f0ea d047
00000030: 6229 5846 1c60 5846 ebfd 7f40 5a48 db47
00000040: 2bf0 3646 0164 3746 0000 803f a145 cc47
00000050: 3841 6e46 c96b 6e46 80ff ff3f b630 e147
00000060: 3066 3b46 16dc 3b46 deff ff3f c914 c647
00000070: 9726 8446 0737 8446 c0fe ff3f 84de e547
00000080: 01ec 4b46 f066 4c46 0000 803f ea4d c047
00000090: 0163 9646 0e7d 9646 b0ff ff3f b863 e947
000000a0: 364f 8246 1c99 8246 c1fe ff3f af7f bc47
000000b0: b1fd c446 5512 c546 c9ff ff3f d513 e847
000000c0: 92e4 b246 a026 b346 0000 803f a2bc c047
13402.184 13415.447 1.9999977 107971.305 13835.793 13843.505 1.9999667 109324.3
12374.303 12414.721 2.9999762 106965.875 13834.346 13848.027 3.999873 112272.7
11708.042 11737.001 1.0 104587.26 15248.305 15258.946 1.9999847 115297.42
11993.547 12023.021 1.999996 101417.57 16915.295 16923.514 1.9999619 117693.03
13051.001 13081.734 1.0 98459.83 19249.502 19262.527 1.9999905 119495.44
16679.605 16716.555 1.999962 96511.37 25214.846 25225.166 1.9999934 118823.664
22898.285 22931.312 1.0 98681.266

critic.network_body.linear_encoder.seq_layers.0.weight f4 [128, 52]
00000000: d272 283e b783 35be 9e3b e3bd b44d a3be
00000010: 8c88 69bd 92c4 423c 26da 65be af49 9d3d
00000020: 033c 7cbd 6719 31be 7f26 b7bd 40b5 56bd
00000030: 3dc5 03bd 5adc e4bd 35fe fd3d 5771 37be
00000040: 285a 37bd 04be 133e e120 153e 6530 203c
00000050: bd60 c83e 7589 90bc d25d 25be 40d5 153e
00000060: 740e a53c 74fb 1cbe d2a7 7cbe 75af 93bd
00000070: 1302 0a3e ca4a ddbd 30d0 36be a0bf af3a
00000080: bf3f fd3c 33a9 14be 4d7c d33d 1780 76be
00000090: 2c9a 803c ada9 643d bc91 12be 86e2 2d3d
000000a0: 37ed a8bd 0c95 5f3c f3e8 66be 5161 933d
000000b0: 8a04 9e3c b8a4 cabd 73a8 75bd a4ee 0dbc
000000c0: 7be6 d43e 67b1 57be a682 89bd 8e11 4cbe
000000d0: 4fe2 383e cd56 bc3e 8f9c 98be 9fe6 133e
000000e0: 3921 02bd 6597 64be 07d6 2fbe 1feb 84bd
000000f0: f0e8 d0bd a2d7 cd3c 9bcd 5dbe dd18 ca3d
00000100: ca7c 8fbc 1f29 5bbe 4b67 1abe 96e8 9c3d
00000110: 8022 d43c 102d b1bc abfb 2abe 8c0a 833c
00000120: 0b89 233e 3626 183d 48a8 3ebd aad5 dabd
00000130: 0430 86bd 2b19 573e 3e3c 7b3d 145a e83d
00000140: aa57 243e 356f 4d3d c4ee 983d c070 363c
00000150: 1e08 4637 3d30 323e d1fa 9a3e d2a7 ab3d
00000160: e470 403d e564 ad3c f5d4 ffbd f51d ad3c
00000170: c89a 643c 32cb 64bc d06b 65be a274 58be
00000180: 4a89 08bd 2019 26be f4ee 31bd 1d2d a8bd
00000190: bae5 ff3d a7ea 273e 0768 d03d b588 923e
000001a0: d48b 8d3d 4de4 78bd 0e36 533c 125f 153d
000001b0: 1f44 49be 7565 4abe da5f febd 48ac 9b3e
000001c0: 8b73 9abd f114 d03c 8ebc a4be 18fe 87bc
000001d0: a698 223e 6592 26bd 6c4f c53c 6271 413e
000001e0: 2c06 493e a7b9 aabd c0c0 893b 4a0f 9abe
000001f0: e1dc 5e3d 0114 2a3c c0cb 133e edea 05be
00000200: 0f58 913d 966c 8cbd 5abe 94bd 1b14 aabd
00000210: 5fed 523e 30ff a03d c6ba 94bd 61ee 113d
00000220: 3529 a73d a20a 3bbd 41e8 ac3e 9cfe 583e
00000230: e3ed 2b3e 2e3d c7bd 17dd e3bc 9da6 d1bd
00000240: 9e52 c83d 6603 25bd 1a82 403e 83e0 f93d
00000250: 74f8 70bc 15b7 00bb d8ea 20bd 1369 573d
00000260: 52f8 d4bd 8503 20bc fac4 06be 1f3d a83e
00000270: 7fb5 a1bd 7453 613e 6191 b83d d018 4ebe
00000280: eee4 04bd 668e b13d f04a 903e bc7a a8be
00000290: 908e a43d b0a5 e5bd 4a74 be3d 794f 0fbe
000002a0: fb43 debd edb0 d3bc bccd 63bd e5c4 07be
000002b0: 99a5 d13c fd95 e3bd e721 33be ac23 283e
000002c0: 36f9 51bd 9788 1fbc 0092 793e f746 06bc
000002d0: 90da bcbb 8bc3 e83c cd26 583d 3839 2dbe
000002e0: 4706 06be 7502 22bd ecf8 70bd 7659 e8bb
000002f0: 8b5f 02bd 67ba 1ebe d6f4 6b3e 3707 923e
00000300: 624b 863a 5631 89be 1b86 533e 45b8 8d3e
00000310: 10aa 99bc d0a1 513e ebe1 563e 4675 adbd
00000320: ccd0 2dbe a803 f4bd d668 ff3d 4e91 42bd
00000330: 9771 92b9 89b8 093d 60c6 533d 96a9 253e
00000340: 9cb4 18be fbca 383c 7ac9 80be 7f55 8cbd
00000350: a5bd 07be d27a d53d 8eda a53e afd7 8f3c
00000360: ea16 3abe b12c eb3d 424b 1f3e db21 00be
00000370: 8ea1 dabd d019 fc3c 25d3 a03d 9e9a 00be
00000380: 9a3a 59be 0123 4abe b51b c33d 54dc 10be
00000390: b095 963d aa24 1bbe 83d3 42bd fd27 ec3d
000003a0: bd1c 183d 4b4a e3bd 0da4 a93e 994f 6ebd
000003b0: b43b 743d a5ef f8bd 411f 00be eb84 553d
000003c0: 66ca bb3d e721 643d 87a1 fb3d f196 803e
000003d0: 44bd acbc 9386 d33b e28f 223e 8341 833c
000003e0: 08a5 5dbd 09f9 983e de31 1cbc c61a 093e
000003f0: 1640 65bd ce2e 983e abb6 51be 9545 62bc
0.1645005 -0.17726026 -0.110953555 -0.3189522 -0.057014987 0.011887686 -0.22446498 0.0768007
-0.06158067 -0.17294846 -0.089428894 -0.052418947 -0.032170523 -0.11174841 0.12402002 -0.1791433
-0.044763714 0.14427954 0.14563324 0.009777163 0.39136305 -0.01764367 -0.16149071 0.1463213
0.020148493 -0.15330297 -0.24673393 -0.072112 0.13477354 -0.108052805 -0.17852855 0.0013408549
0.030914186 -0.1451767 0.10326443 -0.240723 0.015698515 0.055825878 -0.14313406 0.042452358
-0.0824837 0.013646375 -0.225498 0.07196296 0.019289274 -0.09894699 -0.0599751 -0.008662853
0.41582093 -0.21063767 -0.06714372 -0.19928572 0.1805508 0.36784974 -0.29806945 0.14443444
-0.031769965 -0.22323377 -0.17171489 -0.06490158 -0.10200679 0.025127236 -0.21660464 0.098680235
-0.017515559 -0.21402405 -0.15078466 0.0766155 0.025895357 -0.021627933 -0.16697566 0.01599624
0.15970246 0.037145816 -0.046547204 -0.106852844 -0.06552127 0.21005695 0.06133675 0.11345306
0.16049066 0.050154883 0.07467416 0.01113528 1.180361e-05 0.17401214 0.30269483 0.083816186
0.04698266 0.021166274 -0.1249179 0.021132449 0.013952918 -0.013964461 -0.22404408 -0.21138242
-0.033334054 -0.16220522 -0.043440774 -0.0821173 0.12494989 0.16398107 0.10176092 0.28619924
0.06911436 -0.0607646 0.012891306 0.03646762 -0.19654892 -0.19765265 -0.12420626 0.30404878
-0.07541569 0.02540061 -0.32175106 -0.016600654 0.15878543 -0.040666956 0.024085723 0.18890908
0.1963126 -0.083361916 0.004203886 -0.3008979 0.054409865 0.010380746 0.14433193 -0.13077898
0.07096874 -0.068566486 -0.07262869 -0.08304616 0.20598362 0.07861173 -0.07262187 0.035627726
0.081621565 -0.045664437 0.33770946 0.21190876 0.16789965 -0.09728466 -0.027815385 -0.10236857
0.09781383 -0.040286444 0.1879963 0.12201025 -0.014707673 -0.0019640375 -0.039286464 0.05259044
-0.10398926 -0.009766464 -0.13161078 0.32859132 -0.07895946 0.22004491 0.09012104 -0.20126653
-0.032444887 0.086697385 0.28182173 -0.3290614 0.08035004 -0.11213243 0.09299524 -0.1399516
-0.1085281 -0.0258412 -0.055616125 -0.13258703 0.025591658 -0.11112592 -0.17493401 0.16419858
-0.051263057 -0.009737155 0.24372101 -0.00819563 -0.0057633594 0.028413555 0.05277138 -0.16916358
-0.13088332 -0.039553124 -0.05883114 -0.0070907427 -0.031829398 -0.15500794 0.23042616 0.2852113
0.0010245855 -0.26795453 0.20656626 0.2767965 -0.01875785 0.20471883 0.20984618 -0.08469634
-0.16974181 -0.1191476 0.12471168 -0.047501855 -0.0002793192 0.033623252 0.051702857 0.16177973
-0.14912647 0.011278863 -0.25153714 -0.068522446 -0.13255937 0.10423817 0.32393306 0.0175589
-0.18172804 0.114831336 0.15556052 -0.12512915 -0.10675345 0.030774027 0.078527726 -0.12558982
-0.21213761 -0.19739915 0.09526769 -0.14146549 0.073527694 -0.15150705 -0.047564995 0.11531065
0.037136782 -0.11098155 0.33132973 -0.05818138 0.05962725 -0.121550836 -0.12511922 0.052128714
0.09169464 0.055696394 0.12286668 0.2511516 -0.021086343 0.0064552515 0.158752 0.01602245
-0.054112464 0.298775 -0.009533374 0.1338912 -0.05596932 0.2972321 -0.20479839 -0.013810535

critic.network_body.linear_encoder.seq_layers.0.bias f4 [128]
00000000: 662d 6b3d c8c1 863d 732a 243e ba3a bebd
00000010: 7246 f0bd 9ec8 d6bd 4183 21be 3f55 e1bd
00000020: ee57 40bd f8d7 b3bd b999 863c 5c97 00be
00000030: df6f 7e3d 5ccc 3ebe adb1 c4bd 2205 85bd
00000040: 6676 9d3d 487e ce3d a3e6 353d 7f6d 9d3e
00000050: 88a8 86bc 5b86 353d f772 463d f776 5abe
00000060: 0a00 e8bd 5f5a 4dbc 31c3 e1bd 9a52 ddbc
00000070: a01e 0f3c 7a1e be3c a248 df3b bd65 a7bd
00000080: 87ed 8d3c e6c7 57bc 4599 98bb 78da 46be
00000090: 96be f1bd 4b84 b53d 431c 36be 6e75 95bc
000000a0: 8df5 5e3d e372 d03c b61e 153c 8d44 9e3c
000000b0: 0269 fcbd 438b f2bd 4161 ee3d 4c08 26bd
000000c0: fed2 403d 3aa9 c9bd ab88 8bbe f446 4fbe
000000d0: 96eb b33d 73fb 71bd f222 8e3d ae67 40bd
000000e0: bd09 98bd 03ba 0e3c 5eed cbbd 2728 30be
000000f0: b2a3 4c3d 8778 abbd 8d7c d4bd 27f6 02be
00000100: a521 96bd 4956 1a3d af95 723e 69ec 06be
00000110: d166 85bd 7b84 713d 7575 c03d 8fb5 4abd
00000120: 0e8e 80bd 97ed eebd 129a 70bd c185 8c3d
00000130: bbcb 11bd 643d 1a3e aa27 a53a 05d2 c13d
00000140: 14d7 2fbe 54b4 b73d 4df4 f6bb 3424 bfbb
00000150: 3077 b53d 8862 1abe 413c 4abe eba6 96bb
00000160: 12a7 823a 0278 083e 72c0 b0bd 29af 39bd
00000170: 8f39 a7bd 1559 743b 1114 f73c 18f6 e5bd
00000180: 0b51 683c d0d3 e23c 9ef1 3fbd 3da5 12be
00000190: ddcc 49bd 1df4 e4bd e492 5abe b2d8 2c3c
000001a0: f60e 04be 467d a7bd 5671 733d 65f2 93bd
000001b0: 211d 3bbe 73b0 1d3c 28d6 acbd 575e 433e
000001c0: 6131 503d 76b9 0dbe c329 373d e372 e53d
000001d0: 24c5 a4bc c65d 5fbd c4ed c4bd 5787 b63d
000001e0: 438d 66be 1d75 58be d7f2 143d 6c20 aa3d
000001f0: 3fc4 ad3d e2c3 c83d 1af6 4dbe 9128 7f3d
0.057416342 0.065799296 0.16031818 -0.09288545 -0.117321864 -0.104874834 -0.15772726 -0.110025875
-0.046958856 -0.08781427 0.016430723 -0.12557739 0.062118407 -0.18632644 -0.096042015 -0.0649512
0.07688598 0.1008268 0.044409405 0.307476 -0.016437784 0.044317584 0.048449483 -0.21334444
-0.113281325 -0.012533753 -0.11023558 -0.027016927 0.008735329 0.023207892 0.0068140784 -0.08173702
0.017325176 -0.013170218 -0.004656943 -0.19419277 -0.118039295 0.088631235 -0.17784218 -0.018244471
0.054433394 0.025445407 0.00910156 0.019319797 -0.12324716 -0.11842968 0.116396435 -0.040535256
0.047076218 -0.098467305 -0.27252707 -0.2024191 0.08785169 -0.05907769 0.06940259 -0.046973877
-0.074237324 0.008711341 -0.099573836 -0.17202817 0.0499608 -0.08372598 -0.10375319 -0.12789212
-0.07330636 0.037679944 0.23689912 -0.13176121 -0.06513751 0.058964234 0.09397403 -0.049489554
-0.06277095 -0.116664104 -0.058740683 0.06861449 -0.035594683 0.15062481 0.0012600322 0.09463886
-0.1717189 0.08969942 -0.007536447 -0.005833173 0.08860624 -0.15076649 -0.19749548 -0.004597535
0.0009968004 0.1332703 -0.08630456 -0.04533306 -0.08165275 0.0037284542 0.030160936 -0.11228579
0.014179478 0.02768889 -0.046861283 -0.14320846 -0.04926764 -0.111793734 -0.21345097 0.010549711
-0.12896332 -0.08178191 0.059434257 -0.072239675 -0.1827283 0.009624588 -0.084392846 0.19078957
0.05082834 -0.13840279 0.04471756 0.112035535 -0.020113535 -0.05453279 -0.09615663 0.08912533
-0.22514825 -0.21138425 0.036364403 0.08306965 0.084846966 0.09802987 -0.20113412 0.062294547

critic.network_body.linear_encoder.seq_layers.2.weight f4 [128, 128]
00000000: b833 a5bb a537 2c3d c19c 17be 65b4 0d3d
00000010: b36c 87be 84dd 03bc a11d 1e3d 00a6 06bc
00000020: 5ce6 0abe 2333 5d3d 068e ffbd d19d 17be
00000030: e3df 403c 7441 52bb 5715 e93d 4f93 0b3e
00000040: 306b c2bd 8aae 34bd 8d48 ce3c d9e3 e4bc
00000050: a264 1a3d 568d 673c e951 1fbd cbfa 003e
00000060: b624 0bbd 5faf 1cbe 60f4 ca3d e469 6c3d
00000070: 81a4 843d 5f3b 173d fb88 5c3d 84d8 98bd
00000080: 0d6a 26be 116a 7abd 3344 d3bd a3ae 1a3e
00000090: b384 e63c e24d 51bd 8b6f 1bbe 23b3 23be
000000a0: 668e c2bd 4eb7 31be 6c07 cfbd 78e1 6f3d
000000b0: b412 113d 7f15 2a3d 7739 91bd da88 f83d
000000c0: e06f d4bd 694e 26bd bca6 1d3d 0f7e 933d
000000d0: dc0f 003d 6337 c7bd 6121 55bd 9973 2fbd
000000e0: 1b3e 6ebc 71a8 9cbd d58b 8d3c 07c3 233d
000000f0: 5017 aa3d 0291 1b3e 70fe 5abd 9de3 973c
00000100: c2a0 c7bb 075c d63d c842 503d 1800 4abd
00000110: dfd6 1a3d 615d 4d3d 4ac3 643e d226 203e
00000120: b47e 8fbd 9c91 b23c 05ca f1bc a44f 053d
00000130: 9397 34be 980b 91bd 5ee5 44be bb38 d23d
00000140: cc4a 6a3d cfcb c53b a794 bfbc 21e2 7b3d
00000150: 7f7d fa3c 9690 263e 7902 cabd 8e35 203d
00000160: 16b5 bb3b 1613 ebbd 21b9 8abd 3759 78bc
00000170: 38cf 41bd 677f 8dbd 06da d4bd 521b 80bd
00000180: 9d44 893d a65f 133d 8076 423d 040a b4bd
00000190: 2b9a b9bd cbb8 91bd adf0 6a3d dbf7 01be
000001a0: c331 5b3d 79cd 06be 1860 1a3c eec2 88bd
000001b0: 20fd bc3d 6959 15bd 7b66 2cbe b29a ccbd
000001c0: 8765 6c3d a2c3 593e 54fd 8b3d 77a8 e8bc
000001d0: 7203 223d b528 943d 4846 01bc aad2 18bd
000001e0: c1d3 01bc c582 963c 8ba3 fc3d 8919 0dbe
000001f0: 7ac0 65bc 0bf6 7cbd 60cc ffbc 6361 51be
00000200: 3f50 553d 6306 d23d f2d7 e1bc 4916 03be
00000210: d008 62bc e339 89bd a049 ad3c a2c9 8cbc
00000220: e6bf bdbd 122d 4fbd 95f4 f63c 8086 bd3d
00000230: 6f4a 2a3e 78b0 0abe 56bc 6b3d 32c5 a3bd
00000240: bcc3 c33d f830 cb3d c18d 93bd 88e0 bd3d
00000250: 2102 2ebe 041d 073e 3b52 b63d 6d5e 70bd
00000260: 8eef 07bd c59a 05bd b325 4b3c 53d8 893d
00000270: 41c2 be3d b716 2b3e 8b55 88bd 92a7 1bbc
00000280: 1510 6e3d 9faf 94bd ddfb 583e 96d1 e1bc
00000290: 62da 943d 7fad 083e cec4 a5bb e417 ccbd
000002a0: 46b7 473c 673e 0ebd f3c3 ff3d 1229 3b3d
000002b0: dab6 203e 7268 4bbe 7358 35bd 11a1 b73a
000002c0: c5e2 803d 4300 023e 12da 803d b8bd e33d
000002d0: b12a b33c 27c4 adbc 8549 b43d 41e3 82bc
000002e0: 8243 7cbd 37a7 39bc e1dc 4fbc 5a75 243e
000002f0: ec4e 1ebe efdf 78be 43cc 153d eed5 093d
00000300: 32e5 a03d afac 8ebb b54a 0b3e 6daf 563d
00000310: 5a52 1fbe 9828 45bd a693 773d 9502 61bc
00000320: e616 c5bd e297 37bd b81e ac3c fa28 6a3b
00000330: df6f 79bc 876c f3bd 9025 08be 478a a83c
00000340: 341d 793c b9b6 19bd 1f83 023c e4f9 3d3c
00000350: eb41 273d 7997 2fbc 8072 833d 2aaf c5bc
00000360: f4f3 12bd 4d14 b1bc 9038 7fbe 556b ec3d
00000370: 2ef6 783c 9ec5 30bc a2c4 823b 830f 1fbe
00000380: 83ff 733c c29b d43c 0604 813c c42b 79bd
00000390: f25c e0bd 0770 5f3e 314a 623d f73c d8bd
000003a0: f691 2b3d 5bd0 66be 80db 8d3d 26cb 573d
000003b0: c62c 8d3d c397 6b39 b8fc 9d3d b6d9 debc
000003c0: 5ac6 e63d 6cb0 3abe 9ce0 9c3d c9bc 92bd
000003d0: f870 293e 9e64 f63d f91c a9bd 0c76 553d
000003e0: bea1 eabc d04d 913d 1bd4 92bd 5f81 003e
000003f0: 4dd1 3ebc 4636 0f3e 4d6d f1bd 4d41 8b3d
-0.0050415657 0.042045254 -0.1480589 0.034595866 -0.26450118 -0.008048419 0.038602475 -0.008218288
-0.13564438 0.054003846 -0.12478261 -0.14806296 0.011772129 -0.003208247 0.113810234 0.13630413
-0.09493101 -0.044111766 0.02518108 -0.027940677 0.037693627 0.014132818 -0.038896475 0.1259567
-0.033970557 -0.15301274 0.09909892 0.057718173 0.06476689 0.036921855 0.053841572 -0.07463172
-0.16251393 -0.06113631 -0.10315742 0.15105681 0.028139448 -0.051099665 -0.15179269 -0.15986304
-0.094998166 -0.17355081 -0.101088375 0.058564633 0.035418227 0.041524407 -0.07091039 0.12135477
-0.10372901 -0.04060212 0.03848909 0.07201778 0.031265125 -0.09727361 -0.052033786 -0.042834852
-0.014541174 -0.07649315 0.017278591 0.039980914 0.08305228 0.15192035 -0.053465307 0.018541152
-0.006092162 0.104667716 0.050844938 -0.049316496 0.037802573 0.05013788 0.22340122 0.15639809
-0.070065886 0.021797948 -0.029515276 0.032546654 -0.17635946 -0.070822895 -0.19228122 0.10264727
0.057200238 0.006036259 -0.023386313 0.06149495 0.03057742 0.16266093 -0.09863753 0.039113574
0.0057283742 -0.1147825 -0.06773592 -0.015157989 -0.04731676 -0.06909066 -0.10393147 -0.06255211
0.0670254 0.03597989 0.04747629 -0.08790973 -0.09062608 -0.071153246 0.057358433 -0.12692206
0.053514253 -0.13164319 0.009422325 -0.06677805 0.09227967 -0.03646222 -0.16835968 -0.09990443
0.05771401 0.21266034 0.06835428 -0.028400643 0.039554067 0.07234327 -0.0078902915 -0.03731028
-0.007924021 0.018372903 0.12335881 -0.13779272 -0.014022941 -0.061758082 -0.031225383 -0.20447306
0.05207848 0.102551244 -0.027568791 -0.1280147 -0.013796046 -0.06700494 0.021153271 -0.01718599
-0.09265117 -0.05058009 0.030145923 0.092541695 0.16629957 -0.1354388 0.057552658 -0.079965964
0.09558818 0.099214494 -0.07204772 0.092713416 -0.16993 0.13194662 0.08902403 -0.0586838
-0.03318744 -0.032618303 0.012399125 0.06730714 0.09314395 0.16707884 -0.06656941 -0.009500401
0.058120806 -0.072600596 0.21189828 -0.027565759 0.07268216 0.13347434 -0.0050588613 -0.09965494
0.012189692 -0.03472748 0.12488546 0.045693465 0.15694752 -0.19864061 -0.044273805 0.0014009794
0.06293253 0.12695412 0.062915936 0.1112017 0.021870943 -0.021211697 0.08803085 -0.015977504
-0.061587818 -0.011331371 -0.012686939 0.16060391 -0.15459794 -0.24304174 0.036571752 0.033651285
0.078562155 -0.0043540816 0.13602717 0.052413393 -0.15558758 -0.048134416 0.060443543 -0.013733526
-0.09623508 -0.04482258 0.021010742 0.003572999 -0.015224426 -0.11885934 -0.13295579 0.020573748
0.0152047165 -0.037527774 0.007965832 0.011595223 0.04083435 -0.010717266 0.064183235 -0.024131376
-0.035877183 -0.021616125 -0.2492392 0.115439095 0.015195413 -0.010789303 0.0039907256 -0.15533261
0.014892462 0.025953177 0.015748989 -0.060832754 -0.10955228 0.21820079 0.055246536 -0.10558503
0.041887246 -0.22540419 0.06926632 0.05268397 0.068933055 0.00022467882 0.07714218 -0.027203422
0.11268301 -0.18231362 0.07660028 -0.07164914 0.16547 0.1203091 -0.08257479 0.05211453
-0.028641578 0.0709492 -0.07169362 0.12549351 -0.011646581 0.13985547 -0.117884256 0.067995645

critic.network_body.linear_encoder.seq_layers.2.bias f4 [128]
00000000: c971 253d 1e70 4c3d 9590 1ebd a41c c9bd
00000010: 23d2 4f3c 4e22 b7bc 8364 4b3c 733c bcbd
00000020: 96db 813c e4d9 1dbd db4d dfbd 2012 e2bd
00000030: d73c 13bd fdc6 ccbd 9e3a cebd 39af 96bb
00000040: c3e9 c93c 7754 c3bd f1ab c0bd 9130 c8bd
00000050: e859 61bd 0072 02bd 45ab b3bd 7759 083d
00000060: 71da 07be 1c37 ccbd 6c2f c6bd 842d 87bb
00000070: a631 ebbd f9c4 e6bd 527e 85bd 671b f8bd
00000080: 718e 0cbd 2a3f d3bd be27 283c 0ac2 e0bc
00000090: d6bc bc3c d513 1f3d fee4 ddbd 6e3f 92bd
000000a0: a9f7 adbc 5b4f d9bd c5cc a2bc d82d bc3c
000000b0: 77b7 8a3c caef cfbd 3e56 00bd b868 64bd
000000c0: 3950 ddbd 92f1 13be 7782 d2bd 2322 f1bd
000000d0: 15be ea3c 8f6a 3e3b 9245 e9bd 5b1b 4bbd
000000e0: 4f37 abbd c0be d7bd 2b8e d0bd 032d bebd
000000f0: 5a10 ef3c 1878 463d 107e b8bd 2200 cfbd
00000100: f01b 81bc 9c02 2abd b3d0 c1bd dea3 e1bd
00000110: 9eb8 dbbd 3c97 2cbd d548 34bd 1b3d d3bd
00000120: 0d16 3e3d cf1d b73b c1fb 4bbd 5a0a c3bd
00000130: c3de f1bd fee4 dcbd 00ab b9bd 079c 363d
00000140: 1695 12bd 6f27 033d 3a2a b2bd 9f13 e3bd
00000150: 5919 b6bd 4a4e 2abd a6c1 63bd 28e5 223c
00000160: ae81 e7bd 924d bbbd 58df 383d ca0c 473d
00000170: 94eb ccbd 9616 41bd 2a87 cbbd f197 dabd
00000180: 826f dabc 0588 d6bd c804 c73b 3921 7bbc
00000190: e4c0 eb3c a2d6 8dbd b05b cabc d52d 21bb
000001a0: 5005 93bd 1e2a aa3c 3f6d afbb d5c8 06bd
000001b0: 2661 553d 2f2e 013d 825a 1c3d 59d0 a4bd
000001c0: 1389 d3bd 81eb 113b 1aa4 5bbd 5f46 86bd
000001d0: 4134 1f3d 3a2d 40bd 1721 94bd ef63 c1bd
000001e0: b139 eebd f533 ecbd e1ef 353d 9462 693d
000001f0: 33f0 9f3a 898b 2c3d 2f50 c5bd 7aa8 dabd
0.040391717 0.04991161 -0.038712103 -0.09819916 0.012684378 -0.022355225 0.012414101 -0.09191217
0.015851777 -0.038537875 -0.109035216 -0.11038613 -0.035946693 -0.099988915 -0.10069774 -0.004598525
0.0246476 -0.09537595 -0.09407795 -0.09774888 -0.055017382 -0.031847 -0.087729014 0.033288445
-0.13266923 -0.09971449 -0.09677014 -0.004125299 -0.11484079 -0.11268038 -0.06518234 -0.121146016
-0.03431553 -0.10314782 0.0102633815 -0.027436275 0.023039263 0.038837273 -0.108346924 -0.071410045
-0.021236258 -0.10610839 -0.019873032 0.022971079 0.016933186 -0.10153158 -0.031332247 -0.05576393
-0.10806317 -0.1444762 -0.102787904 -0.11774089 0.028655091 0.0029055213 -0.113902226 -0.049586635
-0.08360159 -0.105344296 -0.101833664 -0.09285929 0.029182602 0.048454374 -0.090084195 -0.10107447
-0.015760392 -0.041506395 -0.09463634 -0.11017583 -0.10728572 -0.042136416 -0.04401477 -0.10314389
0.046407748 0.0055882703 -0.049800638 -0.09523459 -0.118100666 -0.10785864 -0.09065819 0.044582393
-0.03578671 0.03202003 -0.0869946 -0.11087727 -0.088915534 -0.04157857 -0.0556046 0.00994233
-0.11304031 -0.09145655 0.045134872 0.04859618 -0.100058705 -0.04714068 -0.0993789 -0.10673512
-0.0266645 -0.104751624 0.006073568 -0.015327745 0.0287785 -0.069257036 -0.024701923 -0.0024593968
-0.07178748 0.020772036 -0.0053535993 -0.032906372 0.0520946 0.031538185 0.038172252 -0.08047552
-0.10328879 0.0022265615 -0.053623296 -0.06556391 0.038868193 -0.04691813 -0.07232874 -0.09442889
-0.116320975 -0.115333475 0.04441822 0.056978777 0.0012202322 0.04212526 -0.096344344 -0.106766656
