results/fifth/Car/Car-7999987.pt (torch, 582455 bytes, 40 tensors)

network_body.vector_processors.0.normalizer.running_mean f4 [52]
0	0x3ccf2ab2	0.025288913
1	0x3f79a2f7	0.9751429
2	0x34c95367	3.749985e-07
3	0x3e962fca	0.29333335
4	0x3cac9065	0.021064946
5	0x3f7a9ece	0.97898567
6	0x354952c3	7.499877e-07
7	0x3e9725e8	0.29521108
8	0x3cececbf	0.028921483
9	0x3f78b86a	0.97156394
10	0x3506395d	5.0002365e-07
11	0x3e962020	0.29321384
12	0x3ca2eebd	0.01988923
13	0x3f7add3b	0.9799382
14	0x3596ff31	1.1250141e-06
15	0x3e97e92a	0.29670078
16	0x3d1beaee	0.038065843
17	0x3f7658a0	0.9622898
18	0x340639d0	1.2500755e-07
19	0x3e956f43	0.29186448
20	0x3cafb945	0.021450648
21	0x3f7a81f9	0.9785457
22	0x35c95399	1.4999997e-06
23	0x3e997145	0.2996923
24	0x3d4eb67a	0.050466992
25	0x3f731d5c	0.94966674
26	0x34c952e1	3.749947e-07
27	0x3e946352	0.28982025
28	0x3ccd4b3b	0.025060287
29	0x3f79a7c4	0.97521615
30	0x356ae46c	8.750419e-07
31	0x3e9bf741	0.30462077
32	0x3d5d4e34	0.05402966
33	0x3f722e8b	0.9460227
34	0x35495165	7.499678e-07
35	0x3e938f58	0.288203
36	0x3d167137	0.036729064
37	0x3f769f83	0.96337146
38	0x34c95309	3.7499584e-07
39	0x3e9ec88b	0.31012377
40	0x3d5e63cc	0.054294392
41	0x3f721b54	0.9457295
42	0x34863a33	2.500179e-07
43	0x3e927c6c	0.2861055
44	0x3d840e78	0.06448072
45	0x3f6f7d7a	0.9355084
46	0x34c953e1	3.7500197e-07
47	0x3e9f65bd	0.31132308
48	0x3d70653f	0.058690306
49	0x3f70f890	0.94129276
50	0x340639d0	1.2500755e-07
51	0x3e918af5	0.28426328

network_body.vector_processors.0.normalizer.running_variance f4 [52]
0	0x4840667a	197017.9
1	0x484063a1	197006.52
2	0x407fffed	3.9999955
3	0x489ec0b9	325125.78
4	0x482100c1	164867.02
5	0x4821087b	164897.92
6	0x40dfffa6	6.999957
7	0x489fe74c	327482.38
8	0x485b6a5e	224681.47
9	0x485b7cfe	224755.97
10	0x409fffc8	4.9999733
11	0x48a0e7ed	329535.4
12	0x4818329e	155850.47
13	0x4818390e	155876.22
14	0x411fff6c	9.999859
15	0x489f6671	326451.53
16	0x488f0ca4	292965.12
17	0x488f1538	293033.75
18	0x3ffffffe	1.9999998
19	0x48a08a3b	328785.84
20	0x4823f012	167872.28
21	0x4823fc83	167922.05
22	0x414fffd8	12.999962
23	0x48a293bb	332957.84
24	0x48bb4878	383555.75
25	0x48bb518c	383628.38
26	0x407fffe7	3.999994
27	0x489e6559	324394.78
28	0x483eb28c	195274.19
29	0x483eba0b	195304.17
30	0x40ffffa0	7.999954
31	0x48aa9b73	349403.6
32	0x48c7b2a7	408981.22
33	0x48c7b977	409035.72
34	0x40dffff3	6.999994
35	0x489be64e	319282.44
36	0x488a3ae2	283095.06
37	0x488a3fa8	283133.25
38	0x407fffd2	3.999989
39	0x48b5dd06	372456.2
40	0x48c89a22	410833.06
41	0x48c8a097	410884.72
42	0x403fff5e	2.9999614
43	0x48992ad8	313686.75
44	0x48eb98cd	482502.4
45	0x48eb99eb	482511.34
46	0x407fffdf	3.9999921
47	0x48bd2ac7	387414.22
48	0x48d7d080	441988.0
49	0x48d7d532	442025.56
50	0x3ffffffe	1.9999998
51	0x48983f66	311803.2

network_body.linear_encoder.seq_layers.0.weight f4 [128, 52]
0	0x3d6d6e57	0.057966556
1	0x3a0531c8	0.00050809653
2	0xbd778eb9	-0.060438845
3	0xbe044319	-0.1291622
4	0x3e126b99	0.14298858
5	0xbd957adc	-0.07298824
6	0x3e42f0e5	0.19037206
7	0x3e08349e	0.13301322
8	0x3e95ebfa	0.29281598
9	0xbe75b461	-0.2399459
10	0x3e2c3a6e	0.16819164
11	0x3e3f0758	0.18655145
12	0x3d597685	0.053091545
13	0x3d791f23	0.06082071
14	0x3c897102	0.01677752
15	0xbd6356e6	-0.055502795
16	0x3e957eb1	0.2919822
17	0xbda95026	-0.0826724
18	0x3cac936e	0.021066394
19	0x3e2c0480	0.16798592
20	0x3e26318f	0.16229843
21	0xbe54ce4c	-0.20781821
22	0xbe8e8be6	-0.2784111
23	0x3d499fa2	0.049224503
24	0xbe338408	-0.17530835
25	0x3c30ca58	0.01079043
26	0x3e3d1954	0.18466693
27	0x3d37599d	0.044763196
28	0x3e14d659	0.14534892
29	0x3d149c71	0.036282007
30	0x3e0a6426	0.13514766
31	0x3db03ee7	0.08605748
32	0x3d2c9cf6	0.042141877
33	0xbcb25952	-0.021771107
34	0xbd68656f	-0.05673736
35	0x3d4e5955	0.050378162
36	0xbe4629f1	-0.19351937
37	0x3e31e973	0.1737421
38	0xbeab0a19	-0.3340614
39	0x3e20ac18	0.15690649
40	0x3e30d699	0.17269363
41	0xbb18e8e8	-0.0023332182
42	0xbdcc89fa	-0.099872544
43	0xbe1fb3f9	-0.15595998
44	0xbe06add9	-0.13152255
45	0x3c9c740a	0.0190983
46	0xbdf9cc64	-0.121971875
47	0xbe5c4dc6	-0.21514043
48	0x3e02cbe9	0.12773098
49	0xbecf1448	-0.4044516
50	0xbe0371a7	-0.12836324
51	0xbc0c4449	-0.008561202
52	0x3dd04ecd	0.1017128
53	0xbe2256d3	-0.15853433
54	0x3ea42402	0.32058722
55	0x3e8e7f4b	0.27831492
56	0xbe8d9d9c	-0.2765931
57	0x3cd5c4f2	0.026094887
58	0xbbf0504a	-0.00733379
59	0xbd1292c9	-0.035784516
60	0xbe7726f0	-0.24135947
61	0x3e4513d3	0.19245844
62	0x3e0ffc43	0.14061074
63	0xbea21cc2	-0.31662565
64	0x3ddcfe5b	0.10790702
65	0xb93d1c0f	-0.00018034897
66	0x3d9bbbaa	0.076041535
67	0xbdad91ce	-0.08475076
68	0xbdba41d8	-0.0909459
69	0xbd8b537b	-0.06803032
70	0xbdfba9db	-0.12288257
71	0xbd00bc9f	-0.031429883
72	0xbd1b7ca3	-0.03796066
73	0xbe353cd8	-0.17698991
74	0x3e375d46	0.17906675
75	0xbe2f4adb	-0.17118399
76	0x3d6dfcf2	0.058102556
77	0xbdb6debf	-0.08929204
78	0xbd9f12ee	-0.077672824
79	0x3e14538e	0.14484999
80	0x3dbcc510	0.09217274
81	0xbc80ea8d	-0.015736843
82	0x3d4a939d	0.04945718
83	0xbdfe0c86	-0.124047324
84	0x3dc59196	0.09646909
85	0xbd5cf926	-0.053948544
86	0xbdc3cf6c	-0.09561047
87	0xbdeb1ca4	-0.11480072
88	0x3ebf93a3	0.37417325
89	0xbe2e5a21	-0.17026569
90	0x3d7ec9cf	0.06220418
91	0xbe672f8e	-0.22576734
92	0x3be773ff	0.0070633884
93	0xbe084cab	-0.13310497
94	0xbd3e357a	-0.046437718
95	0x3ca803e2	0.020509664
96	0xbe097e1b	-0.13427012
97	0x3e7e9268	0.24860537
98	0x3d2c12d0	0.04201013
99	0xbeea4ea3	-0.4576312
100	0xbe89e9c9	-0.26936176
101	0x3da58bea	0.08083327
102	0x3e45d416	0.19319186
103	0x3e38d978	0.18051708
104	0x3e1a8b6a	0.15092245
105	0xbe7ddd27	-0.24791394
106	0x3e7f62ba	0.24940005
107	0xbe0c9d39	-0.1373185
108	0x3c91bbbc	0.017789714
109	0xbe588708	-0.2114526
110	0x3e522432	0.2052162
111	0xbe334112	-0.17505291
112	0x3dfa7c58	0.12230748
113	0xbcb93f8a	-0.022613306
114	0x3dbe76c6	0.09299998
115	0xbd8cc167	-0.06872826
116	0x3e1b4086	0.15161332
117	0x3e584703	0.21120839
118	0x3da332ac	0.07968649
119	0xbab4c9ac	-0.0013793013
120	0xbe1add25	-0.15123422
121	0xbc5441c3	-0.012955132
122	0x3e5dd874	0.21664602
123	0xbe9d643c	-0.30740535
124	0xbdb739c8	-0.08946568
125	0xbca96de7	-0.020682288
126	0x3e74c8da	0.23904744
127	0xbd3b006f	-0.04565471
128	0xbc2dac17	-0.010600111
129	0x3d3ea5f0	0.04654497
130	0x3e38fe2f	0.18065713
131	0xbe4bab28	-0.1988951
132	0x3e4f9792	0.20272663
133	0xbd781f8a	-0.060576953
134	0x3e623861	0.2209182
135	0x3e350287	0.17676745
136	0x3e3b0976	0.18265328
137	0xbdbc3be7	-0.09191113
138	0xbdfffe65	-0.12499694
139	0xbb520cbb	-0.0032051045
140	0xbe319bc4	-0.17344576
141	0x3e76b20e	0.2409136
142	0x3eb731e7	0.3578026
143	0x3e49a92d	0.19693442
144	0xbe186038	-0.14880455
145	0xbdc9be48	-0.098507464
146	0x3e0b5be8	0.13609278
147	0x3e2a7954	0.16647846
148	0x3d14c246	0.036318086
149	0xbe23175d	-0.15926881
150	0x393d6c7e	0.00018064861
151	0x3e078193	0.13233022
152	0xbd1c4a7d	-0.038156975
153	0xbebc7a44	-0.3681203
154	0x3d8edc6d	0.06975637
155	0xbeb0842a	-0.34475833
156	0xbd6002e8	-0.05469027
157	0xbd269419	-0.04066858
158	0x3e2c4378	0.16822612
159	0x3e859b21	0.26094916
160	0xbd7c6e8a	-0.061628856
161	0xbbbe1a96	-0.005801509
162	0x3b83df6f	0.004024438
163	0x3e99b349	0.30019596
164	0xbd845314	-0.064611584
165	0x3d3cc391	0.046084944
166	0x3d27157e	0.04079198
167	0xbd365b96	-0.044520937
168	0xbdce91f1	-0.1008643
169	0xbc656df5	-0.014003267
170	0x3d275f60	0.04086244
171	0x3e2faae5	0.17155035
172	0x3ce7cd0f	0.028296022
173	0x3e31a72a	0.17348924
174	0xbe07f8ac	-0.13278455
175	0xbe8771c2	-0.26453978
176	0xbeb5709c	-0.35437477
177	0x3d3fdee9	0.046843443
178	0x3b85359c	0.0040652286
179	0xbd529a14	-0.05141647
180	0x3ea0cd00	0.31406403
181	0xbe16e3c0	-0.14735317
182	0xbcc4b945	-0.024014125
183	0xbe7207dc	-0.2363581
184	0xbd6fc56d	-0.05853789
185	0x3e0d8084	0.13818556
186	0x3d2cbb9b	0.042171102
187	0x3d03a9c6	0.03214433
188	0xbddff271	-0.10934914
189	0xbe882741	-0.26592448
190	0x3d725887	0.059166458
191	0xbe97b219	-0.29628065
192	0x3e014cfb	0.12627022
193	0x3d9fe308	0.07806975
194	0x3c16c064	0.009201143
195	0xbdc17fc9	-0.09448201
196	0x3ed0db9b	0.40792546
197	0xbc1e396f	-0.009657248
198	0xbdec8401	-0.11548615
199	0xbe841770	-0.2579913
200	0x3e16c7fd	0.14724727
201	0x3d054442	0.0325358
202	0x3d778c3d	0.060436476
203	0xbca3f0a3	-0.020012205
204	0xbe3785c7	-0.17922126
205	0xbc563c97	-0.013075969
206	0xbc5b0f28	-0.013370313
207	0xbe3599dc	-0.17734474
208	0x3cdf31cf	0.02724543
209	0xbe0b23b0	-0.13587832
210	0xbe8c95fd	-0.27458182
211	0x3e8dbf11	0.27684835
212	0x3d8eb039	0.069672056
213	0x3e29eba1	0.16593792
214	0x3e0b68a5	0.13614137
215	0xbdb41288	-0.08792597
216	0xbe3e8ed3	-0.1860917
217	0x3e12f358	0.14350641
218	0xbe145468	-0.14485323
219	0xbbdb1dff	-0.0066869254
220	0xbe20529b	-0.15656511
221	0x3e12fbe7	0.14353906
222	0x3e7e5777	0.24838053
223	0xbd02aee0	-0.031905055
224	0xbb80262d	-0.003910801
225	0x3c8d34ab	0.017237028
226	0xbe6f1da4	-0.23351151
227	0xbda885b4	-0.08228627
228	0x3d665ac3	0.0562389
229	0x3dbd869d	0.09254191
230	0x3cfed5c9	0.0311078
231	0x3d843f46	0.06457381
232	0x3e01b798	0.12667692
233	0x3daf40f0	0.08557308
234	0x3d4d459a	0.050115205
235	0xbe180183	-0.14844327
236	0xbd41dc73	-0.047329377
237	0x3e1f7744	0.1557284
238	0x3cf6af02	0.030112747
239	0x3d04cebd	0.032423723
240	0x3e408b23	0.18803076
241	0xbba691da	-0.005083305
242	0x3e8005b0	0.2500434
243	0xbf1b5106	-0.60670507
244	0xbd191269	-0.037371073
245	0x3d80cb48	0.06288773
246	0x3e171e2d	0.14757605
247	0xbce32067	-0.027725412
248	0x3d683c1f	0.05669796
249	0xbc8fbb7e	-0.017545458
250	0x3e4bf03b	0.1991586
251	0xbe638e3d	-0.22222228
252	0xbd6cb8c2	-0.057793386
253	0xbe4c8390	-0.19972062
254	0x3e885a76	0.26631516
255	0xbe861782	-0.2618981

network_body.linear_encoder.seq_layers.0.bias f4 [128]
0	0xbd3b0b8a	-0.0456653
1	0xbd7b62b6	-0.061373435
2	0xbe6718ca	-0.2256805
3	0xbca47c59	-0.020078825
4	0xbc328c91	-0.010897771
5	0xbd76be28	-0.06023994
6	0xbe62c92e	-0.22147056
7	0x3c8968cb	0.016773602
8	0xbda7a1b3	-0.081851386
9	0xbe3d6034	-0.1849373
10	0xbe06751d	-0.13130613
11	0x3df4dda2	0.119563356
12	0xba49a042	-0.0007691422
13	0x3e7f0a51	0.24906279
14	0x3cf7e5f5	0.03026102
15	0x3c3dfb0d	0.0115955
16	0xbe0a92a9	-0.13532509
17	0xbe4f8d3a	-0.20268717
18	0xbb7749c4	-0.0037733177
19	0xbe22cbf5	-0.15898116
20	0xbe3a183a	-0.18173304
21	0xbd20696f	-0.03916305
22	0xbd4ea914	-0.050454214
23	0xbe728761	-0.23684455
24	0x3e0af0dc	0.13568443
25	0x3db5849f	0.08863186
26	0xbe453c70	-0.19261336
27	0xbd8ebb73	-0.06969347
28	0xbce5eef2	-0.02806804
29	0x3d5c65cd	0.053808022
30	0xbe301b73	-0.17197971
31	0x3dfdc888	0.12391764
32	0xbd834fc7	-0.06411701
33	0xbde89e80	-0.113583565
34	0x3c8066fb	0.015674105
35	0x3e37ae88	0.17937672
36	0xbde6365c	-0.11240837
37	0xbe533de9	-0.20629086
38	0x3da7452a	0.08167489
39	0xbdf5fa10	-0.12010586
40	0xbe3cab6e	-0.1842477
41	0x3e765a86	0.2405797
42	0xbe30fef9	-0.17284764
43	0xbe02e4c9	-0.12782587
44	0xbe3d29e3	-0.1847301
45	0x3e49f065	0.1972061
46	0xbd9e13ae	-0.07718597
47	0xbdaf8568	-0.08570367
48	0xbe017c98	-0.12645185
49	0xbe277de4	-0.16356617
50	0x3e7a4901	0.24441911
51	0x3d7ca6ed	0.06168263
52	0x3d7f71f4	0.062364534
53	0xbe1b537d	-0.15168567
54	0xbd8619dd	-0.06547902
55	0xbd20a181	-0.039216522
56	0x3dc290c5	0.09500269
57	0x3d7dc488	0.061955005
58	0x3d068cd8	0.032849163
59	0xbe1f4259	-0.15552653
60	0x3d78c0d0	0.060730755
61	0x3e1ddfb4	0.15417367
62	0xbdbf8c2e	-0.09352909
63	0xbe0be4c3	-0.13661484
64	0xbcb80cd6	-0.022467058
65	0xbe5e5de0	-0.21715498
66	0xbe373231	-0.1789024
67	0x3c783b54	0.015150864
68	0x3d56de8a	0.052458324
69	0x3de76e75	0.11300365
70	0xbe1e8ad6	-0.15482649
71	0xbe580e0e	-0.21099111
72	0xbe5e6f8c	-0.2172224
73	0xbe5e594f	-0.21713756
74	0xbcf68ce2	-0.030096475
75	0x3e05efc1	0.1307974
76	0xbe4e072b	-0.20119922
77	0x3bdd6810	0.00675679
78	0x3e54e75a	0.20791379
79	0x3e57a3fe	0.21058652
80	0xbe42267c	-0.18959993
81	0xbc7d1c47	-0.015448636
82	0x3d235682	0.039877422
83	0xbddd43a0	-0.10803914
84	0xbe8cbd0e	-0.27487987
85	0xbe5cdbff	-0.21568297
86	0x3e4f81f3	0.20264415
87	0x3e27797e	0.1635494
88	0xbe004d33	-0.12529449
89	0xbd08272d	-0.033240486
90	0xbe24c6da	-0.16091481
91	0x3d4708b0	0.04859227
92	0x3c510ff3	0.01276015
93	0x3de7d5e8	0.11320096
94	0x3c79edfa	0.015254492
95	0x3ca6a12d	0.020340526
96	0x3e00d0e0	0.1257968
97	0xbe422469	-0.18959202
98	0xbdf81e00	-0.12115097
99	0x3b9a647c	0.0047116857
100	0xbe576a41	-0.21036626
101	0xbe0d03d9	-0.13770999
102	0xbe5fd867	-0.21859895
103	0xbe43b708	-0.1911279
104	0xbe637128	-0.22211134
105	0x3e4400df	0.19140957
106	0xbc2a5960	-0.010397285
107	0x3d8e98c0	0.069627285
108	0x3d80bb86	0.06285767
109	0xbe5f1bed	-0.21787997
110	0xbe200d78	-0.15630138
111	0xbe1e9817	-0.15487705
112	0x3e3706d8	0.17873704
113	0xbe1979f3	-0.14987926
114	0x3e2d1b29	0.16904892
115	0xbdf2a165	-0.1184719
116	0x3e33c69e	0.17556235
117	0xbd934867	-0.07191544
118	0xbe04fc67	-0.12986909
119	0xbe665da6	-0.22496662
120	0xbe880c52	-0.265719
121	0x3db284d3	0.087167405
122	0x3da3a7ce	0.079909906
123	0x3e20d9e9	0.15708126
124	0x3e600ce4	0.21879917
125	0x3d96fc53	0.07372346
126	0xbcf76cbf	-0.030203221
127	0x3e1afb8f	0.15135024

network_body.linear_encoder.seq_layers.2.weight f4 [128, 128]
0	0xbd468ec7	-0.048476007
1	0x3dc5cbdf	0.09658026
2	0xbd85f6ab	-0.06541189
3	0xbe0a5797	-0.13509975
4	0xbe1c27aa	-0.15249506
5	0x3d87dd12	0.06633963
6	0xbe515ada	-0.20444813
7	0xbd939f0c	-0.0720807
8	0xb9bb44d1	-0.00035718692
9	0xbe6387b8	-0.22219741
10	0xbe5d2dcb	-0.215995
11	0x3e36421c	0.17798656
12	0xbe017e8b	-0.12645929
13	0x3e32f7ef	0.17477392
14	0x3e123912	0.14279583
15	0xbe813e48	-0.2524283
16	0xbdd83ec9	-0.1055885
17	0x3d6b8bfb	0.057506543
18	0xbe3a449b	-0.18190233
19	0x3d80b4ba	0.06284471
20	0xbe0c557f	-0.13704489
21	0x3da7bc3f	0.08190202
22	0x3d789274	0.060686544
23	0x3ca0ad8f	0.01961401
24	0xbddb6d68	-0.10714227
25	0xbd71bf9f	-0.059020635
26	0x3c89cb44	0.016820557
27	0x3dc9e661	0.098583944
28	0xbe31bcab	-0.17357127
29	0xbe268b35	-0.16264041
30	0x3df72c6f	0.12069022
31	0x3e1c20b1	0.15246846
32	0xbdbdc4f3	-0.09266081
33	0xbe14ffbb	-0.14550678
34	0x3c7cd7ab	0.015432279
35	0x3d837116	0.06418054
36	0x3c032abd	0.008005795
37	0x3c261ca0	0.010138661
38	0xbc30eb0d	-0.010798228
39	0xbc961fbe	-0.018325683
40	0x3d06e506	0.032933258
41	0x3e929308	0.286278
42	0xbdfc5b86	-0.12322144
43	0xbb534e88	-0.0032242853
44	0xbda6c31e	-0.081426844
45	0x3dd04b02	0.101705566
46	0xbe084245	-0.1330653
47	0xbdd7e46a	-0.105416134
48	0xbd551261	-0.05201948
49	0x3d305578	0.04305026
50	0x3d9256c2	0.07145454
51	0x3d204cf6	0.039135896
52	0x3e85a35c	0.26101196
53	0x3e2333f6	0.1593779
54	0xbdb446f6	-0.08802597
55	0xbe651266	-0.223703
56	0x3e9fae8e	0.31187862
57	0x3e0e788b	0.13913171
58	0xbe323567	-0.17403184
59	0xbcbe41ec	-0.023224793
60	0xbe4a3446	-0.19746503
61	0x3e51ae6e	0.20476696
62	0x3e58bf53	0.21166734
63	0x3d4c57d0	0.049888432
64	0xbcb4f649	-0.022090094
65	0xbcdc1eec	-0.026870213
66	0xbd8ea76e	-0.069655284
67	0x3e06f2f6	0.1317862
68	0xbd636eca	-0.05552558
69	0xbc813fab	-0.01577743
70	0xbe27058a	-0.16310707
71	0xbe16738c	-0.14692515
72	0xbe000e25	-0.12505396
73	0xbe75562f	-0.23958658
74	0xbdc54aac	-0.09633383
75	0xbd70b1b1	-0.05876321
76	0xbddf747a	-0.10910888
77	0xbe109475	-0.14119132
78	0x3d644ec4	0.05573918
79	0xbbc5ffa5	-0.006042438
80	0xbd0f4527	-0.03497806
81	0x3ca37847	0.019954814
82	0xbd0d302b	-0.034469765
83	0x3d8981c2	0.067142025
84	0x3d386d56	0.045026146
85	0xbc2b8059	-0.010467612
86	0xbe7932ec	-0.24335831
87	0xbec12c52	-0.37729126
88	0xbe590e65	-0.21196897
89	0xbe24293a	-0.16031352
90	0x3e14e861	0.1454177
91	0xbe15e1ae	-0.14636871
92	0xbda3f61a	-0.080059245
93	0xbdbf54b9	-0.093423314
94	0x3e7a8abb	0.24466984
95	0xbdacda19	-0.08440036
96	0x3dab1389	0.083533354
97	0xbe0e6393	-0.13905172
98	0x3e671705	0.22567375
99	0xbe40b826	-0.18820247
100	0xbc2a796b	-0.010404925
101	0xbd1226a2	-0.035681374
102	0x3d48a316	0.048983656
103	0xbc2076c6	-0.009793943
104	0x3d41a103	0.047272693
105	0x3a833b02	0.0010012093
106	0xbe72e1aa	-0.23718897
107	0xbd847764	-0.064680845
108	0xbe219e9b	-0.1578316
109	0x3db29d68	0.08721429
110	0x3dc77fbc	0.0974116
111	0xbd2d848c	-0.042362735
112	0xbd60a306	-0.05484297
113	0x3e05e77e	0.13076589
114	0xbe051727	-0.12997113
115	0xbcbfef25	-0.023429463
116	0xbc5d9a8a	-0.0135256145
117	0xbdf9867e	-0.121838555
118	0x3cc7ae82	0.024375204
119	0x3e1f7a2f	0.15573953
120	0x3da99ae3	0.082814954
121	0xbe73fb4e	-0.23826334
122	0xbdddd495	-0.108315624
123	0x3d1d1103	0.0383463
124	0xbe24efba	-0.16107073
125	0xbe129d69	-0.1431786
126	0xbcdc741c	-0.026910834
127	0x3d1d34e8	0.038380533
128	0xbc21c681	-0.009873987
129	0x3c499352	0.01230319
130	0x3ddb3722	0.10703875
131	0xbb929fe2	-0.004474626
132	0xbdb43c01	-0.08800507
133	0x3e097c92	0.13426426
134	0x3d700527	0.058598664
135	0xbcca442d	-0.024690712
136	0xbc72ad7e	-0.014811872
137	0x3e0f66fd	0.1400413
138	0xbd24f249	-0.040270124
139	0xbc214b3a	-0.009844596
140	0xbd462a4e	-0.04838019
141	0x3d8a5451	0.06754363
142	0x3cf7a00f	0.03022769
143	0x3e21bcec	0.15794724
144	0xbca0e2b3	-0.019639349
145	0xbe38633b	-0.18006603
146	0xbe53cfe5	-0.20684774
147	0xbde48c35	-0.11159555
148	0xbc60d1cc	-0.0137218945
149	0xbd5fa20b	-0.054597896
150	0x3dbe76f3	0.093000315
151	0xbdc7d50b	-0.097574316
152	0x3c11beb7	0.008895568
153	0x3d28c154	0.041199997
154	0xbde6e4b5	-0.11274091
155	0xbab8c564	-0.0014096913
156	0xbd44da29	-0.048059616
157	0x3debe7b3	0.115188025
158	0xbd261b65	-0.04055347
159	0xbe0ef68f	-0.13961242
160	0xbc5ccd4f	-0.013476684
161	0xbdd5e5ff	-0.10444259
162	0x3d49d2af	0.04927319
163	0x3e1986e6	0.14992866
164	0xbe1e173c	-0.1543855
165	0x3d633bea	0.05547706
166	0xbd2f8dfe	-0.042860024
167	0xbe842005	-0.2580568
168	0x3d660bc6	0.05616357
169	0xbdc59e48	-0.096493304
170	0xbdc2be95	-0.09509007
171	0x3d72d99c	0.05928956
172	0x3cafd3cf	0.021463303
173	0x3e0f694d	0.14005013
174	0xbe56c6b3	-0.20974235
175	0xbe533f2a	-0.20629564
176	0x3d56c41f	0.05243313
177	0xbd444c24	-0.047924176
178	0x3e152c63	0.14567713
179	0xbe11ab0a	-0.14225402
180	0x3dcec299	0.1009571
181	0xbd977f13	-0.07397284
182	0xbd8f6831	-0.07002295
183	0xbdd5d1cd	-0.10440407
184	0x38abe9a3	8.1974336e-05
185	0x3e7ae8a5	0.2450281
186	0xbdbcce6c	-0.09219059
187	0x3ceadcd3	0.02866975
188	0x3bcfe18e	0.006344027
189	0xbc9eba06	-0.019375812
190	0x3e6f3cd1	0.23363043
191	0x3cb48a2b	0.02203854
192	0x3e2b7346	0.16743192
193	0xbd37878b	-0.044807
194	0x3dc25594	0.09488979
195	0x3cfd8ac6	0.030949961
196	0x3dd4ecf1	0.103967555
197	0xbd54dc34	-0.051967815
198	0xbe2a3722	-0.16622594
199	0x3d8d63f2	0.06903829
200	0x3d2d946c	0.042377874
201	0xbd1fedcc	-0.03904514
202	0xbb0032a4	-0.0019561434
203	0xbe2f558c	-0.17122477
204	0xbd903b0b	-0.070425116
205	0x3e232874	0.159334
206	0x3c5ecd74	0.0135987885
207	0x3c1a177a	0.009405011
208	0x3db839d3	0.08995404
209	0xbdd51f23	-0.104063295
210	0x3dd667a9	0.1046899
211	0x3d73b0f6	0.059494935
212	0xbdbb49af	-0.091449134
213	0x3da05def	0.078304164
214	0x3d2be84a	0.041969575
215	0xbddd333c	-0.10800788
216	0xbdf2efdd	-0.118621565
217	0x3ce2f26f	0.027703492
218	0xbd0fb612	-0.035085745
219	0x3d68670f	0.05673891
220	0xbe02a4df	-0.12758206
221	0xbc99db03	-0.01878119
222	0xbeac0f0e	-0.33605236
223	0xbe1fc525	-0.15602548
224	0x3b80d4ff	0.003931641
225	0xbc0071f8	-0.007839672
226	0x3b9966e8	0.004681457
227	0xbc80581c	-0.015667014
228	0x3d387a72	0.045038648
229	0x3dde7863	0.10862806
230	0xbdffdf0a	-0.12493713
231	0xbca6936d	-0.02033397
232	0x3d4cb3cd	0.04997616
233	0x3df9a9da	0.121906
234	0xbd87d5e8	-0.06632596
235	0xbd6200f3	-0.055176686
236	0x3d9442ea	0.07239325
237	0x3d1afde3	0.03783978
238	0xbd4fbbdf	-0.050716277
239	0xbe0dd3fb	-0.13850395
240	0xbd7a8d47	-0.06116989
241	0xbb524d1a	-0.0032089413
242	0x3db4ba73	0.08824625
243	0xbda22c2a	-0.0791858
244	0x3e0b419b	0.13599245
245	0x3d187efa	0.03723047
246	0x3cc3e069	0.023910718
247	0xbd2e849d	-0.04260694
248	0xbe597115	-0.21234544
249	0xbd7ef5e3	-0.062246215
250	0xbe79ffaa	-0.24413934
251	0xbe487392	-0.19575337
252	0xbd4eaf29	-0.050460014
253	0x3d8c6d8a	0.068568304
254	0xbd8cfcac	-0.06884131
255	0x3d5b3150	0.053513825

network_body.linear_encoder.seq_layers.2.bias f4 [128]
0	0xbcbc94c0	-0.023020148
1	0x3e3311f4	0.17487317
2	0xbc6d20c9	-0.014473149
3	0xbe36bc80	-0.17845345
4	0x3e2b57df	0.16732739
5	0x3e32df7e	0.17468068
6	0xbd6054d1	-0.054768387
7	0xbe2decd6	-0.16984877
8	0x3e06ea0a	0.13175216
9	0x3d62b506	0.05534842
10	0xbe46b963	-0.19406657
11	0x3deaf910	0.11473286
12	0x3e17e174	0.14832097
13	0x3d9136e8	0.07090551
14	0x3dda1ef2	0.106504336
15	0x3e4710bc	0.19439977
16	0xbcd5ca68	-0.026097491
17	0xbe497560	-0.19673681
18	0x3d7f5792	0.062339373
19	0x3d8a828c	0.06763181
20	0xbd5c97c3	-0.05385567
21	0xbe03ae03	-0.12859349
22	0x3e3b1d93	0.18273
23	0xbd091549	-0.033467565
24	0xbe6ff0da	-0.23431721
25	0xbe5b6e56	-0.21428809
26	0x3df80de0	0.121120214
27	0xbe537dce	-0.2065346
28	0x3da359db	0.07976123
29	0xbe23516b	-0.15949027
30	0x3d322973	0.04349656
31	0x3d839432	0.064247504
32	0x3e0c7cd3	0.13719492
33	0x3dae2cff	0.08504676
34	0xbe85d65f	-0.26140115
35	0x3dceb988	0.10093981
36	0xbc8bca0a	-0.017064113
37	0x3e11cf44	0.14239222
38	0xbe640158	-0.22266138
39	0xbc57fb8e	-0.013182534
40	0xbe5f095f	-0.21780919
41	0x3e27924b	0.163644
42	0xbd8a04e0	-0.06739211
43	0x3e4a8a6d	0.19779368
44	0x3e061b40	0.13096333
45	0x3de48718	0.111585796
46	0xbe5d6913	-0.21622114
47	0x3d9fa461	0.07795025
48	0xbe062bbd	-0.13102622
49	0xbe441bc0	-0.19151211
50	0x3cfadbcd	0.030622387
51	0xbdec9e15	-0.11553589
52	0xbe005a17	-0.12534367
53	0x3df56281	0.11981679
54	0x3c83f600	0.016108513
55	0x3e2add6e	0.16686031
56	0xbe05f2cb	-0.130809
57	0x3e212df3	0.15740184
58	0x3debcd70	0.115137935
59	0xbde07885	-0.10960487
60	0x3d343944	0.043999925
61	0xbe2c3a84	-0.16819197
62	0xbe1629be	-0.14664361
63	0x3c10d082	0.008838775
64	0xbe142c2c	-0.14469975
65	0xbdd0cd2e	-0.10195385
66	0x3d7ba1aa	0.06143347
67	0xbe266b14	-0.16251785
68	0xbdd45d58	-0.103693664
69	0xbe62fe18	-0.22167242
70	0x3b4de8af	0.0031419208
71	0x3d8dfcd5	0.069329895
72	0x3be7a05c	0.007068677
73	0x3d294f62	0.04133547
74	0x3e0ce20d	0.13758107
75	0x3dc9eb0b	0.09859284
76	0x3e535e07	0.20641337
77	0xbe2da1e7	-0.16956292
78	0x3da09bab	0.07842191
79	0xbe59b42e	-0.2126014
80	0x3da6a35e	0.081366286
81	0xbe3e5273	-0.1858614
82	0x3d9f73d8	0.07785767
83	0xbdea2d83	-0.11434462
84	0xbe4ecb8a	-0.20194831
85	0x3dc91d63	0.09820058
86	0xbe632ee8	-0.22185862
87	0x3da4f6a1	0.08054853
88	0x3e2f1329	0.17097153
89	0x3e1bdfe9	0.15222134
90	0xbe5f6e1a	-0.21819344
91	0xbd41fcb6	-0.047360145
92	0xbe6783b9	-0.22608842
93	0x3cb5672a	0.022143919
94	0xbdc7590d	-0.09733782
95	0x3da9987d	0.08281038
96	0xbe1a356a	-0.15059438
97	0x3e6d5b23	0.23179297
98	0xbddc7d48	-0.10766083
99	0xbd70ceb6	-0.058790885
100	0x3d5f2a49	0.054483686
101	0xbd7cacc6	-0.061688207
102	0xbd9ee4f5	-0.07758514
103	0x3d8fb152	0.07016243
104	0x3de52fbb	0.111907445
105	0xbdfa9559	-0.12235517
106	0xbe0e53a1	-0.1389909
107	0x3e097a03	0.1342545
108	0xbe76a407	-0.24086009
109	0xbc555744	-0.013021294
110	0xbe3964a7	-0.18104802
111	0xbe3149b8	-0.17313278
112	0xbe6a5561	-0.22884132
113	0xbe160bb8	-0.14652908
114	0x3dc5f9b6	0.09666769
115	0xbe526994	-0.20548087
116	0xbe0b5da2	-0.13609937
117	0x3cfe602d	0.03105172
118	0xbe44ed2c	-0.19231099
119	0x3d9b6ac8	0.07588726
120	0x3c3ec468	0.011643507
121	0x3c87fa72	0.016598914
122	0x3d92d68a	0.07169826
123	0xbe1a5bc8	-0.15074074
124	0x3d863e60	0.06554866
125	0xbe24a3c7	-0.16078101
126	0x3dbb9f98	0.091612995
127	0xbe6254a2	-0.22102597

distribution.log_sigma f4 [1, 2]
0	0xc000e7cb	-2.0141475
1	0xbff4f039	-1.913581

distribution.mu.weight f4 [2, 128]
0	0xbde9ca69	-0.1141556
1	0xbd01eaa3	-0.031717908
2	0xbd6d105f	-0.05787694
3	0xbc9d8edf	-0.019233165
4	0xbd91ca68	-0.07118684
5	0xbd381088	-0.04493764
6	0x3dccd9d7	0.10002487
7	0x3d38b8be	0.04509806
8	0x3dd28162	0.10278584
9	0xbcb1c0f6	-0.021698456
10	0xbd97fdf8	-0.074214876
11	0x3cd1f46f	0.02562925
12	0xbcaefdc8	-0.021361247
13	0x3dca3b92	0.098746434
14	0x3c46a767	0.012124873
15	0x3e0aa0b6	0.13537869
16	0x3d308f33	0.043105315
17	0xbc78032f	-0.015137478
18	0x3cde45d2	0.027132902
19	0x3c25fd32	0.010131167
20	0x3d05452f	0.03253668
21	0x3d640e1a	0.05567751
22	0x3d4b6f3c	0.04966663
23	0x3ddd5e10	0.108089566
24	0x3d0c662e	0.034277134
25	0x3e041620	0.12899065
26	0xbd816cfc	-0.06319615
27	0xbd947c76	-0.072503015
28	0x3d2dfd95	0.042478163
29	0x3dbdee11	0.09273923
30	0x3d039fea	0.032134928
31	0xbdbfae41	-0.09359408
32	0xbd8e77c8	-0.0695644
33	0x3db4c7dd	0.088271834
34	0x3dbcecab	0.09224828
35	0xbda92367	-0.082587056
36	0x3d9606e2	0.073255315
37	0x3d4433ed	0.047901083
38	0x3d481350	0.048846543
39	0x3cd96ea8	0.026542023
40	0x3b1871c3	0.0023261167
41	0x3e8d62f9	0.27614573
42	0x3d57e183	0.0527053
43	0x3db0dd06	0.08635907
44	0x3dd37756	0.10325496
45	0x3b79ad5c	0.0038097715
46	0xbd4c643d	-0.049900282
47	0x3c2c2bcc	0.010508489
48	0xbbb93d81	-0.005653084
49	0x3d576fe9	0.05259696
50	0xbe5379af	-0.20651887
51	0xbb9acab1	-0.0047238697
52	0xbd9976cd	-0.074933626
53	0x3c4f9cf1	0.012671695
54	0x3cab9240	0.02094376
55	0xb881aadd	-6.183025e-05
56	0xbe2bb7ed	-0.16769381
57	0xbcad8db1	-0.021185728
58	0xbdac1ff6	-0.084045336
59	0x3b45e5a2	0.0030196686
60	0xbd98d31d	-0.07462142
61	0xbdfb4e0f	-0.12270748
62	0xbe19b685	-0.15011032
63	0x3c272249	0.010201045
64	0xbd9b6601	-0.07587815
65	0xbd98c30d	-0.07459078
66	0xbc85945d	-0.016306097
67	0x3b898ffc	0.0041980725
68	0x3c22789f	0.009916454
69	0x3c994889	0.018711345
70	0x3d9daa16	0.07698457
71	0x3d700f73	0.058608484
72	0x3deefc4a	0.11669214
73	0x3d518e16	0.051160894
74	0xba30a251	-0.0006738054
75	0xbe1384de	-0.14406154
76	0x3e52e245	0.20594127
77	0x3d30db91	0.043178145
78	0x3d899320	0.06717515
79	0x3b069c60	0.0020539984
80	0x3d65651c	0.05600463
81	0xbcd2f7f5	-0.025753
82	0x3d7a538f	0.061114844
83	0xbbdc126b	-0.006716063
84	0xba1060f1	-0.00055076095
85	0x3e35e7a0	0.17764139
86	0xbbe81da8	-0.0070836134
87	0x3988f0d5	0.00026119375
88	0x3e8b8acb	0.27254328
89	0x3c82fba7	0.015989138
90	0x3d1dea2b	0.038553398
91	0xbc3c44c1	-0.011491002
92	0xbde3973e	-0.111128315
93	0x3bbc73df	0.0057511176
94	0x3d8535c7	0.06504398
95	0x3d930b48	0.07179886
96	0xbcd8af9f	-0.02645093
97	0x3e347674	0.17623311
98	0xbdbabc0c	-0.09117898
99	0x3d23dd09	0.040005717
100	0xbd3c1c8c	-0.045925662
101	0x3d3da729	0.046301994
102	0xbd11ea3a	-0.035623766
103	0xbe1f5312	-0.15559033
104	0x3aa1832d	0.0012322419
105	0x3dbc9b6c	0.09209332
106	0xbd3fae7e	-0.046797268
107	0x3e4d3848	0.20041001
108	0x3cc3df6d	0.023910249
109	0x3d856826	0.06514005
110	0xbc208211	-0.009796635
111	0x3da952a5	0.08267716
112	0xbd2dcd32	-0.042432018
113	0x3ccbd78b	0.024883052
114	0xb8d1691c	-9.985475e-05
115	0xbb492384	-0.0030691335
116	0xbd52a590	-0.051427424
117	0x3d169727	0.036765244
118	0x3cd21f96	0.025649827
119	0x3dc9ad70	0.09847534
120	0xbb200993	-0.002441977
121	0x3c95ff78	0.018310294
122	0xbc79527e	-0.015217422
123	0x3d91131a	0.070837215
124	0xbc2ce236	-0.01055198
125	0x3dc55ad3	0.09636464
126	0xbcd43966	-0.025906276
127	0xbd8a929a	-0.06766243
128	0xbb7a2c58	-0.0038173404
129	0x3d689c54	0.05678971
130	0xbd8d673e	-0.069044575
131	0xbdd4be6d	-0.10387883
132	0xbdc82401	-0.09772492
133	0x3dd05e11	0.10174192
134	0xbc7e24b4	-0.01551168
135	0xbc5f062c	-0.013612311
136	0x3dea9186	0.11453538
137	0xbd5a4e03	-0.053297054
138	0xbcd79c64	-0.02631969
139	0x3d686ccf	0.056744393
140	0x3dc9c08a	0.09851177
141	0xbda2f885	-0.079575576
142	0x3d945164	0.072420865
143	0x3e74aadf	0.23893307
144	0xbc59dadc	-0.013296809
145	0xbd0ed980	-0.034875393
146	0xbb6dc569	-0.0036280996
147	0x3d1ac894	0.037788942
148	0xbd345fb6	-0.04403659
149	0xbcd30563	-0.025759405
150	0x3e174385	0.1477185
151	0x3c12519d	0.008930591
152	0x3c44eed7	0.0120198345
153	0xbd3e7589	-0.04649881
154	0xbdfabac3	-0.12242653
155	0xbe55f477	-0.20894037
156	0x3d0fe6e1	0.035132293
157	0xbdcbf200	-0.09958267
158	0x3d22e441	0.03976846
159	0xbd26d18b	-0.04072718
160	0xbdcf8693	-0.1013309
161	0x3c8df1cc	0.017327212
162	0xbdca58d9	-0.098802276
163	0x3d7f0709	0.06226257
164	0x3d6368e6	0.05551996
165	0x3da2a1c4	0.079410106
166	0xbd3cc7ce	-0.046088986
167	0xbcd3692a	-0.025806982
168	0xbdc44915	-0.09584252
169	0x3e5e5def	0.2171552
170	0xbcc936b9	-0.024562227
171	0x3e4c2bb7	0.19938551
172	0x3ce223a3	0.027604884
173	0x3dca9300	0.09891319
174	0xbd8e3026	-0.06942777
175	0x3cee5d4a	0.029097218
176	0xbcf8c3e8	-0.030366853
177	0xbcfeeeb6	-0.031119686
178	0x3d480b93	0.048839163
179	0xbd5f3882	-0.05449725
180	0xbdd542f2	-0.104131594
181	0x3d1a38e1	0.0376519
182	0x3c09c1f2	0.008408057
183	0x3d977100	0.073946
184	0xbe2f2065	-0.17102201
185	0x3dbf7d90	0.09350121
186	0xbd5da53c	-0.054112658
187	0x3c79bd2a	0.015242854
188	0xbc9cddd0	-0.019148737
189	0xbccd7743	-0.025081282
190	0xbc630522	-0.013856204
191	0xbc26f79b	-0.01019087
192	0xbd7b0219	-0.061281297
193	0xbd312eb8	-0.043257445
194	0x3d12425b	0.035707813
195	0xbd1eb7a8	-0.038749367
196	0xbc9ae861	-0.018909635
197	0xbd883654	-0.06650987
198	0x3dacaa29	0.08430893
199	0x3d42ff77	0.04760691
200	0xbc8a55c6	-0.016886603
201	0x3cd8278e	0.026386049
202	0x3d187850	0.037224114
203	0xbd45114c	-0.0481122
204	0x3e6bf5db	0.23043005
205	0xbce72332	-0.028215025
206	0x3d46f4cb	0.048573297
207	0xbd56c2c5	-0.05243184
208	0x3daac51b	0.08338376
209	0xbdd4e2f4	-0.103948504
210	0x3dda014b	0.10644778
211	0x3cda91e4	0.026680894
212	0xbd588d5c	-0.052869186
213	0x3dc60119	0.09668178
214	0xbda00701	-0.07813836
215	0x3d1c8073	0.038208436
216	0x3e473482	0.19453624
217	0x3e07502a	0.13214174
218	0xbda3766d	-0.07981572
219	0x3cb4131d	0.02198177
220	0xbdeec20b	-0.116581045
221	0x3c5317fe	0.012884138
222	0xbd3b828c	-0.045778796
223	0xbc2ea70b	-0.010659943
224	0x3dee7127	0.11642676
225	0x3e5cb553	0.21553545
226	0x3c423b42	0.0118549485
227	0x3c588a40	0.013216555
228	0xbdd56a49	-0.10420663
229	0xbcf975c0	-0.030451655
230	0x3cffa30f	0.031205682
231	0xbd70dae6	-0.058802508
232	0x3cef6e62	0.02922744
233	0xbd87c108	-0.06628615
234	0xbe5fbdd8	-0.21849763
235	0x3daa2e15	0.08309571
236	0xbd397a63	-0.045282733
237	0xbc9c1b9b	-0.019056132
238	0xbc9c76ad	-0.019099558
239	0xbddb7203	-0.107151054
240	0xbd8f3fb4	-0.06994572
241	0xbd91f1fc	-0.07126233
242	0x3da16833	0.078812025
243	0xbd8bf3f0	-0.06833637
244	0xbd3d4ad1	-0.04621393
245	0xbd1388d5	-0.036019165
246	0xbe1f7ce7	-0.1557499
247	0x3d538ed2	0.051649876
248	0x3db84124	0.089967996
249	0x3d6d6981	0.057961944
250	0xbb59727f	-0.0033179817
251	0xbd3cf5e8	-0.046132952
252	0x3c134f83	0.008991125
253	0xbc73b34b	-0.01487429
254	0x3d6f0f4a	0.05836419
255	0xbdd9b5ae	-0.10630356

distribution.mu.bias f4 [2]
0	0xbc9b8168	-0.018982604
1	0x3e553464	0.20820767

critic.network_body.vector_processors.0.normalizer.running_mean f4 [52]
0	0x3ccf2ab2	0.025288913
1	0x3f79a2f7	0.9751429
2	0x34c95367	3.749985e-07
3	0x3e962fca	0.29333335
4	0x3cac9065	0.021064946
5	0x3f7a9ece	0.97898567
6	0x354952c3	7.499877e-07
7	0x3e9725e8	0.29521108
8	0x3cececbf	0.028921483
9	0x3f78b86a	0.97156394
10	0x3506395d	5.0002365e-07
11	0x3e962020	0.29321384
12	0x3ca2eebd	0.01988923
13	0x3f7add3b	0.9799382
14	0x3596ff31	1.1250141e-06
15	0x3e97e92a	0.29670078
16	0x3d1beaee	0.038065843
17	0x3f7658a0	0.9622898
18	0x340639d0	1.2500755e-07
19	0x3e956f43	0.29186448
20	0x3cafb945	0.021450648
21	0x3f7a81f9	0.9785457
22	0x35c95399	1.4999997e-06
23	0x3e997145	0.2996923
24	0x3d4eb67a	0.050466992
25	0x3f731d5c	0.94966674
26	0x34c952e1	3.749947e-07
27	0x3e946352	0.28982025
28	0x3ccd4b3b	0.025060287
29	0x3f79a7c4	0.97521615
30	0x356ae46c	8.750419e-07
31	0x3e9bf741	0.30462077
32	0x3d5d4e34	0.05402966
33	0x3f722e8b	0.9460227
34	0x35495165	7.499678e-07
35	0x3e938f58	0.288203
36	0x3d167137	0.036729064
37	0x3f769f83	0.96337146
38	0x34c95309	3.7499584e-07
39	0x3e9ec88b	0.31012377
40	0x3d5e63cc	0.054294392
41	0x3f721b54	0.9457295
42	0x34863a33	2.500179e-07
43	0x3e927c6c	0.2861055
44	0x3d840e78	0.06448072
45	0x3f6f7d7a	0.9355084
46	0x34c953e1	3.7500197e-07
47	0x3e9f65bd	0.31132308
48	0x3d70653f	0.058690306
49	0x3f70f890	0.94129276
50	0x340639d0	1.2500755e-07
51	0x3e918af5	0.28426328

critic.network_body.vector_processors.0.normalizer.running_variance f4 [52]
0	0x4840667a	197017.9
1	0x484063a1	197006.52
2	0x407fffed	3.9999955
3	0x489ec0b9	325125.78
4	0x482100c1	164867.02
5	0x4821087b	164897.92
6	0x40dfffa6	6.999957
7	0x489fe74c	327482.38
8	0x485b6a5e	224681.47
9	0x485b7cfe	224755.97
10	0x409fffc8	4.9999733
11	0x48a0e7ed	329535.4
12	0x4818329e	155850.47
13	0x4818390e	155876.22
14	0x411fff6c	9.999859
15	0x489f6671	326451.53
16	0x488f0ca4	292965.12
17	0x488f1538	293033.75
18	0x3ffffffe	1.9999998
19	0x48a08a3b	328785.84
20	0x4823f012	167872.28
21	0x4823fc83	167922.05
22	0x414fffd8	12.999962
23	0x48a293bb	332957.84
24	0x48bb4878	383555.75
25	0x48bb518c	383628.38
26	0x407fffe7	3.999994
27	0x489e6559	324394.78
28	0x483eb28c	195274.19
29	0x483eba0b	195304.17
30	0x40ffffa0	7.999954
31	0x48aa9b73	349403.6
32	0x48c7b2a7	408981.22
33	0x48c7b977	409035.72
34	0x40dffff3	6.999994
35	0x489be64e	319282.44
36	0x488a3ae2	283095.06
37	0x488a3fa8	283133.25
38	0x407fffd2	3.999989
39	0x48b5dd06	372456.2
40	0x48c89a22	410833.06
41	0x48c8a097	410884.72
42	0x403fff5e	2.9999614
43	0x48992ad8	313686.75
44	0x48eb98cd	482502.4
45	0x48eb99eb	482511.34
46	0x407fffdf	3.9999921
47	0x48bd2ac7	387414.22
48	0x48d7d080	441988.0
49	0x48d7d532	442025.56
50	0x3ffffffe	1.9999998
51	0x48983f66	311803.2

critic.network_body.linear_encoder.seq_layers.0.weight f4 [128, 52]
0	0x3e47318a	0.19452491
1	0xbe543ee3	-0.20727114
2	0xbdf99f65	-0.12188605
3	0xbeb47757	-0.352473
4	0xbd52a615	-0.05142792
5	0x3c162b2c	0.009165566
6	0xbe8050ab	-0.25061545
7	0x3d7d2ae0	0.061808467
8	0xbd001f51	-0.031279866
9	0xbe4cf988	-0.20017064
10	0xbdc2ba08	-0.09508139
11	0xbdd04a01	-0.10170365
12	0xbd56e9f0	-0.052469194
13	0xbdad0cd4	-0.084497124
14	0x3dba33fd	0.09091947
15	0xbe21f6b0	-0.1581676
16	0x3cc79c87	0.02436663
17	0x3da46e89	0.080288954
18	0x3e0bb605	0.13643654
19	0xbd747f6a	-0.059691824
20	0x3eabb184	0.3353387
21	0x3d299dd6	0.04141029
22	0xbe3d5a92	-0.18491581
23	0x3e3c5fb0	0.18395877
24	0x3d9cb236	0.076511785
25	0xbe51b409	-0.20478834
26	0xbe8923fb	-0.26785263
27	0xbe00c31f	-0.12574433
28	0x3d91367e	0.07090472
29	0xbd2090b0	-0.039200485
30	0xbe4a1326	-0.19733867
31	0x3d1446ad	0.036200214
32	0x3d5d00e7	0.05395594
33	0xbe2052e3	-0.15656619
34	0x3d8dba93	0.06920352
35	0xbea17225	-0.31532398
36	0x3d42f3c3	0.04759575
37	0x3cdf82a2	0.02728397
38	0xbe2a260e	-0.16616079
39	0x3ddf34ae	0.1089872
40	0x3b132d27	0.0022457333
41	0xbd7cb859	-0.061699245
42	0xbe7946fe	-0.24343488
43	0xbcb94ee1	-0.02262062
44	0x3d507c01	0.05089951
45	0xbe04b2cb	-0.12958829
46	0xbd995636	-0.074871466
47	0x3d6c9c98	0.057766527
48	0x3eaed2ef	0.34145305
49	0xbe061316	-0.13093218
50	0xbd9c575d	-0.07633851
51	0xbe4c91bd	-0.1997747
52	0x3e5aae82	0.21355632
53	0x3eae35da	0.3402546
54	0xbed01388	-0.406399
55	0x3e20b47e	0.15693852
56	0xbe02dbe5	-0.12779196
57	0xbdfc4fad	-0.123198844
58	0xbe89e763	-0.26934347
59	0xbdcdb438	-0.100441396
60	0xbdf4619a	-0.119326785
61	0x3d2b4986	0.041818164
62	0xbeaaaf29	-0.33336762
63	0x3e895df4	0.26829493
64	0xbdccf6a5	-0.10007981
65	0xbe00c707	-0.12575923
66	0xbe850629	-0.25981262
67	0x3d1d250b	0.038365405
68	0xbaf5f0fa	-0.0018763833
69	0x3bcb46ce	0.006203509
70	0xbe5e4f84	-0.2171002
71	0x3e1ca891	0.15298678
72	0x3dd37942	0.103258625
73	0x3dc7831e	0.097418055
74	0xbe1c9cf0	-0.15294242
75	0xbe30e733	-0.17275696
76	0xbdb2ba88	-0.08726984
77	0x3e6cd5da	0.23128453
78	0xbd1f5b17	-0.03890523
79	0x3e49b379	0.1969737
80	0x3db82406	0.08991246
81	0x3dfb0507	0.12256818
82	0xbce5c7d8	-0.028049394
83	0xba246998	-0.0006271838
84	0x3d08f521	0.0334369
85	0x3e192add	0.14957757
86	0x3e72b167	0.23700486
87	0x3e2bcace	0.16776583
88	0xbc91d0a3	-0.017799681
89	0x3dad4179	0.084597535
90	0xbe75bca4	-0.23997742
91	0x3bc9a57b	0.00615376
92	0xbdda788b	-0.10667523
93	0x3de661f5	0.112491526
94	0xbeb03100	-0.34412384
95	0xbe19dce8	-0.15025675
96	0x3e191075	0.14947684
97	0xbeb18b59	-0.34676626
98	0xbe208d22	-0.15678838
99	0xbe10dba8	-0.14146292
100	0x3e2f422a	0.17115083
101	0x3df647f9	0.120254464
102	0x3d53800a	0.05163578
103	0x3eb54a59	0.35408285
104	0x3d869292	0.06570925
105	0xbd893523	-0.06699588
106	0xbcd1b38b	-0.025598308
107	0x3e10283a	0.14077845
108	0xbe2b56f7	-0.16732393
109	0xbe6f4d2e	-0.23369285
110	0xbe1a0c41	-0.15043737
111	0x3ed3e465	0.4138519
112	0xbcf8c1d8	-0.03036587
113	0xbd04b759	-0.032401416
114	0xbebd0298	-0.3691604
115	0x3d8f4a5a	0.06996603
116	0x3dc5e5a5	0.09662942
117	0x3bb52976	0.005528624
118	0xbbbeb57e	-0.0058199754
119	0x3e6e0afb	0.23246376
120	0x3e547ed8	0.20751512
121	0xbdddf48c	-0.10837659
122	0x3cbfa350	0.023393303
123	0xbec2b340	-0.38027382
124	0xbd8634b8	-0.06553024
125	0x3e0b2422	0.13588002
126	0x3de7ee4e	0.1132475
127	0xbe117433	-0.14204483
128	0x3d368f5d	0.044570316
129	0xbd61cf0a	-0.05512909
130	0xbdf8b9c2	-0.121448055
131	0xbe171766	-0.1475502
132	0x3dcac988	0.0990172
133	0x3e370e11	0.1787646
134	0xbdf23271	-0.11826027
135	0xbd37e644	-0.044897333
136	0x3dc7403f	0.09729051
137	0xbd8f12cc	-0.06986007
138	0x3ea75c2e	0.32687515
139	0x3e44b76c	0.19210595
140	0x3e26a630	0.16274333
141	0xbdbd2136	-0.0923485
142	0xbda35a80	-0.07976246
143	0xbe1143b7	-0.14185987
144	0x3da86019	0.08221454
145	0xbd1cbf8d	-0.038268615
146	0x3e0d7820	0.13815355
147	0x3e5dfd54	0.21678668
148	0x3dee80a2	0.116456285
149	0xbe0fc55c	-0.1404013
150	0xbda99239	-0.08279843
151	0x3d3ec05a	0.04657016
152	0xbdfa05bd	-0.12208126
153	0x3b21f6de	0.0024713795
154	0xbde63c61	-0.11241985
155	0x3efcb45a	0.49356347
156	0xbdf9ee92	-0.12203707
157	0x3e824d60	0.25449657
158	0x3e4ab438	0.1979531
159	0xbe28d822	-0.16488698
160	0xbd821a1f	-0.063526385
161	0x3ddaf6ac	0.1069158
162	0x3ec7d184	0.39027035
163	0xbef1f181	-0.47254565
164	0x3d9cc3ac	0.07654509
165	0xbdf36fb0	-0.11886537
166	0x3e4f6011	0.2025149
167	0xbc5d9465	-0.01352415
168	0xbde5f1a4	-0.1122773
169	0xbd30cc68	-0.043163687
170	0x3d475d37	0.04867288
171	0xbe4eb23d	-0.2018518
172	0xbd784c73	-0.060619783
173	0xbd00f0e0	-0.031479716
174	0xbde75809	-0.11296088
175	0x3e6af615	0.22945435
176	0x3da7eda2	0.08199622
177	0xbe16a9fb	-0.1471328
178	0x3ea1d683	0.31608972
179	0xbd1f7d08	-0.0389376
180	0xbd67d9cf	-0.056604203
181	0x3d8ddf7f	0.06927394
182	0x3e1da288	0.15394032
183	0xbe419c81	-0.18907358
184	0xbd31908e	-0.04335075
185	0xbe17c75c	-0.14822143
186	0x3bbc5aa3	0.0057481094
187	0xbcc3218b	-0.023819705
188	0xbe6d68ea	-0.23184553
189	0x3ce137dc	0.027492456
190	0x3e8fe46e	0.28103966
191	0x3e9077b4	0.28216326
192	0xbacc6fe2	-0.0015597309
193	0xbe8c6962	-0.2742415
194	0x3e9a0543	0.3008214
195	0x3ea1a893	0.31573924
196	0xbd830f2c	-0.06399378
197	0x3e71e47c	0.23622316
198	0x3e9c0781	0.30474475
199	0xbe19b521	-0.15010501
200	0xbe03d477	-0.12874018
201	0xbe258e51	-0.1616757
202	0x3e61ceac	0.22051495
203	0xbd97419f	-0.07385563
204	0xbda0d13c	-0.07852408
205	0x3dd2b043	0.102875255
206	0x3de8ce22	0.11367442
207	0x3cd4d423	0.02598006
208	0xbcbe8146	-0.023255002
209	0xbdd9697d	-0.106158234
210	0xbe585304	-0.21125418
211	0xbe35c917	-0.17752491
212	0xbc7a82da	-0.0152899865
213	0xbc56052e	-0.013062758
214	0x3ebf637c	0.37380588
215	0xbcdf0cd6	-0.0272278
216	0xbe547d8a	-0.20751014
217	0x3e028b34	0.12748414
218	0x3e456d64	0.1928001
219	0xbe4b7294	-0.19867927
220	0x3c9c6d9a	0.01909523
221	0xbdc23fcc	-0.094848245
222	0x3e057e46	0.1303645
223	0xbe2fb5f5	-0.17159255
224	0xbe175d6d	-0.14781733
225	0xbe88def4	-0.267326
226	0x3dec9229	0.11551315
227	0xbe212514	-0.157368
228	0x3d9727ae	0.07380615
229	0xbe1bfad5	-0.15232404
230	0xbb1b3f0b	-0.00236887
231	0x3db31f1b	0.08746167
232	0x3cc4576a	0.023967464
233	0xbdcae751	-0.09907401
234	0x3ebd3de4	0.3696128
235	0xbc8b6204	-0.01701451
236	0x3d8c4feb	0.06851181
237	0xbe109004	-0.14117438
238	0xbdad0ed8	-0.08450097
239	0x3e1f4dd0	0.15557027
240	0xbcdfd355	-0.02732245
241	0x3e2aa6a5	0.16665132
242	0x3e376825	0.17910822
243	0x3e6e2e63	0.23259883
244	0xbdbf9230	-0.09354055
245	0x3d911343	0.07083752
246	0x3e4aba89	0.1979772
247	0x3db4dd29	0.088312455
248	0xbd8d2511	-0.068918355
249	0x3e9c30a7	0.3050587
250	0x3d0f941c	0.035053357
251	0x3dff6ee9	0.12472326
252	0xbca262aa	-0.019822437
253	0x3e825194	0.25452864
254	0xbe28d983	-0.16489224
255	0x3c3f838d	0.011689079

critic.network_body.linear_encoder.seq_layers.0.bias f4 [128]
0	0x3d884d6b	0.06655391
1	0x3e527536	0.20552525
2	0x3e6a6de0	0.22893476
3	0xbe763ea2	-0.2404733
4	0xbe31a08e	-0.17346403
5	0xbde9a582	-0.11408521
6	0xbe5d91a4	-0.21637589
7	0xbe79d55d	-0.24397798
8	0xbcb8b997	-0.022549434
9	0xbe0192aa	-0.12653604
10	0x3b2aab39	0.0026041998
11	0xbe4340eb	-0.19067733
12	0x3dfe2c4a	0.12410791
13	0xbe938cbb	-0.28818306
14	0xbde3130a	-0.11087616
15	0xbcb17664	-0.021662898
16	0x3d9fdf73	0.078062914
17	0x3e71f04a	0.23626819
18	0xbd9beab4	-0.076131254
19	0x3ec71484	0.3888284
20	0xbd6bda6c	-0.05758135
21	0x3cbc6656	0.022998016
22	0x3cf8216c	0.030289374
23	0xbeca5768	-0.3951981
24	0xbdfb0ce2	-0.122583166
25	0xbd39be90	-0.04534775
26	0xbe5828cf	-0.21109317
27	0xbdd804ac	-0.10547766
28	0x3d82460c	0.06361017
29	0x3e14bd97	0.14525448
30	0xbd551dea	-0.05203048
31	0xbdebbfd6	-0.11511199
32	0xbc246e29	-0.01003603
33	0xbcfba677	-0.030719025
34	0x3c25c097	0.010116718
35	0xbe392e10	-0.18083978
36	0xbe1e625e	-0.15467212
37	0x3dc1acbb	0.09456774
38	0xbe663d34	-0.22484285
39	0x3cc4b389	0.02401139
40	0x3c84e275	0.016221264
41	0x3c39337e	0.011303781
42	0xbe2525e1	-0.16127731
43	0x3d31f97e	0.043450825
44	0xbe115ae9	-0.14194836
45	0xbe712c44	-0.23552042
46	0x3e642fbe	0.22283837
47	0xbdf7fab3	-0.12108364
48	0x3d8fc1f7	0.07019418
49	0xbe01a40b	-0.12660234
50	0xbeceef39	-0.40416887
51	0xbe9af96a	-0.30268413
52	0x3c7473a0	0.014920145
53	0xbdc5af59	-0.096525855
54	0x3e565f99	0.20934905
55	0xbdc4b62d	-0.0960506
56	0xbdea1d6e	-0.114313945
57	0x3d7bbb14	0.06145771
58	0xbe06167c	-0.13094515
59	0xbe96877b	-0.29400238
60	0x3cb4b674	0.022059657
61	0xbdcd5cb9	-0.10027451
62	0xbe776b03	-0.24161915
63	0xbe416f06	-0.18890008
64	0xbd674f68	-0.056472212
65	0x3d8fec28	0.07027465
66	0x3e8ea7c3	0.27862367
67	0xbdd4a95f	-0.103838675
68	0xbe31949d	-0.17341848
69	0x3e68f648	0.22750199
70	0x3de94085	0.11389259
71	0xbd995905	-0.07487682
72	0xbdde466e	-0.10853277
73	0xbe7c4091	-0.24634005
74	0xbe0d8889	-0.13821615
75	0x3e15346b	0.14570777
76	0xbc8d497b	-0.017246952
77	0x3e3ab3c9	0.18232645
78	0xbc96f664	-0.018428035
79	0x3e39e729	0.18154587
80	0xbea2a9fc	-0.31770313
81	0x3e792a1b	0.24332468
82	0xbd2c4a35	-0.042062957
83	0xbdb5691e	-0.0885794
84	0x3df46d25	0.1193488
85	0xbe9b90e7	-0.3038399
86	0xbeceb9f3	-0.40376243
87	0xbd4ccc74	-0.04999967
88	0xba093fcf	-0.00052356435
89	0x3df16889	0.117875166
90	0xbdfc5613	-0.12321105
91	0xbcfc039e	-0.030763444
92	0xbe018bbb	-0.12650959
93	0xbd92c55e	-0.07166551
94	0x3d508f07	0.05091765
95	0xbe469744	-0.19393641
96	0xbd747e29	-0.05969063
97	0xbd0eca8e	-0.03486114
98	0xbd20d983	-0.039269935
99	0xbe128bd5	-0.14311154
100	0xbd8a3c14	-0.0674974
101	0xbe052f3c	-0.130063
102	0xbe845d60	-0.2585249
103	0xbc6daf88	-0.014507182
104	0xbe95cfad	-0.29260007
105	0xbe2693fc	-0.16267389
106	0x3d5e4e9c	0.054274186
107	0xbe700e00	-0.2344284
108	0xbe8546c7	-0.2603056
109	0x3cd410e6	0.025886964
110	0xbea85221	-0.3287516
111	0x3e588d09	0.2114755
112	0x3dc39d30	0.095514655
113	0xbe7a4f6f	-0.24444364
114	0x3d281f4a	0.041045465
115	0x3e6966fb	0.2279319
116	0xbcc87c5f	-0.024473367
117	0xbd1d53ba	-0.038409926
118	0xbe3927dc	-0.18081611
119	0x3db3fd9a	0.08788605
120	0xbe4a7781	-0.1977215
121	0xbeb2c0df	-0.34912774
122	0x3d870716	0.065931484
123	0x3df620ba	0.12017961
124	0x3de984b6	0.11402266
125	0x3d6681e7	0.05627623
126	0xbe8e210e	-0.27759594
127	0x3da4609e	0.08026241

critic.network_body.linear_encoder.seq_layers.2.weight f4 [128, 128]
0	0xbd0e2c24	-0.034710065
1	0x3dc3c50f	0.0955907
2	0xbe272dbf	-0.16326044
3	0x3d822fe6	0.06356792
4	0xbe4f27bf	-0.20230006
5	0xbd173526	-0.03691592
6	0x3da478d0	0.08030856
7	0x3ce8f83c	0.02843868
8	0xbe4345e5	-0.19069631
9	0x3ca49cfc	0.020094387
10	0xbd74af3c	-0.05973743
11	0xbd931ed9	-0.07183618
12	0x3c0ffab4	0.0087878
13	0x3d78604d	0.060638715
14	0x3dbb2c4a	0.09139307
15	0x3e33cd10	0.17558694
16	0xbe080275	-0.13282187
17	0xbdd75d1f	-0.10515808
18	0xbd20d649	-0.03926686
19	0xbba11c23	-0.0049166842
20	0x3ce567dc	0.028003626
21	0x3cc82b0b	0.024434587
22	0x3cb01632	0.021494959
23	0x3da0a790	0.0784446
24	0xbd87e20a	-0.066349104
25	0xbe0dfda6	-0.1386629
26	0x3dba15a9	0.090861626
27	0x3d7de0c5	0.061981935
28	0x3d3a1ca9	0.04543749
29	0xbc1d5376	-0.009602418
30	0x3c1127a5	0.00885955
31	0xbd4522c5	-0.048128862
32	0xbe1cdcab	-0.15318553
33	0xbdefd56a	-0.117106274
34	0xbdbb235d	-0.091376044
35	0x3e6a6ce5	0.22893102
36	0x3da01470	0.07816398
37	0xbda3128c	-0.07962522
38	0xbe2fb978	-0.17160594
39	0xbe536b21	-0.20646335
40	0xbde47b27	-0.11156302
41	0xbe2df67e	-0.1698856
42	0xbb2c9fbd	-0.0026340329
43	0x3d1ef5b4	0.03880854
44	0x3d09609a	0.033539392
45	0xbd0cf7a2	-0.03441585
46	0xbce13150	-0.027489334
47	0x3e10fbc1	0.14158536
48	0xbdc139f1	-0.094348796
49	0xbd731d27	-0.059353974
50	0xbc244d63	-0.010028216
51	0x3d5917e5	0.053001303
52	0x3d185c2b	0.037197273
53	0xbe01184c	-0.12606925
54	0xbcd8de6b	-0.026473245
55	0xbd8bf207	-0.068332724
56	0xbd56ed71	-0.052472536
57	0xbd785c82	-0.060635097
58	0x3b9cad0e	0.004781372
59	0x3d78334e	0.060595803
60	0x3d615a2b	0.05501763
61	0x3dc7d752	0.09757866
62	0xbd173645	-0.03691699
63	0x3cd0f7d3	0.025508797
64	0x3b6a7a14	0.003577833
65	0x3dc39fe7	0.09551983
66	0x3d29d17e	0.041459553
67	0xbe00b38f	-0.12568496
68	0x3da37c95	0.079827465
69	0x3d90774d	0.07054005
70	0x3e860c5b	0.261813
71	0x3dba2b81	0.09090329
72	0xbd4ca096	-0.049957834
73	0x3d32f970	0.043694913
74	0xbd201ab6	-0.039087974
75	0x3c3b2258	0.011421762
76	0xbe4d2b9b	-0.20036165
77	0xbd715e95	-0.05892809
78	0xbe297b82	-0.1655102
79	0x3e1471ba	0.14496508
80	0x3cdd9d63	0.027052587
81	0xbd46820e	-0.048463874
82	0x3c8b5acd	0.01701107
83	0xba1b1078	-0.0005915235
84	0xb9c3a6b2	-0.00037317496
85	0x3e13cc18	0.14433324
86	0xbe1db8a7	-0.1540247
87	0x3dd0751c	0.10178587
88	0xbc947a4d	-0.018124724
89	0xbe0b5937	-0.13608252
90	0xbdfba545	-0.12287382
91	0x3d4829d5	0.04886802
92	0xbdfca660	-0.12336421
93	0x3c582a91	0.013193742
94	0xbde5d44b	-0.11222132
95	0xbd9bcb86	-0.076071784
96	0x3e0c9f59	0.13732661
97	0x3e001cef	0.12511037
98	0x3c015b2f	0.007895275
99	0xbdc64787	-0.096816115
100	0xbdebef6d	-0.11520276
101	0xbdcc364a	-0.09971292
102	0x3d9c5071	0.076325305
103	0xbe1aeae3	-0.15128665
104	0x3d9997a5	0.07499627
105	0xbe432295	-0.19056161
106	0x3c804035	0.015655616
107	0xbdae618e	-0.08514701
108	0x3e05e5a2	0.13075879
109	0xbd0d526a	-0.034502424
110	0xbe444c45	-0.1916972
111	0xbd7fba20	-0.062433362
112	0x3d8678c0	0.06566
113	0x3e26b9db	0.16281836
114	0x3d86a46c	0.0657433
115	0xbc9e4e59	-0.019324468
116	0x3d6753c8	0.056476384
117	0x3dbd417c	0.09241006
118	0x3d572af5	0.0525312
119	0xbc88a5de	-0.016680654
120	0xbc9af513	-0.018915689
121	0xbc26850d	-0.010163558
122	0x3e0f8619	0.14015998
123	0xbe111092	-0.14166477
124	0xbc165c6d	-0.009177309
125	0xbd86ac59	-0.065758415
126	0xbc8e45e8	-0.017367318
127	0xbe870d64	-0.26377404
128	0x3c85c047	0.016327037
129	0x3e1c545d	0.15266557
130	0x3ce518b4	0.02796588
131	0xbd80a62a	-0.06281693
132	0x3cba2f36	0.02272759
133	0xbda79e79	-0.08184523
134	0x3ce64d73	0.028113103
135	0xbcb4ce78	-0.022071108
136	0xbd0c03b2	-0.03418321
137	0x3be77228	0.007063169
138	0x3d70b67b	0.058767777
139	0x3df464de	0.119333014
140	0x3e1e2705	0.15444572
141	0xbdc87284	-0.09787467
142	0x3e27e8f2	0.16397455
143	0xbd33b511	-0.04387385
144	0x3d9b1d8a	0.075739935
145	0x3e23f6cc	0.16012114
146	0xbbb80017	-0.005615245
147	0x3e07b865	0.13253935
148	0xbde4a813	-0.1116487
149	0x3e10fdb6	0.14159283
150	0x3dcaa43c	0.098946065
151	0xbd884137	-0.06653064
152	0x3cb961f8	0.022629723
153	0x3ba4b5a2	0.005026535
154	0xbd86e5c1	-0.06586791
155	0x3ced81a9	0.02899249
156	0x3e117b21	0.14207126
157	0x3e4e9ed5	0.20177777
158	0xbd052989	-0.032510314
159	0x3c8ab1d7	0.016930504
160	0x3d79bcc8	0.06097105
161	0xbe11635a	-0.14198056
162	0x3e70c12c	0.23511189
163	0x3c6ed87f	0.014577984
164	0x3db4fed7	0.08837669
165	0x3dc3ce91	0.09560884
166	0x3c24b95f	0.010053962
167	0xbabcb034	-0.0014395774
168	0xbc82f17d	-0.015984291
169	0x3ca42bdd	0.020040447
170	0x3dbeaf2d	0.09310756
171	0x3d60552f	0.054768737
172	0x3e615174	0.22003728
173	0xbe077b20	-0.13230562
174	0x3c9cc747	0.019137992
175	0x3d3a6f1e	0.045516126
176	0x3d673a6f	0.05645221
177	0x3e1257f4	0.14291364
178	0x3da5962c	0.08085284
179	0x3d86ffc2	0.06591751
180	0x3b79000a	0.0037994408
181	0x3d1c9344	0.03822638
182	0x3dd562da	0.10419245
183	0xbd3b4f65	-0.045730013
184	0xbd8415c4	-0.06449464
185	0x3d699540	0.0570271
186	0xbcff6b83	-0.031179195
187	0x3e0b0c06	0.13578805
188	0xbe0f2336	-0.13978276
189	0xbe584151	-0.21118666
190	0xbc9d5387	-0.019204868
191	0x3bcd5225	0.006265896
192	0x3e370aa6	0.17875156
193	0x3d230f61	0.03980959
194	0x3e53c93b	0.20682232
195	0x3d9ec51b	0.07752439
196	0xbe2c9d22	-0.16856816
197	0x3b3c4a61	0.0028730857
198	0x3dd6ac19	0.10482044
199	0xbcec7873	-0.028866028
200	0xbe03361f	-0.12813614
201	0xbd080b41	-0.033213858
202	0x3d0a294d	0.033730794
203	0x3dbd296a	0.09236415
204	0x3c13ba7a	0.009016627
205	0xbd43cdd2	-0.047803707
206	0xbe23b7ad	-0.15988036
207	0x3dabef2e	0.08395229
208	0x3d4be206	0.0497761
209	0x3c9ce25b	0.019150903
210	0x3d629b2d	0.05532377
211	0x3d6a4999	0.057199094
212	0x3da92665	0.08259276
213	0xbd720820	-0.05908978
214	0x3db927e8	0.09040815
215	0xbd6eab69	-0.05826894
216	0x3be806ca	0.0070808874
217	0xbbd027bf	-0.0063523944
218	0xbe623cc6	-0.22093496
219	0x3dfea7ed	0.12434373
220	0x3d3c14eb	0.045918386
221	0x3d27ec83	0.04099704
222	0x3d19d779	0.037559006
223	0x3c47b295	0.012188573
224	0x3cf8cb0e	0.030370262
225	0x3c0a5f1a	0.008445526
226	0x3d2cb171	0.04216141
227	0xbc74e3c7	-0.0149468845
228	0xbde59589	-0.11210162
229	0x3e827e3b	0.2548693
230	0x3ca2d453	0.019876635
231	0xbdbe5951	-0.092943795
232	0x3d1b9359	0.03798232
233	0xbe283973	-0.16428165
234	0x3cfc7801	0.030818941
235	0x3cd25587	0.025675548
236	0x3d03f8ec	0.032219812
237	0x3d63ca56	0.055612884
238	0x3c2a077b	0.01037776
239	0x3d852b13	0.065023564
240	0x3de858a1	0.113450296
241	0xbe21dd00	-0.15806961
242	0x3d25085d	0.04029118
243	0xbd2074e2	-0.039173968
244	0x3e37dccb	0.1795532
245	0x3e05b7f9	0.13058461
246	0xbd26c835	-0.040718276
247	0x3d90d5e7	0.07072049
248	0x3d3600e9	0.04443446
249	0x3dd08ed9	0.10183496
250	0xba5c5dcf	-0.00084063126
251	0x3e1b7d0d	0.15184422
252	0x3c3c546c	0.011494737
253	0x3e0726eb	0.1319844
254	0xbe1bc805	-0.1521302
255	0x3db14698	0.08656043
