results/fifth/Car/Car-7499984.pt (torch, 582455 bytes, 40 tensors)

network_body.vector_processors.0.normalizer.running_mean f4 [52]
0.02547992 0.9749994 4.0000862e-07 0.29275376 0.02128208 0.9789515 8.000073e-07 0.29466996
0.028652867 0.97175 5.3333935e-07 0.29270718 0.01995455 0.980079 9.3332693e-07 0.2963691
0.036250506 0.96399695 1.3333654e-07 0.29159448 0.02137058 0.9787941 1.6000408e-06 0.2992644
0.04721607 0.95287937 4.000045e-07 0.28979027 0.024885045 0.97547096 9.333775e-07 0.30402222
0.05081931 0.9491897 7.999855e-07 0.28832978 0.035888612 0.9641383 4.000057e-07 0.3093497
0.051677752 0.94829637 2.6667612e-07 0.2864235 0.06222722 0.937748 4.000124e-07 0.31053248
0.056375027 0.94358754 1.3333654e-07 0.28481665
00000000: 44bb d03c 9099 793f c4c0 d634 d2e3 953e
00000010: c257 ae3c 919c 7a3f 15c0 5635 fbde 963e
00000020: 6bb9 ea3c 9cc4 783f cd2a 0f35 b7dd 953e
00000030: b977 a33c 75e6 7a3f bd89 7a35 b1bd 973e
00000040: 697b 143d 81c8 763f 452b 0f34 df4b 953e
00000050: 5b11 af3c 4092 7a3f fcc0 d635 2f39 993e
00000060: a365 413d e7ef 733f 33c0 d634 645f 943e
00000070: b9db cb3c 77b8 793f 378d 7a35 cda8 9b3e
00000080: e927 503d 19fe 723f 96be 5635 f69f 933e
00000090: f0ff 123d c5d1 763f 5dc0 d634 1563 9e3e
000000a0: 0dac 533d 8dc3 723f b02b 8f34 1aa6 923e
000000b0: f8e1 7e3d 4110 703f 49c1 d634 1dfe 9e3e
000000c0: 80e9 663d f48e 713f 452b 0f34 7dd3 913e

network_body.vector_processors.0.normalizer.running_variance f4 [52]
186112.34 186098.73 3.9999955 303704.62 156142.72 156170.47 6.999957 306594.0
208744.31 208813.23 4.9999733 307511.9 146596.7 146620.64 7.9998627 306854.06
262093.4 262158.4 1.9999998 306993.03 156809.22 156855.3 12.999962 312977.34
337520.34 337585.56 3.999994 302987.66 181850.97 181882.22 7.999954 327986.2
361865.72 361918.66 6.999994 298448.0 259571.16 259609.88 3.999989 349100.78
367623.75 367674.47 2.9999614 293563.06 437606.75 437616.16 3.9999921 362426.53
399002.75 399039.84 1.9999998 292027.9
00000000: 16c0 3548 afbc 3548 edff 7f40 144b 9448
00000010: ae7b 1848 9e82 1848 a6ff df40 40b4 9548
00000020: 14da 4b48 4feb 4b48 c8ff 9f40 fd26 9648
00000030: 2d29 0f48 292f 0f48 e0fe ff40 c2d4 9548
00000040: 5af3 7f48 cd01 8048 feff ff3f 21e6 9548
00000050: 4e22 1948 d32d 1948 d8ff 4f41 2bd2 9848
00000060: 0bce a448 32d6 a448 e7ff 7f40 75f1 9348
00000070: be96 3148 8e9e 3148 a0ff ff40 4626 a048
00000080: 37b1 b048 d5b7 b048 f3ff df40 00ba 9148
00000090: ca7c 7d48 7886 7d48 d2ff 7f40 9975 aa48
000000a0: f880 b348 4f87 b348 5eff 3f40 6257 8f48
000000b0: d8ac d548 05ae d548 dfff 7f40 51f7 b048
000000c0: 58d3 c248 fbd7 c248 feff ff3f 7d97 8e48

network_body.linear_encoder.seq_layers.0.weight f4 [128, 52]
0.06586133 -0.0073944726 -0.061334174 -0.12425734 0.14782725 -0.07784942 0.1894763 0.14086635
0.2859228 -0.23305911 0.16729587 0.19290903 0.06031941 0.053718634 0.008680557 -0.05422662
0.29848188 -0.08917215 0.020172177 0.16742566 0.17093162 -0.21641742 -0.27795914 0.04476722
-0.16806719 0.003549121 0.18377177 0.038657818 0.14800963 0.03362375 0.13426244 0.080134846
0.047534164 -0.02716357 -0.057530206 0.042373195 -0.1942653 0.17448817 -0.33495504 0.15478468
0.16475926 0.0054697054 -0.100767724 -0.16464205 -0.13383737 0.021412797 -0.1228671 -0.22045396
0.11842479 -0.39529282 -0.12925664 -0.017903248 0.096416265 -0.15320036 0.3192403 0.27708274
-0.27826792 0.027775992 -0.008680399 -0.041032754 -0.24470831 0.19583096 0.13926356 -0.3161234
0.1070716 0.00073514273 0.075141825 -0.08936254 -0.09944449 -0.05950861 -0.12422847 -0.029619692
-0.038481243 -0.1764947 0.17832118 -0.17377517 0.04913184 -0.08031196 -0.0790195 0.14621486
0.0922245 -0.015800774 0.04811034 -0.12607574 0.10049304 -0.057974085 -0.096956514 -0.1116075
0.36910626 -0.16519791 0.06085772 -0.22774495 0.0077794096 -0.13381395 -0.04778385 0.021914177
-0.13542575 0.24976166 0.040663555 -0.45750272 -0.26761973 0.079099424 0.19184631 0.18057503
0.16284984 -0.25984624 0.25055784 -0.13168477 0.021962758 -0.21554127 0.20637493 -0.16752186
0.12547709 -0.025785204 0.094158374 -0.06257199 0.15748292 0.20540251 0.07336642 0.0027402986
-0.14797488 -0.01621176 0.21780352 -0.29791746 -0.07883836 -0.0310443 0.23872358 -0.04864732
-0.009297634 0.045245107 0.1818154 -0.19156052 0.19542553 -0.053267393 0.22216992 0.17411906
0.177362 -0.08661844 -0.123834595 -0.00031711548 -0.1688303 0.23629656 0.35896182 0.19716835
-0.15064043 -0.096743785 0.13725094 0.16561024 0.035638228 -0.15859038 0.00133923 0.13046572
-0.045486555 -0.36091867 0.070913285 -0.34329018 -0.054169368 -0.04119959 0.16641355 0.25105017
-0.055616766 -0.011758287 0.0022118138 0.29122302 -0.06820916 0.04967362 0.038979776 -0.053786214
-0.108935304 -0.0055615767 0.040537704 0.16788922 0.021554822 0.18023819 -0.13459411 -0.2729101
-0.35542482 0.047889695 0.003909977 -0.055567097 0.30788004 -0.14116783 -0.02582607 -0.23954172
-0.058412526 0.13803956 0.040360436 0.031063063 -0.10726164 -0.2680132 0.05735971 -0.30210006
0.12296801 0.081374 0.0073892614 -0.09384683 0.39879444 -0.00039861997 -0.117297456 -0.25885928
0.14781508 0.03196876 0.058624428 -0.02727539 -0.18680014 -0.0052968683 -0.015179915 -0.17545144
0.019304514 -0.12797785 -0.2827152 0.2746559 0.07579151 0.15961187 0.1280065 -0.091889784
-0.19456095 0.15199913 -0.1529866 -0.008687573 -0.16208537 0.14905047 0.24142714 -0.037159666
-0.009900791 0.023204165 -0.24163502 -0.09127187 0.05278921 0.09597125 0.026515182 0.056710374
0.12006908 0.09217319 0.041982386 -0.15317 -0.05508426 0.16347475 0.021979937 0.028504565
0.18665391 -0.003709845 0.2419086 -0.61079365 -0.043641627 0.06915861 0.13944466 -0.031301882
0.054259013 -0.014906239 0.19102876 -0.22464739 -0.055025708 -0.20248722 0.2581819 -0.26611188
00000000: 4ee2 863d 554d f2bb 8b39 7bbd a27a febd
00000010: 0760 173e 846f 9fbd 1306 423e 453f 103e
00000020: 7964 923e 0ca7 6ebe 9c4f 2b3e f289 453e
00000030: 7c11 773d 1208 5c3d e538 0e3c bb1c 5ebd
00000040: 9ed2 983e e39f b6bd 1f40 a53c a271 2b3e
00000050: b308 2f3e 879c 5dbe a950 8ebe d55d 373d
00000060: ce19 2cbe 5f98 683b ab2e 3c3e a957 1e3d
00000070: d68f 173e 0fb9 093d 187c 093e bd1d a43d
00000080: 2fb3 423d 2386 debc cba4 6bbd 848f 2d3d
00000090: 7ced 46be 07ad 323e 3a7f abbe e07f 1e3e
000000a0: a7b6 283e 373b b33b 4f5f cebd ed97 28be
000000b0: aa0c 09be e469 af3c bfa1 fbbd afbe 61be
000000c0: b288 f23d d263 cabe da5b 04be d5a9 92bc
000000d0: e475 c53d 8ee0 1cbe 7773 a33e cadd 8d3e
000000e0: 2279 8ebe 7a8a e33c 3b38 0ebc f611 28bd
000000f0: d194 7abe e987 483e 1b9b 0e3e edda a1be
00000100: 5b48 db3d 98b6 403a f5e3 993d b503 b7bd
00000110: 8ea9 cbbd 4dbf 73bd 7f6b febd ffa4 f2bc
00000120: 829e 1dbd 07bb 34be d499 363e 1ef2 31be
00000130: 783e 493d 997a a4bd fad4 a1bd 59b9 153e
00000140: 33e0 bc3d a070 81bc 590f 453d 001a 01be
00000150: 4ccf cd3d 3c76 6dbd 2391 c6bd 7992 e4bd
00000160: 7ffb bc3e a429 29be f245 793d f935 69be
00000170: 6bea fe3b 8606 09be 00b9 43bd 5c85 b33c
00000180: 0cad 0abe 85c1 7f3e d48e 263d cc3d eabe
00000190: 7405 89be e1fe a13d 5c73 443e a9e8 383e
000001a0: 1cc2 263e 910a 85be 1e49 803e 5fd8 06be
000001b0: 3eeb b33c dab6 5cbe f353 533e da8a 2bbe
000001c0: 117d 003e 7e3b d3bc 1bd6 c03d be25 80bd
000001d0: 3443 213e 0955 523e 2241 963d 9596 333b
000001e0: ba86 17be 86ce 84bc e307 5f3e a388 98be
000001f0: 0276 a1bd 9e50 febc f473 743e 6a42 47bd
00000200: 1a55 18bc ef52 393d d12d 3a3e 7128 44be
00000210: a11d 483e e92e 5abd 8380 633e 444c 323e
00000220: 629e 353e 0265 b1bd fe9c fdbd 8542 a6b9
00000230: dae1 2cbe baf7 713e d8c9 b73e 80e6 493e
00000240: 7c41 1abe 9b21 c6bd 838b 0c3e bb95 293e
00000250: 64f9 113d 8465 22be 1a89 af3a ce98 053e
00000260: 1c50 3abd 55ca b8be fc3a 913d bbc3 afbe
00000270: b3e0 5dbd e7c0 28bd 5068 2a3e a689 803e
00000280: 68ce 63bd d5a5 40bc 14f4 103b 2f1b 953e
00000290: 3eb1 8bbd 9176 4b3d 42a9 1f3d ef4e 5cbd
000002a0: 7919 dfbd e33d b6bb dd0a 263d 27eb 2b3e
000002b0: bd93 b03c 5c90 383e 0ad3 09be dfba 8bbe
000002c0: 3efa b5be fc27 443d 441f 803b 539a 63bd
000002d0: 74a2 9d3e 4d8e 10be 3291 d3bc 6d4a 75be
000002e0: f941 6fbd 3e5a 0d3e fc50 253d f777 fe3c
000002f0: feab dbbd 0739 89be 04f2 6a3d dcac 9abe
00000300: a7d6 fb3d 69a7 a63d 9e21 f23b c432 c0bd
00000310: c92e cc3e defd d0b9 a639 f0bd 3489 84be
00000320: d65c 173e adf1 023d 2b20 703d a470 dfbc
00000330: 8948 3fbe 5a91 adbb 2eb5 78bc 8ba9 33be
00000340: 8024 9e3c a00c 03be 0cc0 90be b39f 8c3e
00000350: 9438 9b3d 4b71 233e 2314 033e b630 bcbd
00000360: fc3a 47be a9a5 1b3e 85a8 1cbe 5256 0ebc
00000370: b5f9 25be b0a0 183e ad38 773e bc34 18bd
00000380: ed36 22bc a916 be3c 2c6f 77be bfec babd
00000390: 8039 583d 938c c43d 5e36 d93c 2349 683d
000003a0: c7e6 f53d 4cc5 bc3d b9f5 2b3d 99d8 1cbe
000003b0: 08a0 61bd ed65 273e 450f b43c 6882 e93c
000003c0: 3422 3f3e df20 73bb e3b6 773e f95c 1cbf
000003d0: 90c1 32bd 08a3 8d3d 95ca 0e3e 6736 00bd
000003e0: b33e 5e3d 4c39 74bc 0b9d 433e f709 66be
000003f0: a362 61bd cf58 4fbe 6b30 843e d13f 88be

network_body.linear_encoder.seq_layers.0.bias f4 [128]
-0.04476704 -0.060023 -0.22684388 -0.018260086 -0.002733766 -0.05927717 -0.22150874 0.011234562
-0.081084944 -0.1833077 -0.12532887 0.11888725 -0.0004540724 0.24879713 0.03345198 0.011952684
-0.13611443 -0.19988835 -0.0019677936 -0.16031589 -0.17495215 -0.03796988 -0.047218475 -0.23638263
0.13583711 0.09098724 -0.19141175 -0.07198589 -0.023986306 0.05851164 -0.1703313 0.12425749
-0.06170895 -0.11293782 0.01708978 0.17991325 -0.11338906 -0.20269872 0.08319294 -0.12173174
-0.18321244 0.240752 -0.17128623 -0.1254132 -0.18286072 0.19706877 -0.077455506 -0.08535935
-0.12404506 -0.16194001 0.24256992 0.05961485 0.0637814 -0.15075016 -0.06554965 -0.03794617
0.0906301 0.06433102 0.030741636 -0.15615891 0.060591407 0.15597743 -0.09213284 -0.1342671
-0.019117333 -0.21575974 -0.17755024 0.018067688 0.05090486 0.112063564 -0.15248936 -0.20940301
-0.21421424 -0.21513002 -0.03200503 0.13150764 -0.19903934 0.011869043 0.20755099 0.21077675
-0.18844676 -0.013269186 0.0420749 -0.10784485 -0.26876524 -0.21497579 0.20232378 0.16298081
-0.125354 -0.03332641 -0.16406316 0.050728593 0.010238959 0.11306474 0.015747964 0.021396013
0.12514128 -0.18941115 -0.118863225 0.006143936 -0.20997068 -0.13806781 -0.21966115 -0.18876566
-0.22085163 0.19273755 -0.008012256 0.06931726 0.06812571 -0.2168059 -0.15628368 -0.1518308
0.17849472 -0.1475682 0.16822018 -0.12073726 0.17460132 -0.07221454 -0.12755877 -0.22612439
-0.26312166 0.08758649 0.08115554 0.15615447 0.21792457 0.07632012 -0.028165594 0.14990708
00000000: a55d 37bd adda 75bd c349 68be 2d96 95bc
00000010: fc28 33bb 9ecc 72bd 30d3 62be 2b11 383c
00000020: dd0f a6bd 04b5 3bbe 3656 00be 297b f33d
00000030: 9110 eeb9 adc4 7e3e f204 093d 31d5 433c
00000040: 9561 0bbe 88af 4cbe 19f6 00bb d929 24be
00000050: a826 33be 4e86 1bbd 2968 41bd 4a0e 72be
00000060: e218 0b3e 8557 ba3d 7101 44be 576d 93bd
00000070: ee7e c4bc e7a9 6f3d 546b 2ebe b67a fe3d
00000080: 86c2 7cbd f24b e7bd deff 8b3c 2e3b 383e
00000090: 8638 e8bd 4190 4fbe 0f61 aa3d 7e4e f9bd
000000a0: 0b9c 3bbe b187 763e a865 2fbe 516c 00be
000000b0: d73f 3bbe 65cc 493e fea0 9ebd e2d0 aebd
000000c0: 560b febd 9ad3 25be 4064 783e b32e 743d
000000d0: d39f 823d 405e 1abe e53e 86bd 716d 1bbd
000000e0: 469c b93d fbbf 833d e2d5 fb3c 1fe8 1fbe
000000f0: b22e 783d 8cb8 1f3e 24b0 bcbd 517d 09be
00000100: f49b 9cbc 1ff0 5cbe bbcf 35be b002 943c
00000110: 9d81 503d 9581 e53d 2c26 1cbe be6d 56be
00000120: fa5a 5bbe 0b4b 5cbe b517 03bd f0a9 063e
00000130: f8d0 4bbe 6076 423c 3f88 543e dcd5 573e
00000140: 30f8 40be 0067 59bc bb56 2c3d c3dd dcbd
00000150: 999b 89be 9d22 5cbe f72d 4f3e 71e4 263e
00000160: cd5c 00be 4681 08bd 2c00 28be c9c8 4f3d
00000170: 4fc1 273c 7d8e e73d e001 813c b146 af3c
00000180: 0925 003e fff4 41be 906e f3bd 1253 c93b
00000190: 8e02 57be a661 0dbe daee 60be c94b 41be
000001a0: ee26 62be fe5c 453e d645 03bc 35f6 8d3d
000001b0: 7e85 8b3d 5e02 5ebe d408 20be 8979 1bbe
000001c0: 52c7 363e 1e1c 17be e941 2c3e 1945 f7bd
000001d0: b0ca 323e 37e5 93bd c49e 02be 278d 67be
000001e0: e2b7 86be 8c60 b33d e034 a63d f5e6 1f3e
000001f0: 9e27 5f3e b94d 9c3d 88bb e6bc 3e81 193e

network_body.linear_encoder.seq_layers.2.weight f4 [128, 128]
-0.05164922 0.09548995 -0.061388154 -0.13498633 -0.15528314 0.06304999 -0.20304064 -0.0805511
-0.00079387065 -0.22051245 -0.21384762 0.17622466 -0.11977157 0.17939198 0.14520492 -0.24866126
-0.10262645 0.058837682 -0.18378897 0.06062484 -0.13549685 0.0808182 0.05771349 0.020608278
-0.10126749 -0.05749584 0.019972231 0.09938629 -0.17499998 -0.1586561 0.12117001 0.15215102
-0.093328185 -0.1389664 0.016868407 0.06553003 0.011567679 0.012096126 -0.0056059784 -0.018398872
0.03842559 0.28931516 -0.12345657 -0.0045451852 -0.07915262 0.10243382 -0.1306646 -0.10230915
-0.06004276 0.042131282 0.07111877 0.038206402 0.26711908 0.16616338 -0.08846384 -0.22685966
0.3179471 0.14818269 -0.1703128 -0.022662656 -0.19477764 0.21034129 0.21089326 0.05095044
-0.014323846 -0.028722482 -0.06789853 0.13028276 -0.053532578 -0.01354218 -0.16192818 -0.14445537
-0.12320104 -0.2403715 -0.09247643 -0.06256283 -0.10963161 -0.1379254 0.053590294 -0.005886305
-0.02047667 0.018309109 -0.03754007 0.06591651 0.03859192 -0.003646028 -0.24167998 -0.37626803
-0.21523668 -0.15860522 0.14465325 -0.14850204 -0.07556352 -0.09216478 0.24428721 -0.08071383
0.089791775 -0.13785322 0.22397603 -0.18848245 -0.014365828 -0.028775174 0.05504113 -0.009771844
0.048818126 -0.0012578061 -0.24101153 -0.06424599 -0.15555148 0.08837318 0.096462406 -0.04293604
-0.057936426 0.13451783 -0.12489063 -0.027764266 -0.0106503535 -0.11835867 0.02274844 0.15879461
0.08381941 -0.23325135 -0.102126256 0.038457282 -0.16375409 -0.142249 -0.028176848 0.040654723
-0.009347686 0.008232579 0.11472131 -0.0041107945 -0.088574484 0.13695507 0.05179121 -0.0155779375
-0.007824656 0.14214353 -0.04677835 -0.011031209 -0.045831475 0.072117366 0.03422805 0.15630852
-0.022631276 -0.18617973 -0.19809218 -0.09907706 -0.013514206 -0.050582178 0.09212029 -0.084582284
0.009910833 0.037775774 -0.12024009 0.008348512 -0.049582705 0.115497634 -0.044157136 -0.1331099
-0.0055620153 -0.1053796 0.05027111 0.15486047 -0.14813666 0.051442474 -0.03675895 -0.2397207
0.055299964 -0.08634553 -0.09257084 0.06558642 0.021183565 0.1428688 -0.20845515 -0.19442531
0.045773085 -0.05272959 0.15020707 -0.1324004 0.102859855 -0.07310892 -0.061819933 -0.10032988
0.0076735956 0.24880189 -0.090050526 0.026896738 0.007356252 -0.0044219336 0.23418713 0.018052612
0.17221199 -0.05246165 0.09218451 0.033688236 0.10298994 -0.052389793 -0.16830859 0.06671367
0.04479598 -0.056105252 -0.00047122475 -0.16441195 -0.07949285 0.15907465 0.0126029765 0.015207503
0.09511891 -0.10010879 0.11000739 0.07260037 -0.09151365 0.07540504 0.049796835 -0.09960255
-0.114431575 0.024803326 -0.021662986 0.071116395 -0.12131025 -0.022548277 -0.33242822 -0.15417586
0.00898765 -0.005472025 0.007066274 -0.01166438 0.037176162 0.12102332 -0.11338699 -0.023637518
0.047848675 0.12926792 -0.06570166 -0.052672982 0.07083371 0.040218454 -0.05054453 -0.14214972
-0.054300323 -0.004834167 0.09080078 -0.07694781 0.13960144 0.032710183 0.024406098 -0.0390361
-0.19906461 -0.061921105 -0.24118014 -0.18642266 -0.04645255 0.06415675 -0.063723266 0.054874167
00000000: 228e 53bd 3c90 c33d 2572 7bbd db39 0abe
00000010: 8b02 1fbe 5a20 813d e3e9 4fbe faf7 a4bd
00000020: c21b 50ba 04ce 61be dffa 5abe 3d74 343e
00000030: cc4a f5bd 88b2 373e 99b0 143e 0fa1 7ebe
00000040: d12d d2bd c8ff 703d 2d33 3cbe c151 783d
00000050: b0bf 0abe 0384 a53d fb64 6c3d b1d2 a83c
00000060: 5465 cfbd c280 6bbd ce9c a33c 0a8b cb3d
00000070: 3233 33be bf76 22be fb27 f83d 7acd 1b3e
00000080: d922 bfbd 354d 0ebe 9d2f 8a3c 9c34 863d
00000090: 5d86 3d3c d42e 463c 5bb2 b7bb 3bb9 96bc
000000a0: 2764 1d3d 1e21 943e ccd6 fcbd c7ef 94bb
000000b0: c51a a2bd d3c8 d13d f1cc 05be 7687 d1bd
000000c0: 66ef 75bd da91 2c3d b8a6 913d 517e 1c3d
000000d0: d5c3 883e bc26 2a3e 882c b5bd e64d 68be
000000e0: f6c9 a23e 34bd 173e 7b66 2ebe 09a7 b9bc
000000f0: ca73 47be b563 573e 67f4 573e 69b1 503d
00000100: 91ae 6abc 694b ebbc 620e 8bbd d868 053e
00000110: fa44 5bbd 05e0 5dbc 80d0 25be 1cec 13be
00000120: d450 fcbd f223 76be 4864 bdbd f120 80bd
00000130: 8a86 e0bd 513c 0dbe 7f81 5b3d e8e1 c0bb
00000140: b0be a7bc fcfc 953c 9ec3 19bd 3cff 863d
00000150: 9012 1e3d 33f2 6ebb f57a 77be 34a6 c0be
00000160: 0167 5cbe 6869 22be fb1f 143e eb10 18be
00000170: 0cc1 9abd e3c0 bcbd 6d26 7a3e 4b4d a5bd
00000180: c0e4 b73d 6529 0dbe f959 653e 8b01 41be
00000190: a65e 6bbc eab9 ebbc cf72 613d 161a 20bc
000001a0: 84f5 473d f8dc a4ba bacb 76be 6793 83bd
000001b0: e348 1fbe fffc b43d 158e c53d b3dd 2fbd
000001c0: bf4e 6dbd 0bbf 093e a9c6 ffbd e371 e3bc
000001d0: d27e 2ebc 0866 f2bd f05a ba3c 0e9b 223e
000001e0: 83a9 ab3d 71d9 6ebe 9227 d1bd 6285 1d3d
000001f0: 27af 27be b9a9 11be 22d3 e6bc 9185 263d
00000200: 0927 19bc f0e1 063c 02f3 ea3d d8b3 86bb
00000210: 8a66 b5bd f33d 0c3e 0523 543d 9b3a 7fbc
00000220: fc32 00bc 138e 113e a89a 3fbd 3ebc 34bc
00000230: c9b9 3bbd 45b2 933d b632 0c3d 570f 203e
00000240: 3a65 b9bc e6a5 3ebe add8 4abe eae8 cabd
00000250: b06a 5dbc 422f 4fbd 90a9 bc3d 7a39 adbd
00000260: 0c61 223c c5ba 1a3d 7040 f6bd 33c8 083c
00000270: 3c17 4bbd 068a ec3d 1dde 34bd f64d 08be
00000280: 9141 b6bb 42d1 d7bd 14e9 4d3d be93 1e3e
00000290: 23b1 17be 58b5 523d 8e90 16bd 5879 75be
000002a0: 3782 623d edd5 b0bd c895 bdbd 2c52 863d
000002b0: 2889 ad3c 334c 123e 4475 55be 6e17 47be
000002c0: 8f7c 3b3d fcfa 57bd e2cf 193e f893 07be
000002d0: 30a8 d23d 21ba 95bd e636 7dbd c179 cdbd
000002e0: c972 fb3b ecc5 7e3e 696c b8bd 8c56 dc3c
000002f0: b70c f13b dee5 90bb c0ce 6f3e 12e3 933c
00000300: 5758 303e 07e2 56bd 3bcb bc3d adfc 093d
00000310: 64ec d23d ae96 56bd 1659 2cbe 2da1 883d
00000320: fd7b 373d 9fce 65bd b70e f7b9 9b5b 28be
00000330: 26cd a2bd 77e4 223e b77c 4e3c e428 793c
00000340: b4cd c23d d605 cdbd 8e4b e13d 81af 943d
00000350: 826b bbbd f56d 9a3d c4f7 4b3d 6cfc cbbd
00000360: 1a5b eabd 5830 cb3c 9376 b1bc 79a5 913d
00000370: 8271 f8bd 2ab7 b8bc 0834 aabe 47e0 1dbe
00000380: f040 133c ac4e b3bb 348c e73b f51b 3fbc
00000390: 0846 183d 13db f73d 7037 e8bd 78a3 c1bc
000003a0: f9fc 433d cf5e 043e 988e 86bd a0bf 57bd
000003b0: 4411 913d 1bbc 243d c807 4fbd b28f 11be
000003c0: 046a 5ebd ef67 9ebb c2f5 b93d d096 9dbd
000003d0: aef3 0e3e 1dfb 053d 4cef c73c 51e4 1fbd
000003e0: 98d7 4bbe fca0 7dbd edf7 76be 95e5 3ebe
000003f0: 0745 3ebd 9d64 833d 5881 82bd bcc3 603d

network_body.linear_encoder.seq_layers.2.bias f4 [128]
-0.02305744 0.17651732 -0.011982839 -0.17838746 0.16718785 0.17256063 -0.054434806 -0.17108229
0.13411564 0.055858847 -0.19430578 0.11185629 0.14570883 0.07476549 0.106178924 0.19248514
-0.026890196 -0.19425052 0.06672685 0.0686688 -0.049424257 -0.13066088 0.18179533 -0.034890518
-0.2341477 -0.216291 0.12180278 -0.21685123 0.07871044 -0.16637723 0.04380194 0.062193535
0.13658912 0.08639544 -0.26757243 0.09988841 -0.019054508 0.14170456 -0.22631864 -0.012002567
-0.22256757 0.1617473 -0.0666772 0.19605333 0.13250877 0.111954 -0.21795113 0.07636009
-0.12905869 -0.19398838 0.032011956 -0.11573527 -0.1250947 0.121388584 0.018652933 0.16597985
-0.1332086 0.15557972 0.11495284 -0.11084588 0.043337844 -0.16881049 -0.14500715 0.017104374
-0.14548549 -0.10178279 0.060179524 -0.17375904 -0.10288071 -0.2243338 0.0033767994 0.069649905
0.00939084 0.044877935 0.13569014 0.097292475 0.2042023 -0.17108946 0.07836508 -0.21662247
0.08279581 -0.18908364 0.07602566 -0.11547378 -0.20891578 0.099685915 -0.22331713 0.07974257
0.16878723 0.15366031 -0.22035217 -0.04474341 -0.22456363 0.024390236 -0.09940878 0.08654832
-0.15064819 0.23040403 -0.10874768 -0.059043515 0.05411162 -0.060675588 -0.07845248 0.06862291
0.11142479 -0.11486962 -0.14067845 0.13223214 -0.24107708 -0.011612291 -0.18185474 -0.17846818
-0.22921558 -0.15442054 0.096018784 -0.20754394 -0.13530649 0.03189572 -0.18368705 0.07692938
0.013704715 0.015903736 0.07118409 -0.15430906 0.06659327 -0.16293854 0.09104939 -0.22301508
00000000: f5e2 bcbc f5c0 343e ab53 44bc 34ab 36be
00000010: 4b33 2b3e bcb3 303e 08f7 5ebd 3230 2fbe
00000020: 9c55 093e 3fcc 643d 18f8 46be e914 e53d
00000030: b234 153e a61e 993d 5674 d93d d31a 453e
00000040: d448 dcbc 9ce9 46be 16a8 883d 3aa2 8c3d
00000050: 1771 4abd f7cb 05be 8e28 3a3e 5ce9 0ebd
00000060: 6ac4 6fbe 637b 5dbe bc73 f93d 400e 5ebe
00000070: f032 a13d cb5e 2abe aa69 333d a6be 7e3d
00000080: 05de 0b3e 18f0 b03d 41ff 88be 4b92 cc3d
00000090: 3318 9cbc 001b 113e 13c0 67be 6aa6 44bc
000000a0: c1e8 63be 16a1 253e 0e8e 88bd 34c2 483e
000000b0: 61b0 073e 2448 e53d 952e 5fbe ae62 9c3d
000000c0: f627 04be e4a4 46be f81e 033d 9d06 edbd
000000d0: d318 00be 949a f83d 09ce 983c 9ff6 293e
000000e0: d667 08be 4a50 1f3e 656c eb3d 2a03 e3bd
000000f0: 0683 313d a8dc 2cbe c17c 14be 791e 8c3c
00000100: 26fa 14be 7f73 d0bd ce7e 763d e4ed 31be
00000110: 1fb3 d2bd c2b7 65be 4b4d 5d3b 9ca4 8e3d
00000120: 0adc 193c edd1 373d 5bf2 0a3e 4741 c73d
00000130: 681a 513e 1332 2fbe df7d a03d 48d2 5dbe
00000140: da90 a93d 249f 41be 57b3 9b3d 847d ecbd
00000150: 05ee 55be 2128 cc3d 3fad 64be 1350 a33d
00000160: 8fd6 2c3e 2159 1d3e 00a4 61be de44 37bd
00000170: 02f4 65be 08ce c73c d596 cbbd 3f40 b13d
00000180: 8543 1abe 09ef 6b3e 1bb7 debd 9dd7 71bd
00000190: 25a4 5d3d f786 78bd b2ab a0bd 2b8a 8c3d
000001a0: ae32 e43d c340 ebbd 030e 10be dd67 073e
000001b0: e9dc 76be 7b41 3ebc 2138 3abe 5dc0 36be
000001c0: 7db7 6abe 6b20 1ebe 7fa5 c43d 6686 54be
000001d0: c98d 0abe 16a5 023d 7518 3cbe 278d 9d3d
000001e0: be89 603c 8d48 823c f7c8 913d 3203 1ebe
000001f0: 0d62 883d 5cd9 26be 1a78 ba3d 115e 64be

distribution.log_sigma f4 [1, 2]
-1.9453913 -1.8350015
00000000: 9502 f9bf 54e1 eabf

distribution.mu.weight f4 [2, 128]
-0.11591377 -0.02982732 -0.060827862 -0.017401282 -0.0745429 -0.046929833 0.09765393 0.04123596
0.10136607 -0.015231775 -0.07022789 0.0251977 -0.023226518 0.098080605 0.010633197 0.13769066
0.037434667 -0.012197983 0.029638773 0.011963584 0.0322549 0.051019844 0.053941287 0.10437007
0.031838562 0.12315116 -0.05942759 -0.0613861 0.0392897 0.08636877 0.031077556 -0.09298791
-0.06222163 0.08303414 0.08758815 -0.08584839 0.069882885 0.048232675 0.041729223 0.026042392
-0.002863041 0.27734894 0.053175025 0.08681459 0.10152728 0.006149765 -0.050421 0.012940416
-0.0026386539 0.047815997 -0.20550789 -0.0046173916 -0.07743093 0.015884655 0.019541614 -0.0029340347
-0.15870337 -0.020717846 -0.08219296 0.0025799742 -0.075047925 -0.12120151 -0.15034895 0.011187571
-0.07289352 -0.07733443 -0.012874375 -0.0015521788 0.0019175942 0.017357366 0.07056523 0.055012897
0.11758503 0.05379287 0.004354475 -0.14576524 0.20691842 0.040213257 0.065042496 0.00033944295
0.06291826 -0.029106556 0.06060386 -0.0050612316 -0.0005932137 0.18050526 -0.012393083 0.0027124747
0.26783308 0.018638765 0.030771453 -0.018453518 -0.11001976 -0.0024730195 0.064376384 0.07255135
-0.023433644 0.17813158 -0.09133001 0.035237275 -0.04157305 0.044278987 -0.038377196 -0.15315923
0.003062034 0.09430466 -0.04886911 0.20000859 0.018617408 0.06438339 -0.009934663 0.07874141
-0.040329594 0.01853223 0.0016355847 -0.007345972 -0.05510363 0.03526183 0.032308087 0.095763244
-0.0021706778 0.025776349 -0.0132265 0.062692314 -0.015722787 0.086467475 -0.025540737 -0.06843503
-0.005068755 0.056795914 -0.07043998 -0.10358261 -0.09941514 0.09987567 -0.014952487 -0.015079976
0.11046443 -0.05257989 -0.029701546 0.048545215 0.097168274 -0.07908998 0.069575906 0.23568314
-0.0077158622 -0.04050114 -0.0053166146 0.035721175 -0.046432458 -0.02519915 0.13548231 0.010176837
0.015557448 -0.036684565 -0.119506866 -0.20168348 0.02937096 -0.09266582 0.035278566 -0.040745325
-0.103513695 0.01405047 -0.097716756 0.0642145 0.054620054 0.07607155 -0.03759113 -0.021760333
-0.094014384 0.21220244 -0.017536504 0.19715084 0.026188461 0.09486541 -0.06887984 0.025910499
-0.029849246 -0.023537992 0.04344328 -0.055405643 -0.10278873 0.03706174 0.014990899 0.07160539
-0.15590952 0.09015567 -0.05531832 0.0033489862 -0.022601532 -0.023268612 -0.015319663 -0.009823454
-0.057531696 -0.042446475 0.029278286 -0.034020457 -0.020766327 -0.063164815 0.08478837 0.04375889
-0.019849174 0.023838384 0.035209816 -0.04918008 0.22749473 -0.01928684 0.043305997 -0.046332832
0.07734144 -0.09831167 0.09914135 0.031388305 -0.04990728 0.09712451 -0.06899591 0.030658823
0.19128464 0.12825681 -0.07072358 0.031074418 -0.11529229 0.014611096 -0.04586391 -0.009360344
0.11053966 0.21336402 0.00940967 0.01274427 -0.101076946 -0.030296797 0.031935845 -0.062686056
0.031249855 -0.06902236 -0.21879523 0.08103147 -0.04020188 -0.023440083 -0.016284352 -0.10058139
-0.065671384 -0.0631779 0.07102852 -0.059454687 -0.04368631 -0.035287548 -0.15220876 0.04598976
0.084544584 0.05217159 -0.0011771593 -0.04528343 0.0007703451 -0.0048967823 0.058301345 -0.101659685
00000000: 3364 edbd 6c58 f4bc a326 79bd 228d 8ebc
00000010: f3a9 98bd 7f39 40bd c9fe c73d 0ae7 283d
00000020: 0499 cf3d b28e 79bc a4d3 8fbd 686b ce3c
00000030: 8a45 bebc 7cde c83d dc36 2e3c c8fe 0c3e
00000040: 1855 193d 0dda 47bc 03cd f23c e902 443c
00000050: b71d 043d 2ffa 503d 8af1 5c3d fabf d53d
00000060: 2769 023d ad36 fc3d 586a 73bd fe6f 7bbd
00000070: 3dee 203d 1ce2 b03d 5c96 fe3c 7270 bebd
00000080: 1cdc 7ebd ce0d aa3d 6a61 b33d 48d1 afbd
00000090: c21e 8f3d a08f 453d 43ec 2a3d db56 d53c
000000a0: dba1 3bbb ae00 8e3e 0ece 593d d9cb b13d
000000b0: 89ed cf3d f883 c93b 4086 4ebd 0a04 543c
000000c0: 44ed 2cbb b5da 433d a970 52be 7d4d 97bb
000000d0: 1c94 9ebd 8920 823c bc15 a03c ef48 40bb
000000e0: 2383 22be 79b8 a9bc c854 a8bd c914 293b
000000f0: bab2 99bd 7f38 f8bd 13f5 19be 134c 373c
00000100: 3349 95bd 8361 9ebd 0bef 52bc 7a72 cbba
00000110: c957 fb3a 0931 8e3c 8184 903d 3455 613d
00000120: 6cd0 f03d ea55 5c3d fcaf 8e3b 7c43 15be
00000130: 6ce2 533e a8b6 243d 0035 853d 43f7 b139
00000140: 4adb 803d df70 eebc c13b 783d b0d8 a5bb
00000150: e681 1bba 5fd6 383e 5c0c 4bbc c6c3 313b
00000160: 6b21 893e 53b0 983c 6a14 fc3c d52b 97bc
00000170: 0a52 e1bd 6212 22bb c4d7 833d cd95 943d
00000180: eaf7 bfbc 2068 363e 3a0b bbbd f654 103d
00000190: 8148 2abd e25d 353d 6831 1dbd c6d5 1cbe
000001a0: 68ac 483b cd22 c13d fa2a 48bd 0dcf 4c3e
000001b0: 8983 983c 70db 833d ffc4 22bc 2d43 a13d
000001c0: a530 25bd e7d0 973c 1e61 d63a 7bb6 f0bb
000001d0: 58b4 61bd b56e 103d 7c55 043d 851f c43d
000001e0: ee41 0ebb ec28 d33c f6b3 58bc d464 803d
000001f0: 13cd 80bc dc15 b13d cf3a d1bc aa27 8cbd
00000200: cc17 a6bb d5a2 683d d642 90bd 1f23 d4bd
00000210: 2a9a cbbd 9e8b cc3d 47fb 74bc 0112 77bc
00000220: 2d3b e23d 035e 57bd a850 f3bc 59d7 463d
00000230: 2900 c73d edf9 a1bd d07d 8e3d ec56 713e
00000240: 58d5 fcbb 86e4 25bd ff36 aebb 5e50 123d
00000250: f62f 3ebd 736e cebc e0bb 0a3e c0bc 263c
00000260: abe4 7e3c 8e42 16bd 04c0 f4bd 1d86 4ebe
00000270: 5e9b f03c 94c7 bdbd 4280 103d 92e4 26bd
00000280: fdfe d3bd f133 663c b91f c8bd e482 833d
00000290: 47b9 5f3d 67cb 9b3d 28f9 19bd ba42 b2bc
000002a0: 9d8a c0bd 994b 593e b7a8 8fbc e9e1 493e
000002b0: 2f89 d63c cc48 c23d e010 8dbd 4142 d43c
000002c0: 6886 f4bc bfd2 c0bc 95f1 313d 07f1 62bd
000002d0: e682 d2bd 0dce 173d 639c 753c d9a5 923d
000002e0: bfa6 1fbe 89a3 b83d 7695 62bd aa7a 5b3b
000002f0: d926 b9bc d19d bebc 53ff 7abc 8df2 20bc
00000300: 5ba6 6bbd 5bdc 2dbd 04d9 ef3c 0959 0bbd
00000310: 251e aabc 8e5c 81bd 86a5 ad3d 863c 333d
00000320: bc9a a2bc b748 c33c 2b38 103d 0d71 49bd
00000330: 61f4 683e 6fff 9dbc a161 313d 7fc7 3dbd
00000340: 3065 9e3d a157 c9bd 9f0a cb3d 0691 003d
00000350: 936b 4cbd 37e9 c63d ba4d 8dbd 3628 fb3c
00000360: 1fe0 433e c155 033e 86d7 90bd c78f fe3c
00000370: 5d1e ecbd 6163 6f3c ccdb 3bbd 215c 19bc
00000380: 9e62 e23d 197c 5a3e 042b 1a3c 58cd 503c
00000390: 6e01 cfbd fd30 f8bc 29cf 023d 8c61 80bd
000003a0: b2ff ff3c 985b 8dbd db0b 60be d4f3 a53d
000003b0: baaa 24bd 6b05 c0bc c366 85bc 9efd cdbd
000003c0: b87e 86bd 6a63 81bd 6777 913d c286 73bd
000003d0: 6bf0 32bd ad89 10bd 9ddc 1bbe c25f 3c3d
000003e0: b625 ad3d e1b1 553d e94a 9aba 1e7b 39bd
000003f0: fcf0 493a 3075 a0bb 64cd 6e3d f432 d0bd

distribution.mu.bias f4 [2]
-0.01843267 0.20755306
00000000: 1c00 97bc ca88 543e

critic.network_body.vector_processors.0.normalizer.running_mean f4 [52]
0.02547992 0.9749994 4.0000862e-07 0.29275376 0.02128208 0.9789515 8.000073e-07 0.29466996
0.028652867 0.97175 5.3333935e-07 0.29270718 0.01995455 0.980079 9.3332693e-07 0.2963691
0.036250506 0.96399695 1.3333654e-07 0.29159448 0.02137058 0.9787941 1.6000408e-06 0.2992644
0.04721607 0.95287937 4.000045e-07 0.28979027 0.024885045 0.97547096 9.333775e-07 0.30402222
0.05081931 0.9491897 7.999855e-07 0.28832978 0.035888612 0.9641383 4.000057e-07 0.3093497
0.051677752 0.94829637 2.6667612e-07 0.2864235 0.06222722 0.937748 4.000124e-07 0.31053248
0.056375027 0.94358754 1.3333654e-07 0.28481665
00000000: 44bb d03c 9099 793f c4c0 d634 d2e3 953e
00000010: c257 ae3c 919c 7a3f 15c0 5635 fbde 963e
00000020: 6bb9 ea3c 9cc4 783f cd2a 0f35 b7dd 953e
00000030: b977 a33c 75e6 7a3f bd89 7a35 b1bd 973e
00000040: 697b 143d 81c8 763f 452b 0f34 df4b 953e
00000050: 5b11 af3c 4092 7a3f fcc0 d635 2f39 993e
00000060: a365 413d e7ef 733f 33c0 d634 645f 943e
00000070: b9db cb3c 77b8 793f 378d 7a35 cda8 9b3e
00000080: e927 503d 19fe 723f 96be 5635 f69f 933e
00000090: f0ff 123d c5d1 763f 5dc0 d634 1563 9e3e
000000a0: 0dac 533d 8dc3 723f b02b 8f34 1aa6 923e
000000b0: f8e1 7e3d 4110 703f 49c1 d634 1dfe 9e3e
000000c0: 80e9 663d f48e 713f 452b 0f34 7dd3 913e

critic.network_body.vector_processors.0.normalizer.running_variance f4 [52]
186112.34 186098.73 3.9999955 303704.62 156142.72 156170.47 6.999957 306594.0
208744.31 208813.23 4.9999733 307511.9 146596.7 146620.64 7.9998627 306854.06
262093.4 262158.4 1.9999998 306993.03 156809.22 156855.3 12.999962 312977.34
337520.34 337585.56 3.999994 302987.66 181850.97 181882.22 7.999954 327986.2
361865.72 361918.66 6.999994 298448.0 259571.16 259609.88 3.999989 349100.78
367623.75 367674.47 2.9999614 293563.06 437606.75 437616.16 3.9999921 362426.53
399002.75 399039.84 1.9999998 292027.9
00000000: 16c0 3548 afbc 3548 edff 7f40 144b 9448
00000010: ae7b 1848 9e82 1848 a6ff df40 40b4 9548
00000020: 14da 4b48 4feb 4b48 c8ff 9f40 fd26 9648
00000030: 2d29 0f48 292f 0f48 e0fe ff40 c2d4 9548
00000040: 5af3 7f48 cd01 8048 feff ff3f 21e6 9548
00000050: 4e22 1948 d32d 1948 d8ff 4f41 2bd2 9848
00000060: 0bce a448 32d6 a448 e7ff 7f40 75f1 9348
00000070: be96 3148 8e9e 3148 a0ff ff40 4626 a048
00000080: 37b1 b048 d5b7 b048 f3ff df40 00ba 9148
00000090: ca7c 7d48 7886 7d48 d2ff 7f40 9975 aa48
000000a0: f880 b348 4f87 b348 5eff 3f40 6257 8f48
000000b0: d8ac d548 05ae d548 dfff 7f40 51f7 b048
000000c0: 58d3 c248 fbd7 c248 feff ff3f 7d97 8e48

critic.network_body.linear_encoder.seq_layers.0.weight f4 [128, 52]
0.18462451 -0.19738571 -0.12372278 -0.34792176 -0.060372103 0.018077211 -0.2525851 0.06535043
-0.036589827 -0.19492303 -0.0969791 -0.09633774 -0.050537556 -0.08826902 0.094935685 -0.15728106
0.008577849 0.09612867 0.13493927 -0.057168525 0.343223 0.0335225 -0.1844319 0.18813053
0.06318063 -0.19143899 -0.26968855 -0.12777582 0.072891556 -0.041190736 -0.19932853 0.04011032
0.06913699 -0.17175126 0.06723605 -0.31158695 0.05064121 0.024236575 -0.16799606 0.10528389
-0.0016762001 -0.057780515 -0.24516807 -0.015955482 0.04893759 -0.12762694 -0.076707914 0.057887416
0.33750367 -0.12699008 -0.07783627 -0.20290846 0.21922615 0.33451524 -0.40516847 0.15195635
-0.121791705 -0.12896453 -0.268086 -0.10540522 -0.12328541 0.04582641 -0.33212587 0.26579517
-0.10793426 -0.118527524 -0.2525524 0.03413489 0.00022610623 0.0040953914 -0.21595874 0.14623046
0.10220731 0.09844634 -0.15154839 -0.17618674 -0.091573715 0.23559694 -0.03767634 0.19475813
0.08133201 0.13122109 -0.026788449 0.0029560158 0.026360476 0.15665506 0.2381091 0.16519527
-0.020524766 0.08732588 -0.23874843 0.0047574732 -0.1153004 0.12111986 -0.34291834 -0.14870465
0.14826432 -0.3455545 -0.15555936 -0.14356771 0.17168391 0.11975227 0.052778326 0.35156152
0.06805633 -0.069409646 -0.024869809 0.14405923 -0.16902335 -0.2319501 -0.14971344 0.41091862
-0.03320628 -0.029644392 -0.36843255 0.08107479 0.08878298 0.014978949 -0.0074918154 0.23221304
0.2067681 -0.10763091 0.02411883 -0.37541422 -0.06912893 0.13947527 0.11439978 -0.14713413
0.048644338 -0.059205562 -0.12071957 -0.14167672 0.09359971 0.18421099 -0.11753906 -0.040626947
0.100566104 -0.07313559 0.32758802 0.1956267 0.1616191 -0.09122282 -0.079079226 -0.14773236
0.08033909 -0.03636042 0.13888301 0.22452794 0.11348368 -0.13742933 -0.08207043 0.048987605
-0.11010707 -0.009180952 -0.11169423 0.49294233 -0.12791024 0.2604094 0.19518363 -0.16599199
-0.06715599 0.11060557 0.38726917 -0.46818116 0.07788288 -0.12021188 0.19964035 -0.014604201
-0.11416558 -0.03814409 0.044444557 -0.19350605 -0.058551617 -0.033585325 -0.115161315 0.23089936
0.08380392 -0.1478698 0.31568187 -0.03531639 -0.06301387 0.075688936 0.15117086 -0.19274902
-0.032981943 -0.15863171 0.0030049256 -0.013248271 -0.21904175 0.014687543 0.27845013 0.27706185
-0.0055871936 -0.27021688 0.29811186 0.30952004 -0.068113685 0.24033442 0.30215392 -0.15292776
-0.12845148 -0.16196361 0.21774559 -0.080575354 -0.08002585 0.10436991 0.111473985 0.028204437
-0.02489326 -0.10449925 -0.21056521 -0.16805324 -0.016235694 -0.012120319 0.37467602 -0.01726446
-0.19713344 0.11705513 0.19356708 -0.19880497 0.024213174 -0.10208858 0.13419673 -0.16314621
-0.15081495 -0.2643227 0.11588351 -0.15925315 0.07520116 -0.15402229 -0.0018982482 0.088771924
0.02238735 -0.09749248 0.37030208 -0.012588631 0.06186293 -0.13451812 -0.0834088 0.15194505
-0.032059345 0.17138886 0.17999627 0.22721991 -0.08951838 0.06681885 0.19871677 0.089158155
-0.07006819 0.306216 0.035626076 0.11560811 -0.012802203 0.2475077 -0.16420321 0.0134665
00000000: 350e 3d3e 7b1f 4abe 5e62 fdbd cd22 b2be
00000010: bd48 77bd a916 943c d652 81be 72d6 853d
00000020: 37df 15bd e799 47be fa9c c6bd b94c c5bd
00000030: 7800 4fbd 63c6 b4bd a46d c23d 490e 21be
00000040: 1b8a 0c3c 1cdf c43d 852d 0a3e 8b29 6abd
00000050: edba af3e e44e 093d b7db 3cbe 4aa5 403e
00000060: d964 813d 9508 44be 9e14 8abe aad7 02be
00000070: 2b48 953d 9eb7 28bd c71c 4cbe b84a 243d
00000080: b297 8d3d 90df 2fbe 0eb3 893d 5388 9fbe
00000090: 286d 4f3d c88b c63c 2907 2cbe 159f d73d
000000a0: f1b3 dbba 43ab 6cbd 570d 7bbe 12b5 82bc
000000b0: c872 483d a3b0 02be 0a19 9dbd 5b1b 6d3d
000000c0: 48cd ac3e b009 02be 9f68 9fbd 3cc7 4fbe
000000d0: d27c 603e 9545 ab3e 3e72 cfbe 729a 1b3e
000000e0: ee6d f9bd 470f 04be 9142 89be b1de d7bd
000000f0: 107d fcbd 79b4 3b3d 670c aabe 4e16 883e
00000100: a30c ddbd 8fbe f2bd 8c4e 81be 07d1 0b3d
00000110: ee16 6d39 a232 863b 4a24 5dbe 70bd 153e
00000120: 1152 d13d 3c9e c93d 802f 1bbe 4c6a 34be
00000130: 008b bbbd 5340 713e 8252 1abd ad6e 473e
00000140: 6691 a63d d25e 063e 7373 dbbc b7b9 413b
00000150: edf1 d73c 2f6a 203e dfd2 733e f328 293e
00000160: 8e23 a8bc e9d7 b23d 787a 74be 94e4 9b3b
00000170: 9e22 ecbd b00d f83d fe92 afbe 0846 18be
00000180: 9ad2 173e 85ec b0be f44a 1fbe 6a03 13be
00000190: e8cd 2f3e ae40 f53d 162e 583d dfff b33e
000001a0: 1e61 8b3d a526 8ebd c5bb cbbc 4384 133e
000001b0: 7514 2dbe 5484 6dbe 7b4e 19be ed63 d23e
000001c0: 4f03 08bd ccd8 f2bc 31a3 bcbe 8a0a a63d
000001d0: dad3 b53d 446a 753c e77d f5bb 41c9 6d3e
000001e0: 04bb 533e 986d dcbd da94 c53c 4b36 c0be
000001f0: 7893 8dbd 9bd2 0e3e 6f4a ea3d 54aa 16be
00000200: 493f 473d 8881 72bd d23b f7bd b413 11be
00000210: 34b1 bf3d cea1 3c3e 52b8 f0bd 7168 26bd
00000220: 9af5 cd3d 1dc8 95bd 9eb9 a73e 5e52 483e
00000230: 7a7f 253e 08d3 babd 4af4 a1bd 2747 17be
00000240: d288 a43d aaee 14bd 5937 0e3e a7ea 653e
00000250: 226a e83d 46ba 0cbe 8b14 a8bd 3aa7 483d
00000260: d17f e1bd b46b 16bc f2bf e4bd f062 fc3e
00000270: e7fa 02be 6254 853e 38de 473e cef9 29be
00000280: 1489 89bd 2c85 e23d 2548 c63e 71b5 efbe
00000290: 0f81 9f3d a531 f6bd 856e 4c3e 7546 6fbc
000002a0: a5cf e9bd fa3c 1cbd 7f0b 363d 7326 46be
000002b0: d2d3 6fbd c490 09bd b2d9 ebbd e270 6c3e
000002c0: 64a1 ab3d 2e6b 17be 0ea1 a13e eba7 10bd
000002d0: 6a0d 81bd cd02 9b3d 89cc 1a3e 0060 45be
000002e0: 1318 07bd 5a70 22be 49ee 443b 470f 59bc
000002f0: 7b4c 60be 05a4 703c 0491 8e3e 0ddb 8d3e
00000300: c714 b7bb de59 8abe 1ea2 983e 6979 9e3e
00000310: 307f 8bbd 3a1a 763e ebb3 9a3e 1899 1cbe
00000320: c988 03be cad9 25be b3f8 5e3e b104 a5bd
00000330: 98e4 a3bd e4bf d53d 794c e43d fe0c e73c
00000340: f3ec cbbc b403 d6bd 689e 57be 2616 2cbe
00000350: b800 85bc 4d94 46bc 89d5 bf3e 326e 8dbc
00000360: 59dd 49be 9aba ef3d 7336 463e 8893 4bbe
00000370: b55a c63c d113 d1bd de6a 093e cd0f 27be
00000380: 3c6f 1abe 4e55 87be 5554 ed3d 4213 23be
00000390: 1103 9a3d 05b8 1dbe a4ce f8ba 0ece b53d
000003a0: ad65 b73c 23aa c7bd 3c98 bd3e 8c40 4ebc
000003b0: fc63 7d3d 1ebf 09be 3cd2 aabd 7c97 1b3e
000003c0: a950 03bd 9080 2f3e f150 383e 56ac 683e
000003d0: 6a55 b7bd 52d8 883d 697c 4b3e 8d98 b63d
000003e0: e97f 8fbd 58c8 9c3e a6ec 113d f2c3 ec3d
000003f0: 55c0 51bc a972 7d3e e324 28be 98a2 5c3c

critic.network_body.linear_encoder.seq_layers.0.bias f4 [128]
0.06885207 0.20421344 0.22823194 -0.23687725 -0.17499496 -0.116495594 -0.21317811 -0.2392118
-0.020077514 -0.12650046 -0.0012237828 -0.17960806 0.12354314 -0.2859566 -0.11005489 -0.021306688
0.080085225 0.23093975 -0.07488617 0.3920546 -0.057672698 0.023340693 0.035937876 -0.39217794
-0.12211976 -0.046167348 -0.20926735 -0.103115484 0.066582695 0.14132263 -0.053508993 -0.11405438
-0.009643525 -0.03100166 0.008679077 -0.18895769 -0.15069276 0.098233305 -0.22445658 0.02179432
0.019989993 0.010580934 -0.15993714 0.040335353 -0.14150855 -0.2323412 0.2274512 -0.1226271
0.0704362 -0.1238766 -0.40020463 -0.30201814 0.019236505 -0.0968597 0.20770295 -0.09958563
-0.11010085 0.059844043 -0.1275818 -0.2921817 0.02269136 -0.10215579 -0.23858337 -0.18986791
-0.05973269 0.06986927 0.2785437 -0.10731199 -0.16278495 0.22051455 0.10866001 -0.08018854
-0.10846735 -0.24246211 -0.1332494 0.13706985 -0.01573897 0.18138592 -0.01701415 0.18054889
-0.31591538 0.24241284 -0.03910971 -0.07767906 0.119506046 -0.3008299 -0.4008265 -0.040805098
0.0075972453 0.121579245 -0.119688 -0.028502155 -0.11958698 -0.069831416 0.05951209 -0.19470884
-0.05628313 -0.027409565 -0.03852976 -0.14307533 -0.06630076 -0.13124053 -0.2630122 -0.014713044
-0.28323188 -0.158048 0.053089656 -0.22969754 -0.25883785 0.02737498 -0.32043844 0.21417092
0.09754855 -0.24074307 0.04337203 0.22612979 -0.025031608 -0.039516807 -0.1832504 0.09384719
-0.1992794 -0.34579292 0.070506595 0.119381994 0.1171026 0.057959035 -0.274798 0.08100766
00000000: 5002 8d3d 541d 513e a2b5 693e f38f 72be
00000010: e131 33be 3e95 eebd 5d4b 5abe f0f3 74be
00000020: 9979 a4bc 5689 01be 5667 a0ba 2deb 37be
00000030: 3004 fd3d e768 92be 7564 e1bd 5d8b aebc
00000040: b903 a43d 787b 6c3e ec5d 99bd 61bb c83e
00000050: 353a 6cbd fb34 bf3c 9833 133d 8ccb c8be
00000060: ed19 fabd f919 3dbd 2e4a 56be 362e d3bd
00000070: 825c 883d e1b6 103e 3f2c 5bbd 5895 e9bd
00000080: e0ff 1dbc 31f7 fdbc b032 0e3c 207e 41be
00000090: 344f 1abe 8b2e c93d f2d7 65be 008a b23c
000000a0: 0ec2 a33c a75b 2d3c 90c6 23be af36 253d
000000b0: 9ee7 10be daea 6dbe f8e8 683e eb23 fbbd
000000c0: db40 903d 04b3 fdbd 9fe7 ccbe 1fa2 9abe
000000d0: e095 9d3c 615e c6bd 15b0 543e 8df3 cbbd
000000e0: 8e7c e1bd 071f 753d cea4 02be d798 95be
000000f0: 3be3 b93c 0e37 d1bd 334f 74be bc6c 42be
00000100: 44aa 74bd 9f17 8f3d 489d 8e3e 63c6 dbbd
00000110: 19b1 26be 91ce 613e 2489 de3d e439 a4bd
00000120: 2124 debd fd47 78be 8872 08be 0a5c 0c3e
00000130: 03ef 80bc 3bbd 393e 4261 8bbc cfe1 383e
00000140: a9bf a1be 123b 783e 8131 20bd 3316 9fbd
00000150: 96bf f43d 6006 9abe 2239 cdbe 3f23 27bd
00000160: 50f2 f83b 8afe f83d fb1e f5bd 5a7d e9bc
00000170: 05ea f4bd c603 8fbd f3c2 733d c161 47be
00000180: 2489 66bd 068a e0bc 62d1 1dbd 5782 12be
00000190: b1c8 87bd eb63 06be 89a9 86be fb0e 71bc
000001a0: c503 91be 56d7 21be 8a74 593d d535 6bbe
000001b0: 6586 84be 7e41 e03c 8210 a4be 9f4f 5b3e
000001c0: 89c7 c73d 5a85 76be dfa6 313d 918e 673e
000001d0: 160f cdbc 60dc 21bd fea5 3bbe f532 c03d
000001e0: e60f 4cbe c50b b1be c365 903d 8c7e f43d
000001f0: 7dd3 ef3d 7466 6d3d 53b2 8cbe 58e7 a53d

critic.network_body.linear_encoder.seq_layers.2.weight f4 [128, 128]
-0.032459915 0.096242264 -0.16019985 0.06835935 -0.19561666 -0.03844965 0.08601014 0.03415148
-0.19043274 0.022289004 -0.069171995 -0.073617406 0.0046899533 0.067010455 0.09046361 0.17901453
-0.13184074 -0.09870343 -0.03465901 -0.0037339707 0.023413867 0.024921568 0.017331548 0.07625203
-0.05989172 -0.13385458 0.09312717 0.05585584 0.050508082 -0.005697242 0.0063995253 -0.049603343
-0.15394491 -0.1134578 -0.08476206 0.22400276 0.08241994 -0.072972424 -0.16344732 -0.20322539
-0.10964334 -0.17233048 -0.005988313 0.03930455 0.030224824 -0.03522993 -0.030617876 0.14254548
-0.09413521 -0.056230746 -0.0059222546 0.055533387 0.035765577 -0.11899251 -0.027964134 -0.070284486
-0.051242623 -0.06534651 0.0005030138 0.057611194 0.053102538 0.097174846 -0.037147384 0.033164177
0.0068343882 0.09538529 0.044612043 -0.11982357 0.08195208 0.071057 0.26491734 0.09562379
-0.05051424 0.051288776 -0.031043433 0.014274248 -0.19558828 -0.057164073 -0.16791677 0.1428455
0.027363827 -0.043701936 0.01718508 -0.0050194073 0.0035162477 0.1452798 -0.1459357 0.098819114
-0.020588452 -0.13329892 -0.117912315 0.050467446 -0.12421706 0.010438316 -0.10850629 -0.08033844
0.13334355 0.124017596 0.006967573 -0.09499439 -0.11180174 -0.09686631 0.075928465 -0.15372781
0.07735032 -0.19115321 0.02139861 -0.08391398 0.12838678 -0.039669286 -0.19628489 -0.06464158
0.06455694 0.16514115 0.06934918 -0.015004387 0.054925088 0.093414865 0.05816373 -0.014047644
-0.014478876 -0.0123695675 0.14837587 -0.13899621 -0.0056648264 -0.06083961 -0.020820552 -0.2622332
0.016799895 0.15139045 0.022387197 -0.06418173 0.02568883 -0.080297194 0.030990068 -0.01980992
-0.034003973 0.002383094 0.061869983 0.123336285 0.1546673 -0.10775362 0.16683115 -0.050301895
0.07863225 0.15639642 -0.00040301794 0.1336267 -0.11062776 0.13919912 0.09714984 -0.064472504
0.023813363 0.0021128613 -0.064414285 0.033324674 0.13629766 0.20115441 -0.027591089 0.021316763
0.06080895 -0.14688113 0.2318993 0.013315959 0.08860416 0.096271 0.0027607514 -0.009019856
-0.021096962 0.022454824 0.090299524 0.05502444 0.22049867 -0.13607265 0.020708282 0.043440584
0.054358095 0.13966598 0.07707717 0.057908256 0.005634147 0.03714349 0.10616979 -0.045557458
-0.061123498 0.055700935 -0.029234745 0.13498926 -0.13819113 -0.20869829 -0.01496808 0.008556552
0.17815338 0.031074936 0.20685002 0.07957744 -0.16894677 0.0022052336 0.102042094 -0.03217168
-0.12228928 -0.036197245 0.019381456 0.09109473 0.009509481 -0.04951785 -0.15539445 0.08364914
0.04767667 0.017622218 0.055118054 0.053547394 0.08208476 -0.05953142 0.088476315 -0.053092822
0.0047611613 -0.011267457 -0.23055266 0.124659926 0.049119033 0.042232264 0.03796281 0.011667642
0.028079284 0.0077192904 0.040391065 -0.014037139 -0.108463004 0.25772268 0.014943836 -0.0966947
0.036983963 -0.16406925 0.036203127 0.025089018 0.030102404 0.052551605 0.020009547 0.064071454
0.118831545 -0.15857828 0.041094624 -0.04122147 0.17413867 0.13231881 -0.044285618 0.066012055
0.044274542 0.100649945 -0.009638103 0.15032506 0.010554012 0.124935396 -0.14848784 0.07604963
00000000: b0f4 04bd aa1a c53d 6e0b 24be fdff 8b3d
00000010: bc4f 48be 617d 1dbd 1626 b03d 6ce2 0b3d
00000020: cd00 43be 6e97 b63c 0caa 8dbd b9c4 96bd
00000030: 2eae 993b c73c 893d fc44 b93d 964f 373e
00000040: 4201 07be 0625 cabd 9bf6 0dbd a2b5 74bb
00000050: 70ce bf3c 5128 cc3c e4fa 8d3c 062a 9c3d
00000060: 0551 75bd 2d11 09be 75b9 be3d 18c9 643d
00000070: 90e1 4e3d eeaf babb 1cb3 d13b e02c 4bbd
00000080: bca3 1dbe 905c e8bd bb97 adbd fb60 653e
00000090: c9cb a83d 9172 95bd bc5e 27be 511a 50be
000000a0: b08c e0bd 6777 30be 9c39 c4bb cffd 203d
000000b0: 0d9a f73c 424d 10bd 57d2 fabc 71f7 113e
000000c0: f6c9 c0bd 3652 66bd 790f c2bb fa76 633d
000000d0: ed7e 123d 58b2 f3bd 0a15 e5bc 50f1 8fbd
000000e0: c9e3 51bd 64d4 85bd afdc 033a b7f9 6b3d
000000f0: 0c82 593d 9b03 c73d db27 18bd 29d7 073d
00000100: 01f3 df3b 5d59 c33d 1ebb 363d 0f66 f5bd
00000110: 7ed6 a73d 5586 913d 3fa3 873e 68d6 c33d
00000120: 05e8 4ebd 2e14 523d cc4e febc 89de 693c
00000130: 4b48 48be e024 6abd 60f2 2bbe 1746 123e
00000140: 1b2a e03c cd00 33bd bac7 8c3c d779 a4bb
00000150: d970 663b 3ac4 143e 2b70 15be ad61 ca3d
00000160: 1da9 a8bc 837f 08be 037c f1bd f4b6 4e3d
00000170: 8465 febd 7805 2b3c 8c38 debd 7b88 a4bd
00000180: 368b 083e f0fc fd3d 3d50 e43b 6b8c c2bd
00000190: 50f8 e4bd d861 c6bd 6280 9b3d d36a 1dbe
000001a0: d869 9e3d abbd 43be 234c af3c 18db abbd
000001b0: d377 033e 437c 22bd e8fe 48be ce62 84bd
000001c0: 6e36 843d c31a 293e f106 8e3d f6d4 75bc
000001d0: 21f9 603d 4b50 bf3d 173d 6e3d 1728 66bc
000001e0: cf38 6dbc baa9 4abc d8ef 173e 0655 0ebe
000001f0: 02a0 b9bb f432 79bd dd8f aabc 6e43 86be
00000200: ef9f 893c 1906 1b3e 5b65 b73c b671 83bd
00000210: 6271 d23c db72 a4bd e2de fd3c 6a48 a2bc
00000220: c047 0bbd af2d 1c3b 616b 7d3d bc97 fc3d
00000230: 1b61 1e3e eead dcbd c9d5 2a3e 5c09 4ebd
00000240: f209 a13d 6226 203e 274c d3b9 70d5 083e
00000250: cf90 e2bd 378a 0e3e 7ff6 c63d 290a 84bd
00000260: 3e14 c33c ee77 0a3b a3eb 83bd 747f 083d
00000270: 9d91 0b3e 6cfb 4d3e b506 e2bc 7ea0 ae3c
00000280: ce12 793d 0268 16be 0377 6d3e 2e2b 5a3c
00000290: 1976 b53d bb29 c53d b9ed 343b 05c8 13bc
000002a0: 89d3 acbc 2ef3 b73c f5ee b83d 4f61 613d
000002b0: 67ca 613e a156 0bbe 6aa4 a93c c1ee 313d
000002c0: 98a6 5e3d 9904 0f3e a3da 9d3d 3531 6d3d
000002d0: a79e b83b c623 183d 8c6f d93d 759a 3abd
000002e0: a25c 7abd aa26 643d b47d efbc a03a 0a3e
000002f0: fa81 0dbe 01b5 55be ae3c 75bc c830 0c3c
00000300: d76d 363e dd90 fe3c 7ed0 533e 7ff9 a23d
00000310: 6200 2dbe ae85 103b 72fb d03d 74c6 03bd
00000320: cd72 fabd 9043 14bd dcc5 9e3c e08f ba3d
00000330: a7cd 1b3c 3bd3 4abd b91f 1fbe 3e50 ab3d
00000340: 9d48 433d 785c 903c 78c3 613d 8354 5b3d
00000350: 0e1c a83d 38d7 73bd 1233 b53d dc77 59bd
00000360: 8403 9c3b 249b 38bc ff15 6cbe b44d ff3d
00000370: 0a31 493d bdfb 2c3d e47e 1b3d a329 3f3c
00000380: 8706 e63c 1af2 fc3b 1a71 253d 07fc 65bc
00000390: da21 debd 3af4 833e fed6 743c df07 c6bd
000003a0: 7f7c 173d c501 28be bb49 143d 7c87 cd3c
000003b0: 5199 f63c 5a40 573d 10eb a33c e537 833d
000003c0: f45d f33d 5862 22be d652 283d d8d7 28bd
000003d0: 6851 323e 957e 073e d664 35bd 5431 873d
000003e0: 3959 353d 8f21 ce3d 22e9 1dbc d0ee 193e
000003f0: bcea 2c3c 21de ff3d 320d 18be e9bf 9b3d

critic.network_body.linear_encoder.seq_layers.2.bias f4 [128]
0.0217969 0.069856755 -0.07453756 -0.12665293 0.0019972692 -0.020415436 0.025922868 -0.07505406
-0.035168596 -0.04484875 -0.15625 -0.11730527 -0.116552375 -0.13722835 -0.18242826 -0.023617204
-0.0091782035 -0.13570146 -0.14903198 -0.13643889 -0.075969934 -0.02977368 -0.1147642 0.040735777
-0.16311865 -0.1378865 -0.15401493 6.394568e-05 -0.13734165 -0.14445476 -0.061326776 -0.17360851
-0.062048666 -0.16565625 0.002870681 -0.048864674 0.020636987 0.04897588 -0.23759541 -0.11907799
-0.060104493 -0.14938459 -0.04890426 0.014337129 -0.019568177 -0.17718484 -0.004397178 -0.05430954
-0.09773933 -0.18987209 -0.116047196 -0.14637333 -0.006759867 -0.053548593 -0.14149287 -0.079354435
-0.06693114 -0.15578437 -0.20878424 -0.123375885 0.02455793 0.07079843 -0.08151274 -0.15940422
-0.05204719 -0.05287565 -0.1564482 -0.13224858 -0.16230926 -0.058270793 -0.08288438 -0.12348493
0.040293615 -0.047139347 -0.05205781 -0.19584005 -0.14142753 -0.21475314 -0.10592161 0.029990414
-0.07436132 0.01818364 -0.100732826 -0.16489066 -0.15017128 -0.047624186 -0.09953342 -0.021555375
-0.16836725 -0.15951428 0.012687226 0.08851866 -0.17538111 -0.028445192 -0.16683485 -0.17300208
-0.020741673 -0.17228146 -0.00085077994 -0.041138917 -0.013886395 -0.07267406 -0.054634336 -0.020766687
-0.0105502745 -0.027430773 -0.014313658 -0.04759292 0.024976116 0.015390828 0.055610918 -0.080985546
-0.16498888 -0.00033337163 -0.024283541 -0.09055082 0.05546267 -0.08120403 -0.041895997 -0.13444589
-0.15452898 -0.1767678 0.051322337 0.05987879 -0.023641113 0.011641698 -0.14530897 -0.16232044
00000000: 6a8f b23c 0f11 8f3d 26a7 98bd 4eb1 01be
00000010: 9ee4 023b 463e a7bc 325c d43c f1b5 99bd
00000020: f20c 10bd 53b3 37bd 0000 20be bf3d f0bd
00000030: 03b3 eebd 9785 0cbe 79ce 3abe de78 c1bc
00000040: 2d60 16bc 53f5 0abe d79b 18be a3b6 0bbe
00000050: 2096 9bbd efe7 f3bc 7e09 ebbd 8fda 263d
00000060: 9308 27be 1e32 0dbe 17b6 1dbe 931a 8638
00000070: 4aa3 0cbe f3eb 13be c931 7bbd 6ec6 31be
00000080: be26 7ebd cba1 29be 0922 3c3b 5326 48bd
00000090: e60e a93c ef9a 483d 364c 73be 29df f3bd
000000a0: 2130 76bd 46f8 18be d54f 48bd 47e6 6a3c
000000b0: 714d a0bc f16f 35be 3416 90bb ae73 5ebd
000000c0: 8f2b c8bd d46d 42be 27aa edbd e4e2 15be
000000d0: e081 ddbb c555 5bbd 82e3 10be 9484 a2bd
000000e0: 3213 89bd f085 1fbe 89cb 55be 7fac fcbd
000000f0: b62d c93c c4fe 903d 27f0 a6bd dc3a 23be
00000100: 6f2f 55bd 2394 58bd f533 20be 2c6c 07be
00000110: 6634 26be 5bad 6ebd 49bf a9bd abe5 fcbd
00000120: eb0a 253d 3015 41bd 923a 55bd 4b8a 48be
00000130: 61d2 10be 3fe8 5bbe 6eed d8bd 75ae f53c
00000140: bf4a 98bd dbf5 943c 034d cebd 19d9 28be
00000150: 80c6 19be 9411 43bd 2dd8 cbbd e694 b0bc
00000160: 7768 2cbe b657 23be 15de 4f3c 4549 b53d
00000170: 1b97 33be e405 e9bc c1d6 2abe 7527 31be
00000180: 71ea a9bc 8d6a 30be e006 5fba 4881 28bd
00000190: c383 63bc 23d6 94bd 41c8 5fbd e61e aabc
000001a0: 0fdb 2cbc 80b6 e0bc d583 6abc cbf0 42bd
000001b0: b69a cc3c d029 7c3c 46c8 633d c0db a5bd
000001c0: d8f2 28be 62c8 aeb9 47ee c6bc b572 b9bd
000001d0: d32c 633d 4c4e a6bd 239b 2bbd 2fac 09be
000001e0: d83c 1ebe 9e02 35be 5f37 523d 7643 753d
000001f0: 02ab c1bc d2bc 3e3c e0cb 14be 5437 26be
