results/fifth/Car/Car-2999978.onnx (onnx, 96598 bytes, 9 tensors)

53 f4 [52]
00000000: 379d bb3d 99ac bb3d 8812 833a bf37 523e
00000010: ac8f b83d d299 b83d 5c12 833a c390 533e
00000020: 1a5e ba3d 6385 ba3d 6b12 833a 538c 513e
00000030: 968d b33d 779a b33d 2d36 a93a ab06 573e
00000040: e717 b83d 2134 b83d 7559 173a d48e 4f3e
00000050: b10b c23d ee14 c23d 240a 563a 65a0 5a3e
00000060: 3237 ba3d 4d55 ba3d 4b0a 563a 661a 4d3e
00000070: 9886 d33d 3d8d d33d d409 563a 9779 5d3e
00000080: c3dd be3d 47fc be3d 7559 173a 5301 4b3e
00000090: 9032 e13d a13d e13d 380a 563a 71cc 5f3e
000000a0: 7f75 d83d 2a95 d83d d409 563a 64ae 493e
000000b0: 4449 033e 864c 033e 430a 563a 1a53 5f3e
000000c0: f0b7 fe3d f2ce fe3d 7559 173a 1739 4b3e
0.09160846 0.0916378 0.001000003 0.20529078 0.09011778 0.09013714 0.0009999978 0.20660691
0.0909998 0.09107473 0.0009999996 0.20463686 0.0876724 0.08769696 0.0012909822 0.20998637
0.08988934 0.08994318 0.0005773523 0.20269328 0.09474886 0.09476648 0.0008164963 0.21350248
0.09092559 0.09098301 0.0008164986 0.20029601 0.10328406 0.103296734 0.00081649167 0.21628414
0.093196414 0.09325462 0.0005773523 0.19824724 0.10995972 0.10998083 0.0008164975 0.21855332
0.105692856 0.10575326 0.00081649167 0.19695431 0.12820917 0.1282216 0.0008164981 0.21809044
0.12437427 0.124418154 0.0005773523 0.19845997

54 f4 [1, 2]
00000000: d78f 93bf d3d0 97bf
-1.1528271 -1.1860603

distribution.mu.bias f4 [2]
00000000: 9925 06bc 6cab 503e
-0.008187675 0.20377892

distribution.mu.weight f4 [2, 128]
00000000: 2400 60bd 25c0 e9bc 3c4b b4bd 28e0 65bc
00000010: e804 64bd 58aa 1cbd 5fe6 e23d 7849 013d
00000020: ca08 a13d dc15 2b38 dd34 19bd 3a31 333c
00000030: f78c e4bc a32d 5f3d 043b 083c b790 b73d
00000040: 088a b53c 5405 fd3b e506 053c 813f af3c
00000050: 52ad a23d 5f58 a33d 9cc3 0a3d 56ad 033e
00000060: e906 f13b 017e 513d e368 29bd 374f 0dbd
00000070: e36b 293d 3c38 aa3d 1928 053a 8218 b0bd
00000080: 070c a3bc 8647 d93c c5f5 583d 496b a2bd
00000090: bdcd 443d 6324 253d 34e1 183c c068 3d3d
000000a0: 678b f5bb 8a50 083e 067c 9d3d afc9 553d
000000b0: 8208 973d a66b 003c ea34 50bd e342 3ebc
000000c0: 423c cd3b 875a d73c 8a6e 19be 0c96 123d
000000d0: f550 b3bd 9e4e 88bc 5f70 e33a 70a9 96bb
000000e0: 2bd3 a4bd 31f9 1fbd 24d6 7bbd 7816 adbc
000000f0: dd77 94bd c41f c0bd 99f8 dfbd a722 9f3d
00000100: 2905 c0bd b7a2 94bd 9ee7 c6bc cc88 00bc
00000110: 47d6 03bb eb45 d53c 2412 863d c4ec 733d
00000120: ebac 293e 52b9 573d e715 943b e0af d6bd
00000130: 160f 1f3e f52e 0e3c c510 893d bc6e 203c
00000140: cc3b 1d3d 7ee3 26bc fb7e a33c 230a f7bc
00000150: acc3 4e3d dd05 0d3e dbc1 57bb a9ed 753c
00000160: 644f ee3d efb4 9fbb 56eb 353d d607 ab38
00000170: adce 85bd 9f38 283d 49c0 b33d 1170 453d
00000180: 6517 86bc 761e f93d 1916 05bd 6ba8 913d
00000190: a599 bcbc aa04 be3d e886 1dbd 9dec 0ebe
000001a0: 1aa8 ebba 8609 0a3e 0863 48bd d293 4c3e
000001b0: 913b 2fbb cb27 d13d 5976 c63a 5b9b c03d
000001c0: 6e9d 45bc d4c3 d33c 2bda d7bc 3c4a b63a
000001d0: fa35 26bd 1e2d 153d 9f9e 4f3d 8b0a 6e3d
000001e0: 464b 96bc 8c9e 043d 6b2f 1b3b 6619 7c3d
000001f0: 5637 18bd 8fbb 403d 8ba8 3abc 21df 82bd
00000200: e0b6 70bc 6281 ab3d 2111 3ebd 1281 c2bd
00000210: 4069 2ebc d6ae bf3d ebda cabc 4640 45bd
00000220: 4566 ef3d 92b1 7cbb 0454 ccbd 3806 863d
00000230: 8e14 de3d a916 15bd 94f4 9a3d a12b 673e
00000240: ff81 e6bb 0217 a0bd f85d c03c 14a9 653d
00000250: b645 c4bc 704d 11bd 70b8 303e 2ebf 0fba
00000260: 8c88 78bc e7ea 69bd c8a0 a5bc 3b24 ffbd
00000270: abf5 2b3d a3de 9bbd 04fa c93c b48f 9abb
00000280: b2f1 3abc 6811 2f3d d3b0 c8bd 842e cb3c
00000290: 4916 e33c d5b2 aa3d 5153 17bd 8694 acbb
000002a0: 16b3 02be 73ed 213e 7e89 3d3b d6ae 393e
000002b0: 6382 063d 41a0 b73d bd13 86bd 4e24 d23c
000002c0: 4c2a b1bb c135 26bd 896d b13c fcfc febc
000002d0: 1e0c a7bd b72e 233d d2d0 c6bb b7dd d43d
000002e0: 47ef d7bd 2bfa dc3d 21ce 2bbd 55b1 4b3a
000002f0: 8972 bf3c 8c32 5fbd 0fc9 24bd 1c8d 84bc
00000300: af32 39bd 319a c7bc 630d 243d 6bc8 1ebd
00000310: 079b b4ba a6af 3ebd 0925 953d 9515 2c3d
00000320: 31ea fdbb b89c 883c 684a bb3d faf8 6fbd
00000330: c344 583e 7d3f 06bd db8d 403d 9623 3fbd
00000340: 861b 0c3d a31b fdbc e58c 843d 1f48 243c
00000350: 807b 50bd be07 ec3d a8cc 87bd dce4 103d
00000360: 9da8 373e 60a3 1f3e 93a2 93bd bd26 51bb
00000370: ad73 adbd 50a4 0d3d e1ec 3cbd ced0 513c
00000380: eaf9 3e3d f41a 4f3e f944 1ebc ba90 0e3c
00000390: 1e2b 0ebb 83cb fdbc cb44 353b 32d6 0abd
000003a0: 65b3 3e3d 0700 a6bd c7b2 58be 3c10 c43d
000003b0: cd7a 30bd b020 bf3a 6679 d6bc c0e6 c3bd
000003c0: 207d 25bd 18ea 70bd 7a6f 9a3d 346a 35bd
000003d0: e202 a0bc 5afc 81bc af6c 02be 5362 363d
000003e0: b07a 883d 3907 f33c 3ee9 053d 664a 81bd
000003f0: 4c34 be3c b65d d6bc d087 1a3d 07d9 bbbd
-0.054687634 -0.028534004 -0.08803412 -0.014030494 -0.05566874 -0.03824839 0.11079096 0.031564206
0.078630045 4.0789935e-05 -0.03740393 0.0109370295 -0.027899249 0.054486882 0.008314852 0.08963149
0.022160545 0.0077215824 0.00811932 0.021392586 0.079432145 0.0797584 0.033877954 0.12859091
0.00735556 0.051145557 -0.041359793 -0.034499373 0.041362654 0.08311507 0.00050795224 -0.085984245
-0.019903196 0.026523363 0.05296876 -0.07930619 0.04804777 0.040317904 0.009331036 0.046242476
-0.0074934247 0.13311973 0.07689671 0.052194294 0.073746696 0.007838165 -0.050831713 -0.011612627
0.006263287 0.026288284 -0.14983574 0.035787627 -0.08755676 -0.01663905 0.0017352215 -0.0045978352
-0.080480896 -0.039056007 -0.061483517 -0.021128878 -0.072494246 -0.09381059 -0.10936088 0.07770281
-0.09375984 -0.07257598 -0.024280366 -0.007845115 -0.0020116733 0.026034316 0.06546429 0.05955197
0.16569869 0.05266697 0.0045192125 -0.10482764 0.15533099 0.008678188 0.06692652 0.009792026
0.038387105 -0.010186074 0.01995801 -0.0301562 0.050479576 0.13771768 -0.0032921943 0.015010276
0.11636236 -0.004873864 0.044413887 8.155375e-05 -0.06533561 0.041069623 0.0877691 0.048202578
-0.016368577 0.12164013 -0.032491777 0.07112201 -0.023022482 0.09278233 -0.038458735 -0.13957448
-0.0017979175 0.13480195 -0.04892257 0.19978264 -0.0026738385 0.10212668 0.0015141472 0.09404632
-0.01206146 0.025850214 -0.026349148 0.0013907622 -0.04057882 0.03641998 0.050688382 0.058115523
-0.01834644 0.032377765 0.0023679386 0.06154766 -0.037162147 0.04705387 -0.011392723 -0.06390215
-0.014692038 0.08374287 -0.046403054 -0.094972745 -0.010645211 0.09359519 -0.024762591 -0.048157
0.11689428 -0.0038557989 -0.09976962 0.06544155 0.10843764 -0.036398564 0.07566181 0.22575237
-0.0070345397 -0.078168884 0.023482308 0.05606945 -0.023959022 -0.03547424 0.17257857 -0.0005483505
-0.015169274 -0.057108786 -0.020218268 -0.12458082 0.041982334 -0.07610824 0.02465535 -0.004716838
-0.011410164 0.04274121 -0.097993515 0.024802454 0.027720587 0.08334891 -0.03694469 -0.005266729
-0.12763628 0.15813236 0.0028921063 0.18133101 0.03283919 0.08966113 -0.065467335 0.025652077
-0.0054066535 -0.040578607 0.021658676 -0.031126492 -0.08156608 0.039839473 -0.006067374 0.10393851
-0.105436854 0.10789903 -0.041944627 0.000777026 0.023370044 -0.054491565 -0.040230807 -0.016180567
-0.04521435 -0.024365516 0.04005183 -0.038765352 -0.0013779112 -0.04655423 0.072824545 0.04201277
-0.007748865 0.016676292 0.09145051 -0.058587052 0.2111998 -0.03277539 0.047010284 -0.046664797
0.034205936 -0.030896967 0.06472186 0.010026961 -0.05089903 0.11524914 -0.06630832 0.035374507
0.17935415 0.15589666 -0.07208743 -0.003191396 -0.08469329 0.03458053 -0.046124343 0.012806131
0.046625055 0.20225126 -0.009659999 0.008701498 -0.002169318 -0.030980831 0.0027659412 -0.03389568
0.046557803 -0.08105474 -0.21161948 0.09573409 -0.043085862 0.0014581885 -0.026180934 -0.095654964
-0.04040253 -0.058817 0.07540794 -0.044290736 -0.019532625 -0.0158674 -0.12736772 0.044527363
0.06664026 0.02966653 0.03269314 -0.063130185 0.023218296 -0.026167732 0.037727177 -0.09172254

network_body.linear_encoder.seq_layers.0.bias f4 [128]
00000000: 139d 1dbd 7fed 97bd 4feb 38be f9ee 48bd
00000010: 3362 3ebd 05a8 693d eb79 2bbe f735 04bc
00000020: 79ef 03bd e8d6 2fbe ad16 fcbd 2b2e e43d
00000030: dd0b 303d c726 6f3e f3c4 cd3d 4edc 753d
00000040: 031c 6ebd 2691 49be ea76 9dbb a287 cebd
00000050: 8c32 20be 08de f3bc b5b8 d9bd ed43 73be
00000060: 9231 293e 7dfc f53d 2f05 2dbe 3fe3 cbbd
00000070: e72e 75bb 7c01 743d 1240 2cbe 17c3 163e
00000080: f435 15bd edc9 debd 5bb3 b53d 8a75 503e
00000090: bae9 bbbd 033b 1abe f97c 1e3e 2c31 e6bd
000000a0: b0e0 1dbe bc61 753e 0185 25be 08c2 24bd
000000b0: 9630 30be fe35 5d3e 176d bfbd d127 adbd
000000c0: 4ce4 fbbd 6758 26be 5755 613e 8127 a63c
000000d0: 01a3 123e a4db 1abe b0a9 b4bc 4019 58bd
000000e0: 404b b93d 76eb 173e e018 4a3d bf9f 06be
000000f0: 56bd ea3d 982c 103e 7a04 00be f61f f6bd
00000100: 1574 ba3d eb11 3dbe a083 24be 56b4 3c3d
00000110: 01cd f93d 4cd6 133e 99fe ccbd 5013 25be
00000120: fde0 3abe e5da 49be fac5 a33c a6d9 f73d
00000130: 271c 2bbe fa64 e23d 0610 613e d751 623e
00000140: a9ef 14be a989 82bc 839a 9e3d 497b efbd
00000150: 65f2 6fbe be7b 09be 110b 293e cdbe 123e
00000160: 44ea 05be aafc 2e3c 273d fcbd 378e fe3d
00000170: f652 013d 2d9a 153e c026 a93b a2c0 b73d
00000180: 108f f63d 8d3a 32be a48c 00be ba52 813d
00000190: f23b 35be 8dbb f0bd 60e5 48be a5c9 30be
000001a0: 4f7a 5dbe 53b0 5a3e f141 b43c d2d8 4d3d
000001b0: 1458 f93d 1011 38be b636 28be 11e9 12be
000001c0: 5ffb 083e 10a3 04be 7244 3a3e 08ba dcbd
000001d0: 581e 6c3e b837 b1bc 903f 06be f2ac 6abe
000001e0: 67a2 66be 4798 943d 3859 a33d f855 f73d
000001f0: b149 363e 0858 fe3d 3948 ddbc 4a90 173e
-0.038479876 -0.07418346 -0.18058513 -0.049056027 -0.04648037 0.057045 -0.16745727 -0.008069507
-0.0322108 -0.17171824 -0.123090126 0.11141618 0.042980064 0.23354636 0.10047331 0.060024552
-0.058132183 -0.19684276 -0.0048054354 -0.10084464 -0.15644282 -0.029768959 -0.10630933 -0.2375638
0.16522816 0.12011049 -0.16896509 -0.09955453 -0.003741199 0.059571728 -0.16821316 0.14722858
-0.036428407 -0.10878358 0.088721 0.20357338 -0.09175439 -0.15061574 0.15477361 -0.112398475
-0.15417743 0.23963064 -0.16164018 -0.040224105 -0.17206034 0.21602628 -0.09346979 -0.0845486
-0.122994035 -0.1624466 0.22005211 0.020282509 0.14319994 -0.15122849 -0.02205357 -0.052758455
0.09047556 0.14835915 0.04934013 -0.13146876 0.11461894 0.14079511 -0.12501708 -0.12017815
0.09104172 -0.18463866 -0.16065836 0.04607042 0.121973045 0.14437217 -0.10009498 -0.16120648
-0.18249889 -0.19712408 0.019991864 0.1210206 -0.16709958 0.11054416 0.21978769 0.22101532
-0.14544548 -0.015934782 0.077443145 -0.11693437 -0.2343231 -0.1342611 0.16508128 0.14330597
-0.13077646 0.010680357 -0.123163514 0.12429469 0.03157326 0.14609595 0.00516209 0.08972289
0.12039006 -0.17405148 -0.1255365 0.06314607 -0.17698649 -0.117545225 -0.1961875 -0.17264421
-0.21628688 0.21356325 0.0220041 0.050255604 0.12175003 -0.17975259 -0.1642712 -0.1434672
0.1337714 -0.12952828 0.18190172 -0.1077767 0.2305845 -0.021633014 -0.13110185 -0.22917536
-0.22522889 0.07255607 0.079760015 0.12076944 0.17801549 0.124191344 -0.027011978 0.14801136

network_body.linear_encoder.seq_layers.0.weight f4 [128, 52]
00000000: 9ca3 ab3d 13a0 e8bc d389 70bd 05fb 23be
00000010: c261 523e 781c 0dbe f9b8 383e f371 053e
00000020: 38c1 8a3e 5085 62be dc50 303e 4d6f 2b3e
00000030: 29b5 b03d 20ee cb3c 5e7a 873c 23ce 9cbd
00000040: 529c a23e 74eb ddbd 0c2d 5b3c ea76 0d3e
00000050: 78ee 483e 8788 79be 1dcd 91be 82d2 823c
00000060: cd46 21be cca9 f8bb 4b15 3e3e 890b 913c
00000070: d9d0 183e 4745 dd3c dd67 183e de02 8a3d
00000080: aadb 213d 91a6 9cbc c042 47bd 5648 4e3d
00000090: 40c2 55be 4b34 3d3e ca6e a9be 4944 083e
000000a0: 7e7b 1f3e d8f8 713c 629e ccbd fbd8 38be
000000b0: 9c7b 1abe 79ca 0a3d 3572 03be 1972 6fbe
000000c0: 7b05 bc3d 1362 bcbe eb50 0bbe b5e4 9fbc
000000d0: 1203 b53d 319f 11be 5eba a93e 0f58 a43e
000000e0: 463c 9abe 376c 583d ff8e ba3b 8ef6 11bc
000000f0: 312e 96be ff86 7c3e ca54 173e a6de 85be
00000100: a8d3 a23d 832e f83c 3011 be3d 084e 7fbd
00000110: ba72 f6bd 48b2 18bd 5108 09be acc3 c83c
00000120: 6e26 97bd 42e6 0ebe db2d 483e 1bc8 04be
00000130: 65e3 2bbb 9662 cebc 4310 8bbd 3b9e 5b3e
00000140: c724 a43d 78d1 f2ba 1c63 6e3d c629 adbd
00000150: 778a 063d ac30 2c3c 5925 cdbd 33ca c0bd
00000160: 49f5 c33e fff4 33be 6bd4 8b3d 1e73 1bbe
00000170: 9167 983c 92f4 13be c89f 0ebd 49a0 9b3d
00000180: 2052 14be 9925 863e 5a70 5a3d 097e c7be
00000190: c375 6bbe c374 2a3d f4a0 3a3e 8d28 653e
000001a0: 5ef2 363e d11c 8ebe 4ad5 613e 9d6e f6bd
000001b0: f266 783d ac03 83be 1b15 313e eaaa 15be
000001c0: c37f 183e 876e 51bd a34a 883d 249e 87bd
000001d0: cfdc 443e 6b23 2d3e c666 2f3d ea4f 053d
000001e0: 4f79 08be 804c 04bd 724e 503e 6441 91be
000001f0: f56e 12bd 83db 9bbd d467 523e e360 25bd
00000200: e5d0 f8bb 64e9 2b3d 9060 193e cd43 31be
00000210: 9b2b 583e 86fd 95bd 62f0 443e be0a e93d
00000220: b4cb 0a3e 9c7c 3fbd 8b25 08be 7fc8 de3c
00000230: 1043 29be c07a 6a3e ea94 a93e 81e1 013e
00000240: 3b39 2fbe 8f76 9dbd 3732 d83d 5b17 3f3e
00000250: 2f21 533d 4c4a 36be f3a5 eabc ef07 c13d
00000260: 1dba 8dbd 4200 adbe 9d8d 673d c24a b2be
00000270: 9ce9 f53b 1364 d4bd 0b01 343e 9501 553e
00000280: 9450 483c bff5 a3bd 71ea 843c 58ae 7e3e
00000290: cb6c 2cbd 06a1 cc3c 83b6 2b3d d85f a6bd
000002a0: a650 eabd da54 03bb ee9c d83c a632 173e
000002b0: cdce 8e3c 7243 3b3e 8800 06be 221d 5dbe
000002c0: 861b bbbe 688d 623d 0263 f33b 28a6 96bb
000002d0: 0b70 913e ad9c f3bd b7f1 6fbc c0eb 2abe
000002e0: 5863 27bd 5961 fa3d 6f38 813d ae39 a53d
000002f0: 18fa 2fbe 2cce 4fbe 0f90 453d 97b5 9abe
00000300: 9f2f 093e a4ae 903d 3bc3 e53c ad9a b9bd
00000310: 9330 8f3e baf0 ec3d 81c7 d9bd 4373 55be
00000320: 2a35 dd3d 54c1 923d 78ad 8b3d 7f3b d4bb
00000330: f634 38be 4d01 8dbc 188a 3bbc 5dd8 a8bd
00000340: 65b3 8a3d 04b0 33be e2a3 71be f341 913e
00000350: 594b 103e da7b c53d c435 353e c0aa 82bd
00000360: 6d57 cabd 24e1 703d aad9 dfbd fd13 c3bc
00000370: ee44 f0bd 4ea8 ce3d 9e95 8d3e afc6 823b
00000380: 2621 80ba 658b 483c b7b0 55be c973 b4bd
00000390: e612 6c3d 5908 b23d 9a72 703d 6a53 e03d
000003a0: 1d64 1a3e 3990 713d 5c38 c33d 0939 a8bd
000003b0: f424 67bd 374d 283e 0def a23d 4e71 883d
000003c0: a807 093e 6359 483d 180f 863e a17b 0bbf
000003d0: 0205 eebc 6cd1 593d e847 4b3e 03a5 16bd
000003e0: a17e fe3c 33e8 b73b cc69 763e 3030 1abe
000003f0: 0cb5 80bd 980a 48be c5be 9f3e 7a0b 90be
0.083808154 -0.028396642 -0.05872519 -0.16013725 0.20545104 -0.13780391 0.18039311 0.1303175
0.2710054 -0.22121167 0.17218345 0.16741677 0.086283036 0.02489382 0.016537841 -0.07656505
0.31759888 -0.10835925 0.013377439 0.13814893 0.19622219 -0.24368487 -0.28476802 0.015969519
-0.15749665 -0.0075886007 0.1856281 0.017705696 0.14923419 0.027010573 0.1488337 0.06738828
0.03951613 -0.019122394 -0.048647642 0.050361954 -0.20874882 0.1847698 -0.33092338 0.13307299
0.15574452 0.014768802 -0.099911466 -0.18051521 -0.15086216 0.0338845 -0.12836535 -0.23383369
0.09180733 -0.36793575 -0.13605087 -0.019518236 0.08838476 -0.14220883 0.3315 0.32098433
-0.3012411 0.052837577 0.005693316 -0.008908881 -0.29332116 0.24660872 0.14778438 -0.2614643
0.079505265 0.030295616 0.09280622 -0.062330276 -0.12033601 -0.037279397 -0.13382079 0.024507366
-0.07380377 -0.13955024 0.19548742 -0.12966959 -0.0026228067 -0.025193494 -0.06790211 0.21447079
0.08014827 -0.0018525561 0.058199987 -0.08455233 0.032846894 0.010509651 -0.10016889 -0.094135664
0.38273075 -0.17573927 0.06827625 -0.15180632 0.018604072 -0.14448765 -0.034820348 0.07598931
-0.14484453 0.2620056 0.053329803 -0.38963345 -0.22994141 0.04161526 0.18225461 0.2237875
0.17865893 -0.2775636 0.2205402 -0.120328166 0.06064505 -0.2558874 0.17293207 -0.1461598
0.14892487 -0.051130798 0.06654861 -0.0662196 0.19224857 0.16908042 0.04282262 0.032546915
-0.13327526 -0.03229952 0.20342425 -0.28370202 -0.035750348 -0.07610228 0.2054742 -0.0403756
-0.0075932615 0.041970626 0.14978242 -0.1731102 0.21110384 -0.073237464 0.19232324 0.11379002
0.13554269 -0.046749696 -0.13295572 0.027195213 -0.16529489 0.22898388 0.33121425 0.12683679
-0.17111675 -0.07688629 0.10556453 0.18661253 0.05154532 -0.1780178 -0.028643584 0.09425341
-0.06920264 -0.3378926 0.056531537 -0.3482266 0.007504655 -0.1037065 0.17578523 0.20801385
0.012226243 -0.08005857 0.016225072 0.24871194 -0.04209594 0.024979126 0.041922104 -0.081237495
-0.11441164 -0.002003959 0.026442017 0.14765415 0.017432595 0.18287447 -0.1308614 -0.21593145
-0.36544436 0.055310637 0.007427574 -0.004597444 0.28405795 -0.11895118 -0.014645032 -0.16691494
-0.040866226 0.12225599 0.06309592 0.08067642 -0.17185247 -0.20293492 0.048233088 -0.30216667
0.13397072 0.0706456 0.028047195 -0.09062705 0.27966747 0.115693524 -0.106337555 -0.2084475
0.10801156 0.07165781 0.06820196 -0.006476819 -0.17988953 -0.017212534 -0.011446498 -0.08244393
0.06772498 -0.17547613 -0.23597673 0.28370628 0.14091243 0.096427634 0.17696291 -0.06380224
-0.098799564 0.05880846 -0.10930188 -0.023813242 -0.11731897 0.10090695 0.2765321 0.00399097
-0.0009775504 0.0122402655 -0.20868193 -0.08811147 0.05763521 0.086929984 0.058703043 0.1095341
0.15077253 0.058975432 0.09532234 -0.082140036 -0.056431726 0.16435705 0.079557516 0.06662236
0.13381827 0.04891337 0.2618339 -0.5448552 -0.029055122 0.053178236 0.19851649 -0.03677846
0.03106624 0.005612397 0.24063796 -0.15057445 -0.06284532 -0.19535291 0.31200233 -0.28133756

network_body.linear_encoder.seq_layers.2.bias f4 [128]
00000000: 69e8 c2bc 0084 423e 733c e7bc 9d89 25be
00000010: 10e0 183e f9d0 363e ca81 0dbd bd0d 2abe
00000020: 9ebc 353e 2593 2e3d 27cb 33be ebac 033e
00000030: fd1b 363e e016 4a3d 4915 143e 3b82 3d3e
00000040: 8b1b 79ba 1671 3abe 3a48 8a3d 6ac1 d73d
00000050: 9028 9bbc 1d69 c1bd bcd0 6d3e 663e 35bb
00000060: 8044 5fbe bfd7 55be 409b c63d d9d4 7abe
00000070: 591f d83d 3ddf 2bbe 9053 363d 7910 3a3d
00000080: 6ba2 cb3d 1101 d53d 2ced 68be 7f68 e63d
00000090: 5de8 783c c1b5 243e 7683 50be 7a92 a7bb
000000a0: 596f 49be 4807 213e 21db 93bd a543 453e
000000b0: 4ea0 063e ba6e 0f3e 42d3 2abe 1129 a43d
000000c0: 4304 c1bd dcca 50be 9774 64bb 3458 c3bd
000000d0: 77e3 d4bd 2b0f 033e 27b9 7e3c c426 543e
000000e0: c77a 23be ad6c 3c3e 443f e63d 70e8 d2bd
000000f0: e2e4 1b3d 5ffd 24be d470 0bbe 334d 963d
00000100: b8a1 c3bd a304 9ebd 34a1 ad3d a601 35be
00000110: 11fa c7bd 48c6 35be cae2 1c3d e260 b63d
00000120: c785 613c dc46 963d 1f62 363e 407b bf3d
00000130: 81e2 243e 6239 21be 381e c83d 6034 3cbe
00000140: f8fc b63d 2813 49be 09de dc3d 4995 dfbd
00000150: 0a30 21be 08e3 ae3d 0958 3dbe b63e e53d
00000160: b733 3b3e ca24 593e cbef 5fbe 63c6 2fbd
00000170: f669 1ebe 2d0e a53d bfa8 bdbd d4d8 e43d
00000180: 4ae4 11be 6978 513e ca17 02be 9f08 93bc
00000190: 0479 1c3d 0d2d 14bd a5cf 92bd dd85 ad3c
000001a0: 0f65 223e fcf2 68bd 9e1a 09be b7a7 f63d
000001b0: a180 36be ae58 363c 830b 3ebe fc45 2cbe
000001c0: 42c0 4bbe 8068 03be 10f8 023e a218 3bbe
000001d0: 5792 fdbd 81df f33c 5de9 4ebe 2ee1 b83d
000001e0: c674 b23c 41ab a83c 4f45 f33d 378b 32be
000001f0: 246e b63d 41eb 26be 10dd ef3d 06e7 30be
-0.023792462 0.18995667 -0.028227067 -0.16165777 0.14929223 0.17853154 -0.034547605 -0.16606803
0.17747733 0.042620797 -0.17557965 0.12858932 0.17784114 0.04933822 0.14461245 0.1850671
-0.00095027004 -0.18207201 0.067520574 0.10534938 -0.01894024 -0.09443877 0.23224157 -0.00276556
-0.21803474 -0.20883082 0.0969758 -0.24495257 0.10552854 -0.16784377 0.044513285 0.045425866
0.09943088 0.10400594 -0.22746724 0.112504 0.0151921185 0.16084959 -0.20362648 -0.005113897
-0.19671382 0.15725434 -0.0721953 0.19264086 0.13147089 0.14007083 -0.16682151 0.08015645
-0.09424641 -0.20389885 -0.0034859532 -0.09538308 -0.10394948 0.12798755 0.015547073 0.20717913
-0.15964805 0.18400832 0.11242536 -0.1029824 0.038060077 -0.16112278 -0.1361726 0.07338943
-0.0955233 -0.07715728 0.08478013 -0.1767641 -0.09764493 -0.1775142 0.03830222 0.08905198
0.013764805 0.07337734 0.17810868 0.0934968 0.1610203 -0.15744546 0.09771389 -0.18379354
0.08934969 -0.19636214 0.10784537 -0.10917146 -0.15740982 0.085393965 -0.18490614 0.11193602
0.18281446 0.2120544 -0.21868818 -0.042913806 -0.15470108 0.080593444 -0.092607014 0.11174169
-0.14247242 0.20456089 -0.12704387 -0.017948447 0.038201347 -0.036175776 -0.07168511 0.021181995
0.15858863 -0.056872353 -0.1338906 0.12043708 -0.17822506 0.011129541 -0.18559079 -0.16823572
-0.1989756 -0.12832832 0.12789941 -0.18271115 -0.12381428 0.02976966 -0.20206209 0.090273246
0.021784198 0.020589473 0.11878454 -0.17435919 0.089077264 -0.1630068 0.11712086 -0.17275628

network_body.linear_encoder.seq_layers.2.weight f4 [128, 128]
00000000: 42b0 ccbc 5620 e33d 76fe 033c 482e f8bd
00000010: 0de5 12be bfba 8c3d 42b8 efbd 8447 bebd
00000020: 2c30 86bd 9248 22be 6fb1 98bd fe72 093e
00000030: 9def bebd 4afd 1f3e bab2 ca3d 6949 6ebe
00000040: 9023 b8bd 1905 663d 4975 1dbe b1a6 133d
00000050: ba7d 72bd bb04 963c 6bdd d13b e015 d43b
00000060: 7af9 3bbd abb4 a83c 1803 9e3c db46 c93d
00000070: 8bf5 eebd 6c40 cebd 0a75 df3d b2a4 b13d
00000080: d031 c4bd 73c5 1fbe f9e4 0c3d 8254 703d
00000090: 2759 18bd 300e 903c 383c 2abd b43e e5bc
000000a0: 4396 153d 1241 583e b87d 9ebd e916 be3c
000000b0: b8a6 29bd 5108 b03d ce48 7dbd 2c70 d8bd
000000c0: 9cc5 23bc 31de 2b3d edb3 983c f3e0 973c
000000d0: 81db 653e 3e98 953d ad56 c8bd e13f 03be
000000e0: 100e 983e f3bb 153e ed55 27be a312 153c
000000f0: 21c8 00be 0fcc 923d 6f90 eb3d 15c6 4a3d
00000100: b9e6 59bd d782 303d c795 1fbd 3d33 063e
00000110: 1021 96bc 4f1e 9abd d072 21be c45e 78bd
00000120: d408 8fbd c7a1 08be 99ce 06be 60c7 edbc
00000130: fda1 0ebe e014 47bd b0f6 5a3d b68b 2abd
00000140: 75dd 3bbc ec1a 2d3b 9f5f 4bbd e96e b03c
00000150: fc9c e03c 8c40 2bb8 1ac7 4dbe 5447 b9be
00000160: 8c73 56be 9903 08be bc05 c53d 8695 22be
00000170: d2a1 bebc 1704 0cbe 3f67 703e 7adb 9ebd
00000180: 106d d93d 3bb9 b4bd 35ed 523e d527 26be
00000190: eb2a 313d 67ad 20bd dad0 983d 027e a4bc
000001a0: 2faf c33d 3dba debc 2ac1 7ebe c7a1 33bd
000001b0: e5e9 e7bd b5b0 d23d 7064 643d 77f5 3bbd
000001c0: e9d4 8dbd 2418 df3d de4b ecbd d1ac 08bd
000001d0: e9d9 b23c d79c 9ebd 1610 1c3c 1319 033e
000001e0: 4d1c a33d 6508 3abe 6958 b9bd cf2f 6f3d
000001f0: b517 13be c662 f2bd 6380 aabc e46e afbb
00000200: ce34 2cbd ea42 f3ba 7194 9a3d 28ee 32bc
00000210: 3cd9 aebd c121 0e3e 7d8b dd3b 091e 5e3d
00000220: 4034 923c e7ca 123e ea3c dabd ad0a 8d3b
00000230: 3582 35bd d5c5 393d 8a69 0f3d 954f 0d3e
00000240: 6d60 05bb 3f78 49be 22a5 4cbe 10a0 a7bd
00000250: ecfc 73bd bd4f d0bd ee79 cd3d c9fa 67bd
00000260: d6dd b3bc 6d43 3e3d b52e 06be 4a11 193d
00000270: 13e1 2bbd 2834 6a3d e0fb 66bd 15d4 03be
00000280: e8ab aabc 96b7 b5bd 1e28 8b3d 1c1b 0f3e
00000290: 2877 52be 57fc 2f3d 6c53 f7bc 522e 54be
000002a0: f024 343c 1ff6 bcbd 877d c4bd aa5b 803d
000002b0: 94f2 3ebc 48fa 1a3e 8f0e 13be ec2c 1ebe
000002c0: 2034 da3d 3389 95bd 9531 103e 523a f3bd
000002d0: 40b6 b23d 02e0 6cbd 8cd0 81bd 485d 87bd
000002e0: 9586 dd3c c9c4 583e 8e40 10be d7f8 773c
000002f0: e025 73bc d0f7 373d 2bc2 2c3e 8aac 8cbc
00000300: 62a8 1e3e 8811 a6bd d6b1 cf3c 1119 8d3c
00000310: ef75 073e 365e 87bd 2d03 48be b379 6b3c
00000320: 91d9 453c 4955 71bd daa7 a43c 6f7f fbbd
00000330: 104b fdbd 2ae5 db3d 0fdb 053d 4661 f93c
00000340: 917a fa3c 8001 d0bd 81ba dc3d 6bfd 613d
00000350: 99a3 cdbd 0527 f43c 9027 0e3d 954d 27bd
00000360: 3cb5 dabd 0692 3bbd 9052 393c 9c68 bc3d
00000370: dbaf 4abe 34a5 fbbb 7a42 b7be 097f 17be
00000380: 8f3c 793c 4469 ebbb 50ca 50bc b11d 87bc
00000390: 9c0f 4cbd 27cf c23d 6fe2 cbbd a653 1bbd
000003a0: cc7e febc 5429 153e 914e 44bd 9f57 e5bd
000003b0: 3808 8e3d bb54 a43a ee60 abbd 2f0d 23be
000003c0: 50e5 94bc f405 5fbd 5f00 923d ef04 9abd
000003d0: 1385 1b3e 5c59 3e3d 8f7b 043d 4b9d 5fbd
000003e0: 5f26 35be 07f3 a3bd b930 5fbe 70a7 2fbe
000003f0: df78 d53c 10fe e83c 015c 90bd 64bb 583d
-0.02498639 0.11090152 0.008056274 -0.121182024 -0.14345188 0.068715565 -0.11705066 -0.09290984
-0.06552157 -0.15847996 -0.07455718 0.13422772 -0.09323046 0.15623966 0.09897371 -0.23270191
-0.08991158 0.056157205 -0.15376772 0.03604764 -0.059201933 0.018312803 0.006404569 0.0064723343
-0.045892216 0.020593962 0.019288585 0.09827968 -0.11667927 -0.10070881 0.10910995 0.08673991
-0.095798135 -0.15602665 0.034398053 0.058674343 -0.037194397 0.01758489 -0.041561335 -0.027984
0.036520254 0.21118572 -0.07738823 0.023204284 -0.04141876 0.08595336 -0.06183701 -0.1056827
-0.009995844 0.041959945 0.018640483 0.018539881 0.22447015 0.073044285 -0.09782157 -0.12817337
0.2969823 0.14622478 -0.16341372 0.009098682 -0.12576343 0.07167827 0.11502158 0.049505312
-0.05319855 0.04309353 -0.0389612 0.13105483 -0.018326312 -0.07525312 -0.15766454 -0.06063725
-0.06984106 -0.13342963 -0.13164748 -0.029025733 -0.13928981 -0.048603892 0.053457916 -0.041637145
-0.011466374 0.0026413752 -0.04965174 0.021537261 0.027418606 -4.082969e-05 -0.20095482 -0.36187232
-0.20942515 -0.13282622 0.09620234 -0.15877351 -0.023270521 -0.13673435 0.23476885 -0.077567056
0.10616505 -0.088243924 0.205983 -0.16226132 0.04325382 -0.03922787 0.0746171 -0.020079616
0.09554898 -0.027188415 -0.24878374 -0.043855455 -0.11323909 0.102876104 0.055759847 -0.04588839
-0.06925375 0.10893276 -0.11537908 -0.033367936 0.021832423 -0.077447586 0.00952532 0.12802534
0.07964382 -0.18167265 -0.09050066 0.058395203 -0.14364512 -0.11835246 -0.020813173 -0.0053537954
-0.042042546 -0.0018559371 0.07547844 -0.010921039 -0.08537528 0.13880064 0.006761013 0.054227863
0.01784718 0.14335214 -0.1065615 0.004304251 -0.04431363 0.045354683 0.03501276 0.1379989
-0.0020351664 -0.19674776 -0.19984868 -0.081848264 -0.059567377 -0.10171459 0.10033022 -0.05663565
-0.021956366 0.04645102 -0.13103755 0.037370004 -0.041962694 0.057178646 -0.05639255 -0.12873872
-0.020833924 -0.08872907 0.06794761 0.13975185 -0.20553267 0.04296526 -0.030191146 -0.20720795
0.010995135 -0.092266314 -0.09594255 0.062674835 -0.011654515 0.15134537 -0.14361022 -0.15446824
0.10654473 -0.07301559 0.14081414 -0.11876358 0.08726168 -0.057830818 -0.06338605 -0.06609589
0.027041713 0.21168818 -0.14087126 0.015135012 -0.014840573 0.044914067 0.16870944 -0.017172117
0.1549392 -0.081088126 0.025353353 0.017223867 0.13228582 -0.06609766 -0.19532461 0.014372277
0.012075798 -0.058919225 0.02009957 -0.122801654 -0.12367833 0.10737069 0.032679614 0.030441891
0.030576022 -0.10156536 0.1077776 0.05517332 -0.100409694 0.029803762 0.0347057 -0.040845472
-0.10679099 -0.045793556 0.011311188 0.0919964 -0.19793646 -0.007679606 -0.35792905 -0.14794554
0.015212192 -0.0071841795 -0.012743548 -0.01649365 -0.049819574 0.095121674 -0.09955298 -0.03792157
-0.03106632 0.14566547 -0.04792649 -0.11198353 0.06935161 0.0012537459 -0.08368097 -0.15922998
-0.018175751 -0.054449037 0.07128977 -0.07520472 0.15187483 0.04647194 0.032344397 -0.054593366
-0.17690419 -0.08005338 -0.2179593 -0.17153716 0.026058612 0.028441459 -0.07048798 0.052913085

network_body.vector_processors.0.normalizer.running_mean f4 [52]
00000000: 7dab 0a3c dccd 7d3f dff5 3235 8eca 963e
00000010: 8428 063c c8dd 7d3f e8f5 3235 9388 973e
00000020: 01d3 083c 5bd8 7d3f 25f6 3235 7e72 963e
00000030: b1d5 fd3b 99fb 7d3f 90f5 b235 db11 993e
00000040: e97a 053c 76ea 7d3f 0000 0000 0fe7 953e
00000050: ae6d 143c e4aa 7d3f 38f6 b234 dc9b 9a3e
00000060: a999 083c c5e0 7d3f 25f6 b234 ee69 953e
00000070: 66ae 303c 873d 7d3f 2ef6 b234 4bcf 9b3e
00000080: 8491 0f3c a1c1 7d3f 0000 0000 7111 953e
00000090: c28d 483c 54df 7c3f 25f6 b234 c4c6 9c3e
000000a0: dd1c 393c 8e1a 7d3f 2ef6 b234 4896 943e
000000b0: b0f1 883c 34b7 7b3f 21f6 b234 57bb 9c3e
000000c0: fabc 803c 88f5 7b3f 0000 0000 66e6 943e
0.008463738 0.9914224 6.6667957e-07 0.29451412 0.008188371 0.99166536 6.666801e-07 0.29596385
0.0083510885 0.9915826 6.6668355e-07 0.29384226 0.0077464213 0.9921203 1.3333502e-06 0.29896435
0.00814698 0.99185884 0.0 0.29277846 0.009059353 0.99088883 3.333423e-07 0.30197036
0.008337417 0.99171096 3.3334177e-07 0.2918238 0.010783767 0.9892201 3.3334203e-07 0.3043159
0.008762721 0.9912358 0.0 0.2911487 0.012240829 0.9877827 3.3334177e-07 0.30620396
0.011298385 0.98868644 3.3334203e-07 0.29020905 0.016716808 0.9832642 3.3334166e-07 0.3061168
0.015715111 0.98421526 0.0 0.2908203
