results/fifth/Car/Car-9499985.onnx (onnx, 96598 bytes, 9 tensors)

53 f4 [52]
000000 1a e0 1e 3e 51 df 1e 3e fd 19 2a 3a 27 36 4f 3e
       0.15515175 0.15514876 0.0006488858 0.20235501
000010 b0 19 11 3e 9f 1d 11 3e 31 8f 70 3a 79 90 4f 3e
       0.14169955 0.14171456 0.00091766106 0.20269956
000020 40 bd 30 3e de c3 30 3e cb 2d 3e 3a 7a af 50 3e
       0.17259693 0.17262217 0.00072547485 0.20379439
000030 c2 fb 0d 3e d2 fd 0d 3e e7 79 86 3a ed 42 4e 3e
       0.13865569 0.13866356 0.0010259718 0.20142718
000040 9b 63 52 3e 07 6b 52 3e 5c 8f f0 39 8f 5a 50 3e
       0.20545809 0.2054864 0.00045883178 0.20347045
000050 49 be 14 3e 1e c0 14 3e ca 53 99 3a d4 66 50 3e
       0.14525713 0.14526412 0.0011697945 0.20351726
000060 d0 7f 70 3e 29 85 70 3e fb 19 2a 3a b7 0d 4f 3e
       0.23486257 0.23488297 0.0006488857 0.20220076
000070 4f 20 21 3e f1 22 21 3e 30 8f 70 3a 21 f3 55 3e
       0.15734981 0.15735985 0.000917661 0.20893528
000080 7c 3a 75 3e e5 3d 75 3e ef 05 61 3a da 15 4d 3e
       0.23948091 0.23949392 0.0008583953 0.20027867
000090 c4 7e 45 3e 33 82 45 3e f4 19 2a 3a b7 3b 5d 3e
       0.19286638 0.19287948 0.00064888527 0.2160481
0000a0 cd d6 73 3e cd d9 73 3e b6 4f 13 3a 11 0e 4b 3e
       0.23812409 0.23813553 0.0005619483 0.19829585
0000b0 d8 37 82 3e b6 37 82 3e f8 19 2a 3a 2b e3 61 3e
       0.2543323 0.2543313 0.0006488855 0.22059314
0000c0 18 7f 7a 3e 73 80 7a 3e 5c 8f f0 39 81 77 4a 3e
       0.24462545 0.24463062 0.00045883178 0.1977215

54 f4 [1, 2]
000000 ad 11 07 c0 2e e1 00 c0
       -2.1104538 -2.0137439

distribution.mu.bias f4 [2]
000000 8c d4 82 bc 53 f8 54 3e
       -0.01597049 0.20797853

distribution.mu.weight f4 [2, 128]
000000 c9 64 e5 bd 3a c4 fb bc 6d 35 77 bd 1a a8 8d bc
       -0.11200864 -0.030733217 -0.060353685 -0.017292071
000010 14 cb 95 bd b1 fb 1e bd b1 17 c9 3d 03 4c 25 3d
       -0.07314125 -0.03881425 0.09818972 0.040355694
000020 82 6b d2 3d 61 2f c2 bc e7 84 a3 bd 11 69 02 3d
       0.10274412 -0.023704233 -0.079843335 0.03183848
000030 df f9 a3 bc 58 f8 c4 3d 89 88 55 3c 58 05 14 3e
       -0.020016609 0.0961768 0.013033041 0.14455163
000040 72 41 08 3d 4f e5 c8 bc ec 7e f6 3c c4 a3 0b 3c
       0.03326554 -0.024523405 0.030089818 0.0085229315
000050 c5 36 0f 3d d3 aa 60 3d 56 42 68 3d 32 c0 da 3d
       0.03496434 0.05485041 0.056703888 0.106811896
000060 34 6e e3 3c 75 5f f9 3d 78 28 94 bd b1 1a a4 bd
       0.02776251 0.1217641 -0.07234281 -0.080129035
000070 5d 66 29 3d 23 cc b3 3d 84 5a 25 3d 48 71 bf bd
       0.041357387 0.0877917 0.040369526 -0.093477786
000080 1e 74 92 bd bb 16 a5 3d 6c 86 b5 3d 4a 3b 9e bd
       -0.07151054 0.08060976 0.088635296 -0.07726152
000090 9a 45 92 3d 4f 43 54 3d ef c8 24 3d 01 fb b6 3c
       0.07142182 0.051822003 0.040230688 0.022336485
0000a0 d9 65 1c 3b 00 d5 8f 3e 8f c5 57 3d 92 4e c1 3d
       0.0023864417 0.28092194 0.05267864 0.09438814
0000b0 be 7b dd 3d b5 c0 9a 3b 06 5c 65 bd 98 26 a6 3c
       0.108146176 0.0047226795 -0.055995964 0.020282075
0000c0 37 93 50 bb 8c 04 3e 3d 3d eb 50 be 67 67 6f bc
       -0.0031826028 0.046391055 -0.20402236 -0.014612055
0000d0 ee f8 99 bd fe ff 56 3c 95 ef de 3c 9e e6 97 3b
       -0.07518183 0.013122557 0.027213851 0.004635646
0000e0 03 ae 2f be 74 22 ae bc cd 9e a8 bd d2 9a d4 3b
       -0.17156224 -0.021256663 -0.08233414 0.0064881826
0000f0 45 bd 97 bd 92 b2 fa bd 72 85 18 be 78 43 d3 3b
       -0.07409147 -0.12241091 -0.14894655 0.006447252
000100 77 1c ab bd 66 53 98 bd 6f 94 2f bc 39 d5 a3 bb
       -0.083550386 -0.07437782 -0.010716542 -0.0049997834
000110 1f 7b 50 3b 95 32 74 3c 07 59 9b 3d 46 71 68 3d
       0.0031811667 0.014904638 0.0758534 0.05674865
000120 07 d5 ed 3d 05 83 62 3d 45 ee 2b 3b 6c 5d 0f be
       0.11612897 0.05530073 0.002623455 -0.14000481
000130 e1 63 5b 3e 52 c5 fa 3c 36 de 89 3d eb 9d 02 bc
       0.2142482 0.030611668 0.067318365 -0.007972221
000140 9f 78 80 3d 4c 3a f0 bc 27 52 80 3d 45 ee 97 bb
       0.06273007 -0.029324673 0.06265669 -0.0046365582
000150 0d 54 f2 bb ec 96 38 3e 70 86 3b bc 6b 03 a6 3b
       -0.0073952735 0.18026322 -0.011445627 0.0050663254
000160 75 d6 8a 3e 70 ae 9a 3c 05 e3 02 3d c8 4b 13 bc
       0.27116743 0.018882006 0.031954784 -0.008990236
000170 2c 65 ef bd d2 e4 6c 3a 4f 08 86 3d db c9 94 3d
       -0.11689219 0.00090367824 0.065445535 0.072650634
000180 dc de d4 bc d7 d0 3f 3e f4 27 b8 bd a9 1c 21 3d
       -0.025985174 0.1873201 -0.089919955 0.039333973
000190 fe 3b 53 bd 17 bf 1c 3d ab 23 10 bd a5 ad 1f be
       -0.051570885 0.038268175 -0.035190266 -0.15593584
0001a0 47 88 36 3b d9 0a b0 3d 12 68 35 bd 7c cb 4f 3e
       0.0027852224 0.08595819 -0.044288702 0.20292467
0001b0 40 22 ac 3c 7f ad 92 3d db fb 27 bc 6c 80 a2 3d
       0.021012425 0.07161998 -0.010252918 0.07934651
0001c0 7d 29 2c bd f0 91 aa 3c a4 42 b7 3b 86 c9 bb bb
       -0.042031754 0.020821542 0.005592661 -0.0057308106
0001d0 bf 9e 64 bd 4c 21 13 3d 98 49 d7 3c c2 5a c3 3d
       -0.055815455 0.035920426 0.02628021 0.09538795
0001e0 07 7e 69 3a fd dc 97 3c a1 e9 6c bc 9b 77 84 3d
       0.0008907024 0.018537993 -0.014459998 0.064681254
0001f0 bc e6 d5 bb 5b f3 b9 3d f0 af ca bc c9 75 a1 bd
       -0.00652775 0.090796195 -0.024742097 -0.07883794
000200 ce 3e da bb 63 a5 49 3d 68 00 8b bd 3a 11 d7 bd
       -0.006660319 0.04922999 -0.06787187 -0.105013326
000210 d1 40 ca bd 0c ce cf 3d 21 9b 5f bc ea 60 23 bc
       -0.09875644 0.10146722 -0.013647825 -0.009971837
000220 35 1f e2 3d af 7c 70 bd e0 42 bb bc a9 ae 5c 3d
       0.110411085 -0.058712658 -0.022859037 0.053877506
000230 87 96 c5 3d ce 5b 9d bd 73 69 95 3d 2b 1c 72 3e
       0.096478514 -0.07683526 0.072955035 0.23643558
000240 2a f3 82 bc cc c8 1d bd 19 17 40 bc 0f 8c 06 3d
       -0.01598509 -0.038521573 -0.011724257 0.032848414
000250 25 3f 5b bd 44 39 dc bc 4f a7 11 3e fd 7c 49 3c
       -0.053527016 -0.026882775 0.1422398 0.012297866
000260 e0 ad 53 3c 50 d3 39 bd 50 8b 01 be c5 b6 52 be
       0.012919873 -0.04536754 -0.126508 -0.20577534
000270 c4 c2 0b 3d 4e d9 d3 bd 6f 41 1a 3d 7e 61 24 bd
       0.03412129 -0.10344182 0.03766006 -0.04013204
000280 37 56 cf bd bb 8b a5 3c 26 d5 c7 bd 23 8b 6c 3d
       -0.10123866 0.02020823 -0.09757452 0.05774988
000290 2a f1 6d 3d 0b fe a2 3d df 7e 30 bd 2f e7 c3 bc
       0.05809132 0.07958611 -0.043089744 -0.023913948
0002a0 f5 71 d7 bd 90 1e 5c 3e c8 60 db bc 81 98 49 3e
       -0.105197825 0.21496034 -0.026779547 0.19687082
0002b0 d8 87 c7 3c af fc b8 3d d4 4b 98 bd 31 22 af 3c
       0.024356768 0.090325706 -0.07436338 0.021378608
0002c0 26 99 14 bd 8d 27 ee bc c4 d7 4a 3d 50 63 6f bd
       -0.036278866 -0.029071594 0.049522176 -0.05844432
0002d0 3d 77 de bd a9 c1 11 3d 67 bd fe 3a b9 84 92 3d
       -0.10862587 0.03558508 0.0019435108 0.07154221
0002e0 8a 2f 28 be b3 ed bd 3d fb 10 84 bd 9c 1b ed 3b
       -0.16424385 0.09273853 -0.06448551 0.0072359573
0002f0 bf 99 86 bc 53 78 fd bc 83 ef a3 bc 27 64 2f bc
       -0.016430734 -0.030941164 -0.020011669 -0.0107050305
000300 6b 1f 8b bd e7 0f 46 bd ed 03 f8 3c 8a 50 39 bd
       -0.06793102 -0.04835501 0.03027531 -0.045242824
000310 63 1e 07 bc 9a f9 8c bd 46 04 ae 3d 16 9a 38 3d
       -0.008246991 -0.06883545 0.08496909 0.045068823
000320 a7 64 b1 bc 2d ac d6 3c b9 81 0f 3d d0 ec 4f bd
       -0.02165444 0.026205147 0.035035823 -0.05076295
000330 59 f4 67 3e d3 96 ce bc f3 e6 4c 3d db 9c 71 bd
       0.22651805 -0.025218403 0.050024938 -0.05898748
000340 2d ca a1 3d 81 30 de bd ad c0 d1 3d bd 72 f0 3c
       0.0789989 -0.10849095 0.10241828 0.029351586
000350 c8 62 65 bd c8 3a c0 3d 6b 04 a4 bd 82 98 05 3d
       -0.05600241 0.09386212 -0.08008655 0.032616146
000360 3d 8b 4a 3e 5f 85 03 3e 8d 3b b6 bd 39 30 02 3d
       0.19779678 0.12843846 -0.08898077 0.03178427
000370 c4 ef f8 bd 8a 91 24 3c b7 52 3b bd 2c 64 48 bc
       -0.12155107 0.010044465 -0.04573318 -0.012230914
000380 73 9a e4 3d 00 da 58 3e 20 aa a0 3b 25 57 18 3c
       0.11162271 0.2117691 0.004903093 0.009298121
000390 48 05 d7 bd ec 54 04 bd 21 90 e8 3c 7b fc 66 bd
       -0.10499054 -0.03230755 0.028389039 -0.056393128
0003a0 be bb 70 3c 0f d0 89 bd dc ec 5d be e2 08 a3 3d
       0.014693199 -0.06729137 -0.21672386 0.07960679
0003b0 89 63 38 bd 3a 7c b4 bc 9e bb c0 bc f2 79 cf bd
       -0.0450168 -0.022031892 -0.023526963 -0.10130681
0003c0 8a 19 95 bd ed 8d 91 bd 5b da 96 3d f9 2b 8c bd
       -0.07280262 -0.07107148 0.07365867 -0.068443246
0003d0 6d 65 60 bd f2 83 0c bd 44 cb 25 be 43 e0 4e 3d
       -0.054784227 -0.03430552 -0.16190821 0.05050684
0003e0 c7 11 b7 3d 77 ac 57 3d 27 1c 82 bc a1 49 34 bd
       0.08938938 0.05265471 -0.015882565 -0.04401553
0003f0 33 08 2c 3c bf 57 8d bc 4a 84 50 3d 22 da e6 bd
       0.010500002 -0.017253755 0.05090741 -0.11272074

network_body.linear_encoder.seq_layers.0.bias f4 [128]
000000 46 77 47 bd cd 05 91 bd 25 d9 60 be 8a c4 56 bc
       -0.048697732 -0.070811845 -0.21957834 -0.013108382
000010 f6 9b 97 bc e8 d0 79 bd e0 7b 5b be 75 0a a6 3c
       -0.018506985 -0.060990244 -0.21433973 0.020268658
000020 6a e4 a3 bd 5e 00 3c be cd 03 01 be f1 07 dd 3d
       -0.08002551 -0.18359515 -0.12599106 0.1079253
000030 da 51 9f 3b 54 36 77 3e e8 9f fb 3c 13 7b 7a 3c
       0.0048620524 0.24141818 0.030715898 0.015288132
000040 ca ca 02 be c9 a7 53 be f9 8e 1f 3a 4f 3f 1c be
       -0.1277267 -0.20669474 0.0006086673 -0.15258525
000050 fc 4a 3a be 2d ad 21 bd 2b 73 72 bd 94 c6 71 be
       -0.18192667 -0.039471794 -0.059191864 -0.23610908
000060 d3 93 0d 3e fc 7f b5 3d 56 9b 44 be f7 9e 8b bd
       0.13825922 0.08862302 -0.19199881 -0.068174295
000070 74 7f 77 bc d6 dd 77 3d 3e 15 35 be 44 10 f3 3d
       -0.015106071 0.060514294 -0.17683885 0.11868337
000080 1f d7 7a bd 76 cd e6 bd a0 05 8f 3c 51 a3 2d 3e
       -0.06124031 -0.11269657 0.017458737 0.16956832
000090 e1 87 e7 bd 2c 00 51 be 4e 37 ae 3d 1c 68 f3 bd
       -0.11305214 -0.20410222 0.08506642 -0.11885092
0000a0 da 3e 39 be 49 15 6e 3e 17 57 32 be 82 74 00 be
       -0.18090382 0.23250307 -0.17416035 -0.12544444
0000b0 53 79 41 be 7a e4 44 3e 54 bb 93 bd 91 04 af bd
       -0.18893938 0.19227782 -0.072134644 -0.08545793
0000c0 b6 80 f4 bd 1c ff 2c be 5f 3b 75 3e b1 07 6e 3d
       -0.11938612 -0.16894192 0.2394843 0.058112804
0000d0 cf 9c 6e 3d 35 35 1c be 40 e1 82 bd 38 b0 fb bc
       0.058255013 -0.15254672 -0.06390619 -0.030723676
0000e0 1e 24 c4 3d 2c ba 78 3d 1b 9d 05 3d b0 2e 22 be
       0.09577201 0.060724422 0.03262053 -0.15838122
0000f0 2d 73 82 3d 32 86 1b 3e 29 77 d2 bd cd f5 0e be
       0.06369624 0.1518791 -0.10276634 -0.13960953
000100 79 94 c2 bc 66 24 5b be d2 91 37 be 5b b3 40 3b
       -0.023752438 -0.21400604 -0.1792672 0.002940378
000110 da 5f 59 3d 12 07 df 3d 84 23 22 be 03 70 4d be
       0.053069927 0.108900204 -0.1583386 -0.2006226
000120 80 5b 5f be 09 00 5a be 2d 6a 01 bd 4f d5 0d 3e
       -0.21812248 -0.21289076 -0.031595398 0.13850902
000130 49 96 4f be 16 f7 68 3c c9 ab 52 3e 14 9f 53 3e
       -0.20272173 0.014219066 0.20573343 0.20666152
000140 6e 19 3c be c6 a4 b4 bc 55 ac 2a 3d a0 75 e2 bd
       -0.18369076 -0.022051226 0.041668255 -0.110575914
000150 00 17 90 be d8 c5 57 be b0 44 4f 3e 99 2b 2d 3e
       -0.28142548 -0.21071565 0.20241046 0.16911162
000160 59 09 f5 bd 0b ec 01 bd 36 16 20 be e2 2c 3c 3d
       -0.119646735 -0.03171925 -0.15633473 0.04594124
000170 e1 b4 69 3c 48 b6 ef 3d ff fd 17 3c 03 41 c4 3c
       0.014264316 0.11704689 0.009276866 0.023956781
000180 07 89 09 3e 7c 98 41 be ae 16 02 be 0a 05 5d 3c
       0.13431178 -0.18905824 -0.12703964 0.013489971
000190 bb 4e 53 be 2e fe 11 be 2b 70 59 be 33 4a 47 be
       -0.20635502 -0.14257118 -0.21234195 -0.19461899
0001a0 41 32 60 be 25 a0 3b 3e 93 76 6f bb a5 a2 8d 3d
       -0.2189417 0.18322809 -0.0036539182 0.069157876
0001b0 fc 97 6e 3d c0 ec 5c be c2 a8 25 be 72 0e 22 be
       0.058250412 -0.21574688 -0.16177657 -0.15825823
0001c0 99 68 31 3e 04 4d 19 be 9e dc 26 3e 80 79 f8 bd
       0.17325057 -0.14970785 0.16295096 -0.12132549
0001d0 e9 4e 2f 3e 5d cd 8b bd c3 92 09 be 65 ae 66 be
       0.17119946 -0.06826279 -0.13434891 -0.22527464
0001e0 2f 89 86 be 33 6e bc 3d 06 73 b2 3d 11 b2 1a 3e
       -0.26276538 0.09200706 0.08713345 0.1510699
0001f0 88 e0 62 3e 08 5c a5 3d 7d fd 11 bd f6 31 13 3e
       0.22155964 0.08074194 -0.035642136 0.14374527

network_body.linear_encoder.seq_layers.0.weight f4 [128, 52]
000000 a6 3d 76 3d bb ad d5 ba 06 2e 6b bd 56 0a f6 bd
       0.060117386 -0.0016302386 -0.05741694 -0.1201369
000010 dc fc 0e 3e 37 62 8d bd 95 db 43 3e 2f 87 07 3e
       0.13963646 -0.069034986 0.19126733 0.13235162
000020 37 b2 95 3e 86 46 75 be a9 52 2f 3e 47 8a 47 3e
       0.2923753 -0.23952684 0.17121376 0.19486342
000030 b3 d9 3f 3d e0 58 89 3d b2 40 a2 3c 63 97 7b bd
       0.046838474 0.06706405 0.01980624 -0.06142367
000040 52 ec 94 3e f6 02 a7 bd 82 4c c5 3c fd df 35 3e
       0.29086548 -0.08154862 0.024084333 0.17761226
000050 4f 72 2a 3e 96 00 59 be 48 fb 8c be 23 c0 37 3d
       0.16645168 -0.2119163 -0.27535462 0.04486097
000060 ff ad 3b be 80 b4 99 3c 99 31 40 3e 4d d0 4a 3d
       -0.18328093 0.018762827 0.1876892 0.049515057
000070 9d 58 0e 3e d0 0c 2f 3d 8b 7c 0d 3e c6 ed a4 3d
       0.13900991 0.04273683 0.1381704 0.08053164
000080 31 0b 52 3d c6 ae fa bc c5 03 5c bd 27 4e 4f 3d
       0.051280204 -0.030600917 -0.053714532 0.05061164
000090 db d2 48 be b3 9b 34 3e e0 7d a9 be e7 8d 23 3e
       -0.19611685 0.1763752 -0.33103848 0.159721
0000a0 d8 ed 2f 3e f2 90 8a ba 9d 5a c6 bd 47 c0 1c be
       0.17180574 -0.0010571762 -0.09685252 -0.15307723
0000b0 b2 5c 06 be f0 4f 9a 3c 72 9c f3 bd 40 eb 55 be
       -0.13121298 0.018836945 -0.11895074 -0.20890522
0000c0 61 91 02 3e b6 d9 ce be 8a 5a 00 be 32 88 b5 bb
       0.1275077 -0.40400475 -0.12534538 -0.0055399174
0000d0 19 3f df 3d be c4 29 be 66 f5 a8 3e 46 93 91 3e
       0.10900707 -0.16578957 0.32999724 0.28432673
0000e0 26 58 87 be 9a 44 62 3c 72 26 10 3b 62 62 fe bc
       -0.2643444 0.013810301 0.0021995571 -0.031052772
0000f0 e4 41 6f be 28 3c 3d 3e a4 9f 19 3e 4b e5 9f be
       -0.23364979 0.18479979 0.15002304 -0.31229624
000100 9a 87 ef 3d 19 97 17 bc 91 02 af 3d 0a ce 9f bd
       0.11695786 -0.009252333 0.085454114 -0.07802971
000110 75 7c af bd 97 08 96 bd 66 66 e8 bd ac dd eb bc
       -0.0856866 -0.07325857 -0.11347656 -0.028792225
000120 e4 d3 0f bd db 31 38 be f7 00 41 3e 42 52 2a be
       -0.035114184 -0.17987768 0.18848024 -0.16632941
000130 a5 fe 98 3d 0a e1 d8 bd d1 cc 8b bd 56 71 15 3e
       0.074704446 -0.10589798 -0.06826175 0.14594015
000140 81 af c4 3d 04 4e a0 bc 00 21 71 3d 34 88 f7 bd
       0.09603787 -0.01956845 0.058869362 -0.120865256
000150 a3 7f d2 3d 80 08 77 bd 51 88 b0 bd f8 d3 e3 bd
       0.10278251 -0.06031084 -0.0861975 -0.11124414
000160 63 48 c4 3e d9 c0 37 be 17 ab 92 3d b7 17 67 be
       0.38336477 -0.1794466 0.07161539 -0.2256764
000170 d2 72 4f 3c 78 24 0e be eb aa 17 bd 02 8d c6 3c
       0.012661653 -0.13881099 -0.037028234 0.02423716
000180 0d 70 01 be 96 84 76 3e e2 9e 52 3d 82 01 eb be
       -0.126404 0.24074015 0.051421054 -0.45899588
000190 e7 81 85 be 37 b2 93 3d d3 75 4f 3e 47 b9 3b 3e
       -0.2607567 0.07211726 0.2025979 0.18332396
0001a0 56 69 18 3e ca c1 7b be 72 28 79 3e 45 8f 0f be
       0.14883932 -0.24585643 0.24331835 -0.14019497
0001b0 6c 78 cd 3b 8d 76 4c be f1 81 4b 3e ac f5 36 be
       0.006270459 -0.19967099 0.19873787 -0.17867154
0001c0 24 f1 e4 3d 31 88 44 bc a1 01 b2 3d 49 2e 85 bd
       0.111788064 -0.011995361 0.08691717 -0.06502969
0001d0 d0 ad 0b 3e 2c ca 67 3e 6e bc 96 3d 2b b5 0b bc
       0.13640523 0.22635716 0.07360159 -0.0085270805
0001e0 29 b9 25 be ec fb 18 bb c6 9f 57 3e a1 86 9c be
       -0.16183914 -0.0023343517 0.21057042 -0.30571464
0001f0 af ae cd bd 91 f0 1e bc 4b 90 6e 3e b4 b4 43 bd
       -0.10043084 -0.00970091 0.23297231 -0.047779754
000200 ad 97 d6 bc 8f 92 7e 3d e8 c3 32 3e e2 cc 4a be
       -0.026195372 0.062151488 0.17457545 -0.19804719
000210 93 07 53 3e 19 fa 82 bd f5 fd 5b 3e bd b6 35 3e
       0.20608358 -0.063953586 0.21483596 0.1774549
000220 3a 02 2e 3e 15 c0 a1 bd bf 39 06 be 0f 94 8b bb
       0.16993037 -0.07897965 -0.13107966 -0.0042595933
000230 78 e8 38 be 40 fd 7d 3e 8e 14 b4 3e a3 8e 4b 3e
       -0.1805743 0.24803638 0.35171932 0.1987863
000240 82 cc 22 be 83 8d b4 bd fe 21 05 3e 7f 13 2a 3e
       -0.15898326 -0.08816054 0.13001248 0.16609
000250 34 cb e8 3c c1 09 1b be e3 5c c1 bb 37 ad 0e 3e
       0.028417207 -0.1514044 -0.0059009655 0.13933264
000260 11 d6 48 bd 5d d8 b6 be 1c 6b 82 3d 78 b2 b0 be
       -0.049032275 -0.35711947 0.06368086 -0.3451116
000270 49 b7 5e bd 87 05 28 bd bb 27 25 3e 3b 7a 86 3e
       -0.054374013 -0.041020896 0.16128437 0.2626513
000280 3c a4 70 bd 93 e9 16 bc f2 d9 d3 39 24 03 9b 3e
       -0.058750376 -0.009210962 0.00040407438 0.30275834
000290 70 40 8f bd 95 df 52 3d 48 a4 0a 3d 47 c3 45 bd
       -0.06994712 0.051482756 0.033848077 -0.048281934
0002a0 52 e6 e0 bd 7d 89 a6 bb 66 52 0d 3d d0 24 34 3e
       -0.1098143 -0.005082308 0.03450241 0.17592168
0002b0 e1 19 ff 3c 4e ae 2e 3e c0 11 0f be ad 86 88 be
       0.03114027 0.1705868 -0.13971615 -0.2666525
0002c0 60 bd bc be 18 a9 79 3d bb 3f 3c bb bc 6e 4a bd
       -0.36863232 0.060952276 -0.002872451 -0.04942201
0002d0 82 cf a2 3e f1 ea 1a be 74 98 fd bc 73 8a 7d be
       0.3179894 -0.15128686 -0.030956484 -0.24759845
0002e0 04 d2 3b bd 87 56 00 3e 6e 48 10 3d 8f 24 16 3d
       -0.045854583 0.12533008 0.035225324 0.03665596
0002f0 dd 4c cb bd 35 76 8d be f7 e5 55 3d 7c 0c 98 be
       -0.0992677 -0.27629247 0.052221265 -0.29697025
000300 36 e2 ea 3d d8 99 b7 3d 19 07 14 3b 43 c5 c5 bd
       0.114689276 0.0896489 0.0022587238 -0.09656765
000310 91 ad d6 3e 28 06 ae bc 90 ba fa bd 9d e6 84 be
       0.41929296 -0.02124317 -0.12242615 -0.25957194
000320 12 91 15 3e 1f 16 0a 3d b3 1c 5b 3d 69 fe c1 bc
       0.14606121 0.033712503 0.053494167 -0.023680883
000330 43 5c 3c be 48 04 0d bc e7 51 a6 bc 20 57 38 be
       -0.1839457 -0.008606978 -0.020302726 -0.18001986
000340 ed 44 d1 3c d1 59 09 be de b3 88 be ce e9 91 3e
       0.025545562 -0.13413168 -0.26699728 0.2849869
000350 a9 64 96 3d fc 09 26 3e b8 d6 11 3e f3 9f ac bd
       0.07343418 0.16214746 0.14242065 -0.084289454
000360 95 01 33 be d0 5d 07 3e d6 8f 0c be dc 09 3a bb
       -0.17481072 0.1321938 -0.13726744 -0.0028387224
000370 b7 36 20 be c5 65 12 3e 4a 0e 83 3e 9a d0 df bc
       -0.15645872 0.14296634 0.2559684 -0.027321149
000380 95 f8 31 bc 81 18 c7 3c 72 5b 67 be d7 ea 84 bd
       -0.010862489 0.024303677 -0.22593477 -0.06490105
000390 40 1d 47 3d 9c f9 cc 3d f7 7f 1e 3d 4e d7 8c 3d
       0.04861188 0.10008547 0.038696256 0.068770036
0003a0 30 f4 03 3e c7 ce aa 3d 9b 56 6c 3d bc 0c 16 be
       0.12886119 0.08340221 0.05769978 -0.14653295
0003b0 68 5f 36 bd 0f 9b 1c 3e dd 6a 1a 3d 6c 19 0d 3d
       -0.04452458 0.15293525 0.03769957 0.034448072
0003c0 47 43 4a 3e 4e ea 75 bc 39 e8 83 3e c7 b4 1c bf
       0.19752227 -0.015009476 0.2576311 -0.61213344
0003d0 58 a6 00 bd 9a 32 69 3d 54 e2 1e 3e 6b 78 e9 bc
       -0.031408638 0.056933023 0.15516025 -0.028499803
0003e0 10 47 90 3d be ec 01 bd 8f b3 53 3e f3 de 69 be
       0.07044804 -0.031719916 0.20673965 -0.22838955
0003f0 7e f6 4d bd 4a e6 53 be 97 3c 8c 3e 6f d5 88 be
       -0.0502839 -0.20693317 0.27389976 -0.26725337

network_body.linear_encoder.seq_layers.2.bias f4 [128]
000000 0b 87 f1 bc d9 d6 2e 3e 27 48 9b bc 20 11 36 be
       -0.029483339 0.17074145 -0.018955303 -0.1777997
000010 54 1f 25 3e 43 1c 2e 3e 83 0b 66 bd cf 01 27 be
       0.16125232 0.17002968 -0.056163322 -0.16309284
000020 dc 0f 07 3e d1 0b 61 3d 1d 6f 49 be 86 21 ee 3d
       0.13189644 0.05494291 -0.19671293 0.11627488
000030 a8 1b 17 3e 4b 68 98 3d f9 15 d8 3d 49 6f 46 3e
       0.14756644 0.07441767 0.10551066 0.1937839
000040 a6 0f cf bc a5 63 4c be c7 2c 90 3d 49 b6 8c 3d
       -0.025276016 -0.19959886 0.070397906 0.06870706
000050 89 a6 57 bd 0b 89 fb bd 48 c6 37 3e 43 f3 00 bd
       -0.052649055 -0.12281998 0.17946732 -0.031481992
000060 07 c9 6f be 1c 73 5a be 7c 5a ec 3d c5 a6 54 be
       -0.2341653 -0.21332973 0.11540696 -0.20766743
000070 e7 16 a2 3d a2 1e 21 be 0a 1e 39 3d 06 b5 73 3d
       0.079145245 -0.15734342 0.045194663 0.05949881
000080 10 07 08 3e 30 73 b9 3d bd 5a 83 be 2f bb be 3d
       0.13283944 0.090551734 -0.25655165 0.09313046
000090 27 03 53 bc 95 39 11 3e 4f a4 62 be 73 62 01 bc
       -0.01287917 0.14182122 -0.22132991 -0.007897007
0000a0 d1 c4 61 be 29 8c 2f 3e e4 ce 6f bd cc c0 48 3e
       -0.22047736 0.1714331 -0.058546916 0.19604796
0000b0 04 a2 0a 3e 7f bf db 3d 33 95 58 be de f7 9d 3d
       0.13538367 0.10729884 -0.21150665 0.077132925
0000c0 14 44 05 be ca 6f 41 be bb ec b3 3c f1 34 f0 bd
       -0.13014251 -0.188903 0.021963468 -0.11728848
0000d0 c7 5d 01 be 9b 4c ef 3d b4 33 ae 3c de e9 29 3e
       -0.1263343 0.11684533 0.021264888 0.1659312
0000e0 a8 88 0c be 58 83 20 3e 53 91 e2 3d 1e be e0 bd
       -0.13724005 0.15675104 0.11062875 -0.10973762
0000f0 85 f0 20 3d 05 35 2c be b2 4e 19 be ce 84 88 3c
       0.039291877 -0.168171 -0.14971426 0.016664889
000100 2e fe 13 be 5a 40 d6 bd 0e d1 6e 3d 88 2a 21 be
       -0.1445243 -0.10461493 0.05830484 -0.1573888
000110 c6 76 d6 bd 6e 84 61 be aa eb 9f 3b 59 20 96 3d
       -0.10471873 -0.22023174 0.0048803883 0.073303886
000120 f9 d0 95 3c 56 b8 41 3d 68 20 09 3e b9 2b bc 3d
       0.018288122 0.047294937 0.13391268 0.09188027
000130 32 c9 53 3e 0a 02 2c be d6 4c a2 3d 9c 56 55 be
       0.20682219 -0.16797653 0.079248115 -0.2083382
000140 8d 36 a4 3d 58 5c 3e be b4 77 a1 3d 2e 56 ef bd
       0.08018217 -0.18589914 0.0788416 -0.11686359
000150 dc 50 43 be 9e 47 d4 3d 03 04 62 be 15 ef 9c 3d
       -0.19073814 0.103652224 -0.22071843 0.07662789
000160 c9 8e 38 3e be 6e 1a 3e 04 ae 5a be 6e 0e 39 bd
       0.18023218 0.15081307 -0.21355444 -0.045179777
000170 f2 9a 64 be 45 99 a8 3c fd f8 c3 bd d8 06 bc 3d
       -0.22324732 0.020580897 -0.09568975 0.09180993
000180 64 3c 1a be fd 16 6f 3e e4 75 e7 bd 24 1f 60 bd
       -0.150621 0.23348613 -0.11301783 -0.054717198
000190 61 7d 4d 3d 59 74 6e bd 0f da aa bd bd 86 83 3d
       0.0501684 -0.058216427 -0.083423726 0.06422184
0001a0 2c f1 da 3d 68 5d ec bd 32 d1 13 be 9e 28 0c 3e
       0.10690531 -0.11541253 -0.1443527 0.13687369
0001b0 3b 29 73 be 63 bd 53 bb 51 b5 39 be 10 87 2f be
       -0.23746197 -0.0032308928 -0.18135573 -0.17141366
0001c0 56 76 65 be d3 c9 13 be a7 0b c1 3d b8 66 4e be
       -0.22408423 -0.14432459 0.09426051 -0.20156372
0001d0 c6 a1 0b be 1c fb 13 3d 3a 4b 42 be b8 69 a3 3d
       -0.1363593 0.03612815 -0.18974009 0.079791486
0001e0 95 0e 19 3c 64 a4 57 3c 9a 41 8d 3d 75 4c 19 be
       0.0093418555 0.013161752 0.06897278 -0.14970572
0001f0 53 03 7e 3d c4 a1 22 be c5 3e b5 3d 28 4a 60 be
       0.06201489 -0.15882021 0.08849863 -0.21903288

network_body.linear_encoder.seq_layers.2.weight f4 [128, 128]
000000 c7 be 29 bd 34 76 c1 3d 19 49 65 bd c4 49 09 be
       -0.041441705 0.094463736 -0.055977914 -0.13407046
000010 e6 02 1b be e3 4a 80 3d 61 48 51 be 40 84 98 bd
       -0.15137824 0.062642835 -0.20437767 -0.074471
000020 c8 bc 84 bb 47 b9 60 be 1f 56 62 be 3a 0e 35 3e
       -0.004050825 -0.21945678 -0.22103165 0.17681208
000030 cb 33 00 be 24 97 2e 3e 48 dc 19 3e db 91 7b be
       -0.12519757 0.17049843 0.15025437 -0.24567358
000040 d2 d3 c8 bd 25 b6 66 3d 63 99 3e be 66 e7 73 3d
       -0.098060265 0.05632605 -0.186132 0.05954685
000050 ec 7b 0c be 2e a9 9f 3d 5b 6a 75 3d 2d be b5 3c
       -0.13719147 0.0779594 0.05991588 0.02218541
000060 29 91 d4 bd 91 d9 83 bd 7c 0e 5b 3c 9b 54 d5 3d
       -0.103792496 -0.06437982 0.013370153 0.10416528
000070 58 b9 2f be df d6 27 be df 8b f5 3d 38 e4 1c 3e
       -0.17160547 -0.1639056 0.11989569 0.15321434
000080 3e 28 c5 bd ed 81 12 be 29 dd 97 3c a2 4b 6f 3d
       -0.09626816 -0.14307375 0.018538075 0.05842174
000090 08 ff 6f 3c 6e f9 20 3c 6e 7f 99 bc b0 64 a7 bc
       0.0146482065 0.009825094 -0.018737521 -0.020433754
0000a0 de 37 0d 3d 2b d8 92 3e 8f 48 fe bd a1 1d f5 bb
       0.034477107 0.28680548 -0.12416183 -0.0074803387
0000b0 9f d4 b4 bd 62 00 c5 3d 18 8f 0d be 73 c9 d6 bd
       -0.08829617 0.09619214 -0.13824117 -0.10487642
0000c0 4b aa 6d bd 9c 6b 22 3d 4d 38 8a 3d 35 24 f7 3c
       -0.058023732 0.039653406 0.0674902 0.030168632
0000d0 31 16 85 3e c7 b4 29 3e fe 9c b5 bd 69 b1 69 be
       0.25993493 0.16572867 -0.088678345 -0.22821583
0000e0 ce 09 a1 3e 96 39 0e 3e 9c 39 2d be aa f9 d8 bc
       0.31452793 0.13889155 -0.16916507 -0.026486237
0000f0 34 a3 4b be 82 e2 4a 3e 7d 1e 5e 3e 1f ca 4e 3d
       -0.19886476 0.19812968 0.21691318 0.050485726
000100 9f e6 38 bc 38 6c e9 bc 2c 53 91 bd 7f 82 01 3e
       -0.011285453 -0.028493986 -0.07095942 0.12647437
000110 d9 1c 6b bd 5d f0 9f bc 69 ef 2b be eb ca 11 be
       -0.05740056 -0.019523794 -0.16790546 -0.14237563
000120 fd 52 f1 bd a7 9c 77 be 9e d4 b3 bd 7f 5f 7e bd
       -0.11783407 -0.24180852 -0.08780788 -0.06210279
000130 df 17 d6 bd 30 83 0b be 63 fc 50 3d 51 97 5c bc
       -0.10453772 -0.13624263 0.051021945 -0.013463811
000140 83 14 de bc 74 22 61 3c 38 b9 11 bd b1 17 80 3d
       -0.02710939 0.013741124 -0.03557703 0.06254519
000150 b6 dd 29 3d e9 9f be ba 8b a2 80 be 2b 55 c0 be
       0.041471206 -0.0014543507 -0.2512401 -0.37564978
000160 1a 52 55 be 50 0c 1f be c8 14 15 3e db be 1a be
       -0.208321 -0.1553204 0.14558709 -0.15111868
000170 56 c2 96 bd 70 fa b6 bd a6 29 75 3e e3 32 ac bd
       -0.073612854 -0.08934486 0.23941669 -0.08408143
000180 1b 8e ac 3d 37 88 0d be 63 02 68 3e e5 72 45 be
       0.08425542 -0.13821493 0.2265716 -0.1928211
000190 83 72 7a bc ec 70 15 bd 62 0c 6a 3d 63 c1 41 bc
       -0.015286091 -0.036484644 0.057140715 -0.011825892
0001a0 90 51 54 3d ba 96 af bb 71 97 79 be 83 8a 8e bd
       0.051835597 -0.005358544 -0.24374177 -0.06960013
0001b0 42 d6 25 be 04 03 c2 3d 6f 52 cb 3d 63 56 37 bd
       -0.16195014 0.094732314 0.09927832 -0.04476012
0001c0 7d 46 79 bd fd 22 04 3e cd 6a 09 be 91 c4 e8 bc
       -0.06085824 0.12903972 -0.13419648 -0.028414043
0001d0 65 2b 9b bc 1c 35 f5 bd 76 03 ce 3c 06 2f 20 3e
       -0.01894159 -0.119730204 0.025148135 0.15642938
0001e0 b6 a0 af 3d f0 dc 6f be 21 5f d7 bd 07 31 0d 3d
       0.08575575 -0.23424125 -0.10516191 0.034470584
0001f0 d0 8c 2c be ea 2a 11 be ae 40 f5 bc a2 48 11 3d
       -0.1685059 -0.14176527 -0.029938068 0.03546966
000200 2c 4c 5d 3b 19 d6 65 3b 85 68 dc 3d 58 25 6d 3a
       0.0033767326 0.003507024 0.10762123 0.0009046397
000210 5f 57 bf bd 92 5e 0e 3e 6c d2 57 3d cc 4e 8e bc
       -0.093428366 0.13903263 0.05269091 -0.017371558
000220 46 d0 c4 bb 8e 29 0e 3e d7 a7 2c bd 46 6f 94 ba
       -0.0060062734 0.1388304 -0.042152252 -0.0011324666
000230 da 43 6c bd e0 c8 88 3d 32 ba 18 3d 86 3c 23 3e
       -0.057681896 0.06678939 0.037286945 0.15941057
000240 45 ad 8d bc ea 63 3d be f5 7e 51 be 28 15 d1 bd
       -0.017294535 -0.18495145 -0.20458587 -0.10209113
000250 a5 f5 c3 bb 1d d1 3e bd 6f e9 bc 3d e6 95 b3 bd
       -0.005980211 -0.046586145 0.092242114 -0.08768825
000260 de 3f 5a 3c c2 4a 07 3d ca 81 f6 bd 80 3d f7 3b
       0.013320891 0.03303028 -0.12036474 0.007545173
000270 35 67 4a bd 92 f9 03 3e 14 f1 44 bd 2c 6b 06 be
       -0.049414832 0.12888172 -0.048081473 -0.1312682
000280 4f 96 1f bb c1 fc d0 bd 1f 69 40 3d cd 51 13 3e
       -0.0024351066 -0.10204459 0.04697525 0.14386673
000290 3a c6 15 be b5 fb 53 3d 0c e4 45 bd 92 54 78 be
       -0.14626399 0.05175372 -0.048313186 -0.24251011
0002a0 6f 82 40 3d 82 8c c4 bd b7 eb c9 bd d2 d0 80 3d
       0.04699939 -0.09597112 -0.09859412 0.06289829
0002b0 ba 23 b2 3c 98 63 0c 3e 6b 90 50 be 77 4d 46 be
       0.021745551 0.13709867 -0.20367591 -0.19365488
0002c0 1e cf 66 3d 1b b3 61 bd ec ea 16 3e b4 fb 14 be
       0.056349866 -0.05510245 0.14738053 -0.14549142
0002d0 f4 4a c4 3d 00 30 a8 bd 26 73 74 bd a7 85 df bd
       0.09584609 -0.0821228 -0.059680127 -0.10914164
0002e0 1d bb 95 3b ba 3b 74 3e c7 c1 a1 bd 27 c3 ac 3c
       0.004569425 0.23850909 -0.07898288 0.02108915
0002f0 c0 74 9b 3b 4c 3b 5d bc 2e 49 69 3e 40 4d 83 3c
       0.0047441423 -0.013502907 0.22781822 0.016028047
000300 1f 35 25 3e d5 1e 49 bd e0 c3 af 3d f3 c6 02 3d
       0.16133545 -0.04910167 0.08582282 0.031928014
000310 a6 19 c4 3d 81 6e 5e bd f6 75 2e be c9 70 8c 3d
       0.095752046 -0.054304603 -0.17037186 0.068574496
000320 e6 fd 28 3d cc 2f 38 bd 3d 9b 06 bc ef 29 2d be
       0.04125776 -0.044967458 -0.008215723 -0.16910528
000330 55 de 94 bd 69 7d 22 3e bc 3d 6f 3c cd 12 07 3c
       -0.07268969 0.15868153 0.014602121 0.008244229
000340 dc 12 b8 3d b1 f2 c1 bd c7 b3 e2 3d b5 65 69 3d
       0.08987972 -0.09470118 0.11069446 0.05698176
000350 45 e4 9f bd 70 da 98 3d c5 94 3b 3d 7f ab d7 bd
       -0.07807211 0.07463539 0.045796175 -0.10530757
000360 ba a0 ed bd ef 12 0e 3d 68 50 c8 bc 53 2a 43 3d
       -0.11602922 0.034686025 -0.024452403 0.047647785
000370 f4 43 fa bd 29 8b bf bc a1 66 b0 be ae 63 25 be
       -0.12219992 -0.023381786 -0.344533 -0.16151306
000380 32 40 9d 3b 05 14 5c bc 53 67 d7 ba 09 02 a1 bc
       0.0047989124 -0.013432507 -0.0016433991 -0.01965429
000390 b1 95 18 3d b3 3d dd 3d c9 ab f9 bd 19 63 ed bc
       0.03725213 0.10802784 -0.121909685 -0.028977918
0003a0 66 83 52 3d ef c0 f5 3d 74 11 66 bd c9 a7 65 bd
       0.051394843 0.1199969 -0.05616899 -0.056068216
0003b0 51 ca 99 3d 43 3d 4a 3d 62 31 78 bd 2b bd 14 be
       0.07509292 0.04937483 -0.06059397 -0.14525287
0003c0 b0 74 71 bd d4 fd 23 bc 20 77 b0 3d 66 ef 91 bd
       -0.058949172 -0.010009248 0.08616471 -0.0712574
0003d0 10 e2 09 3e 5c 05 f4 3c e8 2f a3 3c 03 11 57 bd
       0.13465142 0.029787712 0.019920304 -0.052506458
0003e0 41 74 56 be c5 ed 84 bd c7 b1 78 be 90 91 44 be
       -0.20942785 -0.064906634 -0.24286567 -0.19196153
0003f0 1c e8 47 bd cf fe 9e 3d 11 05 9c bd 28 40 57 3d
       -0.04880534 0.07763445 -0.07618154 0.05255142

network_body.vector_processors.0.normalizer.running_mean f4 [52]
000000 d1 7e ca 3c db b7 79 3f 4d 8b a9 34 b2 d7 96 3e
       0.024718674 0.97546166 3.1580058e-07 0.29461437
000010 5d 10 a8 3c 79 a6 7a 3f e9 cb 45 35 34 dc 97 3e
       0.020515615 0.9791027 7.368495e-07 0.2966019
000020 b6 da fb 3c bc 4b 78 3f 65 10 e2 34 ca 94 96 3e
       0.030743938 0.9699056 4.210771e-07 0.29410392
000030 40 c8 a0 3c f6 d2 7a 3f 68 52 7e 35 ef 6b 98 3e
       0.019626737 0.9797815 9.474229e-07 0.29769847
000040 12 e7 34 3d 7b d7 74 3f 22 11 e2 33 2d 9c 95 3e
       0.04416568 0.956413 1.05270615e-07 0.29220715
000050 3f b4 b0 3c 33 69 7a 3f 7a 8b a9 35 84 0f 9a 3e
       0.021570323 0.9781677 1.2632074e-06 0.30089962
000060 8c e5 6f 3d de 05 71 3f da 8a a9 34 24 62 94 3e
       0.058568522 0.9414958 3.157973e-07 0.28981125
000070 1c 66 d0 3c a6 86 79 3f db cc 45 35 4d c5 9c 3e
       0.025439315 0.9747108 7.368632e-07 0.3061928
000080 38 20 7a 3d e9 59 70 3f 9a 89 29 35 85 53 93 3e
       0.061065882 0.9388719 6.315764e-07 0.28774658
000090 e4 76 1e 3d db 34 76 3f fc 8a a9 34 f0 b7 9f 3e
       0.0386876 0.961744 3.1579827e-07 0.3119502
0000a0 7d 1d 77 3d 4e 87 70 3f c4 11 62 34 97 f2 91 3e
       0.060330857 0.9395646 2.1054353e-07 0.28505394
0000b0 5c 6f 8e 3d 03 29 6e 3f b4 8b a9 34 c4 40 a0 3e
       0.06954834 0.9303133 3.158035e-07 0.31299412
0000c0 53 e3 82 3d 92 99 6f 3f 22 11 e2 33 3f c9 90 3e
       0.06391015 0.93593705 1.05270615e-07 0.2827854
