Assets/Car.onnx (onnx, 104918 bytes, 9 tensors)

53 f4 [68]
000000 d4 b8 ff 3d be c1 ff 3d d7 94 8f 3a 3a a3 49 3e
       0.12486425 0.12488125 0.0010954392 0.19691172
000010 a0 7b f9 3d e9 85 f9 3d 3b cb 25 3a cc 9e 3f 3e
       0.12181783 0.121837445 0.0006324534 0.1871292
000020 b3 70 0d 3e 11 7a 0d 3e 03 cb a5 3a c3 36 53 3e
       0.13812523 0.13816096 0.0012649003 0.20626359
000030 d9 98 fd 3d 2a 9e fd 3d d0 77 ea 39 57 3f 3c 3e
       0.12382669 0.12383683 0.00044721225 0.18383537
000040 73 d8 1f 3e fe e1 1f 3e d1 94 8f 3a 75 a5 59 3e
       0.15609913 0.15613553 0.0010954385 0.21254523
000050 93 e2 03 3e 67 e7 03 3e ec 0d 4b 3a 40 dc 3e 3e
       0.128794 0.12881242 0.000774591 0.18638706
000060 a1 a9 2f 3e d6 ad 2f 3e d6 ca 25 3a df a7 5d 3e
       0.17154552 0.17156157 0.00063244754 0.21646069
000070 4c 3d 0f 3e 67 42 0f 3e d9 0d 4b 3a 43 72 44 3e
       0.13988227 0.13990174 0.0007745899 0.19184212
000080 2a 50 46 3e 12 54 46 3e d0 77 ea 39 ed 31 60 3e
       0.19366518 0.19368008 0.00044721225 0.21894045
000090 b7 89 22 3e 9d 8c 22 3e d0 77 ea 39 08 4e 4c 3e
       0.15872847 0.15873952 0.00044721225 0.19951642
0000a0 44 13 69 3e ee 17 69 3e a8 76 6a 3a 19 e8 5f 3e
       0.22761256 0.22763035 0.0008944073 0.21865882
0000b0 a6 92 3f 3e 44 94 3f 3e d0 77 ea 39 80 52 57 3e
       0.18708286 0.18708903 0.00044721225 0.21027565
0000c0 de c6 86 3e 94 c8 86 3e d0 77 ea 39 aa 47 5d 3e
       0.263236 0.26324904 0.00044721225 0.21609369
0000d0 51 c0 6f 3e c3 c1 6f 3e d3 0d 4b 3a 9f 65 65 3e
       0.23413207 0.23413758 0.00077458954 0.22402047
0000e0 00 eb 94 3e a9 ec 94 3e 29 0d 4b 3a 8e 85 5a 3e
       0.2908554 0.29086807 0.00077457965 0.2134001
0000f0 82 71 99 3e da 71 99 3e d0 77 ea 39 92 61 6e 3e
       0.29969412 0.29969674 0.00044721225 0.23279408
000100 81 b5 95 3e 23 b7 95 3e d0 77 ea 39 6d 75 59 3e
       0.2924004 0.29241285 0.00044721225 0.212362

54 f4 [1, 2]
000000 2a f3 e4 bf c3 d0 e6 bf
       -1.7886708 -1.8032459

distribution.mu.bias f4 [2]
000000 e6 b1 60 3d 11 99 0a 3e
       0.054857157 0.13534953

distribution.mu.weight f4 [2, 128]
000000 15 55 3f 3e 67 4b e1 bc ac f4 0e be 52 bd 6a bd
       0.186848 -0.027501775 -0.13960522 -0.057309456
000010 c4 58 9f 3d 1a de b1 bd cc d7 8b 3d 98 00 66 3d
       0.077806026 -0.08684941 0.06828269 0.05615291
000020 dd 17 71 3d e3 b7 3a 3d fd b4 b5 bc fc b8 8e bd
       0.05886065 0.045585524 -0.022181029 -0.06968877
000030 62 65 0f 3e e1 1d e7 bd b0 b9 be 3d a5 4a 03 3e
       0.14003518 -0.11284996 0.09312761 0.12821443
000040 ee 07 b2 bb e4 b7 6f 3c e6 04 dd 3b 07 d5 91 bd
       -0.005433074 0.014631245 0.0067449687 -0.0712071
000050 2d 90 72 bd 62 a1 44 3d a1 03 1d 3c 71 ec b6 3d
       -0.059219528 0.04800547 0.009583385 0.08931816
000060 f9 d9 7e 3d 4e ac 98 bd 61 2c 94 bd ed b8 e0 bc
       0.062219594 -0.074547395 -0.07235027 -0.02743193
000070 cf 16 8c bd 81 ea 45 3d e5 8a 3b 3d 51 6e 00 3d
       -0.06840288 0.048319343 0.045786757 0.031355206
000080 76 88 92 bd 10 84 82 3d b1 97 bb bd 89 4c 4d bd
       -0.07154934 0.06372845 -0.09159792 -0.050121818
000090 d4 38 e7 3c 86 68 b3 3d ac 3e c4 bc c6 ca 9c bd
       0.02822534 0.08760171 -0.023955666 -0.076558635
0000a0 aa 11 09 3c 9f 72 0b 3d 47 27 17 bd 53 c2 34 3c
       0.008366028 0.034044858 -0.036902692 0.011032659
0000b0 df ea d4 3a f4 69 88 bc 05 ae a8 3c fc 7f 38 bd
       0.0016244313 -0.016652085 0.020590791 -0.04504393
0000c0 37 d7 c5 bd 80 d9 0c 3d c3 fb 73 3d 78 5c 9a bd
       -0.096601896 0.03438711 0.05956627 -0.07537168
0000d0 91 c1 c0 bb 92 76 7c 3d e5 08 de 3d 6b 93 12 3d
       -0.00588245 0.061636515 0.1084154 0.03578512
0000e0 22 1d 70 bd d8 f0 b4 bd 69 b3 41 3e 2b 05 10 3c
       -0.058621533 -0.08835 0.18916096 0.008790295
0000f0 46 e5 aa ba 30 da 0b be 15 e1 24 bd c7 71 f4 3d
       -0.00130383 -0.1365745 -0.040253717 0.11935764
000100 e2 46 7b 3c b4 8d d0 3b e4 63 d7 bd cc 7b ab 3d
       0.015336724 0.0063645486 -0.105170995 0.08373222
000110 23 cf 59 bc e6 40 4b 3d 69 9a 9d bd 94 c0 8a bd
       -0.013294014 0.04962244 -0.07695467 -0.067750126
000120 67 a2 b2 3d e4 f1 d3 3d e6 58 a9 3d bb 14 6b 3d
       0.08722382 0.10348871 0.08268909 0.057392817
000130 03 2d a3 3d 32 f1 a1 3c 41 9b a6 3d fe e3 f7 3c
       0.0796757 0.019768331 0.08135081 0.030260082
000140 87 45 82 3d 31 5a f3 3d 83 ba 8f 3d 88 d3 28 be
       0.063609175 0.11882437 0.07017996 -0.16486943
000150 f0 52 ad 3d f8 5c c6 bd 90 2f 17 be 93 dd e6 bd
       0.08463085 -0.09685701 -0.14764237 -0.11272731
000160 c5 85 04 bd 62 70 3f 3d 0e fd bb bd 1c ff 94 3d
       -0.032354135 0.046738036 -0.09179126 0.07275221
000170 ee 26 1b bd c1 19 2f 3e 1a c0 b4 3d a1 4b 8e 3d
       -0.037878923 0.17099668 0.08825703 0.06948019
000180 cc 8d aa 3d 04 6d 4c bd e8 c3 04 be 70 6e 91 3c
       0.08327827 -0.049908653 -0.12965357 0.017752856
000190 ae 4b 1a 3e 61 a4 f4 bd e7 2f b2 3b ff 8c 85 3d
       0.15067932 -0.11945415 0.0054378393 0.065210335
0001a0 d0 fc 6c 3d 8f 98 99 3d 1f 8d 68 3d 47 89 e0 bb
       0.05785829 0.07499801 0.05677521 -0.0068523022
0001b0 24 fa 48 3d 7e 38 ee bc 59 3b 0d bd ab ec c3 3d
       0.049066678 -0.029079672 -0.034480426 0.09566625
0001c0 41 6b 8e 3d eb b1 4f 3d c4 8e 90 3d a5 88 18 3d
       0.06954051 0.050706785 0.070584804 0.03723969
0001d0 93 08 a0 bd d9 ec c4 ba 73 1a 4b bc 4f 7d dc 3c
       -0.078141354 -0.0015024199 -0.012396443 0.02691522
0001e0 6b b5 db bc c2 7b 2d 3d 31 8e 18 3d f7 2b af 3d
       -0.026819905 0.042354353 0.03724498 0.085533075
0001f0 5d 93 0a 3d 25 7c fb 3b 08 9c 17 3e 52 d2 33 bc
       0.033831943 0.0076747113 0.14805615 -0.010975437
000200 05 f3 56 3d 7e 7d 3b 3d f1 53 48 bc ca 54 61 3d
       0.052477855 0.045773976 -0.012227044 0.0550125
000210 c4 fe e2 3d 76 34 ed bd f8 90 7a 3d 03 81 98 3c
       0.11083749 -0.11582272 0.06117341 0.018616205
000220 b3 92 14 3d 7c b5 5f 3d 47 3a 3d bd 0e b0 a4 3c
       0.036272716 0.054616436 -0.046198156 0.02010348
000230 2c 68 c1 3d 7e 81 3d 3c 32 aa 17 bc 07 10 b9 3c
       0.09443697 0.011566518 -0.009256886 0.02259065
000240 3a dd fc 3a ea 64 8f 3c ae 33 fc 3d d9 3a eb bd
       0.0019292005 0.017504174 0.123145446 -0.11485834
000250 b3 b7 4f 3d 40 ac a0 bb 55 2c a1 3c 6b d6 e9 bd
       0.0507123 -0.0049033463 0.01967446 -0.1141785
000260 ab 61 a9 3c f1 4d d1 bd dd 69 ed bc e8 3d 58 bd
       0.020676455 -0.10219944 -0.028981144 -0.052793413
000270 26 e0 14 ba 26 22 c4 bb d6 ad 59 3d 8b c9 11 be
       -0.00056791527 -0.005985516 0.0531443 -0.14237039
000280 a4 c6 65 bc 2f 90 55 3d 72 29 e4 bb 22 74 bf bd
       -0.01402441 0.052139457 -0.0069629485 -0.093483225
000290 2a 96 15 3b a6 ff 7b bd 1e d8 98 bd a0 44 49 bd
       0.00228251 -0.061523102 -0.07463096 -0.04913771
0002a0 38 0c 2e bd 39 d7 10 be 9c 88 af 3c d8 2d 9a bc
       -0.04249212 -0.14144601 0.021427445 -0.018820688
0002b0 09 18 eb bc 8f 4f 30 3d 10 c2 c7 3d 7c c8 5a 3c
       -0.028697984 0.043044623 0.09753811 0.013353463
0002c0 58 6e 60 bd 1c 1c 14 3e 27 0b 99 bd b8 47 cd 39
       -0.054792732 0.14463848 -0.0747283 0.00039154082
0002d0 e1 bd 9d 3d b8 aa ca 3d bf a2 88 bc 4d 03 de bb
       0.07702232 0.09895843 -0.016679166 -0.006775296
0002e0 13 3d 49 bb 5b 44 8a b9 4d ca de 3d d3 32 2a 3d
       -0.003070657 -0.0002637234 0.108784296 0.041552376
0002f0 e8 ae 05 bd 6f 85 c2 bc ee b1 96 3a 5f c6 c3 bd
       -0.032637507 -0.023745267 0.0011497119 -0.09559321
000300 bb cf 00 3e b9 0c cc bd b0 47 d7 bc 3c 82 12 be
       0.12579243 -0.09963364 -0.0262793 -0.14307493
000310 28 6d 2a 3d 98 66 0f 3e 46 2a ce bb 5c 26 7d bd
       0.041608006 0.1400398 -0.0062916605 -0.06180416
000320 19 ef 74 3d 34 a8 58 bb d3 9d 03 3d 6c 75 05 bd
       0.059798334 -0.0033059241 0.032132935 -0.032582685
000330 82 0b 69 ba 50 8c 26 be d0 40 9f bd 25 9e e4 bd
       -0.00088899594 -0.16264462 -0.07776034 -0.11162976
000340 7b a6 73 3d ac 0e fd bc 81 1f b4 3d 76 b3 9f bc
       0.05948494 -0.030890785 0.087950714 -0.019494753
000350 80 30 61 3b 16 48 0f 3d ba 35 83 bd 98 be 40 bd
       0.0034361184 0.034980856 -0.06406732 -0.047056764
000360 9e e1 2d 3d 28 65 80 bd 4f f9 94 bd 86 51 0e be
       0.042451493 -0.06269294 -0.07274114 -0.13898286
000370 3d 63 2f 3d 44 c5 f1 3d 9f 4a 13 3d 62 b3 69 bc
       0.04281925 0.118052036 0.035959836 -0.01426396
000380 e7 8d 7e 3d 13 00 76 3b 0a f6 ce bb 97 0c 9b 3a
       0.062147047 0.0037536665 -0.0063159512 0.0011829314
000390 51 94 91 3d b1 17 9d bc 4e f5 0d 3e d3 b0 a0 3c
       0.07108367 -0.019176336 0.13863108 0.019615566
0003a0 21 75 ea bc ce 4b 15 3e 32 56 3f 3e 7b 59 5e 3b
       -0.028620305 0.14579698 0.18685225 0.0033927846
0003b0 08 3c 43 3d 9c 63 89 bd 42 73 83 3d a5 1a 8e bd
       0.047664672 -0.06708452 0.06418468 -0.06938676
0003c0 ef f7 a4 3c 86 ee 73 3d e6 21 be 3b 85 8c 24 3e
       0.020137755 0.059553646 0.005802381 0.16069229
0003d0 0e 60 b9 bd 5a 74 a4 bd 75 58 d1 bd 97 fa 05 be
       -0.09051524 -0.08030005 -0.1022195 -0.13083874
0003e0 21 2e 94 3d 85 9c 0b 3e 6f 8f a9 3d 03 2b b2 3d
       0.07235361 0.13633926 0.08279311 0.0869961
0003f0 49 dc af 3b 79 54 58 3d cb 62 2b be 49 d3 f0 3c
       0.005366836 0.052814934 -0.16736905 0.029397624

network_body.linear_encoder.seq_layers.0.bias f4 [128]
000000 3c c5 0a 3e 18 3d cf 3d 1e b5 b1 bd 9c 47 b5 bd
       0.13551801 0.101190746 -0.086771235 -0.08851549
000010 f0 14 19 be 80 dd 32 3e bd 97 c6 3d 56 7a 0c 3d
       -0.14949393 0.17467308 0.096969105 0.034296356
000020 d5 77 3b 3d 2a d7 d6 3d 8a fe 24 3e 50 60 ed 3d
       0.045768578 0.10490258 0.16112724 0.11590636
000030 96 3e ed bd c1 96 8f 3d c2 0f 61 bd a6 32 d9 bd
       -0.11584203 0.07011176 -0.05494667 -0.106053635
000040 eb b2 dd bd b8 91 0a bd 1f 4c 81 3d 13 6f b6 3d
       -0.108251415 -0.033830374 0.06313347 0.089079045
000050 99 03 13 be 1b 1e 48 3d d9 f0 04 be f7 e3 08 3e
       -0.14356841 0.048856836 -0.12982501 0.13368212
000060 49 3b 1a 3e 49 b9 c5 bd a8 ab e2 3d 59 ee c2 bc
       0.15061678 -0.09654481 0.11067897 -0.023795294
000070 e0 1e 11 3e b0 3a aa bd dd 0d 19 3d 17 27 e6 3c
       0.14171934 -0.08311975 0.037366737 0.028094811
000080 b8 8d e7 3d 8b 09 0e 3e 92 f5 c6 bd 41 9c 04 bd
       0.113063276 0.13870828 -0.097148076 -0.032375578
000090 be 9a 44 be 86 46 1b be a8 f8 e1 3d b3 0d 12 3e
       -0.19199654 -0.15163621 0.110337555 0.14263038
0000a0 70 e9 0c 3e 2c 25 10 be a5 e8 13 be 0e 20 90 bd
       0.13760924 -0.1407668 -0.14444216 -0.07037364
0000b0 8b 7b d8 bc 65 db 05 be 2e 21 10 3c c8 93 5a bd
       -0.026426097 -0.13071974 0.008796973 -0.05336359
0000c0 4e 74 50 3c 9f bf 88 3d 22 6d e9 bc 50 66 84 3d
       0.012723042 0.06677174 -0.028494421 0.06464827
0000d0 b4 a8 0d 3c 0b 04 83 3d 86 a0 48 3d 1a e3 04 be
       0.008646179 0.063972555 0.048981212 -0.12977257
0000e0 5a b0 8d bb 57 28 10 bd 5b 70 19 3e cf 9f 5e bd
       -0.0043240013 -0.03519472 0.14984266 -0.054351624
0000f0 9f 52 1d 3d c4 34 ac 3d 8b 12 00 3e df 14 2e 3d
       0.03840887 0.08408502 0.12507074 0.042500373
000100 18 0c 50 3d 30 13 43 bc ce 98 ec bd 6a e9 b7 3c
       0.050792783 -0.01190643 -0.11552583 0.022450168
000110 3f 3e a5 3d f2 1c 39 be 1a 4a d4 3c 02 2d 14 3e
       0.08068513 -0.18077448 0.02591424 0.14470294
000120 35 ba ea bc d8 17 39 be 75 51 e6 bd 3e 1d 92 bd
       -0.028653244 -0.18075502 -0.112460054 -0.07134484
000130 ca dc c1 bc 5e e6 c4 3d bf 0b 12 bc 0c 13 20 be
       -0.02366485 0.096142516 -0.008913933 -0.15632266
000140 1d fe a7 3d a4 c4 9d bd 9d 23 da 3d db 23 ca 3d
       0.08202765 -0.07703522 0.10651324 0.0987012
000150 ce 79 bd 3d b5 be 96 bc 96 7a 0b 3c ff d8 89 bd
       0.09251748 -0.018401483 0.0085131135 -0.06730842
000160 b2 2b b5 bc 61 22 0f 3e eb 4f 91 bd fb ce 18 3e
       -0.022115562 0.13977958 -0.07095321 0.14922707
000170 53 a5 73 bd 9b 77 c3 3d 5d 84 c3 3d a9 28 ee 3d
       -0.059483837 0.09544297 0.09546731 0.11628849
000180 01 c3 8f 3d aa 73 6d 3c b7 ac 9f bc 12 4a c5 bb
       0.07019616 0.0144929085 -0.019491537 -0.0060207928
000190 a2 9e 36 3e cd 1c 05 3e 90 6c 3e ba 56 75 ef bd
       0.17833951 0.12999268 -0.0007264102 -0.11692302
0001a0 e9 60 44 3d c0 bc d7 bd fb 88 3c 3d 8f e1 e6 bb
       0.047943983 -0.10534048 0.046029072 -0.0070459316
0001b0 5b 6a 59 3d 0e 6d 09 3d 6e 8d a4 3d 3e 5e be 3d
       0.053079944 0.03355127 0.08034788 0.09295319
0001c0 ad 79 2b 3d 70 45 bd 3c 75 22 16 3e d6 8d 0c bd
       0.041864086 0.0231044 0.14661582 -0.034314953
0001d0 df 5d 4e bc 26 69 1b be df fb a6 bd 48 a6 df bd
       -0.012595623 -0.1517683 -0.08153509 -0.109203875
0001e0 df 55 9b 3d 44 38 cc bd a8 10 b6 3a eb b0 59 be
       0.07584738 -0.09971669 0.0013890462 -0.21258895
0001f0 0f 35 00 bc 5f 65 06 bd 5d 93 df 3d 63 e3 6e bd
       -0.00782515 -0.03281152 0.10916779 -0.05832232

network_body.linear_encoder.seq_layers.0.weight f4 [128, 68]
000000 fb 30 9c 3d b9 da be bd d0 39 68 bd cf 09 a2 bd
       0.0762653 -0.09319062 -0.05669576 -0.07912027
000010 c5 11 50 3d 8a 34 b5 ba 6a 19 ba 3d 3c af eb 3d
       0.050798196 -0.0013824862 0.090868786 0.11508033
000020 f2 5e 49 3d b0 b4 02 3c 79 01 28 3c 97 1a 36 3e
       0.049162813 0.00797765 0.010254257 0.1778358
000030 3f 6f 4e bc ba 82 bb 3a 24 e4 4c 3d 3d c2 8d 3e
       -0.012599765 0.0014305927 0.05002226 0.27687255
000040 b1 3d fc bd f3 e2 25 3e 5a 40 51 be b2 8a 2f be
       -0.12316454 0.16199856 -0.20434704 -0.17142752
000050 40 ec 78 3c 59 f4 82 bd 9e e6 68 3e df 62 00 3d
       0.015193045 -0.06394262 0.22744223 0.03134429
000060 09 59 ca 3c ff 04 5e 3d 3c 09 b2 be c5 2f a2 3d
       0.024700658 0.054203983 -0.3477267 0.079192676
000070 d5 d4 3e 3b 3f 35 96 bd b3 fa 21 3e c6 fd 5a be
       0.0029118557 -0.07334375 0.1581829 -0.2138587
000080 ee 06 68 be a6 40 e5 3d 98 83 09 be 01 98 c8 be
       -0.22658893 0.11193971 -0.13429105 -0.3917847
000090 31 68 b9 3d 87 d4 fe bc 72 03 33 be 1c c5 b5 3d
       0.09053076 -0.0311072 -0.17481783 0.08875486
0000a0 b4 fc 89 bd f1 7e 3f be 40 ad aa 3d c1 17 d3 be
       -0.067376524 -0.18700768 0.08333826 -0.4122906
0000b0 65 56 3f bd 80 10 f4 bd 07 ca 5e bc 5e 81 53 be
       -0.04671325 -0.119172096 -0.013597972 -0.20654818
0000c0 ec 5e 69 be e2 10 5b 3d f1 c2 e5 3d e3 05 84 be
       -0.22790116 0.053482898 0.11218823 -0.2578574
0000d0 9d e8 b9 3d 81 6d 78 be a7 d9 16 be 0a 54 1a be
       0.090775706 -0.24260522 -0.14731465 -0.15071121
0000e0 d9 62 f9 3d c9 83 8c 3d 23 88 77 be 1c 2a e8 be
       0.12177057 0.068610735 -0.24173026 -0.45344627
0000f0 7f ab 64 3d 07 e3 b4 be 65 b5 ab 3c 79 41 aa bd
       0.055827614 -0.35329458 0.02096052 -0.08313269
000100 b1 01 20 bc d3 a3 96 bd e0 f7 2b be c9 bc d0 be
       -0.009766028 -0.07355466 -0.16793776 -0.40769032
000110 c5 6e 0c bd a4 1b 9a bc f5 d1 b7 bd 09 b1 d2 3c
       -0.034285326 -0.018812008 -0.08975593 0.025719183
000120 11 d7 d6 bd 6a 7a 04 3e e1 9e 10 3e db 3c 6a 3d
       -0.104902394 0.12937322 0.14123107 0.057186943
000130 cb b4 c6 3d 79 72 f5 3d f7 e8 1f 3e 53 a7 0b be
       0.09702452 0.119847246 0.15616213 -0.13638048
000140 3f d4 eb bd ab 94 f8 bd bc 6e 00 be c4 1e 56 3e
       -0.11515092 -0.12137731 -0.12542242 0.20910174
000150 04 f7 8d bd 49 ed 2d 3e f3 e2 19 bd 04 45 aa 3a
       -0.0693188 0.16985048 -0.03756995 0.0012990539
000160 11 3a 0b 3e 6a ae ed 3c 4b 15 c5 bc 80 9c b8 bd
       0.1359637 0.029013831 -0.024058005 -0.09014225
000170 03 7b 37 3e 33 b2 1b 3d 77 c9 bf 3d 9a fb 77 bd
       0.17918019 0.03801174 0.09364598 -0.06054268
000180 ee 39 08 be 6d 06 45 3e d9 ca 38 be a7 7f 65 bd
       -0.13303348 0.19240732 -0.1804613 -0.056029942
000190 a0 2d 8c bd 28 88 28 be bc 0c 03 3e ba 07 b4 3d
       -0.0684464 -0.1645819 0.12797827 0.08790536
0001a0 d7 d5 3c be 7b 20 bd 3d bf f2 04 3e 50 4b 28 3c
       -0.18440948 0.09234711 0.12983225 0.010271862
0001b0 d8 51 ac bd 10 7e 0d 3e a4 23 63 3e 94 43 ce 3d
       -0.08414048 0.1381762 0.22181565 0.10071483
0001c0 cd b6 2f 3e fb 6f e0 3d c5 7a f9 3d 38 c9 ee bc
       0.17159577 0.109588586 0.121816196 -0.029148683
0001d0 fa 9c 26 bd 0f f7 c7 3d 9f 93 53 3d a9 83 51 3e
       -0.04067705 0.097639196 0.051654454 0.2046038
0001e0 71 9f b8 bd 01 84 a1 3d 6c 00 c6 3d 74 4f 7b 3d
       -0.09014786 0.07886506 0.09668049 0.06135507
0001f0 46 60 8f bd 1d cf f5 3d 24 26 da bd 7d a4 a4 3d
       -0.070007846 0.12002394 -0.10651806 0.08039186
000200 9e 50 e8 bc 07 2c 3a bd 1f ff 28 bd 82 2f 70 3d
       -0.028358754 -0.045452144 -0.041258927 0.058639057
000210 49 35 04 3d 66 17 99 3b 3e 66 87 3d 9c cd 39 bd
       0.03227738 0.0046719788 0.06611298 -0.0453621
000220 86 41 3a 3e 4a 4d a3 3d 3a d5 7b 3b d8 d6 b5 bd
       0.18189058 0.07973726 0.0038426653 -0.08878869
000230 e8 2c 2e be c9 4f d8 3d 70 22 0c be db 84 52 be
       -0.17009318 0.10562093 -0.13685012 -0.20558493
000240 f0 e9 a1 3e e2 51 0d be 6f 2b 8a 3d 8d bf 26 bd
       0.31623793 -0.13800767 0.067465656 -0.04071002
000250 44 4d 97 be df 52 19 be 00 82 50 3c 11 1a 67 bd
       -0.29551136 -0.14973019 0.012726307 -0.056421343
000260 34 3a 1f 3c 88 e6 aa 3d 0d a5 15 3e 6c f1 ee 3d
       0.009718467 0.083447516 0.14613743 0.11667141
000270 a9 44 21 3b f2 69 a9 3d 39 18 a8 3d f1 c0 ad bd
       0.0024607575 0.082721606 0.08207745 -0.08484066
000280 b3 0e 82 be 8f 4a 0a 3d 5e 9f 78 3d ce bb f0 bd
       -0.2540184 0.03376251 0.06069886 -0.11754571
000290 6e b1 b7 3d 4f e4 d6 bd a3 fa 17 3e 35 92 e2 be
       0.08969389 -0.10492765 0.14841704 -0.44252172
0002a0 14 7b d5 bc e5 9c a7 bb 25 aa ce 3d 1f 0b ea 3d
       -0.026059665 -0.005115139 0.10091046 0.114279024
0002b0 32 58 a0 bc 82 b5 1a 3e 36 a3 83 bd 96 0c 43 be
       -0.019573305 0.15108302 -0.064276144 -0.1904777
0002c0 2a cf 61 3d 09 fc bb 3d 55 4e 66 3e 96 d9 f7 bd
       0.055129208 0.09178931 0.22490819 -0.12102048
0002d0 1f f2 28 bd a8 ba 6b 3d fc 3c 5e 3e 69 c9 84 be
       -0.04124653 0.057551056 0.21702951 -0.25934914
0002e0 d1 2d 88 bc a3 15 03 3e af cc a1 3e e4 5c 05 3e
       -0.01662341 0.12801223 0.31601474 0.13023716
0002f0 4d 77 ab bd f7 0a 33 3b bd b4 38 3d 05 63 54 be
       -0.08372364 0.0027319768 0.04509424 -0.20740898
000300 d7 12 05 bd 65 e2 8a bd 68 ea 7b 3e 74 dd 05 3e
       -0.03248867 -0.067814626 0.24601138 0.13072759
000310 ba 22 ae bd 2c b3 9f 3d f4 17 34 3d c3 af 5f be
       -0.08502717 0.07797846 0.043968156 -0.21844392
000320 82 3a 52 be 2c 5e fe 3d 01 f4 a8 3d de 6d 77 be
       -0.20530131 0.124203056 0.08249665 -0.24163005
000330 91 b1 e7 bc ea 69 c4 3d 9f 92 0d bc dd 1b 90 be
       -0.028282912 0.09590514 -0.008640914 -0.28146258
000340 93 c7 b0 3d d7 49 5f be 78 ee b0 bc 82 68 80 be
       0.08631816 -0.21805511 -0.021598086 -0.25079733
000350 c9 bb 70 bb 11 bc ed bd ad 2d 9c bb 2c a2 01 bd
       -0.0036733022 -0.116081364 -0.004766187 -0.0316488
000360 c8 7b 98 3d 78 98 e0 bd 2d 3f 05 bd b0 6f c4 bd
       0.074454844 -0.10966581 -0.032530952 -0.09591615
000370 e3 c9 0d bd 8b 1f f7 3d 80 c0 77 3d 26 6b a1 be
       -0.034616362 0.12066563 0.060486317 -0.3152706
000380 de 51 2b 3e 02 f8 86 bd ad dc 24 3e 32 23 5e be
       0.16730449 -0.065902725 0.16099806 -0.21693113
000390 a7 3c 8e bb e0 6b b2 3d bc 92 d8 3d 73 59 20 3e
       -0.0043407264 0.08711982 0.10574862 0.15659122
0003a0 de 9b 0f 3e f7 15 d8 bc 9f 39 cc 3d 0c fc 81 be
       0.14024302 -0.026377661 0.09971928 -0.2538761
0003b0 cd e1 15 3e 9e ab 9c bd a6 02 1c bc 19 59 a7 3d
       0.14636917 -0.07649921 -0.009522116 0.08171291
0003c0 47 33 0b be 39 48 cf 3d 55 4c 92 bd 6c d3 42 3d
       -0.1359378 0.10121197 -0.071434654 0.04756491
0003d0 f3 0a 44 3d 2c 77 20 3d b8 87 52 3d 50 94 e4 3c
       0.047862004 0.03917615 0.051398963 0.027902752
0003e0 e5 38 a1 bd 1d ad 6a 3e 05 f1 f2 bc f5 87 35 be
       -0.0787218 0.229176 -0.029655943 -0.17727645
0003f0 b5 20 b3 3c e0 0d 90 3d 4c d2 1d 3e 19 f6 dc 3d
       0.021866182 0.070338964 0.15412253 0.10789127

network_body.linear_encoder.seq_layers.2.bias f4 [128]
000000 fb c3 c3 3d 80 82 32 3d dc 79 e2 bc a9 db 17 ba
       0.09558865 0.043581486 -0.027645998 -0.0005792925
000010 53 76 27 3e 4a 46 16 be c0 21 ef 3d 3e be 26 3d
       0.16353731 -0.1467525 0.11676359 0.040708773
000020 18 9c f0 3d cf 26 b3 3d 90 21 dc bd 62 15 85 bd
       0.117485225 0.087476365 -0.10748589 -0.06498219
000030 5b 72 f2 3d aa 33 c6 bc c6 8e a2 bc 13 30 d9 3d
       0.11838218 -0.024194557 -0.01984347 0.106048726
000040 ff 8b 65 bb b8 62 9d 3c c7 0c 3c 3e 0c 65 ec bd
       -0.003502607 0.019212112 0.18364249 -0.11542711
000050 ab d5 97 bc 19 6f f9 3c 8d 5e 74 3d ff 5c 7e bb
       -0.018534502 0.030448483 0.059660483 -0.0038812754
000060 38 9d 9e 3d d8 6e 5e be 7c 43 0d be f3 c5 fc bd
       0.07744831 -0.21721971 -0.13795274 -0.12342443
000070 1c 11 33 be e6 49 66 bd 61 bc 0e 3e 58 a6 f2 bc
       -0.17486995 -0.05622282 0.13939048 -0.029620335
000080 31 b2 27 be 4a f3 24 3e 3e ce 54 bd 25 25 21 be
       -0.16376568 0.16108432 -0.0519545 -0.15736826
000090 4b e3 a1 3d a4 b5 8e bc cb 6f f5 bc 3b bf 19 bd
       0.07904681 -0.017420597 -0.029960534 -0.037535887
0000a0 23 57 1f 3d 17 65 6e bd f8 cb 2e bd 04 3d e0 3b
       0.03890146 -0.058201876 -0.04267499 0.006843211
0000b0 f5 a6 0a be ef db dd bc b2 f2 1d 3e d7 b7 1f bc
       -0.13540252 -0.027082412 0.15424612 -0.009748421
0000c0 d9 99 f8 bd d9 a3 0c 3e d0 49 a4 bd 9f 76 23 bd
       -0.12138719 0.13734378 -0.08021891 -0.039908048
0000d0 57 7a 9c 3d 4b 3d 35 3e 7f b0 89 3d 9d d4 1d ba
       0.07640522 0.17699163 0.06723117 -0.00060207566
0000e0 da db 07 be 90 fd d8 bd ac 9e 00 3e 8e b7 16 bd
       -0.1326746 -0.10595238 0.12560529 -0.036796145
0000f0 65 a9 11 be 21 c4 e0 bc cc 53 56 bd 21 4c 1d bd
       -0.14224775 -0.027437272 -0.05232601 -0.03840268
000100 33 9c 78 bd c3 2d e4 bd c8 54 f0 bc 01 12 00 3a
       -0.06069584 -0.11141541 -0.029337302 0.00048854953
000110 d0 18 26 3d 28 48 0a 3e 65 be 5d bd c3 c2 f0 bd
       0.040551007 0.13504088 -0.054136652 -0.11755898
000120 97 93 68 3d 71 47 b2 3c ee 46 ea 3d 50 49 ea 3c
       0.056781378 0.021762582 0.1143931 0.028599411
000130 aa bc 74 3d 36 6a 1f be a1 9a 43 bd f7 79 ac bd
       0.059750237 -0.1556786 -0.047754887 -0.084217004
000140 89 3a c0 3d e0 0c d4 3c 4d ab 12 3e c8 9b 3f be
       0.09386165 0.025885046 0.14323159 -0.1871177
000150 99 16 08 3d 1f b2 e3 bd 30 3b de bd db 25 b5 bd
       0.033224676 -0.11117958 -0.10851133 -0.08845111
000160 79 60 2e 3d 26 84 0c bd 58 89 82 bd 8c 3a b2 bd
       0.042572472 -0.034305714 -0.063738525 -0.08702573
000170 09 46 3a 3d f4 b2 07 3e d1 11 b8 3d e6 4b 97 3c
       0.045476947 0.13251859 0.08987773 0.018468808
000180 a1 6b 25 3e 92 80 1e be 09 2a 3e bd e1 02 ed 38
       0.16154338 -0.15478733 -0.046426807 0.00011301577
000190 a4 ce dd 3d 99 9c 66 bd 10 c4 2e 3e 41 ae 1d 3d
       0.10830429 -0.056301687 0.1706698 0.03849626
0001a0 9d 27 82 3b ad f9 74 3e ae 0c 0e 3e 23 e2 68 3d
       0.0039720074 0.23923369 0.13872024 0.056856286
0001b0 17 48 bf 3d 8c 6d b1 bd 2c 85 c6 3d eb 4a fd bc
       0.09339922 -0.086634725 0.09693369 -0.030919513
0001c0 dd 44 3f 3d c0 00 0a 3e d0 20 ae 3d dc 08 4a 3e
       0.046696533 0.13476849 0.08502352 0.19729942
0001d0 15 a6 73 be 60 e2 5e bd 2e 89 be bd 49 ee e3 bd
       -0.23793824 -0.054415107 -0.09303509 -0.11129434
0001e0 b2 e5 d6 3d 0e 38 26 3e 01 de 19 3e c8 59 9b 3d
       0.1049303 0.1623232 0.15026094 0.07585484
0001f0 0f 61 ba 3d 05 26 c4 3d 7c 60 39 bd 21 9d e7 bd
       0.09100544 0.09577564 -0.04525803 -0.11309267

network_body.linear_encoder.seq_layers.2.weight f4 [128, 128]
000000 12 ac 1b bd 1f 38 07 3e 5e 60 4c 3d fd 69 70 be
       -0.038005896 0.13205002 0.04989659 -0.23477931
000010 47 d9 0c 3e 50 57 72 3e 9c 32 87 bd 4b 04 8d 3e
       0.1375476 0.2366612 -0.0660145 0.27542338
000020 8b c1 1c 3e 55 ac df bd 19 c1 be 3d 32 6e 6e bd
       0.15308206 -0.109215416 0.09314174 -0.05821056
000030 ec 43 34 bd a1 6a 20 3e 3f 2c a4 bd f4 e5 dd bd
       -0.044010088 0.15665676 -0.08016252 -0.10834876
000040 54 37 e2 3d bf 01 b4 bd f8 00 e7 3d 5b ea 61 be
       0.11045709 -0.087893955 0.11279482 -0.22062056
000050 86 d1 19 3e 7a 92 90 be 36 b5 82 be 2e 4f 28 ba
       0.15021333 -0.28236753 -0.25528878 -0.000642049
000060 74 b7 25 be f0 03 0a be 76 73 9c 3d d1 67 e0 bd
       -0.16183263 -0.13478065 0.0763921 -0.109573014
000070 37 00 57 3c 71 65 4c be cd 16 54 bd 22 96 c0 bd
       0.01312261 -0.19960572 -0.051779557 -0.094036356
000080 7a 61 a9 3e 8d fe 02 be b3 ee 9c 3d d4 7b b6 bd
       0.3308218 -0.12792416 0.07662716 -0.08910337
000090 80 ee bd bd d1 11 4e 3c fc 98 be bd bb b3 7e be
       -0.09274006 0.01257749 -0.09306523 -0.24873249
0000a0 42 3b 7b be 02 ab 55 bd 08 cf 0a 3e 42 0f f8 bd
       -0.24534324 -0.05216504 0.13555539 -0.12112285
0000b0 fe 38 89 bb cc 6f de 3d 8e 8b 8d 3b 1c b2 79 3d
       -0.004187702 0.10861167 0.0043196147 0.060960874
0000c0 e4 b2 1c be 77 af d7 bd 08 69 f7 bd 34 d9 21 3c
       -0.15302616 -0.10531514 -0.1208058 0.009878445
0000d0 9e 6d e1 bd 86 03 40 bc 29 fa 00 be 1e 6f ab 3d
       -0.11007236 -0.01171959 -0.12595429 0.08370803
0000e0 23 10 85 be ce ec 27 3d 32 49 00 bd 5e 69 8b bd
       -0.25988874 0.04099732 -0.031319804 -0.068072066
0000f0 20 9a 31 bd c2 5e a1 bd 67 9a 3a 3e cc 22 ff 3d
       -0.043359876 -0.07879402 0.18222962 0.12457809
000100 f8 b0 19 be 42 81 f6 bd 97 b6 75 be c8 67 b2 3c
       -0.15008914 -0.12036373 -0.23995434 0.021778002
000110 7a 19 69 3d 70 ba 2a be ee 7d 33 bd 66 e0 0b 3e
       0.056909062 -0.16672683 -0.043821268 0.1365982
000120 93 ea 8b be f7 89 27 be 1f 4b 19 be d1 2d 12 be
       -0.27327403 -0.16361223 -0.14970063 -0.1427529
000130 de 83 b9 be 74 5b c3 bb 0d af 18 be 59 d0 bd be
       -0.3623342 -0.00596183 -0.14910527 -0.3707302
000140 0a e3 61 3c 16 a6 1b 3d 1f e3 18 be c9 9f 36 3d
       0.0137870405 0.03800019 -0.1493039 0.044585977
000150 97 cf ab 3d 06 c8 c0 bd 74 96 3f bd 56 4d 1c 3d
       0.08389204 -0.094131514 -0.046774343 0.03815969
000160 82 ea 0f be 08 3c bd bc 40 26 c8 bd 01 a5 e4 bc
       -0.14054301 -0.023099914 -0.097729206 -0.027910711
000170 32 9c 9d 3c 4e 53 1a 3d 7a 10 f4 3c 8a 03 52 bd
       0.019239519 0.0376771 0.029793013 -0.051272906
000180 59 03 80 bd 03 1a 17 be 3c 55 89 3d 5c 24 6b be
       -0.062506385 -0.14756016 0.0670571 -0.22963089
000190 eb cb ee bd c1 68 a9 be 67 b2 35 3d b5 d4 5c bd
       -0.11659988 -0.33087733 0.04435959 -0.05391379
0001a0 2f 16 7a bd 18 26 7f bc 11 f2 28 3e ec 4e 0e be
       -0.061056312 -0.015573047 0.16498591 -0.13897294
0001b0 f4 59 17 bd d4 68 4a 3d 30 92 82 bc e0 e7 aa bd
       -0.03695102 0.04941638 -0.015938848 -0.08345008
0001c0 7d 3b 3b 3e e9 f8 3d bd b6 71 29 bc 81 5b 2d be
       0.18284412 -0.046379957 -0.010342052 -0.16929437
0001d0 e8 a7 96 be 0a 08 30 bd 11 9a 46 be 02 34 dd bd
       -0.29424977 -0.042976417 -0.19394709 -0.10800935
0001e0 4e d2 8f 3d d3 f5 8d be e3 dc 8d 3d 4e c3 cc bd
       0.07022534 -0.27726611 0.069268964 -0.09998189
0001f0 0d 8c 21 3e c7 bc 50 be 02 36 78 3d da 5c 6e bd
       0.15776081 -0.20384513 0.06059838 -0.05819402
000200 c0 16 99 3c 4e 11 8a 3c b4 98 4b bd 61 d2 b2 bd
       0.018687606 0.016853955 -0.049706176 -0.08731533
000210 d2 1f d2 bd 08 ee 0f be 3a ad bb 3d ec 1a 4f bd
       -0.102599755 -0.14055645 0.091639 -0.050562784
000220 36 2b 48 3d f8 b8 ae 39 f8 54 f9 bc f7 50 95 bd
       0.048869334 0.0003332568 -0.030436024 -0.072908334
000230 28 38 07 be 4d 72 a8 3c 1c 04 6b 3e 94 41 4c 3e
       -0.13205016 0.020562315 0.22950786 0.19946891
000240 60 2c 54 be 69 ef fc bc 01 65 90 bd 62 ae 1e bd
       -0.20720053 -0.030875878 -0.07050515 -0.038740523
000250 c1 f7 8a 3d 2e 83 f8 3c 02 3a 9a bd 7f c4 7a be
       0.067855366 0.030335989 -0.07530595 -0.2448902
000260 f9 48 e2 bc 52 d9 27 3e 5c d3 86 be 40 77 35 3d
       -0.027622687 0.16391495 -0.2633313 0.04430318
000270 ab ab 9d 3d 43 7e 8d bc f6 f4 3b 3e 55 bf c0 3b
       0.07698759 -0.01727212 0.18355164 0.0058821836
000280 02 68 54 3d f0 80 9d bd 19 ad d3 bd 6b 28 ef 3d
       0.051857002 -0.076906085 -0.1033575 0.11677631
000290 83 d1 34 3e be 9e d9 bc 73 77 de bd a6 68 ee bd
       0.17658047 -0.026564952 -0.10862627 -0.11641054
0002a0 ae 45 62 3d 02 c7 be bd 8a b1 3e 3c 67 54 a6 3d
       0.055242233 -0.093153015 0.011639008 0.08121567
0002b0 f7 8e 5b bd 52 99 c5 bd 49 27 02 be a0 45 67 bd
       -0.05360314 -0.09648384 -0.12710299 -0.056462884
0002c0 50 4b 00 be 20 c8 7d bd 77 d2 9a bc 1f 48 a0 bb
       -0.1252873 -0.061958432 -0.018899186 -0.00489141
0002d0 49 9f 18 bd 55 28 96 be 76 86 28 be be 3a cc 3d
       -0.03726128 -0.29327646 -0.16457543 0.09972142
0002e0 46 94 87 3d b6 df d2 bd cf 59 3a be d8 6c af 3d
       0.06620078 -0.10296576 -0.18198322 0.08565682
0002f0 e3 c9 aa 3d f0 ae a6 3c 26 d3 22 bd c9 24 bb bd
       0.08339288 0.020347089 -0.039752148 -0.091378756
000300 29 55 d1 3c ec e8 94 bd fa 5e 16 bd 3a 5e f1 bd
       0.025553303 -0.07270989 -0.03671167 -0.117855504
000310 92 90 17 be fb 60 47 be 39 e9 96 3c 75 0f c9 3d
       -0.14801243 -0.19470589 0.018421756 0.09817401
000320 d5 e5 af bd 44 af da b8 3f f3 20 bc d8 37 1f 3d
       -0.08588759 -0.00010427696 -0.009823619 0.038871616
000330 cb 48 b2 bd b2 d2 02 3e 2c ae 22 be 77 de c7 3d
       -0.087052904 0.12775686 -0.15886754 0.09759229
000340 42 86 a1 bc d7 a5 08 be eb 0a 89 3d 59 52 e1 3c
       -0.01971734 -0.13344513 0.066915356 0.027505087
000350 12 c7 d8 3d 30 f2 57 be 9f a6 5d 3e b0 de 41 3c
       0.10584845 -0.21088481 0.21645592 0.011832878
000360 4a 8c 26 3e 96 92 88 3d aa d7 f6 bd 07 e0 24 be
       0.16264454 0.06668584 -0.120528534 -0.16101085
000370 6d d0 04 3e a5 1a c3 bd 78 63 f8 bd a7 8a d1 3d
       0.12970133 -0.095265664 -0.12128347 0.10231524
000380 3d 62 5d 3e 9d 9f d7 3d 21 4c 27 3e 9f 1b c1 3d
       0.21619506 0.10528491 0.16337635 0.094290964
000390 a6 88 c5 bb 0b 2f 3b bd 32 2f 4d bc 75 6c 28 bd
       -0.0060282527 -0.04569916 -0.012523459 -0.041119058
0003a0 fb eb b8 bc 5b d7 ae 3d 11 d3 e1 3d cb f3 f7 bc
       -0.022573462 0.085371695 0.11026586 -0.030267617
0003b0 ec 10 96 bd a5 c3 c2 b9 d5 c3 04 be 96 82 9e bd
       -0.07327446 -0.0003714833 -0.12965329 -0.07739751
0003c0 e7 75 e8 3c 07 fd 4e be 12 b5 6f 3e d6 7b 45 bb
       0.028376533 -0.2021371 0.23408917 -0.0030133626
0003d0 9f 60 ad 3c c8 83 26 be fd fc b8 bd 2d d0 18 3d
       0.021164237 -0.16261208 -0.09032629 0.037307907
0003e0 25 0c 03 be 87 38 61 bc cf 61 06 3e 5e 38 29 3d
       -0.12797602 -0.013746387 0.13123249 0.04131352
0003f0 b6 ea fa 3c f0 b6 99 3d 57 a5 bd bd e3 d0 31 3d
       0.030629497 0.07505596 -0.09260052 0.0434121

network_body.vector_processors.0.normalizer.running_mean f4 [68]
000000 67 d2 81 3c 8f fb 7b 3f 26 38 86 35 32 76 98 3e
       0.015847398 0.9843072 1.0000119e-06 0.29777676
000010 7d ea 76 3c a8 2c 7c 3f a3 c1 56 34 1c 6e 95 3e
       0.015070555 0.9850564 2.0000748e-07 0.2918557
000020 cf 62 9f 3c d0 14 7b 3f 60 e6 bb 35 f3 8f 9b 3e
       0.019456295 0.9807863 1.3999634e-06 0.30383262
000030 7e 46 7f 3c 9a 0d 7c 3f 00 00 00 00 f7 d9 94 3e
       0.0155807715 0.98458254 0.0 0.29072544
000040 99 9f cc 3c fd 9d 79 3f 59 38 86 35 db 70 9d 3e
       0.024978446 0.97506696 1.0000177e-06 0.30750164
000050 65 38 8a 3c 97 bd 7b 3f 99 c1 d6 34 e4 a5 96 3e
       0.016872594 0.98336166 4.0001467e-07 0.2942344
000060 f8 8b f8 3c f0 39 78 3f 99 c1 56 34 d4 3a 9e 3e
       0.03034018 0.96963406 2.0000734e-07 0.30904257
000070 da 92 a3 3c d8 f2 7a 3f 99 c1 d6 34 54 f8 99 3e
       0.019967485 0.980268 4.0001467e-07 0.30072272
000080 1f e3 1f 3d ff ff 75 3f 00 00 00 00 de 53 9e 3e
       0.03903496 0.96093744 0.0 0.3092336
000090 dc c6 d3 3c 89 63 79 3f 00 00 00 00 f6 92 9e 3e
       0.02585166 0.97417504 0.0 0.30971497
0000a0 0b 7c 60 3d 99 f2 71 3f 97 0f 21 35 f5 6a 9d 3e
       0.054805797 0.945108 5.999986e-07 0.30745664
0000b0 63 c0 14 3d 22 af 76 3f 00 00 00 00 41 31 a4 3e
       0.036316287 0.9636098 0.0 0.32068828
0000c0 1c 69 99 3d a4 d1 6c 3f 00 00 00 00 86 ae 9b 3e
       0.07490751 0.92507386 0.0 0.30406588
0000d0 3d 68 6e 3d 58 19 71 3f 8e c1 d6 34 72 c3 a9 3e
       0.058204878 0.94179296 4.0001436e-07 0.33156925
0000e0 44 17 bf 3d cb 19 68 3f 9e c1 d6 34 42 93 99 3e
       0.093306094 0.90664357 4.000148e-07 0.2999516
0000f0 9a 55 cc 3d a1 75 66 3f 00 00 00 00 d1 5e ac 3e
       0.09977265 0.9002324 0.0 0.3366609
000100 77 5a c1 3d f1 ce 67 3f 00 00 00 00 77 fa 97 3e
       0.09441083 0.9055014 0.0 0.29683277
